logs/main_run/mel064_nblock3_lr0.0001_ks3/checkpoints/best.ckpt (torch, 994210 bytes, 123 tensors)

conv1.weight f4 [8, 1, 3, 3]
-0.07871138 0.112479776 -0.31900585 -0.059542086 -0.18582582 -0.049885347 0.04558347 0.22183695
0.2655269 -0.066668294 0.028320586 0.2756628 0.054808218 0.054590322 -0.31164616 -0.014663652
0.08087512 -0.2915815 0.15774916 0.018512202 -0.07520725 -0.29844484 -0.33239326 -0.16464639
0.1441346 -0.040631622 -0.2529138 -0.10649216 0.22816679 -0.15706742 0.059875518 0.17593443
0.12348275 -0.014469052 0.13155566 -0.13886224 -0.082789585 -0.11646318 -0.10294435 -0.12147004
0.28666857 -0.021403236 -0.09834093 0.28145522 -0.31201842 -0.05404342 0.20646857 -0.098837376
0.20730744 -0.35340473 -0.17890222 0.2368498 0.1889514 0.008418809 0.05696828 0.22494167
0.027923504 0.21522987 0.15728316 0.31791416 -0.1968894 -0.30369723 0.24070315 0.27965584
0.2123995 -0.21930562 -0.35929945 -0.05423971 -0.24132392 -0.04510888 -0.0769381 -0.17200282
00000000: 6f33 a1bd cc5b e63d bc54 a3be 67e2 73bd
00000010: 2049 3ebe 9454 4cbd bcb5 3a3d 3a29 633e
00000020: 24f3 873e 6389 88bd 9300 e83c ad23 8d3e
00000030: 957e 603d 1a9a 5f3d 1690 9fbe d03f 70bc
00000040: dba1 a53d 2c4a 95be ff88 213e e7a6 973c
00000050: 4206 9abd c3cd 98be 732f aabe 1099 28be
00000060: 0598 133e 586d 26bd eb7d 81be 9018 dabd
00000070: 8ea4 693e 48d6 20be 0840 753d 2828 343e
00000080: 86e4 fc3d 9a0f 6dbc 87b6 063e e731 0ebe
00000090: 968d a9bd 3f84 eebd 7dd4 d2bd 49c5 f8bd
000000a0: 39c6 923e d755 afbc f866 c9bd e61a 903e
000000b0: e1c0 9fbe a25c 5dbd 7f6c 533e 406b cabd
000000c0: 6748 543e 77f1 b4be 2532 37be c188 723e
000000d0: 7a7c 413e 0bef 093c 9257 693d 1c57 663e
000000e0: d5bf e43c 3865 5c3e d60e 213e a5c5 a23e
000000f0: 609d 49be 347e 9bbe e37a 763e 0d2f 8f3e
00000100: 417f 593e a791 60be 19f6 b7be 752a 5ebd
00000110: 9e1d 77be 17c4 38bd b991 9dbd 8221 30be

conv1.bias f4 [8]
-0.13245305 0.1983378 -0.31701735 0.30624154 -0.06881091 -0.29644057 -0.26521105 0.05323462
00000000: c6a1 07be 1019 4b3e 1950 a2be b1cb 9c3e
00000010: bcec 8cbd 0fc7 97be bec9 87be 8b0c 5a3d

batchnorm1.weight f4 [8]
1.0131173 0.9875137 0.9617979 1.0208158 0.97543466 1.0024536 1.019142 0.97989273
00000000: d4ad 813f b3cd 7c3f 6338 763f 18aa 823f
00000010: 16b6 793f 6650 803f 3f73 823f 40da 7a3f

batchnorm1.bias f4 [8]
-0.018015986 0.0040437905 -0.020994635 -0.030336259 -0.010235237 -0.035082974 -0.07861102 0.0050966614
00000000: 4396 93bc c681 843b f1fc abbc bf83 f8bc
00000010: b2b1 27bc 2ab3 0fbd d1fe a0bd e501 a73b

batchnorm1.running_mean f4 [8]
-0.14598456 0.1569807 -0.5053278 0.37429485 -0.13231212 -0.262497 -0.09832842 -0.09663709
00000000: fa7c 15be 8cbf 203e 2a5d 01bf 93a3 bf3e
00000010: d47c 07be 0266 86be 6960 c9bd abe9 c5bd

batchnorm1.running_var f4 [8]
0.0013532923 0.0041780397 0.06977286 0.009157112 0.008073041 0.002792482 0.05337072 0.045724336
00000000: f460 b13a f0e7 883b 13e5 8e3d b607 163c
00000010: ca44 043c 1302 373b 429b 5a3d 7149 3b3d

res_blocks.0.conv1.weight f4 [16, 8, 3, 3]
0.0072147585 0.087739244 0.13226977 0.059587575 -0.043278128 -0.006478181 -0.03956298 0.083473735
0.0071702176 0.022507071 0.08446888 0.076068304 0.10599389 0.040971447 -0.09621307 -0.09436316
-0.07246972 -0.08997501 -0.058803245 -0.08964429 -0.03374977 -0.04034368 0.0015238198 0.087692365
-0.050860528 0.11979509 0.0733898 -0.1074697 -0.10926439 0.11896503 0.024694722 -0.067578934
0.12526631 -0.041019686 -0.032379467 0.07730731 0.036935683 0.00074010267 -0.05036889 0.05230993
-0.037509188 0.132515 -0.067679614 -0.00719164 -0.0049410025 -0.12132323 -0.0077766106 0.0140845105
-0.013998795 0.052656583 -0.100492805 -0.012566075 -0.061676394 0.014092121 -0.105457656 -0.089571506
0.042700104 0.0074375425 0.116944015 -0.025514076 -0.07210684 -0.0060884245 0.09991305 0.10483564
0.0886562 -0.08420611 0.088697456 0.02048087 -0.026797252 0.0121502215 0.0055737114 -0.07402538
-0.08779469 -0.05561501 0.030926699 -0.074325085 -0.10768735 -0.096641384 0.022667138 -0.024306988
0.027280394 -0.058780115 -0.115960784 -0.0955768 0.072281286 0.10579708 -0.009193623 0.025378661
0.0196062 -0.01048968 -0.057379972 -0.054698616 -0.016236115 -0.097248785 -0.04384603 -0.07866342
0.07373757 0.04033248 0.013217716 -0.0178276 0.057848066 0.10714317 0.033666443 -0.088199615
-0.03387886 -0.05669112 0.08445702 0.10183704 -0.100181125 -0.07090241 0.065391935 0.042990085
0.027605474 -0.0642396 -0.044626817 0.06332801 -0.023496062 -0.09555187 0.00044663996 -0.086356595
-0.10369812 0.11864044 0.11762971 0.12420769 0.008107329 -0.04218198 0.011497148 0.023235079
0.008512569 -0.11265834 -0.10229225 -0.005469619 0.06617491 0.022688236 -0.095415644 -0.044914618
0.0945398 -0.080440946 0.08882964 -0.04903233 0.0766604 -0.06429155 -0.02354732 0.049231812
-0.07612082 0.036664326 0.06347954 0.0045344178 -0.107828215 0.080832124 -0.062509805 0.1218486
-0.021446526 -0.06343236 0.019842673 0.038309786 -0.029200984 0.08677051 0.13263725 0.082046084
0.09362224 -0.070011266 -0.013194235 -0.042586986 -0.026347747 0.029458733 0.043989033 -0.010126645
0.09136988 0.016766988 -0.08405947 -0.04737679 0.061662246 0.07986508 0.04449129 0.033060774
0.06824646 -0.03322067 0.054598983 -0.08658411 -0.08320911 0.0134471385 0.075727634 0.073040925
-0.10502073 -0.05934127 0.084388696 -0.06100742 0.06882637 -0.007938398 -0.1042631 0.02603131
0.033513296 -0.04821388 -0.049565226 -0.06693195 0.021831932 -0.117190436 0.10259592 0.0039558867
-0.07691444 0.021476181 0.10959849 -0.013028578 0.047660146 -0.06389973 -0.08268677 0.043589454
0.049708925 0.1053853 0.08482111 0.09281424 -0.0848423 0.050885513 0.10494407 0.17118771
0.09396685 0.042746164 -0.065152556 -0.07133521 0.112661414 0.085140854 -0.0071998835 -0.050462283
0.044009723 -0.058381658 -0.019180357 0.016375635 -0.043131 0.13443783 -0.0056559285 0.07921014
0.117422 0.121833645 -0.066313006 -0.012861723 -0.092096016 0.04328948 0.05781 -0.028039955
0.120628506 0.05748694 0.06903544 -0.06957439 0.045607947 0.06517689 -0.023333658 -0.011099791
-0.11208041 0.011963532 0.055233266 -0.113670304 -0.004418862 -0.04645883 -0.07001367 -0.04114575
00000000: c869 ec3b a2b0 b33d ba71 073e 1a12 743d
00000010: 6844 31bd ec46 d4bb cb0c 22bd 47f4 aa3d
00000020: 25f4 ea3b c060 b83c 05fe ac3d b3c9 9b3d
00000030: 5313 d93d add1 273d 5c0b c5bd 7941 c1bd
00000040: 016b 94bd d144 b8bd acdb 70bd 6d97 b7bd
00000050: 333d 0abd 6a3f 25bd e8ba c73a 0e98 b33d
00000060: 2153 50bd 2157 f53d 644d 963d 1319 dcbd
00000070: 02c6 dfbd f0a3 f33d 964c ca3c d366 8abd
00000080: d045 003e 4204 28bd 55a0 04bd 4c53 9e3d
00000090: df49 173d 7303 423a 9c4f 4ebd f042 563d
000000a0: 3ca3 19bd 03b2 073e 9c9b 8abd d9a7 ebbb
000000b0: 22e8 a1bb 5078 f8bd f0d2 febb b8c2 663c
000000c0: 345b 65bc 6eae 573d 2ccf cdbd f0e1 4dbc
000000d0: 63a0 7cbd a4e2 663c 2ffa d7bd 4471 b7bd
000000e0: 4ee6 2e3d a1b6 f33b 5880 ef3d e502 d1bc
000000f0: c0ac 93bd 6881 c7bb 379f cc3d 11b4 d63d
00000100: 6291 b53d 4174 acbd 03a7 b53d 7fc7 a73c
00000110: e985 dbbc b911 473c aea3 b63b 9e9a 97bd
00000120: b4cd b3bd 91cc 63bd fd59 fd3c c037 98bd
00000130: 2f8b dcbd ebeb c5bd 6fb0 b93c 731f c7bc
00000140: 227b df3c 6bc3 70bd d97c edbd c5bd c3bd
00000150: 3608 943d 24ac d83d daa0 16bc e9e6 cf3c
00000160: 2e9d a03c e8dc 2bbc 4307 6bbd a80b 60bd
00000170: 9a01 85bc 5f2a c7bd e597 33bd 4a1a a1bd
00000180: b903 973d ac33 253d 1e8f 583c 300b 92bc
00000190: 18f2 6c3d e16d db3d d3e5 093d 00a2 b4bd
000001a0: 8fc4 0abd f334 68bd cdf7 ac3d f08f d03d
000001b0: c32b cdbd 4835 91bd 35ec 853d 5f16 303d
000001c0: e024 e23c 0d90 83bd 9cca 36bd 1eb2 813d
000001d0: d07a c0bc b3b0 c3bd 002b ea39 badb b0bd
000001e0: ae5f d4bd c2f9 f23d d8e7 f03d 9a60 fe3d
000001f0: 9ad4 043c 03c7 2cbd 895e 3c3c 7e57 be3c
00000200: 4d78 0b3c 6ab9 e6bd 997e d1bd 7d3a b3bb
00000210: b686 873d aedc b93c 4769 c3bd 64f8 37bd
00000220: 159e c13d 39be a4bd 50ec b53d 20d6 48bd
00000230: 2100 9d3d 4aab 83bd 4fe6 c0bc 4ca7 493d
00000240: 3ce5 9bbd 552d 163d 9001 823d 7495 943b
00000250: 0ad5 dcbd 508b a53d 2405 80bd c28b f93d
00000260: a0b0 afbc d3e8 81bd 1a8d a23c b9ea 1c3d
00000270: e736 efbc bdb4 b13d 0fd2 073e c707 a83d
00000280: 04bd bf3d 1162 8fbd a22c 58bc b16f 2ebd
00000290: 3bd7 d7bc 7153 f13c d82d 343d 3aea 25bc
000002a0: 2220 bb3d ec5a 893c 5f27 acbd 2a0e 42bd
000002b0: 8d91 7c3d 4e90 a33d 803c 363d bc6a 073d
000002c0: cdc4 8b3d 6612 08bd 2fa3 5f3d 0353 b1bd
000002d0: 8a69 aabd 6351 5c3c 1717 9b3d 7b96 953d
000002e0: 1c15 d7bd d50f 73bd fbd3 ac3d ebe2 79bd
000002f0: d7f4 8c3d 0e10 02bc e487 d5bd 9d3f d53c
00000300: 3d45 093d eb7b 45bd e804 4bbd 9e13 89bd
00000310: e1d8 b23c 8a01 f0bd cf1d d23d 62a0 813b
00000320: 5185 9dbd d1ee af3c 2c75 e03d d175 55bc
00000330: 4937 433d dddd 82bd ae57 a9bd db8a 323d
00000340: 969b 4b3d 40d4 d73d b1b6 ad3d 6415 be3d
00000350: cdc1 adbd 546d 503d ebec d63d d54b 2f3e
00000360: b171 c03d 9a16 2f3d b46e 85bd 3218 92bd
00000370: 07bb e63d 545e ae3d 00ed ebbb 8ab1 4ebd
00000380: 8a43 343d 9b21 6fbd 2020 9dbc 3226 863c
00000390: 22aa 30bd 12aa 093e 5e55 b9bb ed38 a23d
000003a0: f27a f03d eb83 f93d 1dcf 87bd fab9 52bc
000003b0: d69c bcbd 4f50 313d 2eca 6c3d 0cb4 e5bc
000003c0: 140c f73d 6d77 6b3d 7462 8d3d 057d 8ebd
000003d0: 66cf 3a3d 767b 853d 3a26 bfbc e6db 35bc
000003e0: 6a8a e5bd b102 443c 473c 623d facb e8bd
000003f0: 1acc 90bb 9d4b 3ebd 5463 8fbd 7288 28bd

res_blocks.0.conv1.bias f4 [16]
0.016584836 0.05179164 0.08003569 0.094310276 0.0111248735 -0.04956683 -0.09294374 0.0014588796
-0.011682542 -0.030277926 0.052035265 0.084370546 0.07937656 -0.08113135 0.0554593 0.09046911
00000000: ecdc 873c 7923 543d c0e9 a33d bf25 c13d
00000010: 1a45 363c 9706 4bbd 4a59 bebd e037 bf3a
00000020: 2268 3fbc 6a09 f8bc ee22 553d 77ca ac3d
00000030: 2e90 a23d 3128 a6bd 4a29 633d de47 b93d

res_blocks.0.batchnorm1.weight f4 [16]
0.9791346 1.0154792 0.9775911 0.9951747 0.96997684 1.0047961 0.9676727 0.97693354
1.0092641 1.0095115 0.9913136 1.024937 0.9914914 1.0394211 1.0025791 1.0002359
00000000: 91a8 7a3f 39fb 813f 6943 7a3f c5c3 7e3f
00000010: 6750 783f 299d 803f 66b9 773f 5118 7a3f
00000020: 912f 813f ac37 813f bac6 7d3f 2331 833f
00000030: 61d2 7d3f c00b 853f 8354 803f bb07 803f

res_blocks.0.batchnorm1.bias f4 [16]
-0.013915774 0.017467216 -0.004882717 0.005229263 -0.03386987 -0.015758222 -0.066763975 -0.025266599
-0.05167652 -0.028616782 -0.013283448 0.002575187 -0.029071664 -0.008456871 0.02112529 -0.042248175
00000000: fdfe 63bc 6817 8f3c 33ff 9fbb 3d5a ab3b
00000010: 22bb 0abd 6317 81bc 8dbb 88bd e6fb cebc
00000020: c2aa 53bd be6d eabc d2a2 59bc 78c4 283b
00000030: b327 eebc b08e 0abc f20e ad3c 6c0c 2dbd

res_blocks.0.batchnorm1.running_mean f4 [16]
0.055590548 -0.17003007 0.46065733 0.24819684 -0.2939656 0.032719664 -0.6458581 0.19510643
0.23827025 0.019223101 -0.69593674 0.13891925 0.20160934 -0.057361282 -0.1185669 0.29196823
00000000: eab2 633d 5d1c 2ebe 47db eb3e 5027 7e3e
00000010: a982 96be 0e05 063d f556 25bf fbc9 473e
00000020: 1efd 733e c479 9d3c e928 32bf d940 0e3e
00000030: ae72 4e3e aaf3 6abd 34d3 f2bd dc7c 953e

res_blocks.0.batchnorm1.running_var f4 [16]
0.086226024 0.047946356 0.13564904 0.040145654 0.041614767 0.049901865 0.040566985 0.7471568
0.041676313 0.011168927 0.18098286 0.028208377 0.033766326 0.020771472 0.08339353 0.049297646
00000000: 4597 b03d 6663 443d 95e7 0a3e c56f 243d
00000010: 3f74 2a3d e665 4c3d 9129 263d ab45 3f3f
00000020: c8b4 2a3d e0fd 363c 9253 393e 4115 e73c
00000030: 8f4e 0a3d ef28 aa3c 3aca aa3d 54ec 493d

res_blocks.0.conv2.weight f4 [16, 16, 3, 3]
-0.033525974 -0.06636816 0.032067884 0.030211516 -0.03871643 -0.005737181 0.042431902 -0.10237992
0.0114286 -0.09296056 -0.033790022 0.045230884 -0.086345986 -0.060954675 0.024144193 -0.04710269
0.037094034 -0.030164678 0.027368546 0.058781303 -0.01712666 0.0031861316 -0.045274388 -0.08426394
-0.026651101 0.023294752 -0.04849691 0.01624838 -0.021176135 -0.06367189 0.013641118 0.03755811
-0.0076154238 -0.022885272 0.04587851 0.01877054 -0.001902761 -0.023432976 -0.059164114 -0.064273804
0.029775765 0.013046084 0.012743048 0.06503442 -0.04891521 -0.009245327 -0.04253458 -0.029243052
-0.038478967 0.047635704 -0.064904764 0.026248064 -0.043468945 -0.084413044 0.024860736 -0.051743668
-0.0068717105 0.013346589 -0.0428935 -0.06528484 0.023968155 -0.09128894 -0.016216189 -0.06865265
-0.011136578 0.041124452 0.0013309382 -0.034775287 -0.08617804 -0.07453752 -0.03160119 -0.08075526
-0.0590998 -0.025236513 0.06286826 -0.013404975 -0.027036315 -0.06411006 0.068253174 0.0018277527
0.027240612 0.07736528 0.0036264716 -0.07566989 -0.0019445979 0.032928456 0.015825117 0.060490403
0.0029722026 -0.09673643 -0.029646419 0.064504534 0.07573553 -0.018200656 -0.010306789 -0.0009890214
-0.00033376942 0.03907868 -0.08159534 -0.052073848 -0.014762005 0.044248413 0.013392579 -0.025218947
0.054413896 0.08929564 0.06893427 -0.037113406 -0.061820563 -0.026787532 0.04298196 0.026194345
-0.023601985 -0.018310875 -0.043690816 -0.011324139 0.06823463 0.056535926 -0.04025337 0.0062773926
-0.0797381 0.021528475 0.0203585 -0.031680882 0.06536906 0.0484431 -0.063918196 -0.021686083
-0.025935518 0.067457534 0.078466184 -0.063294075 -0.09401065 0.013595892 0.036158018 -0.051100876
0.1141815 0.06541276 0.039421458 -0.051480725 0.026584819 -0.0018642187 0.05387256 0.06913002
0.026539385 -0.0286807 0.060645174 0.041662063 -8.839179e-05 0.008509961 0.08708564 -0.006700652
0.04761237 -0.06976197 0.05884128 0.0024721632 0.007782014 0.0370531 0.005143491 -0.07519107
-0.081960276 0.043434467 0.04098942 -0.07787679 -0.04708341 0.04344529 0.021807598 0.044309065
0.0099248765 -0.04451929 -0.07133901 -0.07093055 -0.04124557 0.063228264 0.035672277 -0.076009504
0.050394572 -0.067951135 0.07334299 0.013072595 0.10014493 0.00016859084 0.06933341 -0.06678475
0.04665448 -0.000684753 0.046121787 -0.07066381 -0.06628704 0.034207877 -0.019584648 0.04428687
0.007915751 -0.06522361 0.004123577 0.07804624 0.08344854 -0.04371866 0.047835242 0.055265985
0.09146928 -0.058533452 0.07214479 0.06933855 -0.06192926 0.07509111 0.04661599 -0.052702922
0.03427206 -0.016136773 -0.06791773 0.06283766 0.07668175 -0.05317892 -0.0137080895 0.027814694
-0.09914518 -0.022083523 -0.04907516 -0.0103826495 -0.005844512 0.04462282 0.020628018 -0.06666333
0.033445477 -0.03623141 -0.014035399 -0.0008036439 -0.055167284 0.012467801 -0.009390132 -0.046664845
-0.005630425 -0.031618256 -0.05596748 0.009240451 0.07601412 -0.07369646 -0.020620426 0.063817926
0.014337272 0.06022366 -0.07191412 -0.056312505 0.060290363 0.043461632 0.009714657 -0.022244854
-0.015120927 -0.033876475 -0.017602284 0.042251766 0.026665838 -0.037849214 -0.049804997 -0.06336326
00000000: 8852 09bd 08ec 87bd 9d59 033d 247e f73c
00000010: 1f95 1ebd f6fe bbbb 13cd 2d3d 90ac d1bd
00000020: 063f 3b3c 1b62 bebd 6867 0abd 0544 393d
00000030: 2ad6 b0bd 9cab 79bd 0bca c53c c0ee 40bd
00000040: eaef 173d ea1b f7bc 0034 e03c aac4 703d
00000050: 364d 8cbc 6bce 503b a371 39bd 9392 acbd
00000060: 6953 dabc a3d4 be3c b2a4 46bd 531b 853c
00000070: 9379 adbc 6866 82bd ff7e 5f3c 88d6 193d
00000080: ce8a f9bb e579 bbbc 1beb 3b3d adc4 993c
00000090: 1166 f9ba 83f6 bfbc 1256 72bd fca1 83bd
000000a0: 4eec f33c 3ebf 553c 38c8 503c c430 853d
000000b0: 515b 48bd b679 17bc bd38 2ebd 208f efbc
000000c0: 1f9c 1dbd a81d 433d caec 84bd 2e06 d73c
000000d0: 7e0c 32bd bfe0 acbd bea8 cb3c 2bf1 53bd
000000e0: 162c e1bb a7ab 5a3c 18b1 2fbd 0fb4 85bd
000000f0: dd58 c43c b2f5 babd d0d7 84bc c399 8cbd
00000100: 3276 36bc 1d72 283d e072 ae3a 8870 0ebd
00000110: 1d7e b0bd 21a7 98bd 4070 01bd 0463 a5bd
00000120: a212 72bd cebc cebc 13c1 803d 8aa0 5bbc
00000130: 437b ddbc 234c 83bd 52c8 8b3d 3491 ef3a
00000140: b427 df3c b071 9e3d 19aa 6d3b d1f8 9abd
00000150: e1e1 feba fddf 063d ada3 813c c9c4 773d
00000160: 49c9 423b c01d c6bd 0cdd f2bc f41a 843d
00000170: 3b1b 9b3d 8b19 95bc cedd 28bc 0da2 81ba
00000180: c6fd aeb9 f710 203d 751b a7bd 634b 55bd
00000190: 56dc 71bc d33d 353d 8c6c 5b3c f797 cebc
000001a0: 1be1 5e3d a2e0 b63d 692d 8d3d 3a04 18bd
000001b0: 8f37 7dbd 8771 dbbc da0d 303d 8695 d63c
000001c0: f358 c1bc b000 96bc 24f5 32bd e288 39bc
000001d0: 99be 8b3d 3792 673d b8e0 24bd 96b2 cd3b
000001e0: bb4d a3bd 7c5c b03c dec6 a63c d0c3 01bd
000001f0: 37e0 853d 466c 463d 8be7 82bd 03a7 b1bc
00000200: b976 d4bc 2d27 8a3d e1b2 a03d 53a0 81bd
00000210: a888 c0bd 4ec1 5e3c 6e1a 143d 274f 51bd
00000220: fed7 e93d 20f7 853d 6578 213d 74dd 52bd
00000230: 68c8 d93c cd58 f4ba 79a9 5c3d 0a94 8d3d
00000240: 2069 d93c caf3 eabc 1367 783d d7a5 2a3d
00000250: fb5e b9b8 5d6d 0b3c f559 b23d 2591 dbbb
00000260: 3005 433d 5ddf 8ebd 8e03 713d 0404 223b
00000270: 4400 ff3b fec4 173d bb8a a83b c7fd 99bd
00000280: cada a7bd 57e8 313d 86e4 273d de7d 9fbd
00000290: 89da 40bd b0f3 313d d9a5 b23c 6c7d 353d
000002a0: f39b 223c dc59 36bd 301a 92bd 0944 91bd
000002b0: 1df1 28bd d27d 813d 181d 123d dfaa 9bbd
000002c0: 8a6a 4e3d f729 8bbd d934 963d 702e 563c
000002d0: c918 cd3d c2c7 3039 adfe 8d3d 71c6 88bd
000002e0: c518 3f3d ff80 33ba 33ea 3c3d 30b8 90bd
000002f0: 80c1 87bd 8f1d 0c3d fc6f a0bc 2666 353d
00000300: 11b1 013c f593 85bd 121f 873b b5d6 9f3d
00000310: 11e7 aa3d 5612 33bd e3ee 433d 965e 623d
00000320: 3f54 bb3d c6c0 6fbd a6c0 933d 5f01 8e3d
00000330: 89a9 7dbd 5ec9 993d 69f0 3e3d 05df 57bd
00000340: dc60 0c3d 4431 84bc 7318 8bbd 08b1 803d
00000350: 520b 9d3d 24d2 59bd e597 60bc a4db e33c
00000360: a10c cbbd 81e8 b4bc 0903 49bd fd1b 2abc
00000370: 5283 bfbb 6bc6 363d 17fc a83c c986 88bd
00000380: 20fe 083d 6367 14bd bbf4 65bc a1ab 52ba
00000390: 17f7 61bd bf45 4c3c 11d9 19bc a323 3fbd
000003a0: 6e7f b8bb 2582 01bd 283e 65bd 4365 173c
000003b0: 4aad 9b3d 2bee 96bd 2bec a8bc f9b2 823d
000003c0: e1e6 6a3c 16ad 763d b647 93bd f1a7 66bd
000003d0: 07f3 763d d304 323d 3a2a 1f3c d73a b6bc
000003e0: c4bd 77bc 0fc2 0abd aa32 90bc 3010 2d3d
000003f0: 5172 da3c c707 1bbd 5300 4cbd 99c4 81bd

res_blocks.0.conv2.bias f4 [16]
-0.076840244 -0.01920781 -0.021227593 -0.03080502 0.022809533 -0.061301913 -0.036869306 -0.026422946
0.07592752 -0.043014534 -0.07466542 0.0782926 0.056836654 0.07346883 -0.07783093 0.063741244
00000000: 6b5e 9dbd b259 9dbc 7de5 adbc cf5a fcbc
00000010: 0fdb ba3c b717 7bbd 4504 17bd ef74 d8bc
00000020: e37f 9b3d 0230 30bd 2fea 98bd df57 a03d
00000030: 8dcd 683d d376 963d d365 9fbd c58a 823d

res_blocks.0.batchnorm2.weight f4 [16]
0.9963873 0.9685291 1.0214885 0.9839191 0.992273 0.9934344 1.0001649 1.0884418
0.98891723 1.0326849 1.0233569 1.0321895 1.0092851 0.9797957 1.046614 1.0013634
00000000: 3d13 7f3f 86f1 773f 23c0 823f 1fe2 7b3f
00000010: 9a05 7e3f b851 7e3f 6705 803f 1052 8b3f
00000020: ae29 7d3f 052f 843f 5cfd 823f c91e 843f
00000030: 4130 813f e4d3 7a3f 73f7 853f ad2c 803f

res_blocks.0.batchnorm2.bias f4 [16]
-0.032025535 0.026778843 0.004791636 0.001371311 -0.041797683 -0.04293211 -0.0023653558 -0.08614265
-0.07487366 0.03968517 0.006840162 -0.0024498363 -0.033740878 0.026513346 0.0066875853 -0.0022021309
00000000: 352d 03bd 4e5f db3c 2803 9d3b 90bd b33a
00000010: 0c34 2bbd 95d9 2fbd 1604 1bbb 8f6b b0bd
00000020: 5d57 99bd eb8c 223d 7023 e03b 6f8d 20bb
00000030: e033 0abd 8432 d93c 8823 db3b a051 10bb

res_blocks.0.batchnorm2.running_mean f4 [16]
-0.45311588 -0.10816955 -0.17342463 0.21830189 0.03721098 0.56797856 -0.14629991 -0.20676744
0.3082548 -0.06081221 -0.06437127 0.24367061 0.17260328 0.07488377 -0.37999207 -0.13294555
00000000: cefe e7be ff87 ddbd 3a96 31be 888a 5f3e
00000010: 8a6a 183d 0b67 113f a5cf 15be d8ba 53be
00000020: 93d3 9d3e 3916 79bd 16d5 83bd ca84 793e
00000030: eabe 303e a95c 993d 528e c2be e122 08be

res_blocks.0.batchnorm2.running_var f4 [16]
0.04790812 0.29644406 0.11576775 0.13625853 0.14077173 0.32190993 0.37827453 0.106872424
0.23853305 0.18588804 0.095074564 0.115430534 0.16839632 0.10564656 0.19826993 0.18957661
00000000: 4e3b 443d 84c7 973e a417 ed3d 5b87 0b3e
00000010: 7726 103e 61d1 a43e 33ad c13e eedf da3d
00000020: 0242 743e 6f59 3e3e 74b6 c23d d866 ec3d
00000030: 1670 2c3e 395d d83d 4607 4b3e 5f20 423e

res_blocks.0.residual_conv.weight f4 [16, 8, 1, 1]
0.16408248 0.32446784 -0.07519188 -0.35593188 -0.23455846 0.04478453 -0.15574355 0.19165345
-0.21757495 -0.08874202 0.26768595 -0.18131432 -0.05461021 0.13517727 0.098821 -0.33204406
0.20665808 0.21180323 0.105909556 0.037570905 0.15990351 -0.17555846 0.3223817 -0.35387808
0.32037896 0.2798812 -0.08949793 -0.04761651 -0.12056146 -0.16607979 0.075667255 0.008349053
0.21989764 0.36087322 -0.13060743 -0.25107723 0.035400726 -0.26699805 0.30437696 0.058341097
0.32641312 0.12990402 0.20087662 -0.31846583 -0.07040312 0.17233598 0.13210762 0.35135347
0.30470958 0.29177916 0.14665097 -0.25435144 0.14248724 -0.04186743 0.04164545 -0.30641788
-0.05042505 -0.12138475 -0.05741518 0.01040935 -0.22895524 -0.18169166 0.0020917864 -0.050603017
0.2961302 0.24204285 0.18426742 -0.14258195 -0.35877752 -0.08979425 -0.25015005 -0.25818017
-0.061711777 -0.30511346 -0.1102995 0.29930815 0.0033269639 0.27420798 -0.014346846 0.073443055
-0.15816602 0.28717715 -0.17464864 0.20633267 0.31265825 -0.25647205 -0.32058206 -0.32689866
-0.19970049 -0.25108528 0.038125154 -0.36180937 -0.29083154 -0.21189569 -0.19595893 0.10401307
-0.1802442 0.11940123 0.029332839 -0.2520583 0.2006078 -0.10409298 -0.04917677 0.21920657
0.3061955 -0.18336862 0.2298939 -0.19017519 -0.021124676 0.06816169 -0.1626561 0.16424528
0.027800903 -0.007961756 -0.10220039 0.13735618 0.058307946 0.11115103 0.33718297 0.2647879
0.3525498 0.104341425 -0.10415236 0.006684528 0.09762789 -0.061216358 -0.19252379 -0.015359856
00000000: 3d05 283e a620 a63e 33fe 99bd b43c b6be
00000010: 1830 70be fc6f 373d 3d7b 1fbe cd40 443e
00000020: f8cb 5ebe 60be b5bd 220e 893e 76aa 39be
00000030: f5ae 5fbd e96b 0a3e aa62 ca3d ae01 aabe
00000040: 2d9e 533e f2e2 583e 1ce7 d83d f3e3 193d
00000050: bfbd 233e 99c5 33be 370f a53e 822f b5be
00000060: b608 a43e 974c 8f3e b14a b7bd 8809 43bd
00000070: ede8 f6bd d210 2abe 6ff7 9a3d 77ca 083c
00000080: d92c 613e 60c4 b83e f4bd 05be 328d 80be
00000090: 5a00 113d f8b3 88be 4cd7 9b3e 13f7 6e3d
000000a0: 9f1f a73e 8f05 053e 9ab2 4d3e f40d a3be
000000b0: 832f 90bd d878 303e 3847 073e 9ae4 b33e
000000c0: e502 9c3e 1464 953e ac2b 163e 5a3a 82be
000000d0: 2de8 113e 2f7d 2bbd 6b94 2a3d cee2 9cbe
000000e0: 7f8a 4ebd 9198 f8bd 2e2c 6bbd fa8b 2a3c
000000f0: 3e73 6abe 610d 3abe 5a16 093b 1c45 4fbd
00000100: 619e 973e 15da 773e 99b0 3c3e 0101 12be
00000110: b0b1 b7be 0ce6 b7bd ab13 80be 3130 84be
00000120: 7dc5 7cbd d537 9cbe b4e4 e1bd eb3e 993e
00000130: 3109 5a3b fd64 8c3e 090f 6bbc 5069 963d
00000140: 46f6 21be e208 933e 18d7 32be df48 533e
00000150: be14 a03e 4e50 83be 5523 a4be 435f a7be
00000160: 497e 4cbe 408e 80be 1f29 1c3d 143f b9be
00000170: dfe7 94be 2ffb 58be 75a9 48be ce04 d53d
00000180: f091 38be a288 f43d 6c4b f03c c90d 81be
00000190: 226c 4d3e b32e d5bd 956d 49bd b077 603e
000001a0: a8c5 9c3e fcc4 3bbe 4e69 6b3e 49bd 42be
000001b0: a80d adbc 5b98 8b3d 528f 26be ea2f 283e
000001c0: b8be e33c 0672 02bc 704e d1bd 19a7 0c3e
000001d0: 50d4 6e3d 27a3 e33d 3fa3 ac3e 4892 873e
000001e0: 6881 b43e f5b0 d53d d54d d5bd e309 db3b
000001f0: 22f1 c73d 01be 7abd f524 45be e8a7 7bbc

res_blocks.0.residual_conv.bias f4 [16]
-0.2992939 0.2142745 -0.25799474 0.17900175 0.10254956 -0.28520623 0.27966046 -0.28986672
0.31962025 -0.24478482 -0.16909921 0.2949982 0.29035893 0.320227 0.3756973 0.33230346
00000000: 0d3d 99be c66a 5b3e e317 84be 3c4c 373e
00000010: 8105 d23d 8d06 92be a82f 8f3e 6969 94be
00000020: 44a5 a33e dfa8 7abe 5828 2dbe 010a 973e
00000030: eda9 943e cbf4 a33e 665b c03e ae23 aa3e

res_blocks.1.conv1.weight f4 [32, 16, 3, 3]
0.05447093 -0.06920012 -0.022708833 0.019327728 0.057827976 -0.07201033 -0.041334454 -0.06872271
-0.07399251 0.07232416 -0.06086187 0.08685711 0.033098973 -0.06854884 0.056113906 0.022064516
-0.019214451 0.0030248412 -0.031411495 0.021381322 0.058142778 0.0027206044 0.0014322525 -0.03508327
-0.048041325 -0.03195835 -0.0380557 -0.031937573 0.015751246 0.0553187 -0.003967895 -0.03663747
-0.01948493 -0.004442568 -0.025777932 0.0710325 0.05138286 0.07653751 -0.043706615 0.016319003
-0.016610337 0.08329068 -0.008652985 0.012789793 -0.009381612 -0.054892007 -0.060855158 -0.056528326
0.026571833 0.054072354 -0.035191108 -0.021657223 0.08737425 0.01898085 -0.016809383 0.0040519093
-0.01210339 -0.06647631 0.08412917 -0.029226145 0.0403785 -0.0571579 0.009488538 -0.07537663
0.032720316 -0.06565321 -0.014077012 -0.063313976 0.032297615 0.0024538937 -0.048103847 0.0398047
0.12716891 0.017597232 0.14276983 -0.05947417 -0.04798141 0.05662295 0.10072516 0.018660199
0.056885123 -0.03835931 0.0110698035 -0.06547278 0.0073448797 0.0009044067 0.031547103 -0.023900717
-0.050643116 -0.023847515 -0.034516975 0.030210968 0.09124826 0.060514156 0.00043196758 0.09267828
0.07993815 0.06654177 0.044424977 -0.022529455 0.0018248822 0.0347367 0.046762224 0.062967025
-0.0148876505 -0.025508635 0.009803402 -0.05173461 -0.014364326 0.05852476 0.017965838 0.039574046
0.017298732 -0.0045018466 -0.005251818 0.03522098 0.032138683 -0.009762074 0.014539523 -0.09460112
0.064793445 0.027891548 0.008632892 0.02858327 -0.027434004 -0.04990865 0.021693952 0.118175924
0.08415869 -0.00035836463 -0.048907593 -0.03649467 0.0059354133 -0.04176481 0.083444074 0.06549012
0.041160867 -0.028875995 0.0118866395 -0.046338614 -0.07404777 -0.08324276 -0.10893471 -0.07153145
0.051394895 0.021668063 0.072189726 -0.06367739 0.03214698 0.015606989 -0.040503047 -0.018441565
-0.024382265 -0.04086581 0.024636894 0.027033592 -0.014013233 0.04940419 -0.0647883 0.11803874
0.047155105 -0.023134794 -0.06110106 -0.038375758 -0.0077098026 0.01932071 0.08887661 -0.0056898855
0.041904937 -0.03834872 0.078908935 -0.015489816 0.023754578 -0.029011978 -0.023182623 -0.0028667692
0.061042022 0.027625851 -0.031000324 -0.028252764 0.10384629 0.016097296 -0.017765345 -0.053745702
0.050503835 0.040130217 0.08404942 -0.021208707 0.07156581 -0.076010466 0.057958808 0.05388171
-0.012169253 0.011102907 -0.008746379 -0.06042678 0.06652047 0.06196493 0.072812706 0.013986149
-0.08254189 0.0098359315 0.06513841 -0.0591495 0.03655659 -0.012232244 0.043344777 -0.046253905
-0.064646415 -0.105235666 -0.08546603 0.0019856703 0.057050124 0.022371968 0.08702802 -0.019424561
0.026511896 -0.000767212 -0.0034900152 -0.0034682383 -0.057028703 -0.03718575 0.028458364 0.051097747
0.011744614 -0.008410651 0.057007484 -0.060857017 0.058512274 -0.051706634 -0.028679376 0.066891626
-0.08083713 -0.070699275 0.03887209 0.046386447 -0.005299909 0.012591169 -0.022185113 -0.08896435
-0.07370847 -0.018286135 0.029025117 -0.070673056 -0.06931827 -0.09282386 -0.041098256 0.024732081
0.055456117 0.019465877 0.03880647 -0.012280291 0.036616396 -0.026946286 0.07325708 0.05098406
00000000: e91c 5f3d cbb8 8dbd e007 babc 2f55 9e3c
00000010: 07dd 6c3d 277a 93bd 514e 29bd 7ebe 8cbd
00000020: 6389 97bd b01e 943d 4c4a 79bd 24e2 b13d
00000030: ca92 073d 5663 8cbd b2d7 653d a5c0 b43c
00000040: a067 9dbc 6a3c 463b 57a9 00bd e227 af3c
00000050: 1f27 6e3d 2b4c 323b 6bba bb3a 7ab3 0fbd
00000060: fbc6 44bd c2e6 02bd 4be0 1bbd f9d0 02bd
00000070: c208 813c dc95 623d 1e05 82bb 2c11 16bd
00000080: dc9e 9fbc f692 91bb 3e2c d3bc 7d79 913d
00000090: d576 523d b3bf 9c3d b505 33bd 6eaf 853c
000000a0: 6712 88bc 4e94 aa3d 40c5 0dbc 488c 513c
000000b0: 55b5 19bc 71d6 60bd 4243 79bd 3f8a 67bd
000000c0: 2cad d93c f97a 5d3d 8d24 10bd 7d6a b1bc
000000d0: 45f1 b23d ba7d 9b3c d5b3 89bc e1c5 843b
000000e0: 4c4d 46bc bb24 88bd ea4b ac3d ab6b efbc
000000f0: ed63 253d 671e 6abd d075 1b3c 105f 9abd
00000100: bd05 063d 3175 86bd 45a3 66bc c2aa 81bd
00000110: 814a 043d 81d1 203b 8a08 45bd 410a 233d
00000120: 9138 023e 1228 903c 4132 123e 309b 73bd
00000130: 2888 44bd 77ed 673d fe48 ce3d 46dd 983c
00000140: 6000 693d a71e 1dbd 1f5e 353c 9816 86bd
00000150: 51ad f03b b515 6d3a 8937 013d 70cb c3bc
00000160: 286f 4fbd dd5b c3bc ac61 0dbd fe7c f73c
00000170: 5ee0 ba3d b1dd 773d b579 e239 1cce bd3d
00000180: 9db6 a33d 0d47 883d f7f6 353d b18f b8bc
00000190: e330 ef3a 1248 0e3d bf89 3f3d dbf4 803d
000001a0: 55eb 73bc 7cf7 d0bc 739e 203c ace7 53bd
000001b0: 5a58 6bbc a9b7 6f3d 182d 933c 6518 223d
000001c0: 12b6 8d3c 3a84 93bb 7117 acbb e043 103d
000001d0: daa3 033d 1bf1 1fbc 2e37 6e3c 3bbe c1bd
000001e0: 6db2 843d d17c e43c f970 0d3c 7627 ea3c
000001f0: 47bd e0bc 036d 4cbd 84b7 b13c 3806 f23d
00000200: 645b ac3d e3e2 bbb9 5453 48bd 6f7b 15bd
00000210: db7d c23b 9411 2bbd bae4 aa3d af1f 863d
00000220: 4c98 283d 5a8d ecbc 2ec0 423c 8fcd 3dbd
00000230: 5ba6 97bd 2e7b aabd 2919 dfbd 157f 92bd
00000240: 7483 523d 3981 b13c 35d8 933d 4b69 82bd
00000250: 8dac 033d 75b4 7f3c 86e6 25bd c412 97bc
00000260: 51bd c7bc e862 27bd 50d3 c93c 8d75 dd3c
00000270: c297 65bc 0c5c 4a3d baaf 84bd 4bbe f13d
00000280: b625 413d 2e85 bdbc 1b45 7abd e62f 1dbd
00000290: 83a2 fcbb 7746 9e3c f104 b63d 3872 babb
000002a0: 83a4 2b3d 8c13 1dbd 029b a13d ffc8 7dbc
000002b0: f698 c23c 87aa edbc 7ce9 bdbc 68e0 3bbb
000002c0: 3307 7a3d 9c4f e23c 64f4 fdbc 5772 e7bc
000002d0: 5dad d43d 7ade 833c a188 91bc 7424 5cbd
000002e0: 1cdd 4e3d 955f 243d 1a22 ac3d e2bd adbc
000002f0: 1891 923d 60ab 9bbd 3766 6d3d 11b3 5c3d
00000300: 8c61 47bc f8e8 353c f94c 0fbc 1282 77bd
00000310: e23b 883d f0ce 7d3d d41e 953d 2926 653c
00000320: b90b a9bd e326 213c 4967 853d bf46 72bd
00000330: 5dbc 153d c069 48bc 4b8a 313d bc74 3dbd
00000340: 5765 84bd cc85 d7bd d008 afbd 0522 023b
00000350: 64ad 693d 6b45 b73c bf3b b23d 4220 9fbc
00000360: 7a2f d93c ba1e 49ba bdb8 64bb 624b 63bb
00000370: ee96 69bd 1650 18bd 8421 e93c df4b 513d
00000380: 7b6c 403c d4cc 09bc ae80 693d 3545 79bd
00000390: 91aa 6f3d 56ca 53bd 03f1 eabc 7afe 883d
000003a0: f08d a5bd c8ca 90bd 5738 1f3d b7ff 3d3d
000003b0: dcaa adbb 314b 4e3c 8ebd b5bc f132 b6bd
000003c0: 77f4 96bd cecc 95bc 15c6 ed3c 09bd 90bd
000003d0: bdf6 8dbd 701a bebd a556 28bd ef9a ca3c
000003e0: f425 633d e776 9f3c 88f3 1e3d 4633 49bc
000003f0: 13fb 153d 75be dcbc cf07 963d a9d4 503d

res_blocks.1.conv1.bias f4 [32]
0.08102569 -0.0029675104 0.077142335 0.031956434 -0.06859031 -0.052706026 -0.051882133 -0.031102112
-0.069999255 -0.0054499493 0.0032036004 0.06700399 -0.045981742 0.043937102 0.02534445 -0.009154721
0.034138683 -0.07183765 -0.038815375 -0.016261624 0.0706657 0.052910633 0.059747163 -0.021840228
0.02850749 0.045717917 -0.0092426445 0.0758078 0.050789084 -0.034803983 0.028992513 -0.0793277
00000000: ccf0 a53d 907a 42bb cdfc 9d3d c0e4 023d
00000010: 1479 8cbd 46e2 57bd 5c82 54bd dbc9 febc
00000020: c55b 8fbd 7d95 b2bb 7ff3 513b 6339 893d
00000030: 5a57 3cbd 64f7 333d 2a9f cf3c affd 15bc
00000040: 01d5 0b3d 9e1f 93bd dffc 1ebd 1937 85bc
00000050: 2eb9 903d d2b8 583d 71b9 743d 47ea b2bc
00000060: 8a88 e93c b642 3b3d 766e 17bc 1f41 9b3d
00000070: 3708 503d 9f8e 0ebd b581 ed3c 9076 a2bd

res_blocks.1.batchnorm1.weight f4 [32]
0.98756987 0.99369276 0.9416583 0.9997786 1.0367495 1.0607753 1.002042 0.97159934
0.97419804 0.98599684 1.0300434 0.9848869 1.009478 0.94680786 0.990914 0.9984286
0.9865535 1.0151643 1.0170466 1.056411 1.0441959 1.0055916 0.9990018 1.0063494
0.95963776 0.9918628 0.96922314 1.0496957 1.0064691 0.9815436 0.98581624 0.95965654
00000000: 61d1 7c3f a662 7e3f 8510 713f 7ef1 7f3f
00000010: 35b4 843f 7cc7 873f ea42 803f bcba 783f
00000020: 0b65 793f 4a6a 7c3f 76d8 833f 8c21 7c3f
00000030: 9336 813f 0062 723f 8aac 7d3f 0499 7f3f
00000040: c58e 7c3f e7f0 813f 952e 823f 7a38 873f
00000050: 36a8 853f 3ab7 803f 95be 7f3f 0fd0 803f
00000060: d2aa 753f b8ea 7d3f 021f 783f 6e5c 863f
00000070: fbd3 803f 7146 7b3f 745e 7c3f 0dac 753f

res_blocks.1.batchnorm1.bias f4 [32]
-0.052911475 -0.0016796197 -0.08308984 -0.02580747 -0.017193554 -0.01602438 -0.04278808 -0.03512114
-0.029462975 -0.0046194238 -0.0020447704 -0.07419136 0.005089558 -0.028814312 -0.020279936 -0.0074056336
-0.024104683 -0.034798425 -0.047227353 -0.011695004 -0.041176032 -0.05059555 0.040782508 0.01129165
-0.04195175 -0.06778751 -0.05464833 -0.0327415 -0.02329449 -0.07077641 -0.037737925 -0.084655
00000000: b4b9 58bd af26 dcba 022b aabd 306a d3bc
00000010: 7fd9 8cbc 9045 83bc 8e42 2fbd 2fdb 0fbd
00000020: 565c f1bc 895e 97bb 8e01 06bb a4f1 97bd
00000030: 4fc6 a63b fe0b ecbc 1c22 a6bc f5aa f2bb
00000040: 2f77 c5bc cb88 0ebd 7871 41bd 679c 3fbc
00000050: 33a8 28bd 483d 4fbd 8f0b 273d 9d00 393c
00000060: 99d5 2bbd 2ed4 8abd edd6 5fbd f31b 06bd
00000070: 16d4 bebc 39f3 90bd 1593 1abd 9a5f adbd

res_blocks.1.batchnorm1.running_mean f4 [32]
0.4970337 -0.14832287 0.06898392 0.302382 -0.49820545 -0.42237633 -0.35158798 -0.39669085
0.11289888 -0.26991034 -0.9624052 0.8400688 0.03434663 0.4032675 -0.30226335 -0.27057385
-0.64426434 -0.96060956 0.19528282 -0.1187888 0.15985763 0.42197216 -0.75915664 -0.40731838
0.41396922 0.04727109 -0.08791022 -0.05133219 0.28511795 0.14939545 0.54086375 0.07221064
00000000: 337b fe3e f3e1 17be 7147 8d3d d0d1 9a3e
00000010: c914 ffbe b641 d8be 5703 b4be 101b cbbe
00000020: 8737 e73d b031 8abe 3060 76bf c00e 573f
00000030: 0daf 0c3d 1479 ce3e 43c2 9abe a888 8abe
00000040: 82ee 24bf 82ea 75bf 38f8 473e 8b47 f3bd
00000050: b8b1 233e bc0c d83e 1758 42bf 098c d0be
00000060: c6f3 d33e 559f 413d 460a b4bd b441 52bd
00000070: fbfa 913e 1ffb 183e 0c76 0a3f 2ce3 933d

res_blocks.1.batchnorm1.running_var f4 [32]
0.3412637 0.24689002 0.45643622 0.2470052 0.43456462 0.25451863 0.51171005 0.36390787
0.18097961 0.46783304 0.25851402 0.32547817 0.21917215 0.1513305 0.20027408 0.40698487
0.5356556 0.3898027 0.14287789 0.17381243 0.19635126 0.20414823 0.3879567 0.57244396
0.26698893 0.17946258 0.3021573 0.33417866 0.22534299 0.11171637 0.38879764 0.21151888
00000000: 1eba ae3e bdd0 7c3e 02b2 e93e eeee 7c3e
00000010: 417f de3e 4450 823e 6eff 023f 2252 ba3e
00000020: b852 393e d087 ef3e f35b 843e 13a5 a63e
00000030: aa6e 603e 62f6 1a3e a614 4d3e 5260 d03e
00000040: ba20 093f 3894 c73e 954e 123e e3fb 313e
00000050: 4e10 493e 3c0c 513e 43a2 c63e b08b 123f
00000060: c6b2 883e 0ac5 373e 5db4 9a3e 7719 ab3e
00000070: 50c0 663e 8dcb e43d 7c10 c73e 6898 583e

res_blocks.1.conv2.weight f4 [32, 32, 3, 3]
-0.0055241617 -0.009387959 -0.011209011 0.004697683 0.018697178 -0.04887992 -0.023405032 0.043292843
0.03773836 0.02067226 -0.020321164 -0.021601876 0.042967632 0.041507486 0.04086101 -0.014672386
0.02362142 0.044445414 -0.041021783 0.05728937 -0.0038975792 0.013030075 -0.0197439 0.052108012
0.056467738 0.058444463 0.015096887 -0.01346302 -0.054705456 -0.028775392 -0.020914689 -0.063737616
-0.0838652 -0.062963046 0.0042369463 0.007959391 0.04785228 0.024205558 0.01150631 0.009367799
0.043467622 -0.03323704 -0.08288893 -0.059089825 -0.0072740554 0.085329086 0.07583766 0.09427925
0.06359879 0.053253215 0.058337588 0.076376915 0.07833478 0.027131293 -0.029611105 -0.024197508
-0.0059464695 0.009330365 0.043896396 0.03889827 -0.066216744 0.01775275 0.021082178 0.025272949
-0.013989439 0.03823888 0.01919508 -0.05204932 -0.071485564 0.02606827 -0.023048528 -0.031026352
0.027066061 0.04288914 -0.05772751 -0.037833698 0.025701026 -0.0075516817 0.009169051 -0.012633157
0.009390317 0.002921125 0.023020225 -0.03895764 -0.02968894 0.06742347 -0.008467679 -0.021043131
-0.010742157 0.022316506 -0.06407751 -0.008409901 -0.033835463 0.0039701043 -0.061665583 0.0295053
-0.007594501 0.020030836 -0.019171538 -0.018849917 0.019608086 -0.066079296 -0.039856277 -0.03146012
0.01740631 0.04260532 -0.03190203 -0.046088915 0.074457586 0.004940981 0.022069672 0.04960004
0.0020301386 0.03907868 0.008266259 0.006553462 0.07688455 -0.0055486164 0.0066751176 0.046557494
0.010324503 -0.043706004 0.033264406 -0.043166142 -0.03306083 -0.038947053 0.04425777 -0.0050047548
0.014677145 0.04904699 -0.02289675 0.030018885 -0.013896036 0.062787585 0.017219545 0.006823506
-0.0383514 0.028066061 0.037539527 -0.016160384 -0.00972869 0.027237384 -0.0095662745 0.012393433
0.005845014 0.054968454 -0.030223032 0.025734557 -0.033512898 0.022900598 0.0025034936 -0.0030090804
0.013816129 0.004790629 0.01537603 0.028010113 0.039462414 0.008057028 0.03866506 0.0433958
0.03563538 -0.040657718 -0.040040318 -0.007517882 -0.008032232 -0.009894135 -0.05102146 -0.04508346
0.024153113 -0.009474809 0.02917644 -0.003665538 0.031361196 -0.058669634 0.045722518 0.006044664
-0.015725352 0.008465757 0.035201896 0.026031267 0.07359854 0.0120123895 0.07634351 0.039704524
-0.013310501 0.032002874 0.0073939017 0.011294436 0.020439478 -0.054127503 0.029809628 0.016520433
-0.018557139 -0.038425718 -0.032593485 -0.015571519 0.05636004 -0.024230134 0.020988893 0.044512104
-0.0095424 -0.01344741 0.00083292637 0.007518596 -0.014723664 -0.031996757 0.027294459 -0.07497218
-0.041032292 0.019189952 -0.069841474 0.010826177 0.0023776102 -0.057809494 0.010994025 -0.018366259
-0.061066143 -0.05211719 0.02856542 -0.059323184 -0.020736549 -0.026081989 0.025730247 -0.0018130179
-0.05649087 -0.01921601 0.08281077 0.08534196 0.044052187 0.00017298972 -0.021274377 0.0018909343
0.08582812 -0.0087606395 -0.06761405 -0.005125409 -0.011511451 0.023371423 -0.027054949 -0.005132553
0.030079572 -0.024328785 -0.028640721 0.06693178 0.11916589 0.033991054 0.09964655 0.09535762
0.040422495 0.10474482 0.033770677 0.12222187 0.022147315 -0.014529149 0.021348605 -0.008498001
00000000: 0704 b5bb f4cf 19bc 00a6 37bc 05ef 993b
00000010: d32a 993c 5036 48bd e9bb bfbc d653 313d
00000020: 8a93 1a3d df58 a93c 9278 a6bc 6bf6 b0bc
00000030: d4fe 2f3d c103 2a3d e05d 273d 7364 70bc
00000040: b581 c13c 650c 363d 7506 28bd 42a8 6a3d
00000050: 876e 7fbb 187c 553c f6bd a1bc 366f 553d
00000060: b74a 673d 7663 6f3d ef58 773c 0094 5cbc
00000070: d412 60bd 5fba ebbc 4855 abbc de88 82bd
00000080: 85c1 abbd c5f2 80bd 15d6 8a3b 1b68 023c
00000090: c100 443d bc4a c63c f684 3c3c 667b 193c
000000a0: 1b0b 323d 9023 08bd acc1 a9bd 2c08 72bd
000000b0: 335b eebb 04c1 ae3d c650 9b3d 7b15 c13d
000000c0: 1540 823d 0b20 5a3d 65f3 6e3d 806b 9c3d
000000d0: fc6d a03d 7242 de3c fd92 f2bc da39 c6bc
000000e0: 9ada c2bb 63de 183c b5cc 333d cb53 1f3d
000000f0: a59c 87bd 376e 913c 88b4 ac3c 3709 cf3c
00000100: f633 65bc 5fa0 1c3d 003f 9d3c ab31 55bd
00000110: 0667 92bd 208d d53c 44d0 bcbc fa2a febc
00000120: a5b9 dd3c 86ac 2f3d ae73 6cbd 82f7 1abd
00000130: f58a d23c 1974 f7bb ca39 163c 4dfb 4ebc
00000140: d8d9 193c 5870 3f3b e994 bc3c 0c92 1fbd
00000150: 3836 f3bc 5115 8a3d 05bc 0abc a562 acbc
00000160: dfff 2fbc 1bd1 b63c 123b 83bd aec9 09bc
00000170: 0e97 0abd a617 823b 0d95 7cbd 19b5 f13c
00000180: 4bdb f8bb b517 a43c a10d 9dbc 246b 9abc
00000190: 23a1 a03c 9554 87bd 5640 23bd 54dc 00bd
000001a0: ae97 8e3c eb82 2e3d b4ab 02bd bbc7 3cbd
000001b0: 387d 983d f4e7 a13b 75cb b43c 6929 4b3d
000001c0: 130c 053b f710 203d 346f 073c 6cbe d63b
000001d0: a675 9d3d 2bd1 b5bb f2ba da3b 12b3 3e3d
000001e0: 1b28 293c 1105 33bd 4240 083d fbce 30bd
000001f0: cb6a 07bd f286 1fbd a347 353d edfe a3bb
00000200: 6878 703c 7fe5 483d f791 bbbc 2aea f53c
00000210: 33ac 63bc c796 803d 0110 8d3c b897 df3b
00000220: 5c16 1dbd ccea e53c 0cc3 193d c862 84bc
00000230: 1565 1fbc ef20 df3c ddbb 1cbc d30d 4b3c
00000240: 8887 bf3b 9a26 613d 4b96 f7bc 47d1 d23c
00000250: d244 09bd 099a bb3c a711 243b fe33 45bb
00000260: 0c5d 623c b5fa 9c3b beeb 7b3c 7775 e53c
00000270: 57a3 213d a001 043c 415f 1e3d cbbf 313d
00000280: 67f6 113d b588 26bd 5101 24bd 9158 f6bb
00000290: 9f99 03bc 031b 22bc e1fb 50bd 6fa9 38bd
000002a0: c0dc c53c 3b3c 1bbc 6e03 ef3c 8639 70bb
000002b0: 9974 003d 924f 70bd 8947 3b3d 5112 c63b
000002c0: 74d2 80bc f5b3 0a3c dd2f 103d 863f d53c
000002d0: d5ba 963d 9dcf 443c fc59 9c3d 36a1 223d
000002e0: 4a14 5abc 7215 033d 8b48 f23b 4c0c 393c
000002f0: b170 a73c cdb4 5dbd 5233 f43c dc55 873c
00000300: 2405 98bc 4964 1dbd bf80 05bd af1f 7fbc
00000310: c9d9 663d 467e c6bc e6f0 ab3c 5352 363d
00000320: ba57 1cbc 8752 5cbc be58 5a3a 8e5e f63b
00000330: 863b 71bc 080f 03bd a198 df3c 048b 99bd
00000340: 7a11 28bd 3f34 9d3c 0c09 8fbd 4760 313c
00000350: aed1 1b3b a6c9 6cbd 4820 343c d674 96bc
00000360: 7e20 7abd d678 55bd 0702 ea3c defc 72bd
00000370: b2df a9bc e5a9 d5bc 3dc8 d23c c9a2 edba
00000380: f862 67bd e56a 9dbc b198 a93d c4c7 ae3d
00000390: 1170 343d 9364 3539 9a47 aebc 3ad9 f73a
000003a0: a7c6 af3d c988 0fbc 3c79 8abd 0cf3 a7bb
000003b0: 869a 3cbc 6d75 bf3c 57a2 ddbc fa2e a8bb
000003c0: 6f69 f63c 294d c7bc f29f eabc 8713 893d
000003d0: 3f0d f43d 343a 0b3d 7e13 cc3d db4a c33d
000003e0: 0f92 253d 7484 d63d 1f53 0a3d 764f fa3d
000003f0: 496e b53c ab0b 6ebc 45e3 ae3c 333b 0bbc

res_blocks.1.conv2.bias f4 [32]
-0.044627618 0.04259657 0.043817554 -0.029184898 0.042112645 0.051979482 0.014898092 0.04831687
-0.030932846 -0.035064206 0.026306044 -0.036254153 -0.019343292 -0.023750061 -0.049539827 -0.02186669
0.054239083 -0.001329635 0.036790702 0.018178375 -0.0014350248 0.031390794 -0.03338559 -0.017389243
-0.05653188 -0.03210321 0.045535423 0.040905397 0.036219187 -0.049715832 0.021464497 -0.004280995
00000000: 73cb 36bd be79 2e3d 097a 333d 2b15 efbc
00000010: 4f7e 2c3d 70e8 543d 2017 743c e9e7 453d
00000020: e166 fdbc 7c9f 0fbd c67f d73c 3c7f 14bd
00000030: d375 9ebc 7d8f c2bc 46ea 4abd c621 b3bc
00000040: cd29 5e3d 2647 aeba d9b1 163d d1ea 943c
00000050: 7117 bcba a293 003d 54bf 08bd e373 8ebc
00000060: f98d 67bd a87e 03bd 5a83 3a3d 6b8c 273d
00000070: 925a 143d d4a2 4bbd 50d6 af3c 9747 8cbb

res_blocks.1.batchnorm2.weight f4 [32]
1.2018284 1.2298659 1.1269717 1.2290909 1.1773177 1.1236 1.0771098 1.3467085
1.284277 1.2433848 1.1042949 1.2575336 1.3382607 1.0988228 1.1681176 1.1215975
1.2290459 1.1740586 1.2640822 1.0693183 1.1952709 1.3814702 1.2408364 1.2386059
1.1281058 1.1413515 1.1523572 1.1196638 1.2992522 1.0982977 1.1009326 1.1300862
00000000: 83d5 993f 3f6c 9d3f 9c40 903f da52 9d3f
00000010: 59b2 963f 20d2 8f3f bcde 893f f260 ac3f
00000020: 3063 a43f 3c27 9f3f 8959 8d3f dcf6 a03f
00000030: 204c ab3f 3aa6 8c3f e184 953f 8290 8f3f
00000040: 6051 9d3f 8d47 963f 72cd a13f 6cdf 883f
00000050: a3fe 983f 04d4 b03f bad3 9e3f a38a 9e3f
00000060: c565 903f ce17 923f 7180 933f 2551 8f3f
00000070: e54d a63f 0595 8c3f 5ceb 8c3f aaa6 903f

res_blocks.1.batchnorm2.bias f4 [32]
0.015911264 0.041106444 -0.04632726 0.05500458 0.06972498 -0.07118891 0.030892663 0.118700966
0.12682368 0.12436695 -0.0074406634 -0.00355182 0.17523457 -0.058115177 0.031576704 0.00952274
0.017818483 0.06301293 0.053601466 0.008141996 -0.022882242 0.12919715 0.041396163 0.031877477
0.07012655 -0.083163396 0.046121586 0.059217613 0.019425536 0.009088373 0.020884912 -0.010340239
00000000: 5758 823c 3b5f 283d a7c1 3dbd 7c4c 613d
00000010: f8cb 8e3d 7ecb 91bd 9c12 fd3c 7e19 f33d
00000020: 11de 013e 19b4 fe3d cfd0 f3bb a7c5 68bb
00000030: b170 333e 2e0a 6ebd 9356 013d 4405 1c3c
00000040: 11f8 913c ec0c 813d 368d 5b3d 0266 053c
00000050: 8a73 bbbc 424c 043e 068f 293d f591 023d
00000060: 829e 8f3d 9251 aabd fde9 3c3d 2b8e 723d
00000070: 4d22 9f3c 66e7 143c d616 ab3c 1b6a 29bc

res_blocks.1.batchnorm2.running_mean f4 [32]
0.45479453 -0.07972716 0.091798164 0.049754314 0.36610293 0.12401629 0.08394991 0.448192
0.08480646 0.259908 0.0036366854 0.26559943 0.32612646 -0.3405507 -0.017972182 0.26852107
0.08443238 -0.15090035 0.23670724 -0.26721954 -0.47819024 0.38879317 -0.3763575 0.051672496
0.3576511 0.34237185 -0.2650992 0.3563068 -0.36074194 -0.041632973 -0.057859305 -0.058593024
00000000: d4da e83e fe47 a3bd ad00 bc3d 2ecb 4b3d
00000010: d871 bb3e 41fc fd3d eeed ab3d 6c79 e53e
00000020: 02af ad3d a912 853e 7555 6e3b a6fc 873e
00000030: 0cfa a63e a95c aebe 663a 93bc 987b 893e
00000040: e2ea ac3d 9f85 1abe 6263 723e 00d1 88be
00000050: 5ad5 f4be e60f c73e eeb1 c0be 8aa6 533d
00000060: 0c1e b73e 5d4b af3e 15bb 87be d86d b63e
00000070: 2bb3 b8be 5687 2abd e1fd 6cbd 3dff 6fbd

res_blocks.1.batchnorm2.running_var f4 [32]
0.11037127 0.10963373 0.11924211 0.08332807 0.13084428 0.10453587 0.09246237 0.1296393
0.16875859 0.11552015 0.12789358 0.14674793 0.13487248 0.107292384 0.17891109 0.17082396
0.10895566 0.1566703 0.14035475 0.112093076 0.098490745 0.12667973 0.096606314 0.10703995
0.1541916 0.10439632 0.2098899 0.113859445 0.11780579 0.12936836 0.15798777 0.1439205
00000000: 550a e23d a687 e03d 3535 f43d e8a7 aa3d
00000010: 0bfc 053e e716 d63d e95c bd3d 2ac0 043e
00000020: 0dcf 2c3e d495 ec3d 89f6 023e 1745 163e
00000030: 031c 0a3e 1cbc db3d 7834 373e 7aec 2e3e
00000040: 2524 df3d 2e6e 203e 28b9 0f3e 0e91 e53d
00000050: 84b5 c93d 55b8 013e 88d9 c53d c337 db3d
00000060: 67e4 1d3e bdcd d53d 61ed 563e 242f e93d
00000070: 2944 f13d 2479 043e 8cc7 213e e55f 133e

res_blocks.1.residual_conv.weight f4 [32, 16, 1, 1]
-0.009438614 0.18129525 0.107007645 0.056106217 -0.12122831 0.09361619 -0.11143284 0.06205633
-0.24224336 -0.23863 0.12606348 -0.1777541 0.046081543 -0.19180007 0.03399075 0.026661996
0.09909742 -0.14501907 -0.19874606 0.2469559 0.09608926 -0.045672975 -0.024009187 -0.20317562
-0.12144097 0.12661393 0.080872685 0.18371871 0.06080928 -0.20329781 -0.08357467 0.14459653
0.089993484 0.2256655 -0.12191039 -0.080884025 0.17525548 -0.08623123 0.060256753 0.053676724
-0.15141478 -0.1595448 -0.012624627 -0.096646935 -0.0018844068 -0.12782419 0.036194272 0.020104941
-0.15711065 0.16879316 0.20991106 0.22374457 0.13475426 -0.30399382 0.23165235 0.017492713
-0.23837247 0.11941673 -0.022507666 -0.10511366 -0.054360032 0.04840171 0.2084132 0.17392445
-0.080177315 0.16137025 -0.17964461 0.13285336 0.24873897 0.016252762 -0.14171374 0.17696895
-0.051901028 -0.009416793 0.21103413 -0.059651393 0.098251656 0.23692055 0.08774183 0.17520787
-0.14668658 -0.11410136 0.01291969 0.043568198 0.22725146 -0.04338549 -0.088669285 0.011488143
0.23538154 0.15664539 0.17471738 -0.13642357 0.2022512 -0.055478666 0.15212119 -0.17198499
-0.28988406 -0.12584557 -0.18322149 0.017884651 0.07355138 0.20999172 -0.08529022 0.034848433
0.0194989 -0.31289092 -0.19593431 0.16591336 0.09658553 -0.053094044 0.13910909 -0.2711446
-0.12593487 0.018202245 -0.20454252 -0.007917233 -0.23352149 -0.2563529 0.11175972 0.27571765
-0.23621926 -0.104340896 0.22465979 0.04061352 0.027853357 0.13767746 -0.11901488 0.20877229
0.15771715 0.1821395 -0.26983267 0.018121276 0.20750001 0.18360917 0.20515993 0.04612131
-0.06999 -0.21649839 0.28290242 -0.11650527 0.1803699 -0.061015416 -0.14223449 -0.2107354
0.07368031 0.03346083 0.01649447 -0.19519775 -0.19990267 -0.102092564 -0.08051841 -0.037642103
-0.107042104 -0.15568835 -0.10525988 -0.16692413 -0.028192168 0.0037065297 -0.076425456 -0.13385056
0.17741027 0.013249237 0.20792459 0.10312569 0.16113792 0.045712423 0.033505633 0.050380114
-0.01654671 -0.15760557 -0.16560501 0.089972645 0.122130625 0.2256333 0.016757285 0.15439598
-0.17015395 0.077103905 -0.12389613 -0.08086853 0.16670649 0.2346978 -0.11895256 -0.28721562
-0.21107928 0.007882786 0.087727994 -0.14568415 0.05222377 -0.2357936 -0.25824553 -0.09616431
-0.31317058 -0.2041041 0.2380196 0.20010658 -0.17571746 -0.31108153 0.23189837 -0.13465673
-0.14704728 -0.19185023 0.10249007 0.3128267 -0.12407744 -0.016159842 0.06420848 -0.12924378
0.2451323 0.10515245 0.102341264 0.022150617 -0.09558006 0.2405231 0.07641347 -0.110041745
-0.22012821 0.017042251 -0.002201126 0.24639039 0.21923502 0.149753 0.10760021 -0.16627061
0.017722238 0.07173074 -0.15567482 0.045195386 0.20734349 -0.11915795 0.24357517 0.06126384
-0.1543779 0.00981365 -0.07642529 -0.1018855 -0.22821347 0.07798722 0.06707052 0.14224303
-0.20683406 -0.16884287 0.09685738 -0.018168814 0.21299334 0.052433483 0.03538881 -0.022980673
-0.12865965 -0.02573347 -0.03069457 0.2321022 0.262988 0.2201818 -0.2114423 -0.17236267
00000000: 6ba4 1abc 76a5 393e d326 db3d a2cf 653d
00000010: 8c46 f8bd d8b9 bf3d e736 e4bd c72e 7e3d
00000020: a50e 78be 6c5b 74be c916 013e 2c05 36be
00000030: 00c0 3c3d 3d67 44be e239 0b3d 426a da3c
00000040: 97f3 ca3d e17f 14be 1684 4bbe 02e2 7c3e
00000050: 72ca c43d 9613 3bbd eaae c4bc 450d 50be
00000060: 0bb6 f8bd 15a7 013e 94a0 a53d c220 3c3e
00000070: 2713 793d 4d2d 50be 3229 abbd 1d11 143e
00000080: 814e b83d db14 673e 28ac f9bd 86a6 a5bd
00000090: 2c76 333e 009a b0bd c9cf 763d 20dc 5b3d
000000a0: 7a0c 1bbe b65f 23be 86d7 4ebc d4ee c5bd
000000b0: 33fe f6ba 58e4 02be 7240 143d 1eb3 a43c
000000c0: 9de1 20be 1dd8 2c3e edf2 563e 4c1d 653e
000000d0: 05fd 093e 14a5 9bbe 4636 6d3e e14c 8f3c
000000e0: ea17 74be c290 f43d ff61 b8bc d545 d7bd
000000f0: a0a8 5ebd df40 463d 456a 553e 4019 323e
00000100: 0134 a4bd 3e3e 253e c2f4 37be b60a 083e
00000110: 6eb5 7e3e 8324 853c 681d 11be 5937 353e
00000120: 2c96 54bd e448 1abc 5519 583e 0555 74bd
00000130: 2a38 c93d 4d9b 723e fdb1 b33d b169 333e
00000140: 0235 16be f9ad e9bd 1cad 533c 9174 323d
00000150: 9bb4 683e fcb4 31bd 3e98 b5bd c438 3c3c
00000160: dc07 713e a667 203e 1de9 323e 9fb2 0bbe
00000170: f01a 4f3e 993d 63bd a8c5 1b3e d51c 30be
00000180: af6b 94be a9dd 00be 6a9e 3bbe d582 923c
00000190: 1ba2 963d 1208 573e a4ac aebd 3bbd 0e3d
000001a0: 28bc 9f3c 3d33 a0be 01a3 48be 31e5 293e
000001b0: a2ce c53d 2479 59bd 9d72 0e3e 77d3 8abe
000001c0: 12f5 00be e01c 953c 9873 51be 48b7 01bc
000001d0: 4220 6fbe b040 83be 48e2 e43d dd2a 8d3e
000001e0: 76e3 71be aeb0 d5bd 370d 663e 5d5a 263d
000001f0: b92c e43c 52fb 0c3e 13be f3bd 67c8 553e
00000200: 9b80 213e c782 3a3e 8227 8abe 1273 943c
00000210: e27a 543e 0b04 3c3e 7215 523e b3e9 3c3d
00000220: eb56 8fbd c1b1 5dbe 96d8 903e 519a eebd
00000230: e3b2 383e 4deb 79bd eba5 11be 05cb 57be
00000240: b4e5 963d 390e 093d 691f 873c ebe1 47be
00000250: 49b3 4cbe e815 d1bd d6e6 a4bd 9b2e 1abd
00000260: e438 dbbd c46c 1fbe 7e92 d7bd 29ee 2abe
00000270: 43f3 e6bc 40e9 723b f384 9cbd 1f10 09be
00000280: 0aab 353e 5413 593c 2fea 543e 9033 d33d
00000290: 5701 253e f33c 3b3d 343d 093d 615b 4e3d
000002a0: f78c 87bc 5b63 21be 5c94 29be 9443 b83d
000002b0: 9f1f fa3d 6a0c 673e 9346 893c fb19 1e3e
000002c0: d63c 2ebe a7e8 9d3d 41bd fdbd 669e a5bd
000002d0: 1bb5 2a3e 9f54 703e 669d f3bd ed0d 93be
000002e0: 2b25 58be cd26 013c bcaa b33d 3a2e 15be
000002f0: 98e8 553d e173 71be c238 84be cbf1 c4bd
00000300: e557 a0be aa00 51be 69bb 733e bde8 4c3e
00000310: 47ef 33be 1446 9fbe c476 6d3e 74e3 09be
00000320: 9093 16be 6374 44be 50e6 d13d d22a a03e
00000330: 501c febd a561 84bc bc7f 833d 7b58 04be
00000340: f603 7b3e 2b5a d73d 4c98 d13d 3675 b53c
00000350: 7abf c3bd b04b 763e aa7e 9c3d 915d e1bd
00000360: 4a69 61be 319c 8b3c c440 10bb c34d 7c3e
00000370: 257f 603e da58 193e 805d dc3d d842 2abe
00000380: 3a2e 913c 91e7 923d 3869 1fbe cc1e 393d
00000390: da51 543e 1509 f4bd c56b 793e cbef 7a3d
000003a0: 3d15 1ebe 6ec9 203c dd84 9cbd 58a9 d0bd
000003b0: cbb0 69be c3b7 9f3d 455c 893d 28a8 113e
000003c0: 4fcc 53be 25e5 2cbe 295d c63d c4d6 94bc
000003d0: ed1a 5a3e 7ec4 563d dbf3 103d f741 bcbc
000003e0: 5bbf 03be 00cf d2bc 2e73 fbbc 33ac 6d3e
000003f0: 5da6 863e 5677 613e 5584 58be d77f 30be

res_blocks.1.residual_conv.bias f4 [32]
-0.0984048 0.0022076447 0.1998434 -0.22143227 0.039916214 0.22411603 -0.085834086 -0.025349256
-0.18438753 0.2422395 0.046159137 0.15045922 -0.06704112 -0.2186216 0.21765879 0.15341377
-0.15102641 0.030105408 0.08115316 0.07850635 -0.12399254 0.21104391 -0.20006403 0.21648946
-0.23662916 0.12670793 0.13695747 0.19325963 -0.12454509 -0.07727016 0.06364193 -0.21126585
00000000: 7588 c9bd 22ae 103b c0a3 4c3e 24bf 62be
00000010: 2f7f 233d ac7e 653e c8c9 afbd 3ea9 cfbc
00000020: 16d0 3cbe a20d 783e 5d11 3d3d fb11 1a3e
00000030: db4c 89bd 57de 5fbe f2e1 5e3e 8018 1d3e
00000040: aba6 1abe 9e9f f63c a133 a63d f0c7 a03d
00000050: cdef fdbd e51b 583e 96dd 4cbe 6aaf 5d3e
00000060: ea4e 72be b9bf 013e 943e 0c3e dae5 453e
00000070: 7f11 ffbd d13f 9ebd b356 823d 1356 58be
