Code/model_data/2024-04-29model.pth (torch, 248821 bytes, 44 tensors)

conv1.weight f4 [32, 1, 3, 3]
0	0x3ea96452	0.3308435
1	0xbefdda94	-0.49580824
2	0x3d9fd0ff	0.07803535
3	0xbd1659ae	-0.03670662
4	0x3dda7480	0.10666752
5	0x3c18207f	0.009285091
6	0x3e43b95a	0.19113675
7	0x3bc9222b	0.0061381063
8	0x3ea2cb10	0.3179555
9	0x3df47ce3	0.11937883
10	0x3e8c54dc	0.27408493
11	0xbd4dc8dc	-0.050240383
12	0x3dacc37e	0.08435725
13	0xbe8f1788	-0.2794764
14	0x3d1b6636	0.037939273
15	0xbd516d8d	-0.051129866
16	0xbed55fbc	-0.41674602
17	0xbede32fb	-0.4339827
18	0xbf03126a	-0.5119997
19	0x3df9128a	0.12161739
20	0xbd6b36a9	-0.057425175
21	0xbe8ecac4	-0.27889073
22	0x3d6055c9	0.05476931
23	0x3bd81a7d	0.0065949545
24	0xbf1d5836	-0.61462724
25	0xbe03fc90	-0.12889314
26	0x3d60e6ab	0.054907482
27	0x3dca0ed0	0.098661065
28	0xbe152f96	-0.14568934
29	0xbce09caf	-0.027418463
30	0xbeab0c3c	-0.33407772
31	0xbf11f695	-0.5701688
32	0xbec32c53	-0.38119754
33	0x3e22a16e	0.15881893
34	0xbd6fda71	-0.05855793
35	0x3d56dd9e	0.052457444
36	0x3d43bf97	0.047790136
37	0x3e7138e0	0.23556852
38	0x3e2b7d76	0.16747078
39	0xbeb8ddf0	-0.36106825
40	0xbe42a0ce	-0.19006655
41	0xbea62624	-0.32450974
42	0xbe31d2de	-0.17365596
43	0xbe746221	-0.23865558
44	0xbebe001f	-0.37109467
45	0x3de12573	0.10993471
46	0xbe91b241	-0.2845631
47	0xbf017036	-0.50561845
48	0x3e4fcdec	0.20293397
49	0xbec6b43b	-0.3880938
50	0x3ea2e619	0.31816176
51	0xbbe7daf6	-0.0070756627
52	0xbec6f0d7	-0.3885562
53	0xbebea189	-0.37232617
54	0xbef4d4c5	-0.4781858
55	0x3d9d1d05	0.07671551
56	0x3e291bd0	0.16514516
57	0xbcbc28e1	-0.022968711
58	0x3dd53f17	0.10412424
59	0x3cb76c5b	0.022390535
60	0x3dce8f54	0.100859314
61	0x3ddf38f9	0.108995385
62	0xbecb6fd4	-0.39733756
63	0x3e6d61ff	0.23181914
64	0x3d877ac6	0.06615214
65	0x3d985683	0.07438376
66	0xbe42b0ac	-0.19012707
67	0xbed15aa5	-0.4088947
68	0xbea77bf3	-0.32711753
69	0x3e6ad0a9	0.2293116
70	0xbcd42c2b	-0.025899967
71	0x3e37b5ae	0.17940399
72	0x3e0e08a7	0.13870488
73	0x3df254c3	0.11832573
74	0x3dac266f	0.08405768
75	0xbc6aa5f1	-0.01432179
76	0xbeb4538e	-0.35219997
77	0x3c921c65	0.017835805
78	0xbe2f237f	-0.17103384
79	0xbed95b68	-0.4245255
80	0xbeafda3f	-0.34346196
81	0xbebe4892	-0.37164742
82	0x3d93d432	0.072182074
83	0x3e7b76e5	0.24557073
84	0xbdf0c186	-0.11755662
85	0xbec165c0	-0.37772942
86	0x3e45fbd5	0.19334348
87	0x3ddc5de0	0.10760093
88	0x3e609bbf	0.21934412
89	0x3dbe0b57	0.09279507
90	0x3e2d58e4	0.1692844
91	0x3d4f76a6	0.05065026
92	0x3e90d9e4	0.28291237
93	0xbd980168	-0.07422143
94	0xbebe1276	-0.3712346
95	0xbeb57acd	-0.35445252
96	0xbd641c28	-0.055690914
97	0x3e1c2355	0.15247853
98	0xbe93d8bb	-0.2887629
99	0xbea35748	-0.31902528
100	0xbd8597e3	-0.06523111
101	0x3e3fd824	0.18734795
102	0xbed7b5c8	-0.42130876
103	0x3e590a23	0.21195273
104	0xbda2fc94	-0.07958332
105	0x3e04d7cb	0.12972943
106	0xbea86951	-0.3289285
107	0x3ea454fd	0.3209609
108	0xbea56923	-0.32306775
109	0xbee0e95c	-0.4392804
110	0xbe095043	-0.13409524
111	0xbd24ec61	-0.04026449
112	0xbe86f195	-0.26356187
113	0x3df29a9c	0.11845896
114	0x3e888461	0.26663497
115	0xbe4e711a	-0.20160332
116	0x3e706ec6	0.23479757
117	0x3d0e8fa8	0.03480497
118	0xbd826231	-0.06366385
119	0xbe96d09a	-0.29456025
120	0xbe00f36b	-0.12592857
121	0xbe543bb2	-0.20725897
122	0xbf4d6e70	-0.8024664
123	0x3ddafc0d	0.10692606
124	0xbe0874ab	-0.13325755
125	0xbf08efda	-0.53490984
126	0x3ea62cbb	0.32456002
127	0xbd52317d	-0.051316727
128	0x3d2ff213	0.04295547
129	0xbe26d6d4	-0.16292888
130	0xbe9b81db	-0.3037251
131	0x3de6a07b	0.11261078
132	0xbea1a1a3	-0.31568632
133	0xbe6cf7a5	-0.23141344
134	0x3d6aafef	0.05729669
135	0x3bc603d4	0.006042937
136	0xbe2ebb1a	-0.17063561
137	0x3ea1eeb3	0.31627426
138	0xbe956db9	-0.29185274
139	0xbe1763df	-0.14784192
140	0xbdc34610	-0.09534848
141	0x3b8a8794	0.004227588
142	0xbf0b94cf	-0.5452394
143	0xbe99e58c	-0.30057943
144	0xbf0db47a	-0.5535351
145	0x3db83ab5	0.089955725
146	0x3e9edc82	0.3102761
147	0xbe0a9c1d	-0.13536115
148	0xbe0c976f	-0.13729642
149	0x3e0e61d7	0.1390451
150	0x3e14f6cf	0.14547275
151	0x3e43852a	0.19093767
152	0xbe52a8d7	-0.2057222
153	0x3e9cfc9f	0.30661485
154	0xbdad275a	-0.08454771
155	0xbe857f84	-0.2607385
156	0xbee781b9	-0.45216158
157	0xbd832988	-0.06404406
158	0x3e3b82eb	0.1831166
159	0x3e7bd6f8	0.24593723
160	0xbd524c30	-0.05134219
161	0x3d979ea8	0.07403308
162	0xbe29b76b	-0.16573875
163	0x3d9cc01b	0.07653829
164	0x3e5d357a	0.21602431
165	0x3e30682f	0.17227243
166	0x3e920f34	0.28527224
167	0x3e167cb2	0.14696005
168	0x3e2a4c71	0.16630723
169	0xbe0b1b1f	-0.13584565
170	0xbe86ca7f	-0.26326367
171	0xbe25f38e	-0.1620619
172	0x3e727eb9	0.23681153
173	0xbde5c43e	-0.11219071
174	0xbdbf8362	-0.09351231
175	0xbcff9da7	-0.031203104
176	0x3eb1b65a	0.34709436
177	0x3e8c43a2	0.2739535
178	0xbe8e6f7a	-0.27819425
179	0xbef9f0f3	-0.48816642
180	0x3e09853b	0.1342973
181	0xbcd4ae44	-0.025962003
182	0x3e05f093	0.13080053
183	0xbeed0fd8	-0.4630115
184	0xbe2b7211	-0.16742732
185	0xbc477c3b	-0.012175615
186	0xbf20e42c	-0.6284816
187	0x3e92c0d2	0.28662735
188	0xbdaa2e44	-0.08309606
189	0x3d7cbed6	0.061705433
190	0xbed200a2	-0.41016108
191	0xbba62b32	-0.0050710673
192	0x3d87f9d5	0.066394486
193	0xbf2f2daf	-0.6842908
194	0xbb92f298	-0.004484486
195	0x3d44b450	0.048023522
196	0xbee19e02	-0.44065863
197	0xbc97bbdd	-0.018522197
198	0x3ed3c2ae	0.41359466
199	0x3e638231	0.22217633
200	0x3e977f1e	0.2958917
201	0x3d081094	0.033218935
202	0xbe4f58d8	-0.20248735
203	0x3e220c91	0.15825106
204	0xbc82ce4d	-0.015967513
205	0x3e0ab52d	0.13545676
206	0xbde99f1d	-0.114073016
207	0xbe4e4b22	-0.20145848
208	0x3d530435	0.051517684
209	0xbc4293dc	-0.011876073
210	0xbf315e31	-0.6928435
211	0xbe60dccc	-0.21959227
212	0x3e21113f	0.15729235
213	0xbf33a2f9	-0.7017055
214	0x3e3e608e	0.1859152
215	0xbe672742	-0.2257357
216	0x3d505ec9	0.050871644
217	0x3e295bf6	0.16538987
218	0xbf148703	-0.5801851
219	0x3cbcabcf	0.023031143
220	0x3e5a96e5	0.21346624
221	0xbed5b1b9	-0.41737154
222	0xbe3af2c7	-0.18256675
223	0x3e159c9a	0.1461052
224	0x3e06b15e	0.13153598
225	0xbe97887d	-0.2959632
226	0x3e6d924f	0.23200344
227	0xbe9a6aac	-0.3015951
228	0xbed49828	-0.41522336
229	0x3c28e0f8	0.010307543
230	0xbb2666e7	-0.0025390924
231	0xbee9607f	-0.45581433
232	0x3cbefc73	0.023313737
233	0xbd5b9d4a	-0.0536168
234	0xbe28dba0	-0.1649003
235	0xbe420381	-0.18946649
236	0x3eac8592	0.33695656
237	0xbf01199b	-0.50429696
238	0x3dc908d1	0.09816135
239	0x3c00d011	0.007862107
240	0x3e102a4f	0.1407864
241	0x3e6aa260	0.22913504
242	0x3d2724c1	0.040806536
243	0x3e3cf69e	0.18453452
244	0xbeba1666	-0.36345214
245	0xbebde797	-0.37090752
246	0x3e31c0d5	0.17358716
247	0x3eafc6d8	0.34331393
248	0x3dd83d77	0.105585985
249	0xbeecfc28	-0.4628613
250	0xbe248e63	-0.16069941
251	0x3e259554	0.16170245
252	0xbebf38f1	-0.3734813
253	0xbe61464e	-0.21999475
254	0xbb84e7ca	-0.0040559517
255	0x3b9cb973	0.0047828495

conv1.bias f4 [32]
0	0xbe84ad5a	-0.25913507
1	0x3e73ad12	0.2379649
2	0x3e935974	0.28779185
3	0x3d814932	0.06312789
4	0x3d7ad931	0.061242286
5	0xbd1401ea	-0.036134638
6	0x3e856451	0.26053098
7	0xbd2fcea3	-0.042921674
8	0xbe80437d	-0.2505149
9	0xbe2ae070	-0.16687179
10	0xbd32884a	-0.043587007
11	0x3e5465be	0.20741937
12	0xbe85bb9b	-0.26119694
13	0xbea7fb64	-0.32808983
14	0x3e984a35	0.29744115
15	0x3e09ee8e	0.13469908
16	0x3e0b1a87	0.13584338
17	0xbea3f6b3	-0.32024154
18	0xbe4c3367	-0.19941483
19	0xbdcdbe06	-0.1004601
20	0xbd28d0e0	-0.041214824
21	0x3ceb5691	0.028727802
22	0x3e11997d	0.14218707
23	0x3d800b0d	0.06252108
24	0xbdf721f0	-0.1206702
25	0xbd79f0ad	-0.061020542
26	0xbe5c34be	-0.21504495
27	0xbd88cc1b	-0.06679555
28	0x3ea9b283	0.33144006
29	0xbedb9723	-0.42888746
30	0xbc230156	-0.009949049
31	0xbd5c3028	-0.053756863

batchnorm1.weight f4 [32]
0	0x3f057aa3	0.52140254
1	0x3f906e56	1.1283672
2	0x3f7f9b7a	0.99846613
3	0x3f9cab6c	1.2239814
4	0x3f5dd13b	0.86647385
5	0x3f791fed	0.9731434
6	0x3f4a1bae	0.78948486
7	0x3f7c6d0b	0.98603886
8	0x3fa44a9f	1.2835273
9	0x3f405f18	0.751451
10	0x3f559543	0.8343088
11	0x3f85e1a2	1.0459483
12	0x3fab7610	1.3395405
13	0x3f9d59ac	1.2292991
14	0x3f6b91da	0.92019427
15	0x3fa18ed3	1.2621711
16	0x3ec396bb	0.38200936
17	0x3f6494ab	0.8928935
18	0x3e5473ca	0.20747295
19	0x3f7083a8	0.9395089
20	0x3fa129b6	1.2590854
21	0x3f90d833	1.1315979
22	0x3f21060e	0.62899864
23	0x3fb8b247	1.4429406
24	0x3f5667a6	0.83751905
25	0x3fc1e9be	1.5149457
26	0x3f3660ad	0.71241266
27	0x3f85ecd0	1.0462894
28	0x3f64ae65	0.89328605
29	0x3f91b237	1.1382512
30	0x3fa186bc	1.2619243
31	0x3ffa3960	1.954876

batchnorm1.bias f4 [32]
0	0xbf56c2c1	-0.8389092
1	0x3c8d7f7a	0.0172727
2	0xbddc5d67	-0.107600026
3	0xbddbff15	-0.107420124
4	0xbcbff049	-0.023430007
5	0x3bd88bb2	0.00660845
6	0xbe2f3ea2	-0.17113736
7	0x3d48842f	0.048954185
8	0xb932c871	-0.00017050073
9	0x3d03f363	0.032214534
10	0xbdbfdbfe	-0.09368132
11	0x3b0c8ad9	0.0021445064
12	0xbb9e3d68	-0.0048290975
13	0xbe47a31e	-0.19495818
14	0xbda34261	-0.07971645
15	0x3c8b9ac6	0.017041575
16	0xbd54deee	-0.051970415
17	0x3d0c4150	0.034241974
18	0xbe9f1ac8	-0.3107512
19	0xbce6f230	-0.028191656
20	0xbc4ed215	-0.01262333
21	0xbdf6942c	-0.1203998
22	0xbcbe0bd2	-0.023198996
23	0xbc8f7b4b	-0.017514845
24	0x3a81a72b	0.0009891739
25	0xbcf037d3	-0.029323494
26	0x3da3c6cf	0.07996904
27	0x3d8d60f6	0.069032595
28	0x3c09ce6d	0.008411032
29	0xbd813331	-0.06308592
30	0xbdd7b4a0	-0.10532498
31	0x3c9e81d9	0.019349026

batchnorm1.running_mean f4 [32]
0	0x3f3c87bb	0.7364461
1	0xbf943556	-1.1578777
2	0xc018f799	-2.3901122
3	0xc016a549	-2.3538382
4	0xc014c4d6	-2.324514
5	0xc028216b	-2.6270397
6	0xbebebffc	-0.37255847
7	0xbec63a95	-0.3871657
8	0xc00742a8	-2.1134434
9	0xbd721164	-0.059098616
10	0xbf81690e	-1.0110185
11	0xbf0438ba	-0.5164906
12	0xbfe8eb34	-1.8196778
13	0xc08ade04	-4.3396015
14	0xbf3fcae7	-0.7491898
15	0xc0126957	-2.2876794
16	0xbe3b8dcc	-0.1831581
17	0xbf06a5ba	-0.5259663
18	0x3f4c1bed	0.7973011
19	0xbf2fddbb	-0.6869771
20	0xbfd82018	-1.6884794
21	0xc02e0c69	-2.7195075
22	0x3ffe5a26	1.9871261
23	0xc04e4d9b	-3.2234867
24	0xbf7f2502	-0.99665844
25	0xc0236c78	-2.5534954
26	0xbe6f9b7f	-0.23399161
27	0xbf52fec1	-0.82419974
28	0xbec67cca	-0.38767081
29	0xc04a613d	-3.162185
30	0xbfab3798	-1.3376341
31	0xc07d4b6b	-3.9577281

batchnorm1.running_var f4 [32]
0	0x446ce156	947.5209
1	0x4540d30d	3085.1907
2	0x45599577	3481.3416
3	0x458ae768	4444.926
4	0x458cbfb6	4503.964
5	0x45586e9c	3462.913
6	0x446e859c	954.08765
7	0x44a988ee	1356.279
8	0x455f5850	3573.5195
9	0x44854d00	1066.4062
10	0x44dc1591	1760.674
11	0x4483086e	1048.2634
12	0x453a4c90	2980.7852
13	0x46043476	8461.115
14	0x44e85cf3	1858.9047
15	0x456a5db7	3749.8572
16	0x4495e5cb	1199.181
17	0x44543e63	848.9748
18	0x44d507ee	1704.2478
19	0x44776173	989.52264
20	0x4526ac4a	2666.768
21	0x458321ba	4196.216
22	0x4503fc0a	2111.7524
23	0x45bb7251	5998.2896
24	0x449c4bb7	1250.3661
25	0x4528da69	2701.6506
26	0x44a98bdb	1356.3705
27	0x448ec167	1142.0438
28	0x4485e6de	1071.2146
29	0x45741b1b	3905.694
30	0x4517728e	2423.1597
31	0x45fb89db	8049.232

res_blocks.0.conv1.weight f4 [32, 32, 3, 3]
0	0xbe0d8238	-0.13819206
1	0xbd19a028	-0.037506253
2	0xbda470d7	-0.08029335
3	0xbe4e5291	-0.20148684
4	0xbe329ce0	-0.17442656
5	0xbd4c51cc	-0.049882695
6	0xbbc6dcea	-0.0060688155
7	0xbb7fab11	-0.0039011876
8	0xbe05598a	-0.13022438
9	0xbe783878	-0.24240291
10	0xbdfeb834	-0.12437478
11	0x3e1b8284	0.15186507
12	0xbe1c9255	-0.15290196
13	0x3d45b325	0.04826655
14	0x3d85675d	0.065138556
15	0xbd1837be	-0.037162535
16	0xbd315b04	-0.04329969
17	0x3ce23a87	0.027615799
18	0x3e7ffdd6	0.24999174
19	0xbd5afc36	-0.053463183
20	0x3d453a5e	0.048151366
21	0x3e200f15	0.15630753
22	0xbc566227	-0.013084925
23	0x3d45a6d6	0.04825481
24	0x3e147d16	0.14500841
25	0x3e45f1bb	0.19330494
26	0x3db05875	0.08610622
27	0xbe26b0f5	-0.16278441
28	0x3d0232da	0.031786777
29	0x3e028cea	0.12749067
30	0xbe927133	-0.2860199
31	0xbe461fff	-0.19348143
32	0x3d0efd7f	0.03490972
33	0xbe96a5bc	-0.2942332
34	0xbe962014	-0.2932135
35	0xbd0ab1d7	-0.033861008
36	0xbd94afc6	-0.072600886
37	0xbe841e86	-0.25804538
38	0xbdad2889	-0.08454997
39	0xbde8a22e	-0.11359058
40	0xbe173104	-0.14764792
41	0x3da94e17	0.082668476
42	0xbcc11848	-0.023571149
43	0xbce70f5a	-0.028205562
44	0x3d53c12e	0.051697902
45	0xbcd604c6	-0.026125323
46	0x3de02d97	0.109461956
47	0x3e07a9cb	0.13248365
48	0x3dbccf40	0.09219217
49	0x3e09f5db	0.13472693
50	0x3e30e525	0.17274912
51	0xbd1ad309	-0.037798915
52	0x3e2108f1	0.15726067
53	0x3e04a4f2	0.12953547
54	0xbc3ca173	-0.011513102
55	0xbbe7ce26	-0.0070741354
56	0xbe4f0b1e	-0.20219085
57	0x3a65f634	0.0008772344
58	0xbd7df9d3	-0.06200583
59	0xbe4c33b3	-0.19941597
60	0xbd2f3ffc	-0.04278563
61	0xbe071838	-0.13192832
62	0xbdb8e117	-0.090273075
63	0xbcf69565	-0.030100534
64	0x3d40ea40	0.0470984
65	0x3d1fc7a7	0.039008763
66	0xbec378f5	-0.3817822
67	0xbda2ba22	-0.07945658
68	0x3d3594a6	0.044331215
69	0xbeb46cc5	-0.35239235
70	0x3b8d2f97	0.0043086517
71	0x3cd429af	0.025898783
72	0xbe6547b4	-0.22390634
73	0xbe76a86b	-0.24087684
74	0xbd3805f9	-0.04492757
75	0xbe267068	-0.16253817
76	0xbe253e4c	-0.16137046
77	0x3d0e8e77	0.034803834
78	0xbca4c444	-0.020113118
79	0x3d89d5fe	0.06730269
80	0x3e8b0285	0.2715036
81	0xbce60978	-0.028080687
82	0xbdf413b3	-0.1191782
83	0xbd8be210	-0.068302274
84	0xbd1dfde6	-0.038572215
85	0xbe80aaed	-0.25130406
86	0xbe0a6da0	-0.13518381
87	0xbd0b10b5	-0.03395148
88	0xbe42c460	-0.19020224
89	0xbe4f377f	-0.20236014
90	0x3d196a08	0.037454635
91	0x3d295a88	0.041346103
92	0xbe515497	-0.20442425
93	0x3bfb7d64	0.00767486
94	0x3d9d4368	0.07678872
95	0x3cdfe091	0.027328761
96	0xbca01db8	-0.019545421
97	0x3db24595	0.08704678
98	0xbd40584c	-0.046959206
99	0xbd51dc5a	-0.051235534
100	0xbda68b5d	-0.0813205
101	0xbd896ed2	-0.067105904
102	0x3dce226e	0.10065161
103	0xbe25736d	-0.16157313
104	0xbde2acbf	-0.11068105
105	0x3e22f2ac	0.15912884
106	0xbe6d03a8	-0.23145926
107	0xbe65f74f	-0.22457622
108	0xbdfa6d11	-0.12227834
109	0xbe2de1a4	-0.16980606
110	0xbd278c03	-0.04090501
111	0xbd623379	-0.05522487
112	0xbdbad4aa	-0.09122594
113	0x3d8e8ba7	0.0696023
114	0xbeb87a77	-0.36030933
115	0xbf044198	-0.5166259
116	0xbe012079	-0.12610044
117	0xbdadd747	-0.084883265
118	0x3d4fc190	0.050721705
119	0x3e685719	0.22689475
120	0xbdd41564	-0.103556424
121	0x3de8c054	0.11364809
122	0x3de95323	0.1139281
123	0xbc94399a	-0.018093873
124	0x3e8e6789	0.27813366
125	0x3e89e392	0.26931435
126	0xbc368ebe	-0.011142431
127	0xbdd0fa72	-0.10204019
128	0xbe27a09b	-0.1636986
129	0x3da8c995	0.08241574
130	0xbe1e3ef5	-0.15453704
131	0xbdadb9d3	-0.08482709
132	0x3dbde695	0.09272496
133	0x3ce9fedb	0.028563907
134	0xbe2af39e	-0.16694495
135	0xbc18bd58	-0.009322487
136	0x3db4be3c	0.08825347
137	0x3e6ab24e	0.2291958
138	0xbdabaca1	-0.08382536
139	0xbde05414	-0.10953537
140	0x3cfaffeb	0.03063961
141	0x3d8a07c9	0.06739766
142	0xbd6ecec8	-0.05830267
143	0x3e2aa1b0	0.16663241
144	0xbd99ad4d	-0.075037576
145	0xbd7def90	-0.061996043
146	0xbdee4ef4	-0.11636153
147	0xbd4c3ae4	-0.04986085
148	0xbc4af26a	-0.012386898
149	0xbdaa3254	-0.083103806
150	0xbde68c6b	-0.11257251
151	0x3c348b56	0.011019548
152	0xbdd9eab5	-0.1064047
153	0xbd9e6522	-0.07734133
154	0xbdb7f583	-0.089823745
155	0xbd7f8b68	-0.062388808
156	0xbd915d85	-0.070979156
157	0xbe344b5f	-0.17606877
158	0x3d8bbea2	0.0682347
159	0xbe025b1f	-0.12730072
160	0xbdbec442	-0.09314777
161	0x3d8af45e	0.067848906
162	0xbd05ee3a	-0.032697894
163	0xbc01b856	-0.007917484
164	0xbcefac61	-0.029257001
165	0xbe2be0e5	-0.16785009
166	0xbd9be75b	-0.07612487
167	0xbe1cb8b5	-0.15304835
168	0xbdbc12e5	-0.09183291
169	0xbdf97294	-0.12180057
170	0x3d03afe5	0.032150168
171	0xbe8b0657	-0.27153274
172	0x3d4f82de	0.050661914
173	0xbe178fe2	-0.1480098
174	0xbdf8114b	-0.12112673
175	0xbcccfb13	-0.025022065
176	0xbe111b20	-0.14170504
177	0x3dae8d29	0.08523018
178	0xbe223e14	-0.15843993
179	0x3e25f1a5	0.16205461
180	0x3e86e5ea	0.26347286
181	0xbd937b78	-0.07201284
182	0xbaab7742	-0.0013081806
183	0x3dc4c51e	0.096079096
184	0xbe411070	-0.18853927
185	0xbd630b0f	-0.05543047
186	0x3d0f2ab1	0.034952823
187	0xbdc7123c	-0.09720275
188	0x3b7bb26e	0.0038405913
189	0xbd8c7b8b	-0.068595015
190	0xbca443f3	-0.020051932
191	0x3ddd2308	0.10797697
192	0xbdf8ffde	-0.12158178
193	0x3da1841c	0.07886526
194	0x3e06b9c6	0.13156804
195	0xbd9cca65	-0.07655791
196	0x3df90bd0	0.12160456
197	0x3dea1c67	0.114311986
198	0xbe36b1e3	-0.17841296
199	0xbe244c33	-0.16044693
200	0xbe33fcf8	-0.17576969
201	0xbe3a6b8e	-0.18205091
202	0xbd5b40df	-0.053528663
203	0xbdc13f42	-0.094358936
204	0xbe3108ae	-0.17288467
205	0xbe15f5be	-0.14644524
206	0xbe006225	-0.12537439
207	0x3e9d7dd7	0.3076007
208	0xbe34813e	-0.17627427
209	0xbc518838	-0.012788825
210	0x3e033bc5	0.12815769
211	0xbe2bcf55	-0.1677831
212	0xbd35f9a3	-0.044427525
213	0x3e6ac558	0.22926843
214	0xbd28025e	-0.041017883
215	0x3d167bf2	0.036739297
216	0xbe32fde7	-0.17479669
217	0x3ce706bb	0.028201452
218	0xbcb17484	-0.021662004
219	0xbe24102c	-0.16021794
220	0x3d60f8ff	0.05492496
221	0xbcf47e95	-0.029845515
222	0xbd480913	-0.04883678
223	0x3d129a03	0.03579141
224	0xbd98aec3	-0.07455208
225	0x3e887d5c	0.26658142
226	0xbbe1594f	-0.0068771015
227	0xbc426f2d	-0.011867327
228	0x3e9040c6	0.28174418
229	0xbd1682cb	-0.036745828
230	0x3dc0fbd3	0.09423032
231	0x3e8495a9	0.25895432
232	0x3e784f6e	0.2424905
233	0x3dc2631e	0.09491561
234	0x3d895260	0.06705165
235	0xbcbce30c	-0.023057483
236	0xbd2e0e43	-0.04249407
237	0x3da12af4	0.07869521
238	0xbe038c5e	-0.12846515
239	0xbe30d1e0	-0.17267561
240	0xbdc10946	-0.09425597
241	0xbe992cec	-0.29917085
242	0xbeadec15	-0.3396918
243	0x3dae5992	0.08513178
244	0xbdaba656	-0.083813354
245	0xbd8476c8	-0.06467968
246	0x3c50a6a2	0.012735041
247	0x3d0f9445	0.03505351
248	0x3ce0ff35	0.027465442
249	0xbdcbd7ec	-0.09953293
250	0x3e0376f7	0.1283835
251	0x3dddae44	0.10824254
252	0xbd48350b	-0.04887871
253	0x3d6847cc	0.056709096
254	0xbda5c91e	-0.08095001
255	0xbe108b79	-0.14115705

res_blocks.0.conv1.bias f4 [32]
0	0x3e68b17a	0.22723952
1	0xbdcd40b6	-0.10022108
2	0xbe02b38b	-0.12763803
3	0xbcc21144	-0.023689874
4	0x3e2197b2	0.15780523
5	0xbc538f2c	-0.012912553
6	0x3d0f4bdf	0.034984466
7	0x3e31fd11	0.17381693
8	0x3e7e1a68	0.2481476
9	0xbe068ee8	-0.13140452
10	0xbd2ebb2d	-0.042658973
11	0x3d40c26a	0.047060408
12	0x3dae9ec1	0.08526374
13	0xbdcad158	-0.099032104
14	0x3d960e2d	0.073269226
15	0xbe87e8eb	-0.2654489
16	0xbc27de99	-0.0102459425
17	0xbe234949	-0.15945925
18	0x3dd51ef9	0.10406298
19	0xbe343a97	-0.17600475
20	0x3c7c609d	0.015403894
21	0x3d966b28	0.07344657
22	0xbe14e551	-0.14540602
23	0xbcd2c013	-0.025726354
24	0x3d1be53a	0.038060404
25	0xbe945a38	-0.2897508
26	0xbd5a5592	-0.053304262
27	0x3daa5a5b	0.08318015
28	0xbd4ba714	-0.049719885
29	0x3e1c54c6	0.15266714
30	0xbc98c97b	-0.01865076
31	0xbd5c118e	-0.05372768

res_blocks.0.batchnorm1.weight f4 [32]
0	0x3fabd208	1.3423471
1	0x3f92a0ce	1.1455324
2	0x3f950d8d	1.164476
3	0x3f6fd8d6	0.9369024
4	0x3f90f475	1.1324602
5	0x3f64ee6c	0.894263
6	0x3f925c94	1.1434503
7	0x3f6cf7f1	0.9256583
8	0x3f80b0a8	1.0053911
9	0x3f76c838	0.9639926
10	0x3f9ebe80	1.2401886
11	0x3fa39ccc	1.2782226
12	0x3f9737e8	1.1813936
13	0x3f5e44e7	0.86823887
14	0x3f80c96f	1.0061473
15	0x3f8e909c	1.1137881
16	0x3fab6b2e	1.3392084
17	0x3fada35b	1.3565477
18	0x3f88d696	1.0690486
19	0x3f58e1af	0.84719366
20	0x3f69159a	0.91048586
21	0x3fc372e3	1.5269436
22	0x3f90336c	1.1265693
23	0x3f6382bf	0.8887138
24	0x3f4848cc	0.7823608
25	0x3fa43972	1.2830031
26	0x3f539805	0.8265384
27	0x3f820a6e	1.0159433
28	0x3f86348a	1.0484784
29	0x3f95fbf3	1.1717514
30	0x3f8a9f70	1.0829906
31	0x3f778549	0.9668775

res_blocks.0.batchnorm1.bias f4 [32]
0	0x3d18102d	0.0371248
1	0xbd37792b	-0.04479329
2	0xbd24eef4	-0.040266946
3	0xbe26f7c8	-0.16305459
4	0xbe1f8ea3	-0.15581755
5	0xbe27aafb	-0.16373818
6	0xbc07a775	-0.008279671
7	0xbd6c0251	-0.057619397
8	0xbc9defad	-0.019279325
9	0x3d4ce167	0.050019648
10	0xbd23e7fd	-0.040016163
11	0xbc3e8796	-0.011629006
12	0xbd373256	-0.04472574
13	0xbc863017	-0.016380353
14	0x3ce3a609	0.027789133
15	0xbb6ef07e	-0.0036459262
16	0xbd132536	-0.03592416
17	0xbd6a5418	-0.057209104
18	0x3ce746ba	0.028231967
19	0xbd0a65f8	-0.03378865
20	0xbc5dc64d	-0.013536048
21	0xbc5bd34b	-0.013417075
22	0xbd43335e	-0.04765641
23	0xbd10973b	-0.035300475
24	0xbd814ec4	-0.063138515
25	0xbd221356	-0.03956922
26	0xbd604414	-0.054752424
27	0xbe07ed4b	-0.13274114
28	0xbd0d9dbd	-0.03457426
29	0xbc384372	-0.011246549
30	0x3ce95c21	0.028486313
31	0xbdbc1312	-0.09183325

res_blocks.0.batchnorm1.running_mean f4 [32]
0	0xbd1a7150	-0.03770572
1	0xbf0a2be2	-0.5397321
2	0xbf4c6913	-0.7984783
3	0xbdac61c8	-0.08417088
4	0x3e1cc2da	0.15308705
5	0xbe83bcbf	-0.2572994
6	0xbf6289be	-0.8849143
7	0xbefa61e3	-0.48902807
8	0xbec66b48	-0.38753724
9	0xbf494950	-0.7862749
10	0xbc085125	-0.008320128
11	0x3e53181c	0.20614666
12	0xbdeb0077	-0.11474698
13	0xbf81215e	-1.0088308
14	0xbf665d7f	-0.89986414
15	0xbfa4a4c0	-1.2862778
16	0xbf05dd0c	-0.52290416
17	0xbea67ebb	-0.32518563
18	0xbf1f8ff6	-0.6232904
19	0xbf8124b2	-1.0089324
20	0xbf7d7a17	-0.9901442
21	0x3f805bd6	1.0028026
22	0xbf5bb077	-0.8581614
23	0xbf8bb88f	-1.0915698
24	0xbf304146	-0.688496
25	0xbf8db40b	-1.107057
26	0xbf6e1123	-0.929949
27	0xbea4d3cf	-0.32192847
28	0xbf6b5707	-0.9192967
29	0xbe87b6fa	-0.26506788
30	0xbf40eaf4	-0.7535851
31	0xbf80a0bf	-1.0049056

res_blocks.0.batchnorm1.running_var f4 [32]
0	0x40b59770	5.674736
1	0x4072d823	3.794442
2	0x4102ce8a	8.175425
3	0x404a2595	3.1585438
4	0x40252167	2.5801637
5	0x40898157	4.2970386
6	0x40cf3a31	6.4758534
7	0x4116a4df	9.415252
8	0x40b9ea67	5.8098636
9	0x40778376	3.8673987
10	0x4003fa82	2.0621648
11	0x3fbe69fd	1.4876095
12	0x4011ae12	2.2762494
13	0x4140cea4	12.050449
14	0x40a15ccb	5.0425773
15	0x4104379a	8.263575
16	0x40c6e468	6.2153816
17	0x40220303	2.5314338
18	0x407b3bf9	3.9255354
19	0x40b20407	5.5629916
20	0x409fe0a7	4.9961734
21	0x3fc681f1	1.5508405
22	0x40b7059e	5.7194357
23	0x413b1ff5	11.695302
24	0x41a00c14	20.005898
25	0x40c75db4	6.2301884
26	0x41530edf	13.191131
27	0x409d05c3	4.9069533
28	0x4096acf0	4.7086105
29	0x406db03a	3.713881
30	0x40cfc517	6.492809
31	0x41889691	17.073519

res_blocks.0.conv2.weight f4 [32, 32, 3, 3]
0	0x3dd39129	0.103304215
1	0x3dd82a67	0.105549626
2	0x3dfa623b	0.12225767
3	0xbdd54d22	-0.104151025
4	0xbd000b01	-0.031260494
5	0xbd8e46e3	-0.06947114
6	0xbe4c1ff6	-0.19934067
7	0xbd59c246	-0.05316379
8	0x3d142613	0.036169123
9	0xbde685c2	-0.11255981
10	0xbe62d1a7	-0.22150289
11	0xbda07272	-0.07834329
12	0x3e028551	0.12746169
13	0x3dc1eafc	0.09468648
14	0xbe4223b6	-0.18958935
15	0x3c748386	0.014923936
16	0xbe031d06	-0.1280404
17	0x3d3871b8	0.045030326
18	0xbe19ed0a	-0.1503183
19	0xbe3ac129	-0.18237747
20	0xbdd7949c	-0.10526392
21	0xbe8bf7be	-0.2733745
22	0xbe6031f7	-0.2189406
23	0xbcebce70	-0.02878496
24	0xbce9685e	-0.028492149
25	0xbe18a6ed	-0.14907427
26	0x3d7df228	0.061998516
27	0xbe69a6f2	-0.22817591
28	0x3cf07d4a	0.029356617
29	0x3dcdf3e0	0.10056281
30	0xbe73b332	-0.23798826
31	0x3d6e50c6	0.0581825
32	0x3da294d6	0.079385445
33	0x3df2eae0	0.11861205
34	0x3d44ead7	0.048075523
35	0x3de20d3a	0.11037679
36	0xbd3f0680	-0.04663706
37	0xbd602e49	-0.05473164
38	0x3c622c5d	0.013804522
39	0x3e9a32eb	0.30116972
40	0x3db109d7	0.08644455
41	0xbe01f46f	-0.126909
42	0x3e8cd250	0.27504206
43	0x3e668219	0.22510566
44	0xbd6a3759	-0.05718169
45	0x3e37e427	0.17958127
46	0x3ca04a07	0.019566549
47	0xbd286872	-0.04111523
48	0xbd9a3a3f	-0.07530641
49	0xbd6792d3	-0.056536507
50	0xbca01664	-0.019541927
51	0xbde5c120	-0.11218476
52	0xbe1c22da	-0.1524767
53	0xbc6d124f	-0.014469697
54	0x3e466399	0.19373931
55	0x3e2aec30	0.16691661
56	0x3d8bd8b2	0.06828441
57	0xbe107d11	-0.14110209
58	0x3d8b122b	0.06790575
59	0xbd427def	-0.04748338
60	0xbed1f6ce	-0.4100861
61	0xbe477e7e	-0.19481847
62	0xbe8b048f	-0.27151915
63	0x3c2d17a3	0.010564717
64	0xbdeca772	-0.11555375
65	0xbd8e6479	-0.069527574
66	0xbcb0d760	-0.021587074
67	0x3bf15757	0.007365148
68	0xbe36cfdc	-0.1785273
69	0xbcb1a5f4	-0.021685578
70	0x3e787e89	0.2426702
71	0x3dc3f9dd	0.09569142
72	0xbe8c40ee	-0.27393287
73	0xbe01e762	-0.12685922
74	0xbe833952	-0.2562967
75	0xbe2fa714	-0.17153579
76	0xbda9bbe5	-0.08287791
77	0xbdd7bc4f	-0.10533964
78	0xbe377865	-0.1791702
79	0x3e14deac	0.14538068
80	0x3d6f8520	0.058476567
81	0x3dfc62cd	0.12323532
82	0xbcb7be84	-0.022429712
83	0xbb40831b	-0.002937502
84	0xbd848a7c	-0.06471726
85	0xbe55f4f1	-0.20894219
86	0xbe36dcf1	-0.1785772
87	0xbe96b9a1	-0.294385
88	0xbe7c6621	-0.24648334
89	0xbe6ef1fa	-0.23334494
90	0xbc028e7a	-0.007968539
91	0x3d22e44f	0.039768513
92	0x3d66987f	0.056297775
93	0x3e348c91	0.17631747
94	0x3e965a08	0.29365563
95	0x3ea9ac3f	0.33139226
96	0xbd6b5133	-0.057450484
97	0x3e4c42cc	0.19947356
98	0x3e87e6b7	0.2654321
99	0x3d189202	0.03724862
100	0xbc401575	-0.011723866
101	0x3d51cfad	0.051223446
102	0x3d66e6d1	0.056372467
103	0x3d52b51a	0.051442243
104	0x3c835715	0.016032735
105	0x3de9617e	0.11395548
106	0xbce04f0c	-0.027381442
107	0x3e0aa9f9	0.13541402
108	0xbd769635	-0.060201842
109	0xbe058c8e	-0.13041899
110	0xbdbee55a	-0.09321089
111	0xbd8dcea5	-0.0692418
112	0x3d9b856f	0.0759381
113	0x3cffaee9	0.031211333
114	0x3eb12001	0.3459473
115	0x3e2b8151	0.16748549
116	0xbe1762e3	-0.14783816
117	0x3e441111	0.19147135
118	0x3e4d2b75	0.20036109
119	0x3e1ec789	0.15505804
120	0x3e466529	0.19374527
121	0x3db88b07	0.09010892
122	0x3ce8b281	0.02840543
123	0xbe3c534b	-0.18391149
124	0xbdf59004	-0.119903594
125	0xbe23b5ee	-0.1598737
126	0xbd8b3597	-0.06797331
127	0xbe09f094	-0.1347068
128	0xbdeb1052	-0.11477722
129	0xbe8fe576	-0.28104752
130	0xbeaf9963	-0.34296712
131	0xbe8a62d4	-0.27028525
132	0x3a10a725	0.00055180705
133	0xbd2768fd	-0.04087161
134	0x3ca5e23f	0.020249484
135	0xbc9d3fba	-0.019195426
136	0x3d572dd9	0.052533958
137	0x3dc4a1c3	0.09601166
138	0xbe325dd2	-0.17418602
139	0xbdb3a512	-0.08771719
140	0xbd9f2c4e	-0.07772122
141	0xbe08a24d	-0.13343163
142	0x3bc869cb	0.006116127
143	0x3cf1c445	0.029512534
144	0x3dec3db2	0.11535205
145	0xbd32d15a	-0.043656684
146	0x3e02a996	0.12760004
147	0xbd7cd719	-0.06172857
148	0xbe06675d	-0.13125367
149	0xbc7d082c	-0.015443843
150	0xbe1668fe	-0.14688489
151	0xbd69050d	-0.056889582
152	0x3e1b8bf0	0.151901
153	0x3e140b7a	0.14457503
154	0x3d8b2ab3	0.067952536
155	0x3cf57f77	0.029968007
156	0xbe328561	-0.17433693
157	0xbe5a6e62	-0.2133117
158	0xbe0ec3d5	-0.13941891
159	0xbe54d41b	-0.20784037
160	0xbe4b4b8f	-0.19853042
161	0xbe3c2749	-0.18374361
162	0x3b3a8d1a	0.002846545
163	0x3bad1ef7	0.0052832323
164	0x3dbcc433	0.092171095
165	0xbe5066e8	-0.20351756
166	0xbd019733	-0.031638335
167	0x3db486f4	0.08814803
168	0xbd53f278	-0.051744908
169	0xbe14df47	-0.14538299
170	0x3d0b9792	0.034080096
171	0xbe03f552	-0.12886551
172	0xbd9f4366	-0.07776527
173	0xbdde8fce	-0.10867272
174	0xbdce0ee9	-0.10061438
175	0xbe546536	-0.20741734
176	0xbd7f141f	-0.06227505
177	0xbe76a3f5	-0.24085982
178	0xbdf1bcd4	-0.11803594
179	0xbe160d95	-0.14653619
180	0xbe224b2d	-0.1584899
181	0xbe23c4f2	-0.15993097
182	0xbe4cceed	-0.20000811
183	0x3c80defd	0.01573133
184	0xbd026184	-0.03183128
185	0x3d890056	0.06689517
186	0xbe724fe9	-0.23663296
187	0xbdab0da3	-0.083522104
188	0x3d6f9bb4	0.0584981
189	0xb817a4d6	-3.615472e-05
190	0x3e2ba749	0.16763033
191	0x3e77ad4b	0.241872
192	0x3d0b420a	0.033998527
193	0x3e15b777	0.14620768
194	0x3e52730d	0.20551701
195	0x3d0ebd1a	0.03484831
196	0x3e871ea2	0.26390558
197	0x3e5cfedb	0.21581595
198	0xbdd4b994	-0.10386959
199	0xbe61cd67	-0.22051011
200	0xbca8e80b	-0.02061846
201	0xbe8a5629	-0.2701886
202	0xbe0fa7a7	-0.14028798
203	0x3d631019	0.055435274
204	0x3db2d6f0	0.08732402
205	0xbe01cbe5	-0.12675436
206	0x3cf46b74	0.029836394
207	0x3e3396e4	0.17538029
208	0x3dfe43dd	0.12415288
209	0x3d44db8b	0.048060935
210	0xbe6ad6f9	-0.22933568
211	0xbe2b5816	-0.16732821
212	0xbe0a0450	-0.13478208
213	0x3cacf033	0.02111063
214	0x3d823e14	0.06359497
215	0x3d909c47	0.070610575
216	0x3df23ed5	0.118283905
217	0x3e0263e9	0.12733425
218	0x3c7fb91a	0.0156080965
219	0xbde5fc9e	-0.112298235
220	0xbdfc222f	-0.123112075
221	0xbdc78f8c	-0.09744176
222	0xbe5c35d0	-0.21504903
223	0xbd4a4893	-0.04938562
224	0xbe400239	-0.18750848
225	0x3dcfc6a3	0.10145309
226	0x3d56b9e6	0.05242338
227	0x3e20736c	0.1566903
228	0xbf056fa9	-0.52123505
229	0xbe644cc1	-0.22294904
230	0xbe32caf9	-0.1746024
231	0x3e98f36f	0.29873225
232	0x3e81ed55	0.25376382
233	0x3e45228a	0.19251457
234	0xbeb362dc	-0.3503636
235	0xbe8ab6c9	-0.2709258
236	0xbe30e178	-0.1727351
237	0xbe05dd13	-0.13072614
238	0xbe21bb67	-0.15794145
239	0xbe1e9969	-0.15488209
240	0xbdeed230	-0.11661184
241	0xbe12b048	-0.14325058
242	0xbe33f1b3	-0.1757267
243	0xbd3d7b3e	-0.04626011
244	0x3d0c627d	0.034273613
245	0xbdb2a828	-0.087234795
246	0xbe3ca66f	-0.18422864
247	0xbc5269ea	-0.012842635
248	0x3d41f1e5	0.04734983
249	0x3e7c4091	0.24634005
250	0x3e93e1ba	0.28883153
251	0x3eac6651	0.3367181
252	0xbd2dfe3a	-0.042478777
253	0xbd15142a	-0.036396183
254	0xbd85d4d9	-0.06534738
255	0xbd6528c0	-0.055947065

res_blocks.0.conv2.bias f4 [32]
0	0xbe140317	-0.14454304
1	0xbda587fa	-0.08082576
2	0xba94c10e	-0.0011349039
3	0xbd983689	-0.07432277
4	0x3dd8030d	0.10547457
5	0xbb13f641	-0.0022577199
6	0xbd59d468	-0.053181082
7	0xbda203c8	-0.079108775
8	0x3b755e7f	0.0037440357
9	0xbd803f8a	-0.06262119
10	0xbe2701a2	-0.16309217
11	0x3df32ac9	0.11873395
12	0x3d28b8b8	0.041191787
13	0x3d4db312	0.050219603
14	0x3da6e87a	0.0814981
15	0xbcfd1d8f	-0.030897884
16	0xbe43cdad	-0.19121428
17	0x3d23851e	0.039921872
18	0x3e602539	0.218892
19	0x3d9fb93a	0.07799001
20	0xbc310197	-0.010803602
21	0x3e39e5d0	0.18154073
22	0x3d9eec69	0.077599354
23	0xbd03a04c	-0.032135293
24	0xbe0c4c1d	-0.1370091
25	0x3dac149c	0.084023684
26	0x3e404a7e	0.18778417
27	0xbd6af481	-0.057362083
28	0xbd5e8296	-0.054323755
29	0xbad76887	-0.001643435
30	0xbd939805	-0.0720673
31	0x3d7b81fa	0.061403252

res_blocks.0.batchnorm2.weight f4 [32]
0	0x3f863314	1.0484338
1	0x3f8f3569	1.1188174
2	0x3f736321	0.95073134
3	0x3f8bfb80	1.0936127
4	0x3f88d823	1.069096
5	0x3f82be7f	1.0214385
6	0x3fa26f86	1.2690284
7	0x3f9e6c3f	1.2376784
8	0x3f8d1037	1.1020573
9	0x3f9be2ef	1.217863
10	0x3fabf3ad	1.3433739
11	0x3f928afa	1.1448662
12	0x3fa19863	1.262463
13	0x3f5ac6f8	0.8545985
14	0x3f9a242e	1.2042291
15	0x3f924e75	1.1430193
16	0x3f95cb89	1.1702739
17	0x3f9185e3	1.1368984
18	0x3fb41ab3	1.4070648
19	0x3faef3e2	1.3668177
20	0x3f9acd22	1.2093852
21	0x3f75adc9	0.959683
22	0x3f7c9076	0.9865793
23	0x3f8c9341	1.0982438
24	0x3f827f60	1.0195122
25	0x3f885f4b	1.0654081
26	0x3f90eba2	1.132191
27	0x3faedabb	1.3660501
28	0x3fae10a0	1.3598824
29	0x3fa5ca47	1.2952355
30	0x3fa23b12	1.2674277
31	0x3f5763b6	0.8413652

res_blocks.0.batchnorm2.bias f4 [32]
0	0xbe291e54	-0.16515476
1	0x3c307096	0.01076903
2	0xbe064c95	-0.13115151
3	0xbe30b996	-0.17258295
4	0xbc3e70b8	-0.011623554
5	0x3dc7567a	0.09733291
6	0xbeec73a1	-0.46181968
7	0x3d2bcc30	0.041942775
8	0x3d748350	0.05969554
9	0x3c9a5760	0.018840492
10	0xbe925620	-0.28581333
11	0x3e72f705	0.23727043
12	0x3d52f5f2	0.051504083
13	0x3e6faf41	0.23406698
14	0xbe2f42d8	-0.17115343
15	0x3e8b475d	0.27202883
16	0xbd51939a	-0.051166154
17	0xbf21225b	-0.6294305
18	0x3d1e5c4e	0.038662247
19	0xbe5f61e8	-0.21814692
20	0xbcf745c3	-0.030184632
21	0x3e965203	0.29359445
22	0xbd8b1523	-0.06791141
23	0x3bdb443b	0.0066914833
24	0xbd2b2d4d	-0.04179125
25	0xbd81841c	-0.06324026
26	0x3e17983f	0.14804171
27	0xbee7eedf	-0.45299432
28	0x3deddd23	0.11614444
29	0x3df314c9	0.11869199
30	0x3dd80a83	0.1054888
31	0xbd6503e6	-0.05591192

res_blocks.0.batchnorm2.running_mean f4 [32]
0	0xbf180cfa	-0.593948
1	0x3e5d4517	0.21608387
2	0xbef954ba	-0.48697454
3	0xbd705f5e	-0.0586847
4	0x3dc00000	0.09375
5	0xbe184aae	-0.14872238
6	0x3d6722cb	0.056429666
7	0xbe8861ee	-0.26637214
8	0xbece83cd	-0.4033493
9	0x3e11bb87	0.14231692
10	0xbf34df51	-0.70653254
11	0xbd6f1812	-0.058372565
12	0x3f50c9c8	0.81557894
13	0xbf072cad	-0.52802545
14	0xbe655a8b	-0.2239782
15	0x3e4f12c9	0.2022201
16	0xbe895862	-0.26825243
17	0x3e8e2f3f	0.2777042
18	0x3e0875ca	0.13326183
19	0x3e6170dd	0.2201571
20	0xbd5ac536	-0.05341073
21	0x3f116350	0.56792164
22	0x3ec74452	0.38919312
23	0xbf7b692d	-0.9820736
24	0xbe325bfb	-0.174179
25	0x3ef98ee4	0.4874183
26	0x3e8da720	0.2766657
27	0xbf1a46a4	-0.6026404
28	0x3e0d8772	0.138212
29	0xbe3c0b64	-0.1836372
30	0x3f0c0ac6	0.5470394
31	0xbf4c2515	-0.7974408

res_blocks.0.batchnorm2.running_var f4 [32]
0	0x3e2e524c	0.17023581
1	0x3d9f38a9	0.07774479
2	0x3dbd03c2	0.09229232
3	0x3d73debd	0.05953859
4	0x3d216b0b	0.039408725
5	0x3daaa283	0.08331778
6	0x3d810cda	0.06301279
7	0x3d3d8a2f	0.04627436
8	0x3de1ee73	0.11031809
9	0x3d5b2d23	0.053509843
10	0x3dca7951	0.098864205
11	0x3d27045a	0.040775634
12	0x3d8feda3	0.070277475
13	0x3d9b9a0e	0.07597743
14	0x3db02cb9	0.0860228
15	0x3ddece11	0.10879148
16	0x3dbaca78	0.09120649
17	0x3da75422	0.08170344
18	0x3d948965	0.072527684
19	0x3d4bef93	0.049789023
20	0x3db91dec	0.0903891
21	0x3e18dba7	0.1492754
22	0x3e02de84	0.12780195
23	0x3df67125	0.12033299
24	0x3db3c52e	0.087778434
25	0x3dc1ace9	0.09456808
26	0x3d7824c1	0.060581926
27	0x3d57c41a	0.05267725
28	0x3d993d01	0.07482339
29	0x3d10c7be	0.03534674
30	0x3dbd65df	0.09247946
31	0x3e15cf87	0.14629947

res_blocks.1.conv1.weight f4 [32, 32, 3, 3]
0	0xbe2770ee	-0.16351673
1	0xbe2bedd4	-0.16789943
2	0xbe8de4bf	-0.27713582
3	0xbe76db02	-0.24106982
4	0xbe451c94	-0.19249183
5	0xbe743eea	-0.23852125
6	0xbe5ff84f	-0.21872066
7	0xbe1569b1	-0.145911
8	0xbe95e094	-0.29272902
9	0xbe2f32b2	-0.17109182
10	0xbe1b9720	-0.15194368
11	0xbe59f9ba	-0.2128667
12	0x3e3157cc	0.17318648
13	0x3e0f9daa	0.14024988
14	0x3e15da57	0.14634071
15	0xbe5a6d13	-0.21330671
16	0xbd88792f	-0.06663739
17	0xbc18bb00	-0.009321928
18	0x3e379c77	0.1793078
19	0x3d0ef899	0.03490505
20	0x3e419c52	0.18907288
21	0xbd6c2cda	-0.05765996
22	0xbd4a9efd	-0.04946803
23	0x3e09aa15	0.13443787
24	0xbdffdeef	-0.12493693
25	0xbdc296a9	-0.095013924
26	0x3d0a0bdc	0.033702716
27	0xbd13571c	-0.035971746
28	0x3c11feb6	0.0089108255
29	0xbd5d3fae	-0.054015808
30	0xbda20cb0	-0.07912576
31	0x3d6ceb69	0.057841692
32	0x3da0ed83	0.07857802
33	0xbe325851	-0.17416503
34	0xbdd2fa77	-0.10301679
35	0x3aaae783	0.0013038967
36	0x3d95429c	0.07288095
37	0xbd072ec5	-0.033003587
38	0x3cf5e239	0.030015098
39	0x3e8cb36a	0.27480632
40	0x3c89918f	0.01679304
41	0x3e73ca47	0.23807631
42	0xbe3ce074	-0.18444997
43	0xbebe1be0	-0.37130642
44	0xbc7b1457	-0.015324674
45	0xbdfd29b7	-0.12361472
46	0xbbbdecd9	-0.0057960567
47	0x3c40da01	0.011770726
48	0x3d47e91e	0.048806302
49	0x3d697c5c	0.057003364
50	0x3df18d3a	0.11794515
51	0xbd78ba96	-0.060724817
52	0x3da0aefa	0.07845874
53	0x3d36582f	0.044517692
54	0xbd5ba113	-0.05362041
55	0x3c8d4f16	0.017249625
56	0xbd600877	-0.054695573
57	0xbd4ebbc8	-0.05047205
58	0x3d8089c3	0.06276276
59	0x3dcb75fd	0.09934614
60	0xbdc51d54	-0.096247345
61	0xbe0b2328	-0.1358763
62	0xbdaf4567	-0.08558159
63	0x3d9be5a9	0.076121636
64	0xbcf446ef	-0.02981898
65	0x3c22271f	0.0098970225
66	0x3cb4e28e	0.022080686
67	0x3d362021	0.044464234
68	0x3dd0774f	0.10179006
69	0xbdfd01b9	-0.12353844
70	0xbe1366d8	-0.143947
71	0xbcb67299	-0.022271441
72	0x3d9d5c9c	0.076836795
73	0x3c7007c6	0.014650291
74	0xbd84293e	-0.06453179
75	0x3d1ad0dd	0.037796844
76	0x3b28c358	0.00257512
77	0x3d99f144	0.07516721
78	0x3e54b133	0.20770721
79	0x3dd7fdea	0.10546477
80	0x3e49133c	0.19636244
81	0xbd97a2c9	-0.07404096
82	0xbde227c1	-0.11042739
83	0x3ce26844	0.027637608
84	0xbdb30453	-0.08741059
85	0xbdce270b	-0.100660406
86	0x3cbf90b5	0.023384431
87	0xbe428953	-0.18997698
88	0xbd8c1b40	-0.06841135
89	0xbe076240	-0.13221073
90	0xbd4b826f	-0.049684938
91	0xbd187e8f	-0.03723007
92	0xbd966046	-0.073425815
93	0xbe3701b3	-0.17871742
94	0xbddf0771	-0.10890091
95	0xbe42101c	-0.18951458
96	0xbe38eada	-0.18058339
97	0xbd265191	-0.04060513
98	0xbe26a2b2	-0.16273001
99	0x3dbd5398	0.0924446
100	0x3e2682ae	0.16260788
101	0x3e2b7324	0.16743141
102	0x3d451786	0.048118137
103	0x3e77f060	0.2421279
104	0x3e82cb6a	0.25545818
105	0xbeb09bac	-0.34493768
106	0xbe56981e	-0.20956466
107	0x3d3e380c	0.04644017
108	0xbe5ca7d4	-0.21548396
109	0xbe1aea1c	-0.15128368
110	0xbe249e4f	-0.16076015
111	0xbe4b5988	-0.19858372
112	0xbe8041d4	-0.25050223
113	0xbebb73e0	-0.36611843
114	0xbd9f70f4	-0.07785216
115	0xbd344d2d	-0.044018913
116	0xbdbe3144	-0.092867404
117	0xbd6af111	-0.057358805
118	0x3d861eb4	0.06548825
119	0x3ce4aaee	0.027913537
120	0x3c048c82	0.00809014
121	0x3e06204f	0.13098262
122	0x3de4ace1	0.111657865
123	0xbe369ca5	-0.17833193
124	0xbd80af1b	-0.06283399
125	0xbde44640	-0.111462116
126	0x3d4021f7	0.04690739
127	0xbddfe41d	-0.10932181
128	0x3dbf0292	0.09326662
129	0xbdb04344	-0.0860658
130	0xbcae5508	-0.02128078
131	0x3de7434a	0.11292131
132	0xbe82e918	-0.2556846
133	0xbdc34c1d	-0.09536002
134	0xbd088ebb	-0.033339243
135	0xbd86e9dc	-0.06587574
136	0xbd8fd47c	-0.0702295
137	0xbdb5e5a6	-0.088816926
138	0xbda16038	-0.078796804
139	0xbe11312e	-0.14178917
140	0xbe131fe0	-0.14367628
141	0xbd01ac48	-0.03165844
142	0x3cf05322	0.029336516
143	0xbcc13ec0	-0.023589492
144	0xbd6afe58	-0.057371467
145	0x3cff60ac	0.031174026
146	0x3d164c37	0.036693778
147	0xbdc8287e	-0.09773348
148	0x3dd25684	0.10270408
149	0x3d1681f9	0.036745045
150	0xbec5d159	-0.38636282
151	0xbe7d6bcc	-0.24748152
152	0xbe2645bf	-0.16237544
153	0xbd9fce09	-0.0780297
154	0xbd66a648	-0.056310922
155	0xbbb6d20f	-0.00557924
156	0xbe22d044	-0.1589976
157	0xbd67951e	-0.056538694
158	0xbe25cb81	-0.16190912
159	0xbdb79449	-0.0896383
160	0xbdb4c983	-0.08827498
161	0x3c7ee805	0.015558247
162	0x3e3447f1	0.17605568
163	0x3db60bcd	0.088889696
164	0x3caa89d0	0.020817667
165	0x3e4802ac	0.19532269
166	0xbdfbc5a4	-0.12293556
167	0x3dfbe3c1	0.122993
168	0xbcaa1c72	-0.020765517
169	0xbe97366a	-0.29533702
170	0x3cdcbb64	0.026944824
171	0x3e1ae528	0.15126479
172	0x3ca022cf	0.019547848
173	0x3c39aca4	0.011332665
174	0x3dddbdcf	0.10827219
175	0xbe2e41f9	-0.17017354
176	0x3e098707	0.13430415
177	0xbe340f58	-0.17583978
178	0xbe495198	-0.19660032
179	0xbcd8591d	-0.02640968
180	0x3e063b5b	0.1310858
181	0xbc85174d	-0.016246462
182	0x3e291bb4	0.16514474
183	0x3e15f751	0.14645125
184	0xbd174b04	-0.036936775
185	0x3e75eb17	0.24015461
186	0xbe590bbe	-0.21195886
187	0xbe300553	-0.17189531
188	0x3dea128b	0.11429318
189	0xbdf31a2d	-0.11870227
190	0xbddd7869	-0.10813982
191	0xbded598c	-0.11589345
192	0x3d91cee7	0.071195416
193	0x3de0af40	0.10970926
194	0x3dd12aad	0.10213218
195	0xbe391e8c	-0.18078059
196	0xbe2dcd56	-0.1697286
197	0x38173200	3.604777e-05
198	0xbe21e76e	-0.1581094
199	0xbd9bd66e	-0.076092586
200	0x3c8eefcd	0.01744833
201	0xbdd9cbfb	-0.10634609
202	0x3cad9f86	0.02119423
203	0xbd996a4c	-0.07490978
204	0xbd9caa5f	-0.07649683
205	0xbdb025b7	-0.086009435
206	0xbc0a096a	-0.008425096
207	0x3e69cfdb	0.22833197
208	0x3e5f5daa	0.21813074
209	0x3e92fc32	0.28708035
210	0x3d6ae29b	0.057345014
211	0x3e12aa74	0.14322835
212	0x3e76f163	0.24115519
213	0xbea6d321	-0.32582954
214	0xbe6473ee	-0.22309849
215	0xbdec0038	-0.11523479
216	0xbd27baec	-0.040949747
217	0xbdaa76d2	-0.083234444
218	0xbd24f191	-0.04026944
219	0xbddd061d	-0.10792182
220	0xbda7baf9	-0.08189959
221	0xbcce77f1	-0.025203677
222	0xbe13a691	-0.14419009
223	0x3bff1618	0.007784616
224	0xbcfe11a1	-0.031014265
225	0xbe3b8d55	-0.18315633
226	0xbe25fb7c	-0.16209215
227	0xbe279eff	-0.16369246
228	0x3c185469	0.009297469
229	0x3dd956e7	0.106122784
230	0x3dde4a3c	0.10854003
231	0xbdb60900	-0.08888435
232	0xbda35c59	-0.07976598
233	0x3d00eec0	0.03147769
234	0xbe57dc06	-0.21080026
235	0xbe16eab3	-0.14737968
236	0xbe372ce2	-0.17888215
237	0x3d83bb4e	0.0643221
238	0x3d539837	0.051658835
239	0x3d1e8fca	0.038711347
240	0xbe341efa	-0.17589942
241	0x3d170aec	0.03687565
242	0x3df2630e	0.118352994
243	0xbe2ed34c	-0.17072791
244	0xbe01e508	-0.12685025
245	0xbe260c6b	-0.16215675
246	0x3c50316b	0.012707095
247	0x3bffefa4	0.00781055
248	0xbd2e4460	-0.042545676
249	0xbc8a4cb7	-0.016882284
250	0x3d8bc72c	0.068250984
251	0x3db19802	0.08671571
252	0xbbb18e5e	-0.005418583
253	0xbe1fea2b	-0.15616672
254	0xbdc06cb1	-0.09395731
255	0x3cabfa1d	0.020993287

res_blocks.1.conv1.bias f4 [32]
0	0x3ad2bc56	0.0016077857
1	0xbb93dbaf	-0.0045122723
2	0xbb5b79ea	-0.0033489414
3	0x3cb73578	0.022364363
4	0xbcb1f8c8	-0.021725073
5	0xbce5ab88	-0.028035894
6	0xbcb30cfa	-0.021856774
7	0xbb62efd3	-0.003462781
8	0x3ccd1664	0.02503509
9	0xbcb11431	-0.021616073
10	0xbd5028b9	-0.050820086
11	0xbd4a1bb0	-0.04934281
12	0x3cd07f9f	0.02545148
13	0xbd092498	-0.033482164
14	0xbc9cde51	-0.019148977
15	0xbd16e970	-0.036843717
16	0xbba2194b	-0.004946863
17	0x3cab394d	0.020901347
18	0x3d0a8c4b	0.0338252
19	0x3d1a29a2	0.03763736
20	0xbad01b02	-0.001587719
21	0x3cd8af6e	0.026450839
22	0xbd60c1fb	-0.054872494
23	0xbc086739	-0.008325391
24	0x3d5489f6	0.051889382
25	0x3d2193b7	0.039447512
26	0xbd966b51	-0.07344688
27	0xbbf56a81	-0.007489503
28	0xbd31a431	-0.043369476
29	0xbcee509c	-0.029091172
30	0x3c9ec591	0.019381316
31	0x3d3e7744	0.04650046

res_blocks.1.batchnorm1.weight f4 [32]
0	0x3f71b829	0.9442163
1	0x3f8b3acf	1.0877322
2	0x3f920f61	1.1410943
3	0x3fc1aa93	1.513018
4	0x3f688d34	0.9084046
5	0x3f500446	0.8125652
6	0x3f6a4eba	0.9152638
7	0x3f7d207c	0.9887769
8	0x3f6b4671	0.9190436
9	0x3f70173e	0.93785465
10	0x3f8b6009	1.0888683
11	0x3f3a2079	0.727058
12	0x3fa0d056	1.2563579
13	0x3f6b3e9e	0.9189242
14	0x3f747892	0.95496476
15	0x3f767a1a	0.9628006
16	0x3f7af061	0.9802304
17	0x3f6452ac	0.8918865
18	0x3f938855	1.152598
19	0x3f8d7d4e	1.1053865
20	0x3f958bd6	1.16833
21	0x3f6b2e83	0.91867846
22	0x3f6afafc	0.9178922
23	0x3f4cabd7	0.79949707
24	0x3f6ec26f	0.9326543
25	0x3f0a96f7	0.54136604
26	0x3fb6d643	1.4284137
27	0x3f8452ff	1.0337828
28	0x3f75ca76	0.96012056
29	0x3f9907ac	1.1955466
30	0x3f5cc222	0.86233723
31	0x3f9dcd53	1.2328285

res_blocks.1.batchnorm1.bias f4 [32]
0	0xbe376ea0	-0.17913294
1	0xbe64fdcb	-0.2236244
2	0xbe6fdc95	-0.23423989
3	0xbe0989ea	-0.13431516
4	0xbeb75b89	-0.35812023
5	0xbe64bdeb	-0.22338073
6	0xbcf73ff3	-0.03018186
7	0xbc1e0801	-0.009645463
8	0xbd807d5a	-0.06273909
9	0xbe3c5104	-0.1839028
10	0xbe42184d	-0.18954583
11	0xbe243847	-0.16037093
12	0xbe66013e	-0.22461411
13	0xbe3fcfa9	-0.1873156
14	0xbe6e191e	-0.23251769
15	0xbe52dbe3	-0.20591693
16	0xbdd27192	-0.10275568
17	0xbd6dc700	-0.05805111
18	0xbe60316f	-0.21893857
19	0xbeb22af7	-0.34798405
20	0xbe691c52	-0.2276471
21	0xbe187526	-0.14888439
22	0xbdc3a9f3	-0.095538996
23	0xbea03e9e	-0.31297773
24	0xbd4b61a6	-0.04965367
25	0xbe9d435b	-0.3071545
26	0x3bfd2bd0	0.00772617
27	0xbd49bb2d	-0.04925077
28	0xbe814e11	-0.25254872
29	0xbe58838f	-0.21143936
30	0xbd2ece75	-0.04267736
31	0xbe18b6de	-0.14913508

res_blocks.1.batchnorm1.running_mean f4 [32]
0	0xc0433c6c	-3.0505629
1	0xc0ab95a3	-5.362016
2	0xc11476b1	-9.278977
3	0xc0a0b29d	-5.0218034
4	0xc0879567	-4.2369876
5	0xc136d976	-11.428091
6	0xc117b905	-9.482671
7	0xc10a200c	-8.632824
8	0xc047ae41	-3.1200106
9	0xc0385110	-2.8799477
10	0xc0b9f050	-5.810585
11	0xc154b094	-13.29311
12	0xc0147ef8	-2.3202496
13	0xc13f0fce	-11.941359
14	0xc109a394	-8.602436
15	0xc132af32	-11.167772
16	0xbff11b52	-1.8836462
17	0xc0b34601	-5.6022954
18	0xc09f8c75	-4.9858956
19	0xc0608df8	-3.508665
20	0xc092ca67	-4.5872073
21	0xc0cd89bf	-6.4230647
22	0xc12fafc3	-10.980411
23	0xc0b524ff	-5.660766
24	0xc0c5b36a	-6.178151
25	0xbfd6ce2f	-1.6781672
26	0xc0bbf6a2	-5.8738565
27	0xc10c2cac	-8.760906
28	0xc0c03797	-6.006786
29	0xc111a171	-9.101914
30	0xc084c1a6	-4.1486387
31	0xc07eb7c6	-3.9799666

res_blocks.1.batchnorm1.running_var f4 [32]
0	0x42a0f62e	80.48082
1	0x42a7c3ce	83.88243
2	0x43579c1f	215.60985
3	0x428b0952	69.5182
4	0x42e17a0b	112.738365
5	0x439207dd	292.06143
6	0x437d35a7	253.20958
7	0x4399dffa	307.74982
8	0x43211b3b	161.10637
9	0x41d52d87	26.64723
10	0x42acd031	86.406624
11	0x43c7d2a3	399.6456
12	0x42535695	52.834553
13	0x43a13d67	322.4797
14	0x43b77309	366.8987
15	0x43842f33	264.36874
16	0x427cbf23	63.186657
17	0x424f0819	51.757908
18	0x4212b5ee	36.677666
19	0x42d513ef	106.53893
20	0x426f7ea4	59.873672
21	0x42fd4940	126.64307
22	0x4355f2fe	213.94919
23	0x4334587a	180.34561
24	0x429541bb	74.62838
25	0x427f9bc8	63.90213
26	0x42a32b0a	81.58406
27	0x4314b0cd	148.69063
28	0x4304bfd8	132.74939
29	0x42e7b6d9	115.857124
30	0x42e066e7	112.20098
31	0x426a7bce	58.620903

res_blocks.1.conv2.weight f4 [32, 32, 3, 3]
0	0xbe0db8c9	-0.13840021
1	0xbe0aca86	-0.13553819
2	0xbe5d8640	-0.21633244
3	0x3df0eae8	0.11763555
4	0x3e17db5e	0.14829776
5	0xbd5cc211	-0.053896014
6	0xbd65430a	-0.055972137
7	0x3cb26287	0.021775497
8	0xbe05d6bc	-0.13070196
9	0xbdf6adf9	-0.120449014
10	0x3d6237e8	0.055229098
11	0xbd7193b5	-0.058978755
12	0xbe218b10	-0.15775704
13	0xbdadad75	-0.0848035
14	0xbd60ba2b	-0.054865044
15	0x3e38da08	0.18051922
16	0x3e8c8ee1	0.27452758
17	0x3e924fe3	0.28576574
18	0xbd8280c2	-0.06372215
19	0x3e2f2875	0.17105277
20	0x3e031508	0.12800992
21	0xbe38bed5	-0.18041547
22	0xbe73b8ad	-0.23800917
23	0xbe353639	-0.17696466
24	0x3d03bb06	0.03216078
25	0x3de9e7ce	0.11421166
26	0x3e178c8e	0.14799711
27	0x3d7b3936	0.061333857
28	0xbd22cd79	-0.039746735
29	0xbcb44d74	-0.022009589
30	0xbbf000d5	-0.007324318
31	0xba8c5293	-0.0010705761
32	0xbd8b8053	-0.06811585
33	0xbd948e08	-0.07253653
34	0xbe894bc0	-0.26815605
35	0xbe9c8dc1	-0.305769
36	0x3d4ec4d2	0.05048067
37	0x3e427548	0.18990052
38	0x3e381cf3	0.17979793
39	0xbe1b3e41	-0.15160467
40	0xbe9b8426	-0.3037426
41	0xbeb57abb	-0.35445198
42	0x3e0c1a56	0.13681921
43	0x3ebb1b42	0.36544234
44	0x3e9fcc65	0.31210628
45	0xbe165668	-0.14681399
46	0xbe2a219d	-0.16614385
47	0xbe5ef961	-0.21774818
48	0x3d2d73ea	0.042346872
49	0xbdde887f	-0.10865878
50	0xbdb82238	-0.08990902
51	0xbcd06084	-0.025436647
52	0xbe122d60	-0.14275122
53	0xbe28336c	-0.16425866
54	0xbdd101e3	-0.10205438
55	0xbde50b45	-0.1118379
56	0xbd9f508e	-0.077790365
57	0x3db86799	0.09004135
58	0x3e4a74ee	0.19771168
59	0x3d6671cf	0.05626088
60	0x3db7f94f	0.08983099
61	0xbda2f2e8	-0.07956487
62	0xbe50c0be	-0.20386025
63	0xb92d3c2a	-0.00016520979
64	0x3e889521	0.26676276
65	0x3e2e23c1	0.17005827
66	0xbe2986db	-0.1655535
67	0xbe25be1a	-0.16185799
68	0xbdf8e1c1	-0.12152434
69	0xbeb721f5	-0.35768095
70	0xbdfb576d	-0.122725345
71	0xbe120d99	-0.14263
72	0xbe119ef6	-0.14220795
73	0xbe104fba	-0.14092913
74	0xbe2d4916	-0.16922411
75	0x3d2366ba	0.03989289
76	0x3dc5e41f	0.09662651
77	0x3d9ecf14	0.07754341
78	0xbc774667	-0.015092469
79	0x3e03ee8d	0.12883969
80	0xbe6369ac	-0.2220828
81	0x3e24ef3f	0.1610689
82	0xbc968909	-0.01837589
83	0xbddc249f	-0.107491724
84	0x3d826ade	0.063680395
85	0xbd9ca5d1	-0.076488145
86	0xbd82e9a4	-0.0639222
87	0x3e4be7f2	0.19912699
88	0x3dc3ca13	0.09560027
89	0x3c0eb14b	0.008709262
90	0x3dff2997	0.124591045
91	0x3e0d1ac9	0.13779749
92	0xbcc5f996	-0.024166863
93	0x3e8f848c	0.28030813
94	0x3da24440	0.07923174
95	0x3e83f95e	0.2577619
96	0x3e87a9af	0.26496646
97	0x3d834d2f	0.06411206
98	0x3eac38cc	0.33637083
99	0x3db100a0	0.08642697
100	0x3d6d3f8e	0.05792194
101	0x3d0b870e	0.034064345
102	0x3dab5dbe	0.08367489
103	0x3da68e97	0.081326656
104	0x3dabf493	0.08396258
105	0x3db0066d	0.085949756
106	0x3e1054b1	0.14094807
107	0x3b29054f	0.0025790518
108	0xbd7ce894	-0.06174524
109	0x3de9167d	0.113812424
110	0xbc59fcc6	-0.013304895
111	0x3d5de852	0.054176636
112	0x3de88b75	0.11354724
113	0x3d07b566	0.03313198
114	0xbe3bc02d	-0.18335028
115	0xbeb02d4a	-0.34409553
116	0xbe0f94a0	-0.1402154
117	0xbd2d5aa0	-0.042322755
118	0x3bc5f3fb	0.0060410476
119	0xbc854833	-0.016269779
120	0xbca849ae	-0.020542946
121	0x3cc3ab7d	0.023885483
122	0xbdcf1091	-0.10110582
123	0xbdb1d27c	-0.08682725
124	0xbceb501f	-0.028724728
125	0x3d02daf1	0.03194708
126	0xbde3cab3	-0.11122646
127	0x3d32acad	0.043621708
128	0xbdade210	-0.084903836
129	0xbe5429e5	-0.20719106
130	0xbe01532a	-0.12629381
131	0xbe37a60e	-0.17934439
132	0x3d761a93	0.060083937
133	0x3e21eed3	0.1581376
134	0x3d00773f	0.031363722
135	0x3db78850	0.089615464
136	0x3da7db98	0.08196181
137	0xbb30c321	-0.0026971775
138	0xbd30d990	-0.043176234
139	0x3e013527	0.12617932
140	0x3d9c16b4	0.07621518
141	0xbcf0f10b	-0.029411813
142	0x3e41d2c8	0.18928063
143	0x3e3a8a8b	0.18216912
144	0xbd51948d	-0.05116706
145	0x3b56e3ad	0.0032789514
146	0x3de16fb2	0.11007632
147	0x3c76b209	0.015057095
148	0x3da567ce	0.0807644
149	0x3e109f36	0.14123234
150	0x3bd37e83	0.0064542904
151	0xbcabf8be	-0.020992633
152	0xbc5e13b4	-0.013554502
153	0x3d5ef758	0.054435104
154	0x3d1e1190	0.038590968
155	0xbddbdb7b	-0.10735222
156	0xbd42f0b6	-0.04759284
157	0xbd4e91e9	-0.05043212
158	0xbda423dd	-0.08014653
159	0x3dfba4b4	0.12287274
160	0x3e0947f7	0.13406359
161	0x3cdc8374	0.02691815
162	0xbe401669	-0.18758549
163	0xbcd67b4d	-0.026181841
164	0x3e0c1315	0.13679154
165	0xbe4f1ede	-0.20226619
166	0xbc3b9b47	-0.011450595
167	0xbd69ae49	-0.057050977
168	0xbe97b9a4	-0.2963382
169	0xbd1225b8	-0.035680503
170	0xbcc0c4f2	-0.02353141
171	0xbdf8fccd	-0.12157593
172	0xbdea239a	-0.11432572
173	0xbe5286a3	-0.20559172
174	0xbda44c49	-0.08022363
175	0xbdc07527	-0.09397345
176	0xbd83bdd4	-0.06432691
177	0x3d4e5448	0.050373346
178	0x3d5c5789	0.053794418
179	0xbc2f9673	-0.010717022
180	0x3d634b76	0.055491887
181	0x3d5b7a42	0.05358339
182	0x3df7c743	0.12098553
183	0x3e7b672f	0.2455108
184	0x3d8b0011	0.06787122
185	0x3de2f9e5	0.1108282
186	0x3dd6d032	0.10488929
187	0xbd72f3cd	-0.059314538
188	0xbd9059a2	-0.07048346
189	0xbc988f28	-0.01862295
190	0xbcafe298	-0.021470353
191	0x3c02e1b8	0.007988386
192	0x3d36c803	0.04462434
193	0x3e0c9e67	0.137323
194	0x3dec7b3f	0.11546945
195	0xbb9f3c1a	-0.0048594596
196	0xbced8aa2	-0.02899677
197	0xbd1f8796	-0.038947664
198	0x3df295bd	0.118449666
199	0x3d363f09	0.04449371
200	0xbd0176b8	-0.03160736
201	0x3e23530e	0.15949652
202	0x3e35fa23	0.17771201
203	0x3d91ecbe	0.07125233
204	0x3e402a65	0.18766172
205	0x3e0f4853	0.13992433
206	0x3d4ffe03	0.050779354
207	0x3e4401b6	0.19141278
208	0x3e9df801	0.30853274
209	0x3e75dd12	0.24010113
210	0xbd815495	-0.06314961
211	0xbd06d608	-0.03291896
212	0xbc1ec47e	-0.009690402
213	0xbca4c18a	-0.020111818
214	0x3e251302	0.16120532
215	0x3ce9cc53	0.028539812
216	0x3d4700de	0.04858481
217	0x3e89581a	0.2682503
218	0x3e37dd2a	0.17955461
219	0xbe5defb8	-0.21673477
220	0x3d65e87c	0.056129918
221	0x3cb6642d	0.022264564
222	0xbe6d6224	-0.23181969
223	0x3e537fb6	0.20654187
224	0x3e358760	0.17727423
225	0xbd0db7ef	-0.03459924
226	0xbc117950	-0.008879021
227	0xbd8d0648	-0.06885964
228	0x3c380600	0.011231899
229	0x3cae4ce6	0.021276902
230	0xbd411ba5	-0.047145505
231	0x3e78745a	0.24263135
232	0x3e97208d	0.29517022
233	0x3e830213	0.2558752
234	0x3ce0ba88	0.027432695
235	0x3cd99a1f	0.026562748
236	0x3dafbce0	0.08580947
237	0x3d1930dd	0.037400115
238	0xbca75af6	-0.020429116
239	0x3d14d17b	0.03633259
240	0xbd12d85a	-0.03585086
241	0xbe213aeb	-0.15745132
242	0xbd4ad51b	-0.04951964
243	0xbd98421e	-0.07434486
244	0xbda71da8	-0.08159953
245	0xbe270531	-0.16310574
246	0x3e770727	0.24123822
247	0x3e506baa	0.2035357
248	0x3e005ecb	0.1253616
249	0x3ef0fbf4	0.47067225
250	0x3ebc8bc8	0.36825395
251	0x3e085e75	0.13317282
252	0x3dd391f2	0.10330571
253	0x3dacfa01	0.08446122
254	0x3e50ada5	0.2037874
255	0x3a5b69dd	0.0008369962
