Code/model_data/model_28.4.pth (torch, 40738 bytes, 44 tensors)

conv1.weight f4 [10, 1, 3, 3]
0	0x3e3838dd	0.17990442
1	0x3dbf6628	0.09345657
2	0xbddcb8d2	-0.10777439
3	0x3e2cb652	0.16866425
4	0xbe88a770	-0.26690245
5	0xbef5d09e	-0.48010725
6	0x3e9c7a5d	0.30562106
7	0x3dc3801b	0.095459186
8	0x3df6cbc1	0.12050582
9	0x3daf33bf	0.08554792
10	0x3dcd684f	0.10029661
11	0x3e03988b	0.1285116
12	0x3e2cf411	0.16889979
13	0xbd7a12ab	-0.06105296
14	0x3e1c92e4	0.1529041
15	0xbec2b0c7	-0.38025495
16	0xbf14d811	-0.5814219
17	0xbdfbaa43	-0.12288334
18	0xbf0edb9c	-0.5580385
19	0x3dc511cd	0.09622536
20	0x3d9e6f58	0.07736081
21	0x3e181390	0.14851213
22	0x3e6f0b0d	0.2334406
23	0xbe7503d3	-0.2392724
24	0xbe7d291f	-0.24722718
25	0x3cb46382	0.022020105
26	0xbed5158a	-0.41617996
27	0x3dd087b8	0.10182136
28	0xbe818016	-0.25293034
29	0xbf1a3142	-0.6023141
30	0xbdeeb57e	-0.11655711
31	0x3e46cf9e	0.19415137
32	0x3df7edb8	0.12105888
33	0x3e4185c8	0.1889869
34	0x3c5d2f35	0.013500025
35	0xbe663bd2	-0.22483757
36	0x3daefed7	0.085447006
37	0x3da52866	0.08064346
38	0xbcb2c7f8	-0.021823868
39	0xbeda8546	-0.42679805
40	0xbd04ffff	-0.0324707
41	0xbe05aa9f	-0.13053368
42	0xbea36999	-0.31916502
43	0x3e97971a	0.2960747
44	0xbdff8054	-0.124756485
45	0x3d9e2b35	0.07723085
46	0x3d792d25	0.06083407
47	0xbb929090	-0.0044727996
48	0x39fe187b	0.00048464895
49	0xbe995699	-0.2994888
50	0xbecbc1ed	-0.3979639
51	0xbd3f9e60	-0.046781898
52	0xbf4bcbea	-0.79608023
53	0xbedcd778	-0.4313314
54	0x3eee4892	0.46539742
55	0xbd00740a	-0.031360663
56	0x3d48d571	0.04903168
57	0x3e2c4bfc	0.1682586
58	0x3e1d01ec	0.15332764
59	0x3dfd5ba7	0.12370997
60	0x3ee0852a	0.43851596
61	0x3d6b1896	0.057396494
62	0x3abd0186	0.001442001
63	0xbd922f02	-0.07137872
64	0xbe2b1dc2	-0.1671057
65	0xbe214ed2	-0.15752724
66	0x3eac90fb	0.3370436
67	0xbecb93f1	-0.39761308
68	0xbebbac82	-0.3665505
69	0xbd41c8c6	-0.047310613
70	0x3df7df41	0.12103129
71	0xbe15f838	-0.14645469
72	0xbde6e831	-0.11274756
73	0xbdf484b3	-0.11939373
74	0x3b05f5d7	0.0020440721
75	0xbfad0565	-1.3517271
76	0x3d873439	0.066017576
77	0xbe07fcd9	-0.13280047
78	0xbe25c34e	-0.16187784
79	0xbe093d9a	-0.13402405
80	0x3d088bcc	0.033336446
81	0x3e33a281	0.17542459
82	0x3e90df42	0.28295332
83	0x3e834d51	0.25644925
84	0xbe45545d	-0.19270463
85	0xbebd04f4	-0.3691784
86	0xbe267d26	-0.16258678
87	0xbe91e20c	-0.28492773
88	0xbdf58886	-0.119889304
89	0x3e6a11e9	0.22858395

conv1.bias f4 [10]
0	0xbe3186ca	-0.17336574
1	0x3e567c42	0.20945838
2	0xbe1b9d53	-0.15196733
3	0xbd64918b	-0.055802863
4	0xbd4982ab	-0.04919688
5	0xbe999ac4	-0.3000089
6	0xbcb187d2	-0.02167121
7	0x3e61aa4c	0.2203762
8	0x3d6149d5	0.055002052
9	0xbeeb944d	-0.46011582

batchnorm1.weight f4 [10]
0	0x3f3d13d9	0.7385841
1	0x3f62e3d9	0.8862892
2	0x3f9cf41f	1.2262
3	0x3f70d51a	0.9407517
4	0x3f905b3e	1.1277845
5	0x3ffd3905	1.9783026
6	0x3e94689a	0.28986055
7	0x3f8f22ea	1.118253
8	0x3fc4a441	1.5362626
9	0x3f17fa96	0.5936674

batchnorm1.bias f4 [10]
0	0x3d08438b	0.03326754
1	0x3cabcbc6	0.02097119
2	0x3cbb4f9c	0.02286511
3	0x3e81f077	0.25378773
4	0xbd673fcd	-0.05645733
5	0x3c9d0f7c	0.019172423
6	0xbe261722	-0.16219762
7	0xbccbad33	-0.024862861
8	0x3c9f22f4	0.019425847
9	0x3dfd1a51	0.12358535

batchnorm1.running_mean f4 [10]
0	0xbe1e8b09	-0.15482725
1	0x3dd01f78	0.10162252
2	0xbeb08e06	-0.34483355
3	0xbe3f27cf	-0.1866753
4	0xbe37174f	-0.17879985
5	0xbf32bb30	-0.69816875
6	0x3e957bbd	0.29195967
7	0x3ca7b6ff	0.020473002
8	0xbeba8658	-0.3643062
9	0xbeffde4b	-0.49974284

batchnorm1.running_var f4 [10]
0	0x41e8643e	29.048946
1	0x42907225	72.22294
2	0x4227ee1c	41.98253
3	0x42261e46	41.529564
4	0x41e41848	28.511856
5	0x4363ad92	227.67801
6	0x42abd5b3	85.91738
7	0x424b5a60	50.838257
8	0x43601f6a	224.12271
9	0x424fa586	51.911644

res_blocks.0.conv1.weight f4 [10, 10, 3, 3]
0	0xbd20539d	-0.03914224
1	0x3e00e2d7	0.12586533
2	0xbdd28092	-0.10278429
3	0xbeeaf947	-0.4589331
4	0x3d9a5e11	0.07537473
5	0x3d286dbe	0.041120283
6	0xbed1a4e9	-0.4094613
7	0xbe144265	-0.14478453
8	0x3db36b19	0.08760662
9	0xbdb39191	-0.08767999
10	0xbdb1154f	-0.086466424
11	0x366eb846	3.5572025e-06
12	0xbe3c0ce2	-0.1836429
13	0xbe8b9862	-0.27264696
14	0x3c3c2200	0.011482716
15	0x3decfb9d	0.11571429
16	0x3e192012	0.1495364
17	0xbd869537	-0.06571429
18	0xbe39f826	-0.18161067
19	0xbe6b694e	-0.2298939
20	0xbdb8018f	-0.08984672
21	0xbe0a88da	-0.13528767
22	0x3e3c8665	0.18410642
23	0xbe6a8b3c	-0.22904676
24	0x3cb509dd	0.02209943
25	0xbb957bc1	-0.0045618718
26	0xbd59b25a	-0.053148605
27	0x3d97a313	0.07404151
28	0xbd15046a	-0.036381163
29	0xbd36f40f	-0.044666346
30	0xbd4b74fb	-0.04967211
31	0xbebb8e97	-0.36632225
32	0xbd19c20f	-0.037538584
33	0x3d511916	0.051049314
34	0x3dfc7607	0.123271994
35	0x3db8bef6	0.09020798
36	0x3e9d9028	0.30774045
37	0xbeb357ce	-0.35027927
38	0x3e0a2e0e	0.13494131
39	0x3dbb0a13	0.09132781
40	0xbe680b86	-0.22660646
41	0x3d1c8efd	0.0382223
42	0xbe1cb897	-0.1530479
43	0x3d280552	0.0410207
44	0xbe9f46c3	-0.31108674
45	0xbeacfdf7	-0.3378751
46	0xbe0400d3	-0.1289094
47	0xbea208fe	-0.31647485
48	0x3a406bf4	0.0007340305
49	0xbda1eb94	-0.07906261
50	0xbd4fdcf2	-0.05074782
51	0x3e306b45	0.1722842
52	0x3d1ce9d2	0.038308926
53	0xbe71529b	-0.23566668
54	0xbe04cb12	-0.1296809
55	0xbd96b10b	-0.07357987
56	0xbcf0dcb4	-0.029402114
57	0xbe367843	-0.17819314
58	0x3ca3b8b3	0.019985532
59	0x3c9badb7	0.019003732
60	0xbe7d80f4	-0.24756223
61	0xbcc94e2c	-0.024573408
62	0xbe00a8a1	-0.12564327
63	0xbe583331	-0.21113278
64	0x3e09ba7e	0.13450047
65	0xbec2bd6a	-0.38035136
66	0xbe2d554b	-0.16927068
67	0xbd252141	-0.040314917
68	0xbf2d1679	-0.67612416
69	0x3e73d18b	0.23810403
70	0xbedcbf7b	-0.43114838
71	0xbc8d35e6	-0.017237615
72	0x3e632ab6	0.22184262
73	0x3de9b6d6	0.11411826
74	0xbbbc94ff	-0.0057550664
75	0x3e2ef80d	0.17086811
76	0x3d96b4da	0.073587134
77	0x3de74713	0.11292853
78	0x3e6332ea	0.22187391
79	0x3ddb2bcc	0.10701713
80	0x3e4d0930	0.20023036
81	0x3e1d1a45	0.15342052
82	0x3e057b0b	0.13035218
83	0xbbf4bf03	-0.0074690594
84	0xbdb0b91a	-0.08629055
85	0xbe0882e8	-0.13331187
86	0x3de5c05a	0.11218329
87	0x3c8f04db	0.01745837
88	0xbea86c36	-0.32895058
89	0xbe0428b4	-0.12906152
90	0xbea4a697	-0.32158348
91	0xbe069d74	-0.13146001
92	0x3d6418d8	0.055687755
93	0xbe9adefa	-0.30248243
94	0x3de896a4	0.113568574
95	0x3ddc2d07	0.10750776
96	0xbe86b143	-0.26307115
97	0xbde8e6f7	-0.11372178
98	0x3e247562	0.16060403
99	0xbded994a	-0.11601503
100	0xbe2a46aa	-0.16628519
101	0x3d3271fe	0.043565743
102	0xbe01b665	-0.12667234
103	0xbdf18175	-0.1179227
104	0xbddef42d	-0.108864166
105	0xbe1dadec	-0.15398377
106	0x3d24f7c0	0.040275335
107	0xbd8676ba	-0.06565614
108	0x3e38ab3e	0.18034074
109	0xbe371c46	-0.17881879
110	0x3e7c2cc2	0.24626449
111	0xbd0e5583	-0.03474952
112	0xbd9e7bfc	-0.07738492
113	0x3dcf35b4	0.10117665
114	0xbe8ad0db	-0.2711247
115	0xbeb72131	-0.3576751
116	0x3cdbbdc0	0.026823878
117	0x3e15f402	0.14643863
118	0x3de9c1f9	0.114139505
119	0x3da50e52	0.08059372
120	0x3c9a1dc1	0.018813016
121	0xbe782f08	-0.24236691
122	0x3d941100	0.07229805
123	0xbcefa53c	-0.029253595
124	0xbe083c66	-0.1330429
125	0x3cb4e0a5	0.022079775
126	0x3e5e9985	0.2173825
127	0xbf0d334c	-0.551564
128	0xbc0cce60	-0.0085941255
129	0x3d8f74d9	0.07004709
130	0xbd99efd0	-0.07516444
131	0x3d8ffe5b	0.07030936
132	0xbd57b857	-0.052666035
133	0xbd0bd767	-0.03414097
134	0x3d7d9d2c	0.06191747
135	0xbd4ccd73	-0.05000062
136	0x3e1360e6	0.14392433
137	0x3e1ea9db	0.15494482
138	0x3e83009c	0.25586402
139	0x3df1d579	0.11808295
140	0x3e6474b3	0.22310142
141	0xbc49590c	-0.012289297
142	0xbda9bf97	-0.08288496
143	0x3d836b7c	0.064169854
144	0x3d230ab9	0.039805148
145	0x3e18129e	0.14850852
146	0x3da84cb9	0.08217759
147	0x3e0514da	0.12996235
148	0x3d0c94ec	0.03432171
149	0x3dc52f09	0.09628112
150	0x3ca07a5c	0.019589595
151	0xbd43ec45	-0.047832746
152	0xbe135113	-0.14386396
153	0xbec319bf	-0.3810558
154	0x3c24e97d	0.010065434
155	0xbd1471b1	-0.036241237
156	0xbe84fe88	-0.25975442
157	0x3c25528f	0.010090484
158	0xbf13c592	-0.57723343
159	0xbe7d867a	-0.2475833
160	0xbd3b60de	-0.045746677
161	0x3e861716	0.26189488
162	0xbe2ee2ca	-0.170787
163	0xbe8b7f6a	-0.27245647
164	0x3cb52f53	0.022117293
165	0xbd77e355	-0.060519535
166	0x3d29393d	0.041314352
167	0x3eb39a5a	0.35078698
168	0x3e4a54cc	0.1975891
169	0x3ea99ba0	0.33126545
170	0x3e577d23	0.2104383
171	0xbe4082f7	-0.18799959
172	0xbddf72d0	-0.109105706
173	0xbeb818e4	-0.3595649
174	0xbaf34331	-0.0018559453
175	0xbe4bd692	-0.19906071
176	0xbde69bd1	-0.11260188
177	0xbdd0848a	-0.1018153
178	0xbe344713	-0.17605238
179	0xbed0bf6c	-0.40771043
180	0xbf02014d	-0.50783235
181	0x3df8e36b	0.121527515
182	0x3d29e304	0.041476265
183	0xbeb811b8	-0.35951018
184	0xbba0f6d2	-0.004912236
185	0xbd946f93	-0.072478436
186	0xbf2d77e4	-0.67761064
187	0x3cda311d	0.026634747
188	0x3db00645	0.08594946
189	0xbd432db1	-0.047650997
190	0xbe4fd1b5	-0.2029484
191	0xbec748c1	-0.38922694
192	0xbe9dfb5e	-0.3085584
193	0xbee755f5	-0.45182768
194	0xbda570fd	-0.080781914
195	0x3d6b1aab	0.05739848
196	0xbe4134b5	-0.18867762
197	0xbd389488	-0.045063525
198	0x3e927819	0.28607252
199	0xbd34f274	-0.044176534
200	0xbe2b4805	-0.16726692
201	0xbd815150	-0.06314337
202	0xbe827e5d	-0.25487033
203	0xbd66344c	-0.056202218
204	0x3e70d562	0.23518899
205	0xbd805e6e	-0.06268011
206	0x3de4fc85	0.11180977
207	0x3e0fe90a	0.14053741
208	0x3d8484d5	0.06470648
209	0x3d3eb55c	0.046559677
210	0xbca5ff42	-0.020263318
211	0x3e1841df	0.14868878
212	0x3dc1fb79	0.09471793
213	0xbd0f3eb9	-0.034971926
214	0xbe146c52	-0.14494446
215	0xbcb76fb2	-0.022392128
216	0xbc606607	-0.0136962
217	0x3d325a85	0.043543357
218	0xbe49576a	-0.19662252
219	0xbd6ca766	-0.05777683
220	0x3c0cbe7c	0.008590337
221	0xbee36a2a	-0.44416934
222	0x3cf85cfb	0.030317774
223	0xbdd43141	-0.10360957
224	0xbe123800	-0.14279175
225	0xbca28199	-0.019837188
226	0xbe22688c	-0.15860194
227	0x3d003032	0.031295963
228	0xbd5361b1	-0.051606838
229	0xbe94c093	-0.29053172
230	0x3e483fc9	0.19555582
231	0x3e60185d	0.21884294
232	0x3d85569a	0.065106586
233	0x3e8b6327	0.27224085
234	0xbe94a13f	-0.2902927
235	0x3d7c3ab3	0.061579417
236	0xbd870fe9	-0.065948315
237	0xbe863e05	-0.26219192
238	0xbda088e7	-0.07838612
239	0xbe361cab	-0.17784373
240	0xbe8711d4	-0.2638079
241	0xbe1b38e6	-0.15158424
242	0xbdcd8756	-0.10035579
243	0xbcb6d00d	-0.022316003
244	0xbde67be0	-0.11254096
245	0x3e94225e	0.2893247
246	0xbe073e17	-0.13207279
247	0xbd744c40	-0.05964303
248	0x3e3a7fa3	0.18212752
249	0xbe5d0e03	-0.21587376
250	0x3d886569	0.066599675
251	0x3dadaefd	0.08480642
252	0x3da698c3	0.08134606
253	0x3da3a4f5	0.079904474
254	0x3dc2659f	0.09492039
255	0xbd01541f	-0.031574365

res_blocks.0.conv1.bias f4 [10]
0	0xbe4eee8c	-0.20208186
1	0x3e00f50e	0.12593481
2	0xbecb57e6	-0.397155
3	0x3db14851	0.086563714
4	0xbe63ec36	-0.22258076
5	0x3da34b4d	0.07973347
6	0xbeb3612f	-0.35035083
7	0xbed6b803	-0.41937265
8	0x3d1d3d68	0.03838864
9	0x3e8d43b2	0.2759071

res_blocks.0.batchnorm1.weight f4 [10]
0	0x3f60e869	0.8785463
1	0x3f808501	1.004059
2	0x3f887523	1.0660747
3	0x3f9817f2	1.1882308
4	0x3fb781ac	1.4336448
5	0x3f83ca68	1.0296144
6	0x3f5d40cf	0.86427015
7	0x3f945f3e	1.1591566
8	0x3f840431	1.0313779
9	0x3fc58164	1.5430112

res_blocks.0.batchnorm1.bias f4 [10]
0	0x3c870fdc	0.016487055
1	0x3d686a06	0.056741737
2	0x3daace0d	0.08340082
3	0xbc2294c8	-0.0099231675
4	0x3d4f306f	0.0505833
5	0x3ca29326	0.019845556
6	0x3e204d73	0.15654545
7	0xbc7cecc5	-0.01543731
8	0xbda6fd12	-0.08153738
9	0xbc469b0f	-0.01212193

res_blocks.0.batchnorm1.running_mean f4 [10]
0	0xbf06f748	-0.5272107
1	0xbdc0571c	-0.09391615
2	0xbf1ed6d7	-0.6204657
3	0x3d4ea71a	0.05045233
4	0xbf53fae7	-0.8280472
5	0xbeb5fd89	-0.35544994
6	0xbf737881	-0.9510575
7	0xbde6e73e	-0.11274575
8	0xbed0a574	-0.4075123
9	0x3ece0eb8	0.40245605

res_blocks.0.batchnorm1.running_var f4 [10]
0	0x3f15bdef	0.5849294
1	0x3ecf0356	0.40432233
2	0x3fadf74b	1.3591093
3	0x3ea97bed	0.3310236
4	0x3f70fa7e	0.9413222
5	0x3f36dd86	0.7143177
6	0x3fa48947	1.2854394
7	0x3e3ffee8	0.18749583
8	0x3f6aba0a	0.91690123
9	0x3f0cdabb	0.55021256

res_blocks.0.conv2.weight f4 [10, 10, 3, 3]
0	0xbdb05faf	-0.08612
1	0x3b301958	0.0026870575
2	0xbdee22e9	-0.11627752
3	0xbe274fef	-0.16339086
4	0x3dd9e555	0.10639445
5	0xbd64e76e	-0.05588477
6	0xbd810425	-0.06299619
7	0xbc520aa1	-0.012819917
8	0x3c7facee	0.0156051945
9	0x3e36c565	0.17848738
10	0xbd2918c1	-0.041283373
11	0xbe88a03a	-0.26684743
12	0xbef13393	-0.4710966
13	0x3efa9e39	0.4894884
14	0x3c122e33	0.008922148
15	0x3f218003	0.63085955
16	0x3d374c6f	0.044750627
17	0xbe393954	-0.18088275
18	0x3de7fd17	0.1132757
19	0xbd89fc6c	-0.06737599
20	0x3d8fd076	0.07022183
21	0x3df7ed97	0.121058635
22	0x3d155516	0.036458097
23	0xbbe091e2	-0.006853328
24	0xbdec0815	-0.11524979
25	0x3dfa8063	0.12231519
26	0xbcd39492	-0.02582768
27	0xbe4b1cab	-0.19835155
28	0x3dbc9f28	0.09210044
29	0xbc16dac5	-0.009207432
30	0xbd7a6e3a	-0.061140276
31	0x3e3c97b8	0.18417251
32	0xbe2a5b8b	-0.16636483
33	0xbe45098b	-0.19241922
34	0x3dd65ca0	0.104668856
35	0xbe236654	-0.15957004
36	0xbea0bea2	-0.3139544
37	0xbe38dfb0	-0.1805408
38	0x3d621fd2	0.055206127
39	0xbe5603e6	-0.20899925
40	0xbe06b150	-0.13153577
41	0x3c1858fc	0.009298559
42	0xbd8b31bd	-0.06796596
43	0xbd4a8866	-0.049446486
44	0x3c5d4db3	0.0135072945
45	0x3d429521	0.0475055
46	0xbe179214	-0.14801818
47	0xbdc659d0	-0.09685099
48	0x3e76c1ef	0.24097417
49	0xbe36e44e	-0.17860529
50	0xbdd1a039	-0.10235638
51	0x3bc83494	0.0061097834
52	0xbd055650	-0.032553017
53	0xbd220cf6	-0.03956314
54	0x3cb38891	0.021915706
55	0xbc5b9757	-0.013402781
56	0x3e194969	0.1496941
57	0x3de9a29d	0.11407969
58	0x3e51e986	0.20499238
59	0x3e2dd752	0.1697667
60	0x3d304ba1	0.043040875
61	0x3db5569f	0.08854412
62	0x3d2a8d48	0.041638643
63	0xbe0aac75	-0.1354235
64	0x3d9bf05b	0.076142035
65	0xbdd7d498	-0.10538596
66	0xbe197103	-0.14984517
67	0x3c820f5a	0.01587646
68	0x3ca3f91e	0.02001625
69	0xbe8e75e5	-0.2782432
70	0xbc8e19c2	-0.017346267
71	0xb90a479a	-0.00013187379
72	0xbd3b5139	-0.045731757
73	0x3c91de5b	0.017806223
74	0x3e60daf3	0.21958522
75	0xbe68af3b	-0.22723095
76	0xbd9ff1bc	-0.07809779
77	0xbd50320c	-0.05082898
78	0xbe22dc02	-0.15904239
79	0xbdde532c	-0.108557075
80	0x3bd67b75	0.006545479
81	0x3e74fb13	0.23923902
82	0xbe58742c	-0.21138066
83	0x3e09f6e6	0.1347309
84	0xbe39fd49	-0.18163027
85	0xbe5299ca	-0.20566478
86	0xbe0402d5	-0.12891705
87	0x3dcf29c0	0.10115385
88	0xbe044d1d	-0.12920041
89	0x3d50769e	0.050894372
90	0xbc06d237	-0.00822883
91	0x3de557dc	0.111983985
92	0x3d698726	0.057013653
93	0xbdf86588	-0.121287405
94	0x3e0f4b5d	0.13993593
95	0xbd94dd05	-0.07268719
96	0xbc98b4ef	-0.018640963
97	0xbd781fdc	-0.06057726
98	0xbe3797b7	-0.17928968
99	0xbe09b879	-0.13449277
100	0xbea1838f	-0.31545684
101	0x3dc41e8c	0.09576139
102	0x3c655249	0.013996669
103	0xbb9656d5	-0.004587988
104	0xbc74dd5e	-0.014945356
105	0xbd14a401	-0.03628922
106	0x3e6fd06c	0.2341935
107	0x3ea0bc98	0.31393886
108	0x3d9f5c07	0.07781225
109	0xbd4a30f5	-0.049363095
110	0x3dc832a7	0.09775286
111	0xbdfa2cbc	-0.12215564
112	0xbe3f8cc2	-0.18706039
113	0x3e7032c3	0.23456864
114	0xbeaa3697	-0.33244774
115	0xbe6ac39d	-0.22926183
116	0x3d0df751	0.034659687
117	0xbec4eb82	-0.38460928
118	0xbd878c04	-0.06618503
119	0xbdbb9741	-0.09159709
120	0xbe3c6794	-0.18398887
121	0xbdbe3e4b	-0.09289225
122	0x3c1f2c36	0.009715131
123	0x3e7e3ae7	0.24827157
124	0x3e118df3	0.14214306
125	0x3e1474c6	0.1449767
126	0x3e2fd97f	0.17172812
127	0x3e049812	0.12948635
128	0x3e4c0c54	0.19926578
129	0xbdbdac10	-0.09261334
130	0xbe3647df	-0.17800854
131	0xbdfd7d79	-0.12377448
132	0xbe381207	-0.17975627
133	0xbe6eea84	-0.23331648
134	0xbdb7345e	-0.08945535
135	0x3da4c425	0.08045224
136	0xbdb1fad4	-0.0869042
137	0xbe106069	-0.14099278
138	0x3e8c2a91	0.27376226
139	0x3e89a7dd	0.26885882
140	0xb5a1f774	-1.2067453e-06
141	0x3e343ebe	0.17602059
142	0x3b3b8f41	0.0028619322
143	0x3e6005f5	0.21877272
144	0x3e8cdfee	0.27514595
145	0x3d31f610	0.043447554
146	0x3d17a3e2	0.037021525
147	0xbc34786c	-0.011015039
148	0x3d1f2354	0.03885205
149	0x3db44d48	0.08803803
150	0x3d8865cf	0.066600434
151	0xbe2a6119	-0.16638602
152	0x3e1144ef	0.14186452
153	0xbea9a54e	-0.3313393
154	0xbdd7b28f	-0.10532104
155	0x3d4da2a8	0.05020395
156	0xbddaf5cb	-0.106914125
157	0x3d94b06c	0.07260212
158	0x3e127fd5	0.14306577
159	0xbdd71acf	-0.1050316
160	0x3e132540	0.14369678
161	0x3c866608	0.016406074
162	0xbe59977b	-0.21249191
163	0xbe8650a0	-0.26233387
164	0xbde3c000	-0.111206055
165	0xbe28467e	-0.1643314
166	0xbe6863a8	-0.22694266
167	0xbdab5104	-0.08365062
168	0x3d3b9b2b	0.045802277
169	0xbd5b10d9	-0.053482864
170	0xbd85c4d7	-0.06531685
171	0xbe40c783	-0.18826108
172	0x3da711d1	0.08157695
173	0x3daf560a	0.085613325
174	0x3ddd1c6d	0.107964374
175	0x3ecacd74	0.39609873
176	0x3e5cb6b0	0.21554065
177	0xbe48259f	-0.19545601
178	0x3cf33966	0.029690456
179	0x3ccfba52	0.0253574
180	0xbe069e82	-0.13146403
181	0xbe216023	-0.1575933
182	0xbe6c9498	-0.23103559
183	0x3d925da6	0.07146768
184	0x3ef5c048	0.4799826
185	0xbd554508	-0.052067786
186	0x3b419e82	0.002954394
187	0x3db9e400	0.09076691
188	0xbe828164	-0.25489342
189	0x3d25f57e	0.040517323
190	0x3dbb31cf	0.091403596
191	0x3d149647	0.03627613
192	0xbe265270	-0.16242385
193	0x3e17d8f8	0.14828861
194	0xbc3cfb8f	-0.011534586
195	0xbe48ec03	-0.19621281
196	0xbc4912e7	-0.012272573
197	0xbd51a649	-0.051183973
198	0x3e8cfee5	0.2753822
199	0x3d070849	0.032966886
200	0xbddb60c6	-0.107118174
201	0xbd97129c	-0.07376596
202	0x3d754fac	0.059890434
203	0xbe003c04	-0.12522894
204	0xbe6a048f	-0.22853301
205	0x3e659742	0.22420982
206	0xbde0d823	-0.10978725
207	0xbe818c68	-0.25302434
208	0x3b59554f	0.003316242
209	0x3dc2494a	0.09486635
210	0xbe03bc2e	-0.12864754
211	0x3d69bf7b	0.057067376
212	0xbd29a2f8	-0.041415185
213	0xbe440c83	-0.19145398
214	0xbcf3f004	-0.029777534
215	0x3cef8624	0.029238768
216	0x3d155333	0.036456298
217	0xbda8a706	-0.08234982
218	0xbdb5ceb5	-0.08877317
219	0x3eb6b29c	0.35683143
220	0xbd15f5d9	-0.03661141
221	0xbdbf7b3c	-0.09349677
222	0x3e1390ec	0.14410752
223	0xbe5cfd46	-0.21580991
224	0xbd4d1ea9	-0.050078068
225	0x3db34590	0.08753502
226	0xbe476bf9	-0.19474782
227	0xbe103f8a	-0.14086738
228	0x3d8368f2	0.06416501
229	0xbdb85912	-0.09001364
230	0xbe344c8f	-0.1760733
231	0xbd366297	-0.044527616
232	0x3e75a463	0.2398849
233	0xbe1a6c51	-0.15080382
234	0x3e3af3da	0.18257084
235	0x3d91fa70	0.07127845
236	0x3ec41b75	0.38302198
237	0x3d680f60	0.056655288
238	0x3dc23e08	0.09484488
239	0x3eae3db8	0.34031463
240	0xbe214b7d	-0.15751453
241	0xbda127dd	-0.078689314
242	0xbdc01511	-0.09379018
243	0xbe085a96	-0.13315806
244	0xbbe9d868	-0.0071363933
245	0x3e3d8591	0.18507983
246	0xbe4e5c35	-0.20152362
247	0x3d68d932	0.05684776
248	0x3e1dae41	0.15398504
249	0xbe7d5ceb	-0.24742477
250	0x3dd25c34	0.102714926
251	0x3e38254d	0.17982979
252	0x3cf2332a	0.029565413
253	0x3b7706b8	0.0037693214
254	0x3ba9ff3a	0.005187896
255	0xbe1ee8ef	-0.15518545

res_blocks.0.conv2.bias f4 [10]
0	0xbe07d4de	-0.13264796
1	0x3dcb07d4	0.099136025
2	0x3d78ce73	0.06074376
3	0x3dff0c24	0.124534875
4	0xbe9abc90	-0.30221987
5	0x3e76422b	0.24048679
6	0x3c258716	0.010103008
7	0xbe146a05	-0.14493568
8	0xbe52418a	-0.20532814
9	0x3da811df	0.08206534

res_blocks.0.batchnorm2.weight f4 [10]
0	0x3f87fb5d	1.0623585
1	0x3fadad79	1.3568565
2	0x3fb0bcf0	1.3807659
3	0x3fc0d5df	1.5065268
4	0x3fc77f73	1.558577
5	0x3fa97563	1.3238949
6	0x3fb196d3	1.3874153
7	0x3fc639ee	1.5486429
8	0x3fb80788	1.4377298
9	0x3fb08008	1.3789072

res_blocks.0.batchnorm2.bias f4 [10]
0	0x3db26e8a	0.0871249
1	0xbe6d4d8d	-0.23174115
2	0x3e8db6fd	0.2767867
3	0x3f098e19	0.5373245
4	0x3d8441eb	0.06457885
5	0x3ed882fc	0.42287433
6	0x3e71eb49	0.2362491
7	0x3db93b80	0.09044552
8	0x3d190ed0	0.037367642
9	0x3e9df8f1	0.3085399

res_blocks.0.batchnorm2.running_mean f4 [10]
0	0xbe375117	-0.17902027
1	0x3e1faadc	0.15592521
2	0x3d087132	0.033311076
3	0x3d6a3aad	0.057184864
4	0xbeb1511a	-0.34632188
5	0x3e1b4095	0.15161355
6	0x3db32410	0.08747113
7	0xbeb7e49c	-0.35916603
8	0xbe98d4e4	-0.29849923
9	0x3e29b0ac	0.16571301

res_blocks.0.batchnorm2.running_var f4 [10]
0	0x3c84ac8e	0.016195562
1	0x3c737674	0.014859784
2	0x3c752067	0.014961339
3	0x3ce2ecfd	0.027700895
4	0x3c423ef7	0.011855832
5	0x3c4d9767	0.012548304
6	0x3c65c242	0.014023365
7	0x3c155210	0.0091138035
8	0x3c8e8063	0.017395204
9	0x3c60d91c	0.013723638

res_blocks.1.conv1.weight f4 [10, 10, 3, 3]
0	0xbe0061a1	-0.12537242
1	0xbe9c20d2	-0.3049379
2	0xbbb76e23	-0.005597846
3	0x3de024a6	0.1094449
4	0xbcfa2881	-0.030536892
5	0x3d927c1e	0.0715258
6	0xbe3a99a9	-0.18222679
7	0xbe38d8b1	-0.18051411
8	0xbe94016e	-0.2890734
9	0xbeb71749	-0.35759953
10	0xbc3c9203	-0.011509421
11	0xbdaec345	-0.085333385
12	0xbdaf23cc	-0.085517496
13	0xbe08c060	-0.13354635
14	0xbd6eaa28	-0.058267742
15	0xbe3addb4	-0.18248636
16	0xbc2ac193	-0.010422128
17	0xbe00cf03	-0.12578969
18	0xbe032215	-0.1280597
19	0xbed64e59	-0.4185665
20	0x3e116ffa	0.14202872
21	0x3dcc046e	0.099617824
22	0xbc814e84	-0.01578451
23	0x3e43de5d	0.19127794
24	0xbdea4c24	-0.11440304
25	0xbd6d0c02	-0.05787278
26	0xbc574e10	-0.01314117
27	0xbd9b0ce7	-0.0757082
28	0xbd2cde1d	-0.04220401
29	0xbe94b801	-0.29046634
30	0xbd1b7256	-0.037950836
31	0xbdf9e4a6	-0.12201814
32	0xbe8da770	-0.27666807
33	0x3c49ab5c	0.012308922
34	0x3dc54c44	0.09633687
35	0xbe1e1e26	-0.15441188
36	0xbea9649f	-0.3308458
37	0xbe81ee49	-0.2537711
38	0x3e3d72ad	0.18500777
39	0xbe8cbce7	-0.2748787
40	0x3ddf20dc	0.10894939
41	0x3e441cc8	0.19151604
42	0xbe1b2fdf	-0.1515498
43	0xbd15df81	-0.036590103
44	0x3c3b25fc	0.01142263
45	0xbe8559b2	-0.26044995
46	0xbd589ea7	-0.052885678
47	0xbd845a2b	-0.06462511
48	0x3b847cda	0.004043204
49	0xbd1d07ec	-0.038337633
50	0x3dec3704	0.11533931
51	0xbc6bdb9e	-0.014395623
52	0xbd956c0d	-0.07296
53	0x3e532da6	0.20622882
54	0x3d032192	0.032014437
55	0xbdc8b6b0	-0.0980047
56	0x3e19922d	0.14997168
57	0x3d00c6b2	0.03143949
58	0xbe47db3f	-0.1951723
59	0x3d6c0730	0.057624042
60	0x3d0c5979	0.034265015
61	0x3d590179	0.05297992
62	0x3d62d372	0.05537743
63	0xbde2a984	-0.11067489
64	0xba130c90	-0.0005609477
65	0xbda508b8	-0.080583036
66	0x3bb53fe7	0.0055312994
67	0x3dda279a	0.10652085
68	0x3c64a34b	0.013954948
69	0x3e508164	0.20361859
70	0x3e94d08e	0.29065365
71	0x3e43576f	0.19076322
72	0xbdee45f6	-0.11634438
73	0xbe8a963e	-0.2706775
74	0x3e32e26a	0.17469183
75	0xbd4f2bef	-0.050579008
76	0x3d91a8fe	0.07112311
77	0x3e986268	0.29762578
78	0xbe675c9b	-0.2259392
79	0xbd966d95	-0.0734512
80	0x3d00bdaa	0.031430878
81	0xbe94b62f	-0.29045245
82	0xbdc0a1fe	-0.094058976
83	0xbe10495c	-0.14090484
84	0xbdcd1e7d	-0.10015581
85	0x3d545785	0.051841278
86	0x3e3248a2	0.1741052
87	0xbe3a84a5	-0.18214662
88	0x3dac2688	0.08405787
89	0x3e249d5d	0.16075654
90	0x3d0b1205	0.03395273
91	0x3ccb088a	0.024784345
92	0x3d39d485	0.04536869
93	0xbd56f33e	-0.052478068
94	0x3b912b98	0.0044302456
95	0x3a045c5f	0.0005049165
96	0xbd1cd6be	-0.03829073
97	0xbe198598	-0.14992368
98	0xbc899e45	-0.016799102
99	0xbe0b3467	-0.13594209
100	0xbe76f646	-0.24117383
101	0xbe51a274	-0.20472127
102	0xbe4aaf2a	-0.19793382
103	0xbe7eedd5	-0.24895413
104	0xbe224995	-0.15848382
105	0xbe98537a	-0.29751188
106	0xbe1de922	-0.15420964
107	0xbe66e269	-0.22547306
108	0x3e8d4e90	0.27599
109	0x3e7fb5aa	0.24971643
110	0x3d6550f7	0.055985417
111	0x3ec8661e	0.3914041
112	0x3e204c9d	0.15654226
113	0xbd8e03d7	-0.06934326
114	0x3e86195b	0.2619122
115	0x3e620013	0.22070341
116	0x3d6ab51e	0.057301633
117	0xbe240659	-0.16018046
118	0xbe3c5214	-0.18390685
119	0xbebddd88	-0.37083077
120	0xbe07c7ab	-0.13259761
121	0xbdcef657	-0.10105579
122	0xbe4edda1	-0.20201732
123	0xbe20d030	-0.15704417
124	0xbe4c7ed1	-0.19970252
125	0xbe900b7d	-0.28133765
126	0x3c8c97cb	0.017162224
127	0x3e10d5bd	0.14144035
128	0xbd159db5	-0.036527354
129	0x3e26900a	0.16265884
130	0x3de053e7	0.10953503
131	0xbe28174a	-0.16415134
132	0x3df0ab63	0.117514394
133	0x3e54732c	0.2074706
134	0xbda5bb0c	-0.08092317
135	0xbe4c8ae9	-0.19974865
136	0x3c233956	0.0099624
137	0xbe2db1e4	-0.16962391
138	0xbe09a808	-0.13443005
139	0x3d17aeb3	0.03703184
140	0xbe343277	-0.17597376
141	0xbdfff85d	-0.124985434
142	0x3e118a99	0.14213027
143	0xbec6d3c3	-0.38833436
144	0xbd86306b	-0.06552204
145	0x3df9d06b	0.12197956
146	0x3ddb76b8	0.10716003
147	0x3de23d49	0.110468455
148	0xbde159d3	-0.11003461
149	0x3e00bdac	0.12572354
150	0x3db3f98b	0.08787831
151	0x3d8abb78	0.06774038
152	0xbbbea7c8	-0.005818341
153	0xbe57adbc	-0.21062368
154	0x3d4796d8	0.04872784
155	0xbdff5b0e	-0.12468539
156	0xbdf46650	-0.11933577
157	0x3e56ba98	0.20969617
158	0xbdc1af71	-0.09457291
159	0xbdc60ff6	-0.09671013
160	0x3d0a461a	0.03375826
161	0xbe4485cf	-0.19191669
162	0x3e00aa91	0.12565066
163	0xbec7dedc	-0.39037216
164	0x3e352699	0.17690505
165	0x3db220d1	0.086976655
166	0xbebf2f48	-0.3734076
167	0x3dc01c0b	0.09380349
168	0xbd3ed5b4	-0.046590522
169	0xbe8f61e6	-0.28004378
170	0x3cdc6a37	0.026906116
171	0xbe1067f9	-0.14102162
172	0xbe386e56	-0.1801084
173	0xbe117dfb	-0.14208214
174	0xbe05852a	-0.1303908
175	0x3d412162	0.047150977
176	0xbd989699	-0.07450599
177	0xbe0ca602	-0.13735202
178	0xbd18c31e	-0.037295453
179	0xbd2c0c51	-0.042003933
180	0x3d84b347	0.06479507
181	0xbdc0c438	-0.09412426
182	0x3d6cf547	0.057851102
183	0xbd049740	-0.032370806
184	0x3dc36ec3	0.095426105
185	0x3be4b83e	0.006979971
186	0xbe6b5b44	-0.22984034
187	0xbe67529a	-0.22590104
188	0xbeab3ac2	-0.33443266
189	0xbd00ad9f	-0.031415578
190	0xbe9e8d6c	-0.3096727
191	0xbe0626c4	-0.13100725
192	0x3d5331ac	0.051561043
193	0xbe3ac4bf	-0.18239115
194	0xbe1d617c	-0.15369219
195	0xbea760ed	-0.32691136
196	0xbe97bed5	-0.2963778
197	0xbee82e38	-0.45347762
198	0x3e256938	0.16153419
199	0x3e8cda75	0.2751042
200	0x3e4472f4	0.19184476
201	0xbe6badc1	-0.230155
202	0x3dd638c4	0.10460046
203	0xbdf18993	-0.11793818
204	0xbdf762b9	-0.12079377
205	0x3d9bd12b	0.07608255
206	0xbeacd6c6	-0.3375761
207	0xbd5ae6f5	-0.053442914
208	0xbc817289	-0.015801685
209	0x3d724b11	0.05915362
210	0x3dd48942	0.10377742
211	0xbca407a6	-0.020023178
212	0x3b9866b1	0.0046509136
213	0xbda93baf	-0.08263337
214	0xbc70c0a8	-0.01469437
215	0xbe77f7c9	-0.24215616
216	0xbd6b3541	-0.057423834
217	0x3e9c7206	0.30555743
218	0x3e3a1859	0.1817335
219	0xbe2a1585	-0.16609772
220	0x3d888c50	0.066673875
221	0x3d289d65	0.041165728
222	0xbe064122	-0.13110784
223	0xbdd17926	-0.10228185
224	0xbe813c2d	-0.25241223
225	0x3e30f0ee	0.17279407
226	0xbd562aba	-0.05228684
227	0x3d7f4392	0.0623203
228	0xb88e1ac2	-6.776072e-05
229	0xbd8a34d2	-0.06748356
230	0xbc2df07d	-0.010616419
231	0xbdf0241b	-0.117256366
232	0xbec5dccd	-0.3864502
233	0xbda5e14f	-0.08099615
234	0xbe399514	-0.18123275
235	0x3d52e5e2	0.051488765
236	0x3da948db	0.08265849
237	0xbe829ff4	-0.2551266
238	0x3e319925	0.17343576
239	0xbd45ee56	-0.048322998
240	0xbd0aa3e2	-0.033847697
241	0x3e21d9c6	0.1580573
242	0xbe17f7fa	-0.1484069
243	0x3c842f96	0.016135972
244	0x3d2094bb	0.03920434
245	0x3e71a840	0.23599339
246	0x3e976a27	0.29573175
247	0xbd08466c	-0.033270285
248	0x3e87a103	0.2649003
249	0x3cdf7bc6	0.0272807
250	0x3c156c74	0.0091200955
251	0xbdecda24	-0.115650445
252	0x3e569bcb	0.20957868
253	0x3e7f2398	0.24915922
254	0x3eb9986c	0.362491
255	0xbd6dfd72	-0.058103032

res_blocks.1.conv1.bias f4 [10]
0	0x3c3ab8eb	0.011396627
1	0x3e05acfe	0.13054273
2	0xbd942015	-0.07232682
3	0xbc9ddf8d	-0.019271636
4	0x3b326da8	0.0027226005
5	0xbcbed48d	-0.023294711
6	0x38ced45c	9.8624005e-05
7	0x3bfebbd5	0.007773856
8	0xbe05d3b1	-0.13069035
9	0x3e0bb360	0.13642645

res_blocks.1.batchnorm1.weight f4 [10]
0	0x3f763ac8	0.96183443
1	0x3f76338e	0.96172416
2	0x3edbc6ea	0.42925197
3	0x3f6187d4	0.8809788
4	0x3f8d8199	1.1055175
5	0x3f92ac65	1.1458861
6	0x3f6b55a8	0.91927576
7	0x3f77658f	0.9663934
8	0x3f84a300	1.0362244
9	0x3f852ec8	1.0404902

res_blocks.1.batchnorm1.bias f4 [10]
0	0xbf05b6ac	-0.5223186
1	0xbe8fab35	-0.28060308
2	0x3cf29cb7	0.029615743
3	0xbe90c7cc	-0.28277433
4	0xbe22d77c	-0.15902513
5	0xbe8d8511	-0.27640584
6	0xbe0a59d9	-0.13510837
7	0xbe977b2c	-0.2958616
8	0xbe7cad35	-0.24675448
9	0xbe8fd642	-0.28093153

res_blocks.1.batchnorm1.running_mean f4 [10]
0	0xc03c82d5	-2.9454854
1	0xc0695842	-3.6460118
2	0xc015f560	-2.3431015
3	0xc0ce2dae	-6.443076
4	0xc083abe0	-4.114731
5	0xc0910d4b	-4.5328727
6	0xc0ac0edd	-5.3768144
7	0xc0539d26	-3.3064666
8	0xc09c6769	-4.8876233
9	0xc09616c3	-4.6902785

res_blocks.1.batchnorm1.running_var f4 [10]
0	0x41ba0274	23.251198
1	0x41cdf9fc	25.747063
2	0x41f7aa18	30.958054
3	0x4209191f	34.274532
4	0x42445483	49.08253
5	0x426322fd	56.78417
6	0x426149ab	56.32194
7	0x4189ae0f	17.20999
8	0x41b8cd93	23.100378
9	0x423cd319	47.20615

res_blocks.1.conv2.weight f4 [10, 10, 3, 3]
0	0x3da15862	0.07878186
1	0x3c6da7f7	0.014505378
2	0x3ddfd2a5	0.10928849
3	0x3f007565	0.5017913
4	0x3d10ef7e	0.035384648
5	0x3dbdbb42	0.09264232
6	0x3e79273b	0.24331371
7	0xbdd9c913	-0.10634055
8	0x3cbdd16f	0.023171155
9	0xbe10e468	-0.1414963
10	0xbdfff593	-0.124980114
11	0xbd7e9e51	-0.0621627
12	0xbd73e430	-0.05954379
13	0xbe8c4988	-0.2739985
14	0xbe0644cb	-0.1311218
15	0x3cbe22a0	0.02320987
16	0xbe049c2b	-0.12950198
17	0xbdf7688e	-0.12080489
18	0x3d9a5484	0.07535651
19	0xbcfa0a1c	-0.030522399
20	0x3db4d57d	0.08829782
21	0xbd8d60f7	-0.0690326
22	0xbe0e19d4	-0.1387704
23	0xbac40208	-0.0014954219
24	0x3d3e32f3	0.046435308
25	0xbd5edc4a	-0.054409303
26	0x3e01ab5a	0.12663022
27	0x3eb31a4f	0.3498101
28	0x3daac976	0.08339207
29	0x3ec0f284	0.37685025
30	0xbc2df1c6	-0.010616725
31	0xbdcf33aa	-0.10117276
32	0x3dff836e	0.1247624
33	0xbcc5d0c4	-0.024147399
34	0xbd780729	-0.060553703
35	0x3d9994dc	0.07499096
36	0xbcb76ab5	-0.022389749
37	0x3a53a616	0.000807376
38	0xbce0233a	-0.027360547
39	0x3e0bd058	0.13653696
40	0xbca912f9	-0.02063893
41	0xbe6dd642	-0.23226264
42	0x3d10cd60	0.03535211
43	0x3d06ade6	0.032880686
44	0x3e1cae03	0.15300755
45	0x3d17c2b3	0.037050914
46	0x3daaf3ed	0.083473064
47	0xbd17444b	-0.036930364
48	0xbe2d73e8	-0.16938746
49	0xbcea7236	-0.028618913
50	0xbe0de69b	-0.138575
51	0x3d993eca	0.07482679
52	0x3d95f2ac	0.073216766
53	0xbddcbe44	-0.10778478
54	0x3d27f18e	0.04100185
55	0xbd9f98eb	-0.07792839
56	0xbdc2e045	-0.09515432
57	0x3e127b54	0.14304858
58	0xbd6c3514	-0.057667807
59	0x3da82063	0.08209302
60	0xbdb9d058	-0.090729415
61	0x3ce14565	0.02749891
62	0xbb44bd79	-0.003002016
63	0x3d76d15f	0.060258266
64	0x3ce0015c	0.027344398
65	0x3de57ed0	0.11205828
66	0xbe20dc4a	-0.15709034
67	0x3d82cb81	0.063864715
68	0x3dd3c753	0.103407525
69	0xbc77c38d	-0.0151223065
70	0x3e6483ff	0.22315978
71	0x3dbbd12c	0.09170756
72	0x3eae6010	0.34057665
73	0x3d98c1fe	0.07458876
74	0x3d05216b	0.032502573
75	0x3ea26e38	0.31724715
76	0x3f1cae81	0.6120377
77	0xbdeb549d	-0.11490748
78	0x3d1f3ca9	0.03887621
79	0xbd18cd1e	-0.03730499
80	0xbe0c253a	-0.13686076
81	0x3e38c30b	0.18043153
82	0x3d6df8e9	0.058098707
83	0xbe487131	-0.19574429
84	0x3dc28826	0.094986245
85	0xbc86cc79	-0.016454922
86	0xbe4c332c	-0.19941396
87	0x3db59397	0.08866041
88	0xbdbf2728	-0.0933364
89	0xbe2a910b	-0.16656892
90	0xbe364fa0	-0.17803812
91	0xbd5e70f1	-0.054306928
92	0xbdf5f7bf	-0.120101444
93	0x3c030837	0.007997564
94	0xbdfaf4d0	-0.122537255
95	0xbd166f66	-0.03672733
96	0xbbc5f5b8	-0.006041255
97	0xbc531ef7	-0.012885801
98	0xbbea3494	-0.007147381
99	0xbde39f36	-0.111143515
100	0xbe13b15f	-0.1442313
101	0xbe0bfd83	-0.13670926
102	0x3c966a9a	0.018361378
103	0xbd08f24c	-0.033434197
104	0xbc998f53	-0.0187451
105	0xbd7a7a05	-0.061151523
106	0xbe45a22b	-0.19300143
107	0xbe290342	-0.16505149
108	0xbce87121	-0.028374257
109	0xb9a3775d	-0.00031178715
110	0xbcb98f23	-0.02265126
111	0x3c5e9113	0.013584393
112	0x3c983b10	0.01858285
113	0x3d8ac896	0.0677654
114	0xbdd85a7e	-0.10564135
115	0xbcc790e5	-0.024361083
116	0xbdbf1f04	-0.09332088
117	0x3f1e9fd0	0.61962605
118	0x3f27a775	0.65489894
119	0x3f37daf0	0.7181845
120	0xbec1e103	-0.37866983
121	0xbe4949e3	-0.19657092
122	0xbd83a2c4	-0.064275295
123	0xbd05909f	-0.032608625
124	0x3da43716	0.08018319
125	0x3dd22cfe	0.10262488
126	0x3d6bb3ec	0.057544634
127	0x3d1738b5	0.036919314
128	0x3dbf48c8	0.09340054
129	0xbc3fb12c	-0.011699956
130	0xbdaa5fd8	-0.08319062
131	0xbd94aeab	-0.07259878
132	0xbe15fa07	-0.14646159
133	0xbdd272d1	-0.10275806
134	0x3d074d03	0.03303243
135	0xbdc279c3	-0.094958805
136	0xbe212318	-0.15736043
137	0xbdc37b46	-0.09544997
138	0x3d34d150	0.04414493
139	0x3cef28d1	0.029194267
140	0x3bd9a637	0.006642129
141	0x3ca691f5	0.02033327
142	0xbd9077e8	-0.0705412
143	0xbe3b17cb	-0.18270795
144	0x3d485c45	0.04891612
145	0x3dbece50	0.09316695
146	0x3d52a54c	0.05142717
147	0xbd83e244	-0.06439641
148	0xbdb26d5f	-0.08712267
149	0x3c4941d1	0.012283758
150	0xbc8924bb	-0.016741147
151	0xbe13f164	-0.14447552
152	0xbccdaf60	-0.02510804
153	0xbdafc55f	-0.085825674
154	0xbd2095e8	-0.03920546
155	0xbc864099	-0.016388224
156	0x3d260281	0.04052973
157	0x3dac1d5e	0.08404039
158	0x3e39efbb	0.18157856
159	0xbd8751b5	-0.06607381
160	0x3de3c909	0.11122329
161	0x3c2abebc	0.010421451
162	0x3e685496	0.22688517
163	0x3e52ec15	0.2059787
164	0x3e217aeb	0.15769546
165	0x3dfb645c	0.122750014
166	0x3e88a4fc	0.26688373
167	0xbdd8a38e	-0.105780706
168	0x3e365261	0.17804863
169	0x3df57d20	0.11986756
170	0x3da82ad3	0.08211293
171	0xbc4521c8	-0.01203198
172	0xbd55cd39	-0.05219767
173	0xbe30b492	-0.17256382
174	0x3cf124d1	0.0294365
175	0xbe4ba882	-0.198885
176	0xbd9d3d17	-0.076776676
177	0xbaa2328e	-0.0012374686
178	0xbd23129b	-0.039812665
179	0xbe10a757	-0.14126335
180	0xbe7f178f	-0.2491133
181	0x3daea49f	0.08527493
182	0x3d935004	0.07192996
183	0x3e850303	0.2597886
184	0x3e9b5064	0.3033477
185	0x3e4247d5	0.18972714
186	0xbe8328b8	-0.25617003
187	0xbd32b867	-0.04363289
188	0x3d3dd82a	0.04634873
189	0x3e0a94be	0.13533303
190	0x3cf8de74	0.030379511
191	0x3d716849	0.058937345
192	0xbe0232c9	-0.12714685
193	0xbe580b36	-0.21098027
194	0xbd507b63	-0.05089892
195	0x3cb7d038	0.022438154
196	0x3d022bf6	0.031780206
197	0xbe2f5387	-0.17121707
198	0x3e0ae383	0.13563351
199	0x3d83b01d	0.06430075
200	0x3dccb076	0.09994595
201	0x3e17d458	0.14827096
202	0xbe3d0d84	-0.18462187
203	0xba3a16fe	-0.0007098763
204	0x3d0f19b8	0.034936637
205	0xbe07b23f	-0.13251589
206	0xbdf0b783	-0.11753752
207	0xbd8b90aa	-0.06814702
208	0xbd31622b	-0.04330651
209	0x3d08c193	0.03338773
210	0xbde9bb4d	-0.11412678
211	0x3cbffec9	0.02343692
212	0xbcdcb276	-0.026940566
213	0xbe2bf521	-0.16792728
214	0x3df9221c	0.12164709
215	0xbde2c991	-0.11073602
216	0xbde2aa77	-0.1106767
217	0xbe734581	-0.23756982
218	0xbe0a140b	-0.13484208
219	0xbdbf7a17	-0.09349459
220	0x3d70a495	0.058750708
221	0x3e6b3b86	0.22971925
222	0xbe403874	-0.18771535
223	0xbdd6db89	-0.10491092
224	0xbb0c24fa	-0.0021384344
225	0xbdd5a1b2	-0.104312316
226	0x3d2edb71	0.042689744
227	0xbe2dec7d	-0.16984744
228	0xbe0c8c13	-0.13725309
229	0xbe132eec	-0.14373368
230	0xbe890c61	-0.26767257
231	0x3db42557	0.087961845
232	0xbdb1fd36	-0.08690874
233	0xbe822626	-0.2541973
234	0x3e6e883c	0.23294157
235	0x3dcc8cb1	0.09987772
236	0x3e3c39b3	0.18381386
237	0x3e170cfd	0.14751048
238	0x3d87e082	0.06634618
239	0x3d04a513	0.03238399
240	0x3e440a4b	0.19144551
241	0x3e4d1303	0.20026784
242	0x3dd341c5	0.10315279
243	0xbcc1addd	-0.023642475
244	0xbd47f4f6	-0.048817597
245	0x3d14ef70	0.036361158
246	0xbe0d2093	-0.13781957
247	0xbdc494d7	-0.095987014
248	0x3dda2c3e	0.1065297
249	0xbddb749d	-0.107156016
250	0xbe3bea26	-0.1835104
251	0x3c20f1ef	0.009823306
252	0x3d51d194	0.05122526
253	0x3ceb8062	0.028747741
254	0x3d66a2a4	0.05630745
255	0xbdfde6ff	-0.12397575

res_blocks.1.conv2.bias f4 [10]
0	0x3dfe40fc	0.124147385
1	0x3e648a1c	0.2231831
2	0xbc1dba8b	-0.009626995
3	0xbc09e395	-0.008416076
4	0xbe787c0f	-0.24266075
5	0xbd597ee3	-0.053099524
6	0x3e773457	0.2414106
7	0xbe07809a	-0.13232651
8	0x3d39e402	0.04538346
9	0x3b49520e	0.0030719074

res_blocks.1.batchnorm2.weight f4 [10]
0	0x4027f2ca	2.6241937
1	0x4035de00	2.8416748
2	0x4001689d	2.02201
3	0x400eb956	2.230062
4	0x402a8233	2.6641967
5	0x40007c75	2.0075963
6	0x4030067d	2.750396
7	0x402d08b8	2.7036572
8	0x4009c5b1	2.1526911
9	0x3fee8938	1.8635626

res_blocks.1.batchnorm2.bias f4 [10]
0	0xbe9d3899	-0.30707243
1	0xbf0e9dcf	-0.55709547
2	0x3f0f679e	0.5601748
3	0x3ee9b71d	0.45647517
4	0xbf001887	-0.50037426
5	0x3eef9168	0.46790624
6	0xbe89e1e1	-0.26930144
7	0xbe6b384e	-0.22970697
8	0xbd4f2f12	-0.050582
9	0xbe42cf3c	-0.19024366

res_blocks.1.batchnorm2.running_mean f4 [10]
0	0x3e2d8ff3	0.16949444
1	0x3e16206a	0.14660802
2	0x3d582456	0.052769028
3	0xbd295ea8	-0.041350037
4	0xbe85c5d3	-0.2612749
5	0xbcd0756a	-0.025446612
6	0x3dc9e859	0.0985877
7	0xbe6e218f	-0.23254989
8	0xbd9c7559	-0.0763957
9	0xbe98bf72	-0.2983356

res_blocks.1.batchnorm2.running_var f4 [10]
0	0x3d1725af	0.036901172
1	0x3d68a18c	0.056794688
2	0x3cb7ab25	0.022420475
3	0x3c91f18f	0.01781538
4	0x3c92cbfd	0.017919535
5	0x3cefe1b0	0.02928242
6	0x3cc0e9d1	0.023548992
7	0x3c28ffce	0.010314895
8	0x3ccf95ce	0.025339987
9	0x3cdfda43	0.027325755

res_blocks.2.conv1.weight f4 [10, 10, 3, 3]
0	0x3ce410ec	0.0278401
1	0x3d60caae	0.05488079
2	0x3d496be5	0.049175162
3	0xbe018311	-0.12647654
4	0xbd95bd6d	-0.07311521
5	0xbe67238c	-0.22572154
6	0x3e3ca560	0.1842246
7	0x3c92db43	0.017926818
8	0xbdda6b1a	-0.10664959
9	0xbc841608	-0.016123787
10	0xbe23f0eb	-0.16009872
11	0xbddb44e0	-0.10706496
12	0x3dec6b62	0.11543919
13	0xbdbc0a3f	-0.09181642
14	0xbc363495	-0.011120935
15	0x3e99ab59	0.3001354
16	0xbdfa7852	-0.122299805
17	0xbe237937	-0.15964209
18	0x3e92e9b6	0.28693932
19	0x3e89df28	0.26928067
20	0x3e1af283	0.15131573
21	0xbd1f2408	-0.03885272
22	0xbe8692c9	-0.26283863
23	0xbe3adcd5	-0.18248303
24	0x3e256143	0.16150384
25	0x3dccdc4d	0.100029565
26	0xbeb1bce2	-0.3471442
27	0x3d91d795	0.07121197
28	0x3d60dc4d	0.054897595
29	0x3cfc17fd	0.030773157
30	0x3c010ace	0.007876111
31	0x3d7f34d6	0.062306248
32	0x3da6c262	0.08142544
33	0xbc690b6e	-0.014223916
34	0x3d266417	0.040622797
35	0xbe88f12e	-0.26746505
36	0x3dd0e6a1	0.10200239
37	0x3cfb1302	0.030648712
38	0xbe032eba	-0.12810794
39	0x3e9ef460	0.31045818
40	0x3e3ab2a4	0.18232208
41	0xbe35993e	-0.17734239
42	0x3e823d7a	0.25437528
43	0x3e55c52f	0.20876001
44	0xbe4417b9	-0.19149674
45	0x3d39fa80	0.04540491
46	0x3e08f42c	0.13374394
47	0x3d321b01	0.043482784
48	0xbe6e35ec	-0.23262757
49	0xbe1d8d35	-0.15385897
50	0xbd2a0964	-0.04151286
51	0xbd9e82e8	-0.07739812
52	0xbe482526	-0.19545421
53	0xbeacdbb7	-0.3376138
54	0xbea98551	-0.33109525
55	0xbe9ba111	-0.3039632
56	0xbe3c4281	-0.18384744
57	0xbd4bf20a	-0.049791373
58	0xbe699afc	-0.22813028
59	0xbdb27db8	-0.08715385
60	0xbd477f32	-0.048705287
61	0xbdaf563e	-0.08561371
62	0xbd3567d6	-0.04428848
63	0xbdceed3a	-0.10103841
64	0xbde95394	-0.113928944
65	0xbca7c072	-0.020477507
66	0x3ca4fd07	0.020140184
67	0xbd8a0818	-0.06739825
68	0xbc372541	-0.011178316
69	0xbc6866e6	-0.014184689
70	0xbda048f7	-0.07826417
71	0xbe3cfb57	-0.18455254
72	0x3e37342b	0.17890994
73	0x3db2dcae	0.087334976
74	0xbe3ae923	-0.18252997
75	0x3ea316ee	0.3185343
76	0xbcd618bf	-0.026134847
77	0xbbfdeb9a	-0.007749033
78	0x3e5b6422	0.21424916
79	0x3e3841cf	0.17993854
80	0xbe5f43c4	-0.21803194
81	0x3cb6fcf0	0.022337407
82	0x3d82519b	0.06363221
83	0xbe1b2063	-0.15149073
84	0xbc1c4f94	-0.009540457
85	0xbdb0ecdf	-0.086389296
86	0xbd97602e	-0.07391392
87	0x3d9f8088	0.07788187
88	0x3dccb727	0.09995871
89	0xbe509783	-0.20370297
90	0x3c207b9b	0.009795095
91	0xbdf7a5a9	-0.12092144
92	0xbe3e64d4	-0.1859315
93	0x3c7cf1e5	0.0154385315
94	0x3c279731	0.010228918
95	0xbd09d305	-0.03364851
96	0x3daeab76	0.08528797
97	0x3d1869d2	0.037210293
98	0xbd95cf6e	-0.07314955
99	0x3e1aca25	0.15116175
100	0x3d9f3e07	0.07775503
101	0xbcb81ec8	-0.022475615
102	0x3d9d8b73	0.076926135
103	0x3b82ca0f	0.0039913724
104	0x3db15bcb	0.08660086
105	0x3dbf9629	0.09354813
106	0x3d29b9fd	0.041437138
107	0xbd3fc513	-0.046818804
108	0xbe20419d	-0.1565003
109	0xbeaf1c19	-0.34201124
110	0xbeacb132	-0.3372894
111	0xbe6e5016	-0.23272738
112	0xbe562011	-0.2091067
113	0xbeb1e3b7	-0.34744045
114	0x3d4a04a6	0.04932084
115	0x3d9b084f	0.07569944
116	0xbcf97e7a	-0.030455817
117	0xbe46c5f5	-0.19411452
118	0xbea7c13f	-0.32764623
119	0xbe5dcb94	-0.2165969
120	0xbba0cc30	-0.0049071535
121	0xbcc96262	-0.024583045
122	0xbc170c26	-0.009219205
123	0x3db90710	0.0903455
124	0xbe142bd1	-0.1446984
125	0x3ceccaa3	0.028905218
126	0xbe54534a	-0.20734897
127	0xbf0363ff	-0.51324457
128	0xbf25d3f1	-0.6477652
129	0xbd25cd61	-0.040479068
130	0xbeb8eaf0	-0.36116743
131	0xbec06fc2	-0.37585264
132	0x3de3f748	0.111311495
133	0xbec0af73	-0.37633857
134	0xbe7fe55f	-0.24989842
135	0xbdf2da0d	-0.11857996
136	0xbdc7813d	-0.09741447
137	0xbe12b570	-0.14327025
138	0xbdd41373	-0.10355272
139	0xbcafc016	-0.021453898
140	0xbd4c4382	-0.049869068
141	0xbe32bf7f	-0.17455862
142	0xbe268e45	-0.16265209
143	0xbe038f37	-0.12847601
144	0xbe2540c9	-0.16137995
145	0xbcbd55c3	-0.023112183
146	0x3d052ee6	0.03251543
147	0x3ca2d03f	0.01987469
148	0x3ddb71b0	0.107150435
149	0x3ccffef1	0.02539012
150	0x3e03aea7	0.12859593
151	0x3cc953b7	0.024576051
152	0x3e474fa8	0.1946398
153	0xbdd88002	-0.105712906
154	0xbe44b9ed	-0.1921155
155	0xbe43465c	-0.19069809
156	0xbe2be945	-0.16788204
157	0xbe6ab09f	-0.22918938
158	0xbe279629	-0.16365875
159	0x3bd3d7bf	0.006464928
160	0x3e268571	0.16261841
161	0xbcc4780b	-0.023983022
162	0x3e9f8726	0.31157798
163	0xbcf9df86	-0.030502092
164	0xbd361630	-0.044454753
165	0xbd249053	-0.0401767
166	0xbe857fbf	-0.26074025
167	0xbe70a657	-0.23500954
168	0xbe0f1ce7	-0.13975869
169	0xbe7c2b7e	-0.24625966
170	0xbec7d60c	-0.39030492
171	0xbcf188bd	-0.029484147
172	0x3dc9384e	0.098251924
173	0x3d2500e7	0.040284064
174	0x3e1ba77f	0.15200613
175	0x3e333a55	0.1750272
176	0x3e6752b2	0.2259014
177	0xbe15c531	-0.14626004
178	0xbe0e9817	-0.13925205
179	0x3c871505	0.016489515
180	0x3d4f9bef	0.05068582
181	0xbc6638bc	-0.0140516125
182	0x3d3c5db8	0.045987815
183	0x3e077911	0.13229777
184	0x3d8c25e9	0.06843168
185	0x3db33d78	0.087519586
186	0x3cf0a07e	0.029373404
187	0xbd0395a0	-0.032125115
188	0xbd8eb3f0	-0.06967914
189	0xbd9cd560	-0.076578856
190	0xbe3eb62f	-0.18624185
191	0xbeab6117	-0.3347251
192	0x3de760f9	0.11297793
193	0x3e3a4143	0.18188958
194	0xbddcbf70	-0.10778701
195	0xbe16c8cc	-0.14725035
196	0xbe1105d7	-0.14162384
197	0xbefa6a2f	-0.48909137
198	0x3de72944	0.11287168
199	0xbe7007fa	-0.23440543
200	0xbe048059	-0.12939586
201	0x3dde0e21	0.108425386
202	0xbe45134f	-0.19245647
203	0xbe27ea7d	-0.16398044
204	0x3d57aa81	0.05265284
205	0xbd90a730	-0.070631385
206	0xbe0aee9f	-0.13567589
207	0xbead3157	-0.33826706
208	0xbe08fb90	-0.13377213
209	0xbdbcca90	-0.09218323
210	0xbe8b82e2	-0.27248293
211	0xbed7209f	-0.42017075
212	0xbe5efabe	-0.21775338
213	0xbe37657f	-0.17909811
214	0xbe8fcd0b	-0.28086123
215	0xbda18eb7	-0.07888549
216	0x3d0e304b	0.034714025
217	0x3abd4852	0.0014441109
218	0x3b9794e7	0.004625905
219	0xbdd2e705	-0.1029797
220	0xbdfce60a	-0.12348564
221	0x3d213ac9	0.039362703
222	0xbdfed9a7	-0.12443858
223	0xbda0d331	-0.078527816
224	0xbcc921a0	-0.024552166
225	0x3cdebfa8	0.027190998
226	0x3c1b701f	0.009487181
227	0x3d067d9c	0.032834634
228	0x3d27dd96	0.040982805
229	0x3d1379de	0.036004893
230	0xbd99d29d	-0.075108744
231	0x3ddb3f04	0.10705379
232	0x3db3bb9e	0.087760195
233	0x3da57c35	0.08080331
234	0x3e5f7517	0.2182201
235	0x3e0e5ef4	0.13903409
236	0xbdb73d98	-0.08947295
237	0x3e83ffa4	0.25780976
238	0xbbafff45	-0.0053710067
239	0x3ca392e2	0.0199675
240	0x3e43181b	0.19052164
241	0x3e8f6cd5	0.2801272
242	0x3ec61378	0.38686728
243	0xbc9e679a	-0.01933651
244	0xbd6a4adc	-0.057200298
245	0xbd4a8590	-0.04944378
246	0x3e33dd5c	0.1756491
247	0x3d344879	0.044014428
248	0x3e8062c5	0.25075355
249	0x3d3ed1e9	0.046586905
250	0x3e2eb94d	0.17062874
251	0x3d10ef44	0.03538443
252	0x3ecb81fb	0.39747605
253	0x3dd83655	0.10557238
254	0x3e495806	0.19662485
255	0x3e9e049b	0.3086289

res_blocks.2.conv1.bias f4 [10]
0	0xbce6a9bb	-0.028157106
1	0xbd7ba99d	-0.061441053
2	0x3caf76c4	0.021418937
3	0x3d0983ca	0.03357295
4	0xbd8cc45f	-0.06873392
5	0xbbbf80d4	-0.005844215
6	0xbc21015c	-0.009826984
7	0xbdbdd866	-0.0926979
8	0x3c871270	0.016488284
9	0x3bc97450	0.0061478987

res_blocks.2.batchnorm1.weight f4 [10]
0	0x3f3b36a5	0.73130256
1	0x3f6fec9c	0.9372041
2	0x3ef7d3e4	0.48403847
3	0x3f9cfdd1	1.2264959
4	0x3f6bdc31	0.9213286
5	0x3f791d03	0.97309893
6	0x3f91540f	1.1353778
7	0x3f9d5e7c	1.2294459
8	0x3f463e30	0.7743864
9	0x3f9e8860	1.2385368

res_blocks.2.batchnorm1.bias f4 [10]
0	0xbec5cbc0	-0.3863201
1	0xbd6e07df	-0.058112975
2	0xbe94e99f	-0.2908449
3	0xbeb42c66	-0.35190123
4	0xbdf06cf7	-0.117395334
5	0xbe6ea530	-0.23305202
6	0xbe486e16	-0.19573244
7	0xbe9b84e3	-0.30374822
8	0xbe10635a	-0.141004
9	0xbf22b25c	-0.63553405

res_blocks.2.batchnorm1.running_mean f4 [10]
0	0xc0a5cb98	-5.1811028
1	0xc19d17b8	-19.636581
2	0xc068b6b0	-3.6361504
3	0xc0f4d1ba	-7.6506014
4	0xc0cf2046	-6.4726896
5	0xc0ae8efe	-5.454955
6	0xc153078c	-13.1893425
7	0xc11615ab	-9.38029
8	0xc0efa3f5	-7.4887643
9	0xc134f0b5	-11.308766

res_blocks.2.batchnorm1.running_var f4 [10]
0	0x43033425	131.20369
1	0x446b7332	941.7999
2	0x425a976b	54.64787
3	0x433bdc16	187.85971
4	0x4347b4d8	199.70642
5	0x430230a2	130.18997
6	0x43bf2efa	382.367
7	0x436de20b	237.88298
8	0x4311a5d1	145.64772
9	0x43ad34ea	346.4134

res_blocks.2.conv2.weight f4 [10, 10, 3, 3]
0	0xbd6e1881	-0.058128837
1	0x3db34d83	0.087550186
2	0x3ea05ad8	0.31319308
3	0x3dfc13f3	0.123084925
4	0x3d478800	0.048713684
5	0x3e023875	0.12716849
6	0x3e5254ce	0.20540163
7	0x3ed78318	0.42092204
8	0x3ee9b6a6	0.45647162
9	0x3dab26f2	0.083570376
10	0x3d138fa6	0.036025666
11	0x3d862f81	0.065520294
12	0xbd81b443	-0.0633321
13	0x3d47f4ea	0.048817553
14	0x3ddd3c1b	0.1080248
15	0xbd629244	-0.05531527
16	0xbd9d67b4	-0.076857954
17	0x3dc84c9e	0.097802386
18	0xbd758ac6	-0.059946798
19	0x3d9eebc2	0.07759811
20	0xbd853117	-0.06503504
21	0x3c9ca6c5	0.01912249
22	0x3d5edc8b	0.054409545
23	0x3d22fa81	0.03978968
24	0xbd9bd8bb	-0.076096974
25	0xbe27ee7a	-0.16399565
26	0xbe7ad5b3	-0.24495582
27	0xbd1aa13d	-0.037751425
28	0x3ca21a2f	0.019787876
29	0xbe3e565d	-0.18587632
30	0x3d90ee41	0.07076693
31	0x3e57263b	0.21010678
32	0x3d466ec7	0.04844549
33	0x3d4689a9	0.048471127
34	0x3e03f229	0.12885346
35	0xbbf916ae	-0.0076015806
36	0x3ce74adc	0.028233938
37	0x3d82f843	0.063950084
38	0x3c98435a	0.018586803
39	0x3e15a654	0.1461423
40	0x3e2c2ba1	0.16813518
41	0x3d432ee4	0.04765214
42	0x3de2bbf2	0.11071004
43	0x3ec58e7f	0.38585278
44	0xbcf34451	-0.029695662
45	0xbd1205ee	-0.035650186
46	0xbda3defa	-0.08001514
47	0x399e66d4	0.0003021272
48	0xbd26cc83	-0.04072238
49	0xbdc234a5	-0.094826974
50	0x3cf2c7ad	0.029636228
51	0xbdaec423	-0.08533504
52	0xbd1e6341	-0.038668875
53	0x3c7bee47	0.015376634
54	0xbdd8456e	-0.10560118
55	0x3d8d3bee	0.06896196
56	0xbe086d91	-0.13323046
57	0xbe407f02	-0.1879845
58	0xbe2612e6	-0.16218147
59	0xbe30f249	-0.17279924
60	0xbd30296a	-0.043008246
61	0xbe29dc75	-0.16588004
62	0xbdef0a34	-0.11671868
63	0xbd2123d2	-0.0393408
64	0xbdf9f98f	-0.12205803
65	0xbd39123d	-0.04518341
66	0xbd4bef54	-0.049788788
67	0x3d44d3c7	0.04805353
68	0x3d8b4e96	0.068020985
69	0xbdb9f13d	-0.09079216
70	0xbb84a108	-0.0040475167
71	0x3d709618	0.05873689
72	0x3d7ebbda	0.062190868
73	0x3bcc56db	0.00623594
74	0x3d136cba	0.03599236
75	0x3df971a3	0.121798776
76	0xbd1fba94	-0.038996294
77	0x3dd1c62f	0.10242879
78	0xba9fc7b7	-0.0012190257
79	0xbe8da327	-0.27663538
80	0x3e32a8a5	0.17447145
81	0x3f3848e1	0.71986204
82	0x3e8e730d	0.27822152
83	0x3f5c47e0	0.8604717
84	0x3d8a00df	0.067384474
85	0xbe86e306	-0.2634508
86	0x3e249fe8	0.16076624
87	0x3dab37bb	0.08360239
88	0x3cb70d3b	0.022345176
89	0xbe34ab7b	-0.1764354
90	0xbeac060a	-0.33598357
91	0xbdc3d76b	-0.09562572
92	0x3d89db6a	0.06731303
93	0xbda3ad24	-0.07992008
94	0x3d8c632e	0.068548545
95	0x3da61b74	0.08110705
96	0x3ccfec2e	0.025381174
97	0x3e118e3e	0.14214417
98	0xbcd6cfd6	-0.02622215
99	0x3cfbb5da	0.030726362
100	0xbc3d619a	-0.011558915
101	0x3de2fba1	0.11083151
102	0x3d052d2f	0.032513794
103	0xbcf8986d	-0.03034612
104	0x3d6789ef	0.056528028
105	0x3aed397e	0.0018098799
106	0xbd0975e1	-0.033559684
107	0xbba81769	-0.005129744
108	0xbd8082a7	-0.0627492
109	0x3c282608	0.010262974
110	0xbd1aacd7	-0.03776249
111	0x3d4ad936	0.049523555
112	0x3c89f623	0.016841
113	0x3c88080a	0.016605396
114	0xbd731634	-0.059347346
115	0xbe1ef8b6	-0.15524563
116	0xbdfbcba1	-0.122946985
117	0xbe150651	-0.14553191
118	0xbce1bc84	-0.027555712
119	0x3daf4602	0.08558275
120	0xbd118dcc	-0.03553562
121	0x3d77486d	0.060371805
122	0x3e6acd84	0.2292996
123	0xbc32c896	-0.010912081
124	0x3d8ef0c6	0.06979518
125	0x3eba5754	0.3639475
126	0xbda8505d	-0.08218453
127	0xbd66b7ca	-0.05632762
128	0x3c0f84c4	0.008759681
129	0xbdb635c2	-0.08896972
130	0xbd94ff23	-0.07275226
131	0xbc6c6c43	-0.0144301085
132	0xbd29ac12	-0.041423865
133	0xbc2159ed	-0.0098481
134	0xbb77a16d	-0.0037785426
135	0x3c968627	0.018374516
136	0xbcf19b6b	-0.029493054
137	0xbcceeeae	-0.025260296
138	0x3d2efae3	0.042719733
139	0xbb0bf27b	-0.0021354246
140	0xbd82854a	-0.06373079
141	0x3d087ec5	0.03332402
142	0x3d2dbee1	0.042418364
143	0xbe0e86a8	-0.13918555
144	0x3c1d47a9	0.009599605
145	0xbda16485	-0.07880501
146	0xbb81782e	-0.003951094
147	0xbc428bb0	-0.011874124
148	0xbdef815e	-0.11694597
149	0xbdb0377d	-0.086043335
150	0x3db485d3	0.088145874
151	0xbd1cb778	-0.038260907
152	0xbd93d2bf	-0.07217931
153	0x3e2fa9ad	0.1715457
154	0xbe75ec43	-0.24015908
155	0x3cab921a	0.02094369
156	0x3d875be1	0.066093214
157	0xbd092d2d	-0.03349035
158	0xbdab97bf	-0.08378553
159	0xbdd1c06b	-0.10241779
160	0x3ce4f2c7	0.027947797
161	0xbe3cd977	-0.18442331
162	0x3da68cf4	0.081323534
163	0xbc9b8426	-0.018983912
164	0x3ce14c4b	0.0275022
165	0x3d2533d6	0.040332638
166	0x3c2156cc	0.009847354
167	0x3dd6d901	0.10490609
168	0x3ca13914	0.019680537
169	0xbe51e497	-0.20497356
170	0x3e29389c	0.16525501
171	0x3f8dcbb9	1.1077796
172	0x3f0dd6e4	0.5540602
173	0x3f67a6cc	0.90488887
174	0x3ed4cbcf	0.41561744
175	0xbc395257	-0.011311135
176	0x3d50e2b6	0.05099746
177	0x3e548f09	0.20757689
178	0x3e3237bf	0.17404078
179	0xbe92b1f4	-0.28651392
180	0x3df98469	0.12183458
181	0xbd91ce46	-0.07119422
182	0x3e10c8e4	0.14139134
183	0x3e86c06d	0.26318684
184	0xbcf486d6	-0.029849451
185	0x3d13a05e	0.03604161
186	0x3f0d9c04	0.55316186
187	0xbc84051b	-0.016115716
188	0x3e6d7db2	0.2319248
189	0xbd952492	-0.07282366
190	0xbd110639	-0.035406325
191	0xba8999ea	-0.001049814
192	0xbe17d544	-0.14827448
193	0x3d6597f6	0.056053124
194	0xbe10fc7e	-0.14158818
195	0xbe3321cb	-0.1749336
196	0x3d8baab1	0.06819666
197	0xbca47aed	-0.020078147
198	0x3ccbd785	0.024883041
199	0x3c9052bd	0.017617578
200	0xbdb09fad	-0.08624206
201	0x3cc608c8	0.02417411
202	0xbdbcb303	-0.09213831
203	0x3d9c4a76	0.0763139
204	0x3ced60ce	0.028976824
205	0xbd78df48	-0.060759813
206	0xbdb1af10	-0.08675969
207	0x3c922673	0.0178406
208	0x3d801e79	0.06255812
209	0xbc0ebbe1	-0.008711786
210	0xbe218b91	-0.15775897
211	0xbe2cba49	-0.16867937
212	0xbe1de71e	-0.15420195
213	0xbe1ce881	-0.15323068
214	0xbe2c51cb	-0.16828077
215	0xbe850ca1	-0.25986198
216	0x3c72640b	0.01479436
217	0xbbc0ee97	-0.005887817
218	0x3d14829e	0.03625738
219	0x3ca654ea	0.020304162
220	0xbda8d81b	-0.08244344
221	0x3d5450a9	0.051834736
222	0x3dcf1379	0.10111136
223	0x3dc243cd	0.09485588
224	0x3dc9750e	0.098367795
225	0xbcc12c47	-0.023580683
226	0x3cebf1c6	0.02880181
227	0x3d13c968	0.036080748
228	0x3c41eee7	0.011836744
229	0x3cb165ad	0.021654928
230	0x3d4b541e	0.049640767
231	0x3c9d769d	0.019221598
232	0x3e122b5b	0.14274351
233	0x3dfe9cfb	0.124322854
234	0xbe209b35	-0.15684207
235	0xbdfacb04	-0.122457534
236	0xbd9fecda	-0.07808848
237	0xbdcf7700	-0.10130119
238	0x3d336bbf	0.043803927
239	0xbe0b2cfe	-0.13591382
240	0xbe3fe9f0	-0.18741584
241	0xbd49c2c6	-0.049258016
242	0x3c494861	0.012285323
243	0x3e5df906	0.21677026
244	0x3dc8ec69	0.09810717
245	0x3cf33af4	0.029691197
246	0x3f53c0fa	0.82716334
247	0xbe5e89fb	-0.21732323
248	0x3f00b0fb	0.5027005
249	0x3ebe1b95	0.37130418
250	0xbde0f87d	-0.109848954
251	0x3e400855	0.18753178
252	0xbd80beb2	-0.06286372
253	0x3ce89792	0.028392587
254	0xbd85ad49	-0.06527192
255	0xbd2ba475	-0.041904885
