logs/main_run/mel064_nblock2_lr0.001_ks3/checkpoints/best.ckpt (torch, 273598 bytes, 89 tensors)

conv1.weight f4 [8, 1, 3, 3]
-0.06820052 0.094026804 -0.3482284 -0.06952431 -0.21634516 -0.07674926 0.08620602 0.26078668
0.30581772 -0.07589121 0.019651182 0.2856662 0.06967666 0.07508596 -0.268093 -0.29640967
-0.18948376 -0.4533436 0.12301561 -0.015172538 -0.08634342 -0.42557788 -0.4438161 -0.2951973
0.2850477 0.11495301 -0.12339729 0.023914669 0.3450105 -0.13850427 0.079129286 0.2357725
0.16756907 -0.1021702 0.10773013 -0.1742028 -0.15524751 -0.25274554 -0.2947923 -0.029111696
0.3444089 0.038269207 -0.02177751 0.32945356 -0.25620252 -0.08757153 0.21613687 -0.17756194
0.28140193 -0.32656533 -0.24302194 0.34943545 0.16175963 -0.08670175 -0.027697265 0.009447626
-0.11777109 0.20655811 0.071842015 0.3758703 -0.25917614 -0.36673263 0.26359665 0.35143402
0.29049706 -0.15122677 -0.36606973 -0.043813124 -0.28359967 0.06536887 0.041841827 -0.11441904
00000000: b7ac 8bbd 2091 c03d fe4a b2be c362 8ebd
00000010: 9689 5dbe b72e 9dbd c88c b03d d585 853e
00000020: 2494 9c3e da6c 9bbd 84fb a03c d742 923e
00000030: a3b2 8e3d abc6 993d 7c43 89be 02c3 97be
00000040: 0808 42be a71c e8be 9cef fb3d 3d96 78bc
00000050: d2d4 b0bd 58e5 d9be dd3b e3be 1a24 97be
00000060: c6f1 913e 7c6c eb3d b8b7 fcbd b2e8 c33c
00000070: 37a5 b03e 10d4 0dbe 890e a23d 596e 713e
00000080: 3a97 2b3e 9c3e d1bd 9da1 dc3d 3862 32be
00000090: 34f9 1ebe dd67 81be 04ef 96be a77b eebc
000000a0: 5d56 b03e 2cc0 1c3d c066 b2bc 23ae a83e
000000b0: fa2c 83be b458 b3bd fc52 5d3e ccd2 35be
000000c0: ea13 903e 9233 a7be beda 78be 34e9 b23e
000000d0: 51a4 253e b090 b1bd 60e5 e2bc 37ca 1a3c
000000e0: f831 f1bd f883 533e e821 933d 1272 c03e
000000f0: bcb2 84be 61c4 bbbe 24f6 863e 29ef b33e
00000100: 08bc 943e 31db 1abe 7e6d bbbe 6475 33bd
00000110: fa33 91be 1de0 853d 5662 2b3d 8854 eabd

conv1.bias f4 [8]
-0.05292374 0.24819154 -0.43605012 0.4745989 -0.15150404 -0.38468504 -0.4252975 0.019788938
00000000: 90c6 58bd ec25 7e3e f641 dfbe a1fe f23e
00000010: e023 1bbe 70f5 c4be 98c0 d9be 691c a23c

batchnorm1.weight f4 [8]
1.1362227 0.8730968 0.7062292 1.0504873 0.9437343 1.4839323 1.0810012 0.8391436
00000000: bf6f 913f 4683 5f3f 70cb 343f 5e76 863f
00000010: 9298 713f 7ef1 bd3f 3f5e 8a3f 1dd2 563f

batchnorm1.bias f4 [8]
0.044249073 0.07909433 0.029546635 -0.15989582 -0.036741536 -0.16859312 -0.21927382 -0.2745763
00000000: 843e 353d 35fc a13d c90b f23c bbbb 23be
00000010: 4b7e 16bd ada3 2cbe 5189 60be 4495 8cbe

batchnorm1.running_mean f4 [8]
-0.0667602 0.05740004 -0.6414488 0.6039391 -0.22206086 -0.367278 -0.3889058 -0.027588014
00000000: 92b9 88bd 4e1c 6b3d fd35 24bf c19b 1a3f
00000010: ec63 63be dd0b bcbe a91e c7be 4200 e2bc

batchnorm1.running_var f4 [8]
0.0018191051 0.07046606 0.07480049 0.029964227 0.010939589 0.0014923037 0.0029637492 0.00625135
00000000: 0a6f ee3a 8250 903d 0031 993d 8a77 f53c
00000010: f63b 333c 6799 c33a 763b 423b 20d8 cc3b

res_blocks.0.conv1.weight f4 [16, 8, 3, 3]
0.15223725 0.19419412 0.31225476 0.058485698 -0.12552331 0.017820619 0.16741353 0.3458448
0.33913288 0.07753454 0.13757023 0.14154361 0.13273901 0.060498208 -0.07143839 -0.101499826
-0.08045153 -0.09510942 -0.015810205 -0.05000542 0.00841285 -0.0020105336 0.039699327 0.12637885
-0.036996864 0.13121484 0.085824855 -0.18806756 -0.2092936 0.013349403 -0.060243793 -0.17534009
0.020524671 -0.08994034 -0.09831389 0.019688928 0.10545217 0.02732742 0.021365281 0.02249661
-0.09858232 0.10934154 0.0026739258 0.030145722 0.069481656 -0.013178321 0.061650794 0.10063189
0.04578813 0.035854045 -0.10226716 0.12964562 0.013014936 0.12781456 -0.27780154 -0.27159184
-0.13526341 -0.014803528 0.0921511 -0.020033274 -0.15656547 -0.07413675 0.010038802 0.10798073
0.036899824 -0.09386676 0.17613855 0.062403027 0.08068098 0.030687284 -0.02841171 -0.043271918
-0.36256853 -0.29691735 -0.08783355 -0.27173442 -0.27138203 -0.21315996 -0.01994553 -0.13373955
-0.067262515 -0.26038057 -0.32139793 -0.2914308 -0.16803037 -0.1361475 -0.2526422 -0.04620098
-0.07311003 -0.09298088 -0.14150116 -0.14605297 -0.10810462 -0.29665732 -0.24546893 -0.2793541
-0.057490386 -0.08981879 -0.11422038 -0.0005878055 0.054279238 0.109366365 0.030202862 -0.11899271
-0.057974774 -0.08331929 0.03144992 0.041708253 0.09537589 0.09150694 0.29040092 0.10610961
0.06651513 0.042886723 -0.21599117 -0.10560666 -0.13928643 -0.13679284 0.0019379786 -0.16642943
-0.23155679 0.14968248 0.10799528 0.10390593 0.10068657 0.06901909 0.032433458 0.023341665
0.052176703 -0.10442408 -0.12905915 -0.020310357 0.033163384 -0.015981896 -0.13316447 -0.035468902
0.055514593 -0.053314973 -0.060599953 -0.2105547 -0.03853415 -0.09522389 -0.07950739 0.0401774
-0.00095674506 0.17789681 0.19416957 -0.22582021 -0.2907428 -0.1919048 0.16652791 0.34519526
0.10253105 -0.13590516 -0.06315912 -0.038666174 -0.12094562 -0.0069003003 0.033086333 -0.05606348
-0.04898001 -0.2262793 -0.12489579 -0.15733382 -0.1413931 -0.039935183 -0.031500533 -0.08930196
0.033794302 -0.052315082 -0.15732284 -0.15269403 -0.03741774 -0.03648524 0.038074706 0.037559483
0.058443356 -0.015569034 0.09460205 -0.06820661 -0.0450559 0.06745459 0.11313653 -0.1940858
-0.34559906 -0.3235017 0.02551421 -0.09296005 0.021250265 -0.0041974005 -0.077937394 0.053456835
-0.010987424 -0.069687285 -0.100853965 -0.04729606 0.11919231 -0.0018105556 -0.09190472 -0.20428176
-0.29659152 0.023512678 0.09640809 -0.024580862 0.084183924 -0.09010485 -0.040832765 0.09041886
0.08988064 0.13848956 0.0695772 0.11263503 -0.07941601 -0.010127978 0.07116208 0.11073972
0.06935218 0.055880025 -0.052937653 -0.16139227 0.05417165 0.03849448 0.099956706 0.06898425
0.17282777 -0.14891109 -0.11582867 -0.08044915 -0.12635218 0.07006504 -0.08808738 -0.10208171
-0.03781093 -0.042984612 -0.15408811 -0.10108041 -0.1836831 -0.058250766 -0.043718282 -0.13416737
0.03152893 -0.028887333 -0.019348636 -0.11071708 -0.00074383174 0.020831693 -0.051652737 -0.036712684
-0.12789188 0.022390189 0.08085204 -0.08697411 -0.050984997 -0.056792878 -0.10682077 -0.14242232
00000000: 15e4 1b3e d3da 463e dbdf 9f3e b38e 6f3d
00000010: 2f89 00be 8cfc 913c 746e 2b3e 9212 b13e
00000020: d3a2 ad3e 6eca 9e3d 36df 0c3e cff0 103e
00000030: bcec 073e f8cc 773d 4a4e 92bd 24df cfbd
00000040: c6c3 a4bd bac8 c2bd 6784 81bc 7cd2 4cbd
00000050: 0dd6 093c 28c3 03bb c39b 223d 7569 013e
00000060: 068a 17bd 2f5d 063e f1c4 af3d c894 40be
00000070: 1051 56be 74b7 5a3c 32c2 76bd 5a8c 33be
00000080: 5b23 a83c a432 b8bd cb58 c9bd ad4a a13c
00000090: 4ff7 d73d c1dd df3c 3e06 af3c d04a b83c
000000a0: 87e5 c9bd 75ee df3d 083d 2f3b 29f4 f63c
000000b0: 664c 8e3d e2e9 57bc 8b85 7c3d 1818 ce3d
000000c0: 568c 3b3d b1db 123d 7271 d1bd d2c1 043e
000000d0: 993c 553c d2e1 023e 013c 8ebe 160e 8bbe
000000e0: 7e82 0abe 7f8a 72bc b7b9 bc3d d21c a4bc
000000f0: b352 20be 02d5 97bd ca79 243c 0025 dd3d
00000100: 4524 173d 373d c0bd aa5d 343e 519a 7f3d
00000110: 123c a53d e663 fb3c adbf e8bc e53d 31bd
00000120: 95a2 b9be 8d05 98be 14e2 b3bd c620 8bbe
00000130: 96f2 8abe 9b46 5abe cf64 a3bc 05f3 08be
00000140: eec0 89bd 9a50 85be 458e a4be 6b36 95be
00000150: 2710 2cbe 406a 0bbe 525a 81be 3d3d 3dbd
00000160: b6ba 95bd c26c bebd aee5 10be e98e 15be
00000170: f465 ddbd 78e3 97be 355c 7bbe 8007 8fbe
00000180: 0a7b 6bbd eaf2 b7bd 60ec e9bd f616 1aba
00000190: e853 5e3d 79fb df3d fe6b f73c 73b2 f3bd
000001a0: f576 6dbd 4ea3 aabd a2d1 003d 46d6 2a3d
000001b0: 6f54 c33d fe67 bb3d 6eaf 943e ff4f d93d
000001c0: 1639 883d fda9 2f3d ca2c 5dbe 4e48 d8bd
000001d0: 1aa1 0ebe 6c13 0cbe c503 fe3a 7a6c 2abe
000001e0: 391d 6dbe 5d46 193e a12c dd3d a2cc d43d
000001f0: c334 ce3d e159 8d3d f2d8 043d 0537 bf3c
00000200: 3db7 553d 4bdc d5bd 1528 04be e861 a6bc
00000210: 54d6 073d 77ec 82bc 445c 08be d747 11bd
00000220: 4563 633d cd60 5abd a837 78bd a79b 57be
00000230: fcd5 1dbd be04 c3bd c5d4 a2bd 0f91 243d
00000240: 13ce 7aba 952a 363e 63d4 463e 6a3d 67be
00000250: 3edc 94be b182 44be 4b86 2a3e 6fbd b03e
00000260: cdfb d13d b92a 0bbe 9259 81bd 6c60 1ebd
00000270: 56b2 f7bd ea1b e2bb 8985 073d d2a2 65bd
00000280: 439f 48bd c3b5 67be 5dc9 ffbd 1e1c 21be
00000290: 5ac9 10be 1393 23bd b406 01bd f2e3 b6bd
000002a0: e56b 0a3d 5748 56bd 3d19 21be d35b 1cbe
000002b0: 5843 19bd 8c71 15bd 39f4 1b3d f9d7 193d
000002c0: 4d62 6f3d 4315 7fbc b8be c13d e8af 8bbd
000002d0: 898c 38bd a225 8a3d 20b4 e73d 6ebe 46be
000002e0: 5cf2 b0be 04a2 a5be 2d03 d13c d761 bebd
000002f0: 0915 ae3c 598a 89bb a49d 9fbd 8ef5 5a3d
00000300: 9904 34bc 35b8 8ebd 868c cebd 83b9 41bd
00000310: 191b f43d 2a50 edba 8b38 bcbd 3d2f 51be
00000320: d8da 97be a99d c03c 9b71 c53d ce5d c9bc
00000330: 9f68 ac3d e488 b8bd 4240 27bd 862d b93d
00000340: 5713 b83d 35d0 0d3e 7e7e 8e3d 32ad e63d
00000350: dca4 a2bd d2ef 25bc 6dbd 913d 82cb e23d
00000360: 8408 8e3d 74e2 643d 27d5 58bd 0444 25be
00000370: 18e3 5d3d 63ac 1d3d 1ab6 cc3d 9d47 8d3d
00000380: c3f9 303e 267c 18be 9537 edbd 86c2 a4bd
00000390: 7762 01be 427e 8f3d 2867 b4bd 3710 d1bd
000003a0: a2df 1abd a210 30bd 46c9 1dbe 3f03 cfbd
000003b0: 6c17 3cbe 5b98 6ebd f111 33bd 2c63 09be
000003c0: 7b24 013d 21a5 ecbc 0881 9ebc a3bf e2bd
000003d0: b4fd 42ba 3aa7 aa3c d291 53bd 0a60 16bd
000003e0: 17f6 02be a16b b73c c195 a53d 7b1f b2bd
000003f0: a5d5 50bd a69f 68bd d9c4 dabd 28d7 11be

res_blocks.0.conv1.bias f4 [16]
0.02944619 0.07409263 0.076553814 0.063366026 0.02913922 -0.06538122 -0.085589185 0.0043594944
0.045725774 -0.016760986 -0.040188227 0.062079962 0.101471275 -0.09552786 0.046606977 0.14375016
00000000: 2339 f13c e0bd 973d 3fc8 9c3d 0cc6 813d
00000010: 60b5 ee3c 97e6 85bd 6249 afbd 17da 8e3b
00000020: f34a 3b3d 564e 89bc 699c 24bd 8f47 7e3d
00000030: 2cd0 cf3d 1ca4 c3bd f5e6 3e3d 3e33 133e

res_blocks.0.batchnorm1.weight f4 [16]
0.8388746 0.85515887 0.66423285 0.98627925 0.929657 1.1486726 0.8732274 0.7857378
0.77411324 0.92992246 0.8967085 1.0002602 0.8541333 0.8927924 0.80972713 0.94147635
00000000: 7cc0 563f b1eb 5a3f 2a0b 2a3f cc7c 7c3f
00000010: 00fe 6d3f b407 933f d58b 5f3f 1d26 493f
00000020: 492c 463f 660f 6e3f b08e 653f 8708 803f
00000030: 7ba8 5a3f 0b8e 643f 474a 4f3f 9804 713f

res_blocks.0.batchnorm1.bias f4 [16]
-0.26083416 -0.2474286 -0.43866542 -0.1368172 -0.23114106 -0.5982021 -0.1695917 -0.22655308
-0.11675602 -0.3482277 -0.26025265 -0.90176964 -0.7625854 -0.3036808 -0.20988837 -0.27662086
00000000: 0e8c 85be ec5d 7dbe c198 e0be cf19 0cbe
00000010: 3eb0 6cbe c623 19bf 72a9 2dbe 88fd 67be
00000020: c81d efbd e74a b2be d63f 85be 60da 66bf
00000030: cc38 43bf 0d7c 9bbe faec 56be 40a1 8dbe

res_blocks.0.batchnorm1.running_mean f4 [16]
0.3594333 -1.7785299 -0.9190475 -1.1807828 -0.1325458 0.62745154 -0.71504897 0.47336772
-1.5962967 -1.0253185 0.40514797 1.35719 1.2906206 -0.42063746 0.052094046 0.42731094
00000000: a407 b83e dea6 e3bf b246 6bbf e423 97bf
00000010: 16ba 07be aaa0 203f 730d 37bf 415d f23e
00000020: 7353 ccbf a33d 83bf 8e6f cf3e 67b8 ad3f
00000030: 0e33 a53f cb5d d7be 9160 553d 80c8 da3e

res_blocks.0.batchnorm1.running_var f4 [16]
1.3311568 1.2082402 0.34973398 0.5683913 0.6172772 0.33088967 0.43839413 0.4711398
1.3344766 0.41276684 0.54090023 0.29098332 0.37308422 0.3853988 1.5007951 0.13566507
00000000: 5963 aa3f 9da7 9a3f 5510 b33e 1882 113f
00000010: e105 1e3f 5f6a a93e 3275 e03e 3c39 f13e
00000020: 21d0 aa3f 2d56 d33e 7078 0a3f c4fb 943e
00000030: e504 bf3e fe52 c53e 0e1a c03f c9eb 0a3e

res_blocks.0.conv2.weight f4 [16, 16, 3, 3]
0.2432991 0.17440246 0.3347981 -0.0036363492 -0.0661482 0.024987914 0.19039409 0.07264752
0.19250633 0.014331124 0.009915705 0.08732747 -0.056803945 -0.0829262 0.036433436 0.017901178
0.0883345 0.037937082 0.2565497 0.29733765 0.23323937 -0.12985319 -0.144536 -0.16736917
-0.017911853 0.0508227 0.0008803199 0.005466585 0.017854316 -0.057189096 0.008856391 0.084201545
0.04911627 -0.030863425 0.08111733 -0.032356348 0.08339463 0.14851159 0.23468612 -0.031296197
0.21647853 0.2181709 -0.028270176 0.16758327 -0.10701193 0.120762184 0.11663848 0.022435607
0.18489692 0.04170573 -0.19713783 0.40418062 -0.07552009 -0.035046786 0.050349027 0.027084094
0.07962091 -0.04850303 -0.009839503 -0.20324573 0.022502607 0.10595505 -0.089129105 -0.14603484
-0.08716368 -0.026271837 -0.040076204 -0.073526025 -0.12232668 -0.06322659 -0.02744244 -0.067590415
0.012995174 0.078020446 0.115268044 0.10085469 0.1824476 0.13834122 0.05659663 0.02450089
0.044109434 -0.0012846349 0.10881847 -0.07663337 -0.024673726 0.16384433 -0.053033434 0.060569495
0.025751514 -0.012221174 -0.056688476 0.048811823 -0.006788412 0.0068540624 -0.007332736 -0.034525022
0.03844055 0.07636822 -0.14270656 -0.19643328 -0.055178043 0.085319094 -0.062349655 0.011450252
0.08251296 0.099534184 0.1923337 -0.1381959 0.040511206 0.06983375 0.08479801 -0.0024538182
-0.057556525 -0.009132793 0.046058357 -0.0015902894 0.13030435 0.016874235 -0.045370784 0.02346987
-0.025364928 -0.00066169613 0.020080332 0.005643136 -0.03454731 -0.0604509 0.1036955 0.20039089
0.14335068 0.053270638 0.1393634 -0.103062145 0.0121651115 0.1956633 0.12985617 -0.06436803
-0.008574885 0.05685805 -0.034970656 -0.11833802 0.049553227 -0.10188467 -0.09495841 0.041123975
0.041082438 -0.008733243 0.13634768 0.015626835 0.0082819825 0.025315214 -0.009756312 -0.08457976
-0.031769637 -0.08638852 0.03849349 -0.061531655 -0.05201363 -0.0085080145 -0.02409259 -0.040460777
-0.021382801 0.08383647 0.19636811 0.0740376 0.1350484 0.13786955 0.10449627 0.122779
0.18386714 0.15403727 0.1252524 0.11455195 0.092503995 0.14188032 0.13086477 0.06880283
0.18132499 0.05069836 0.120893784 0.13259408 0.09573415 0.12085462 0.20545422 -0.010456823
0.2734163 0.15111926 0.066383936 0.08454359 -0.056016386 0.117454596 -0.07563173 -0.043487485
0.14239232 -0.075863875 -0.0016107133 0.13115813 -0.043216366 0.064051904 -0.026943622 0.093837634
0.117939495 -0.024846703 0.18600656 0.10128934 -0.020138238 0.17842278 -0.05098162 0.0057586282
0.08897227 0.058002822 -0.1147649 0.028166968 0.04582126 -0.0006241289 0.04751653 0.10266926
-0.16652212 -0.10867798 -0.17741643 0.21225286 0.14983271 0.19351178 0.037095096 -0.102011055
-0.03825705 -0.012715793 -0.06883441 -0.025540927 0.010359609 -0.021621604 0.03604935 0.08657072
-0.0030294703 0.08444106 -0.031390145 0.03442064 0.1116049 -0.11208362 -0.0379188 0.023749955
0.28441328 0.32152978 0.1765058 -0.19126904 0.06485851 -0.12411154 -0.03918452 0.07404395
-0.055031985 0.023521906 0.10316963 -0.03636427 0.17895082 0.10823691 0.0658565 0.07292029
00000000: 6623 793e 8f96 323e a86a ab3e d14f 6ebb
00000010: b578 87bd 74b3 cc3c abf6 423e 39c8 943d
00000020: 6120 453e 17cd 6a3c 7b75 223c bfd8 b23d
00000030: 41ab 68bd 36d5 a9bd 3a3b 153d 7ea5 923c
00000040: b8e8 b43d ea63 1b3d 7b5a 833e a43c 983e
00000050: 4dd6 6e3e 3cf8 04be 3f01 14be d362 2bbe
00000060: e1bb 92bc 772b 503d 45c5 663a 0a21 b33b
00000070: 3743 923c 1d3f 6abd 651a 113c dc71 ac3d
00000080: 242e 493d 4bd5 fcbc d820 a63d 1788 04bd
00000090: ceca aa3d 6c13 183e 8f51 703e 7130 00bd
000000a0: 8cac 5d3e 3168 5f3e db96 e7bc f39a 2b3e
000000b0: 1229 dbbd 2a52 f73d 28e0 ee3d e1ca b73c
000000c0: 9e55 3d3e a1d3 2a3d 80de 49be c3f0 ce3e
000000d0: 47aa 9abd 388d 0fbd c83a 4e3d 76df dd3c
000000e0: 4a10 a33d 1dab 46bd de35 21bc a61f 50be
000000f0: 6357 b83c f6fe d83d 5289 b6bd 288a 15be
00000100: df82 b2bd 0938 d7bc f226 24bd d094 96bd
00000110: 6986 fabd f17c 81bd f8ce e0bc d86c 8abd
00000120: b6e9 543c 2fc9 9f3d a711 ec3d e78c ce3d
00000130: 8bd3 3a3e 52a9 0d3e ded1 673d 17b6 c83c
00000140: 18ac 343d 3261 a8ba 38dc de3d f5f1 9cbd
00000150: 8e20 cabc cfc6 273e 9639 59bd b817 783d
00000160: d7f4 d23c 523b 48bc 2d32 68bd e8ee 473d
00000170: 5471 debb 0b98 e03b 7347 f0bb 1c6a 0dbd
00000180: d773 1d3d f166 9c3d ab21 12be ce25 49be
00000190: 5f02 62bd c7bb ae3d 5a62 7fbd d699 3b3c
000001a0: 8efc a83d 94d8 cb3d 20f3 443e 3a83 0dbe
000001b0: 14ef 253d ff04 8f3d 94aa ad3d 3dd0 20bb
000001c0: 64c0 6bbd b6a1 15bc b0a7 3c3d 4271 d0ba
000001d0: 816e 053e d63b 8a3c b7d6 39bd e343 c03c
000001e0: 1cca cfbc ad75 2dba 827f a43c 0eea b83b
000001f0: 7b81 0dbd 5d9b 77bd 4e5e d43d 4533 4d3e
00000200: 85ca 123e 5032 5a3d 47b5 0e3e 3f12 d3bd
00000210: 2d50 473c f65b 483e 04f9 043e 63d3 83bd
00000220: ad7d 0cbc fde3 683d 643d 0fbd 345b f2bd
00000230: 53f8 4a3d e9a8 d0bd 8e79 c2bd 9d71 283d
00000240: 0f46 283d e015 0fbc ba9e 0b3e d903 803c
00000250: 27b1 073c da61 cf3c f0d8 1fbc 2738 adbd
00000260: e120 02bd 77ec b0bd 5aab 1d3d 9e08 7cbd
00000270: 3e0c 55bd 3365 0bbc d35d c5bc 33ba 25bd
00000280: fc2a afbc 75b2 ab3d b914 493e 06a1 973d
00000290: 214a 0a3e ad2d 0d3e 2402 d63d 8e73 fb3d
000002a0: ab47 3c3e f2bb 1d3e 2a42 003e 369a ea3d
000002b0: bc72 bd3d 1349 113e 6a01 063e 80e8 8c3d
000002c0: 42ad 393e 15a9 4f3d 2997 f73d bec6 073e
000002d0: 4410 c43d a182 f73d 9762 523e 1853 2bbc
000002e0: 39fd 8b3e 02bf 1a3e 4df4 873d 3125 ad3d
000002f0: 7071 65bd 098c f03d cfe4 9abd ef1f 32bd
00000300: 4bcf 113e 855e 9bbd 921e d3ba 514e 063e
00000310: a503 31bd a52d 833d dfb8 dcbc f22d c03d
00000320: 438a f13d 508b cbbc 8178 3e3e c970 cf3d
00000330: f2f8 a4bc 76b4 363e 1ad2 50bd e0b2 bc3b
00000340: 1837 b63d 5e94 6d3d dc09 ebbd 6abe e63c
00000350: 13af 3b3d 959c 23ba b1a0 423d 4344 d23d
00000360: c684 2abe 9092 debd a7ac 35be d058 593e
00000370: bf6d 193e f427 463e 07f1 173d 2ceb d0bd
00000380: 6db3 1cbd e755 50bc 0ef9 8cbd 353b d1bc
00000390: 59bb 293c ca1f b1bc 7ca8 133d fd4b b13d
000003a0: 148a 46bb 6fef ac3d f492 00bd a8fc 0c3d
000003b0: 1c91 e43d 198c e5bd be50 1bbd 448f c23c
000003c0: 9e9e 913e 8d9f a43e f0bd 343e 08dc 43be
000003d0: 8ad4 843d 312e febd f27f 20bd 5ba4 973d
000003e0: 3869 61bd 03b1 c03c 994a d33d b3f2 14bd
000003f0: e23e 373e 50ab dd3d c6df 863d 3c57 953d

res_blocks.0.conv2.bias f4 [16]
-0.07701661 -0.026082486 -0.024677185 -0.024273712 0.040212028 -0.063769415 -0.025415357 -0.029210659
0.072785474 -0.0625468 -0.09383907 0.073341735 0.056052353 0.06280126 -0.09236201 0.07070168
00000000: e2ba 9dbd f0aa d5bc cf27 cabc aad9 c6bc
00000010: 5eb5 243d 8a99 82bd de33 d0bc 314b efbc
00000020: 8d10 953d 8918 80bd b32e c0bd 3134 963d
00000030: 2797 653d f29d 803d 4b28 bdbd 0bcc 903d

res_blocks.0.batchnorm2.weight f4 [16]
1.6200637 1.356975 1.2899328 1.1876696 1.2842906 1.595597 1.2057066 1.5086153
1.5431478 1.4844068 1.5264231 1.5337832 1.275663 1.2999498 1.3048435 1.2183069
00000000: 3f5e cf3f 5bb1 ad3f 851c a53f 8f05 983f
00000010: a263 a43f 863c cc3f 9854 9a3f 4e1a c13f
00000020: de85 c53f 0b01 be3f d561 c33f 0253 c43f
00000030: ed48 a33f c164 a63f 1d05 a73f 7bf1 9b3f

res_blocks.0.batchnorm2.bias f4 [16]
-0.48694402 -0.343372 -0.080945365 -0.3291977 -0.042123817 -0.24958129 -0.14348082 0.17317605
-0.2826436 -0.020715205 0.16904193 0.07963858 -0.033629104 -0.24995245 -0.18685322 -0.11732084
00000000: ba50 f9be 74ce afbe afc6 a5bd 9a8c a8be
00000010: 068a 2cbd 3d92 7fbe a3ec 12be 1055 313e
00000020: a9b6 90be efb2 a9bc 5419 2d3e 8d19 a33d
00000030: acbe 09bd 89f3 7fbe 7356 3fbe e945 f0bd

res_blocks.0.batchnorm2.running_mean f4 [16]
0.6518711 0.8143169 -0.015117611 0.42468014 -0.24301764 -0.14302905 1.2122282 -0.057606652
0.267371 0.2956928 -0.18655525 0.058821492 -0.6530426 -0.048498113 -0.15863353 0.30741805
00000000: 06e1 263f 1377 503f dbaf 77bc ad6f d93e
00000010: 9ed9 78be 3576 12be 4b2a 9b3f f4f4 6bbd
00000020: dae4 883e 0c65 973e 5708 3fbe ceee 703d
00000030: cd2d 27bf f5a5 46bd d470 22be e665 9d3e

res_blocks.0.batchnorm2.running_var f4 [16]
0.4941651 0.54082716 0.37266594 0.6387863 0.47532314 0.76574266 0.62332886 0.4821466
0.7456111 0.6300483 0.43449393 0.72579956 0.8372147 0.25076702 0.40775147 0.5245392
00000000: 3503 fd3e a673 0a3f 12ce be3e 8087 233f
00000010: 8e5d f33e b607 443f 7b92 1f3f ebdb f63e
00000020: 5ee0 3e3f d84a 213f fd75 de3e 00ce 393f
00000030: b453 563f 8964 803e cdc4 d03e 3348 063f

res_blocks.0.residual_conv.weight f4 [16, 8, 1, 1]
0.21560858 0.34457707 -0.059911657 -0.6084576 -0.22233708 -0.034481887 -0.5038059 0.12475396
-0.27468675 -0.09302503 0.22432943 -0.32278123 -0.08594415 0.07799892 -0.011755055 -0.39306676
0.32388583 0.16317266 0.059653122 0.020041913 0.13001175 -0.35064727 0.3498084 -0.41594276
0.091947615 0.25515562 -0.15733165 -0.26427472 -0.17853212 -0.43953517 -0.14493646 0.10920651
0.09100679 0.47178444 -0.00021939035 -0.4102896 0.14186214 -0.64763075 0.18009979 0.10064426
0.55219173 0.15434416 0.21021652 -0.59897363 -0.08855027 0.031682193 -0.16596997 0.2326392
0.13212942 0.26772672 0.10273427 -0.3959811 0.025638033 -0.26352662 -0.15704162 -0.28775132
-0.10937988 0.007898571 0.07487689 -0.1674225 -0.13568622 -0.34533572 -0.19047637 0.023273874
0.17511545 0.22607434 0.16562364 -0.20570639 -0.39013422 -0.15443018 -0.30682153 -0.24694665
0.15357567 -0.21603005 -0.012971233 0.17556292 0.16968459 0.35095266 -0.1754876 0.112261236
-0.22802064 0.36033887 -0.068001345 0.03414294 0.3528907 -0.38317245 -0.53710914 -0.2482298
-0.084174395 -0.2879376 -0.019272769 -0.23088391 -0.34874406 -0.08722145 -0.09368401 0.057508297
0.00087985885 0.1868317 0.054071303 -0.2723629 0.27632377 -0.13254657 -0.042856608 0.3071555
0.16868848 -0.27865747 0.13553955 -0.41142815 -0.15748395 -0.31530696 -0.34216657 0.11224971
-0.0011269794 -0.045270365 -0.12653124 0.1104155 0.06913922 0.1095382 0.29814062 0.2775984
0.09995606 0.09200699 -0.13915624 -0.15714735 -0.012649687 -0.3032366 -0.3241688 -0.050692413
00000000: 7fc8 5c3e 686c b03e ed65 75bd e1c3 1bbf
00000010: 55ac 63be e13c 0dbd 6cf9 00bf 017f ff3d
00000020: bea3 8cbe e883 bebd 9db6 653e 9543 a5be
00000030: 7d03 b0bd e6bd 9f3d 4698 40bc 0c40 c9be
00000040: 5dd4 a53e bc16 273e d556 743d f02e a43c
00000050: cd21 053e 0a88 b3be 161a b33e 73f6 d4be
00000060: 084f bc3d c2a3 823e 8c1b 21be 044f 87be
00000070: 20d1 36be c10a e1be 396a 14be aaa7 df3d
00000080: c561 ba3d bb8d f13e 260c 66b9 7a11 d2be
00000090: 4f44 113e 21cb 25bf 146c 383e 941e ce3d
000000a0: 705c 0d3f 650c 1e3e 0043 573e 5656 19bf
000000b0: d859 b5bd 30c5 013d 08f4 29be f838 6e3e
000000c0: ef4c 073e 7a13 893e 5866 d23d 09be cabe
000000d0: da06 d23c f6ec 86be 85cf 20be 2454 93be
000000e0: 8f02 e0bd 0269 013c 0e59 993d ce70 2bbe
000000f0: 54f1 0abe d8cf b0be 3d0c 43be daa8 be3c
00000100: 7751 333e 0880 673e 3e99 293e b2a4 52be
00000110: acbf c7be f222 1ebe b617 9dbe 95df 7cbe
00000120: f142 1d3e fb36 5dbe 4b85 54bc c4c6 333e
00000130: ccc1 2d3e 11b0 b33e 05b3 33be 38e9 e53d
00000140: 3e7e 69be 567e b83e 4a44 8bbd 78d9 0b3d
00000150: 17ae b43e 2e2f c4be fc7f 09bf f42f 7ebe
00000160: a063 acbd 8f6c 93be ede1 9dbc d56c 6cbe
00000170: 958e b2be 29a1 b2bd 67dd bfbd d28d 6b3d
00000180: 54a6 663a cf50 3f3e df79 5d3d 2673 8bbe
00000190: 4f7a 8d3e 4aba 07be 698a 2fbd 7c43 9d3e
000001a0: acbc 2c3e 31ac 8ebe e1ca 0a3e b6a6 d2be
000001b0: 7943 21be ea6f a1be 7530 afbe 2de3 e53d
000001c0: 27b7 93ba 6b6d 39bd 6891 01be 8621 e23d
000001d0: dd98 8d3d 9055 e03d e3a5 983e 6121 8e3e
000001e0: c3b5 cc3d 296e bc3d f97e 0ebe 3ceb 20be
000001f0: a240 4fbc d441 9bbe 74f9 a5be d9a2 4fbd

res_blocks.0.residual_conv.bias f4 [16]
-0.2870027 0.1896445 -0.32501367 -0.015362289 0.1160065 -0.33599418 0.21854652 -0.25440994
0.26992506 -0.21278055 -0.1111252 0.24238418 0.2023818 0.14559594 0.22013295 0.2764538
00000000: 05f2 92be 2b32 423e 3168 a6be 1cb2 7bbc
00000010: d194 ed3d 6e07 acbe a9ca 5f3e 0542 82be
00000020: 9e33 8a3e 25e3 59be 9c95 e3bd 8f33 783e
00000030: 2d3d 4f3e 1a17 153e 886a 613e 5a8b 8d3e

res_blocks.1.conv1.weight f4 [32, 16, 3, 3]
-0.061597914 -0.21484357 -0.13964768 -0.009862033 0.0007359534 -0.12019118 0.03539212 -0.010378262
0.0044198968 -0.058196764 -0.1657984 -0.015117803 -0.16641827 -0.22736976 -0.11223557 -0.0843136
-0.07176778 -0.067457676 0.04074756 0.091038935 0.12716085 0.048614174 0.049845636 0.0055106794
-0.054092303 -0.03382823 -0.037103727 -0.14015342 -0.062973574 -0.015837086 0.027413195 0.026247874
0.04736687 0.042405836 0.04779084 0.14539498 -0.16686186 -0.17719789 -0.34885025 -0.20943952
-0.27977595 -0.20906168 -0.23177652 -0.23253092 -0.2701914 -0.096341655 -0.09496696 -0.0828607
-0.037788294 -0.00056376355 -0.086422466 -0.14117095 -0.0126826605 -0.06330809 -0.036135323 -0.017971601
-0.021600341 -0.020554997 0.1285464 0.019730784 0.18277071 0.08972621 0.1542063 -0.13344325
-0.027107602 -0.1466913 0.023117699 -0.03015136 0.05668372 0.04883701 -0.002703691 0.07731018
-0.02283318 -0.127313 -0.01685349 0.01845739 0.017393615 0.11090964 0.29938376 0.21084264
0.24066265 -0.12804559 -0.036492363 -0.11657992 -0.1111654 -0.09105023 -0.06830368 -0.25718975
-0.2569328 -0.22781056 -0.108922556 -0.049785335 -0.008120771 0.11929572 0.047688987 0.1239973
0.16035102 0.14564517 0.11083495 -0.008629574 0.043963786 0.09978941 0.062205248 0.10449181
0.032873053 -0.039437536 0.012372437 -0.04382089 0.09734598 0.18969 0.16604073 0.15420426
0.15242922 0.14636582 0.19495222 0.25421533 0.2587124 -0.2125056 -0.16006716 -0.19539325
-0.13265458 -0.13240115 -0.0973413 -0.14899555 -0.1557896 -0.124329984 -0.01669158 0.09159672
0.057809696 0.023653228 -0.024565933 -0.005781055 -0.06497127 -0.10733491 0.020370737 0.0010101817
0.008493118 -0.027556889 -0.009795417 -0.025288466 -0.032492504 -0.14008833 -0.113504305 -0.05466246
-0.114513874 -0.12717466 -0.051263586 -0.19801731 -0.08716362 -0.07906194 -0.11882526 -0.08868615
-0.06994641 -0.27996746 -0.213679 -0.22282882 -0.29387903 -0.23681305 -0.33579364 -0.33281127
-0.40074846 -0.424683 0.042939726 0.08099997 0.09540201 -0.065946385 0.027297767 -0.08053909
0.06898576 0.010030714 0.10324689 0.03572775 0.08811383 0.027281692 0.12978609 0.15880902
0.21365726 0.07708718 0.044030506 0.05849702 0.13347948 0.06179683 0.023868758 -0.060498647
0.052951247 0.04349054 0.1193992 0.020099457 0.11429499 -0.18145618 -0.032629974 -0.09796716
-0.0716279 -0.037155244 -0.09673074 -0.18472645 -0.049631972 -0.08687214 -0.027000943 -0.061546892
-0.14042865 0.0048951525 0.06845239 -0.043527376 -0.017388042 -0.057061363 0.025593663 0.037153836
0.0065100994 -0.03631816 -0.059914727 0.018027876 0.07556832 0.021500736 0.07084598 -0.036270462
0.13699697 0.13188209 0.19916996 -0.2011494 -0.23482746 -0.121172905 -0.10078093 -0.05279921
-0.012996757 -0.037912525 0.05407929 -0.03410597 -0.0468469 -0.14514855 -0.0769528 -0.06135584
-0.19819428 -0.13594939 0.06760977 0.07406469 0.040986743 0.03557028 -0.0015088422 -0.05034759
-0.03426447 0.020072792 0.08728321 -0.16265862 -0.15292874 -0.20829171 -0.1710684 -0.10534007
-0.1170788 -0.099278085 -0.0829649 -0.18333237 0.23088601 0.1897593 0.25691354 0.1803818
00000000: 184e 7cbd f4ff 5bbe cdff 0ebe 5d94 21bc
00000010: ffec 403a cb26 f6bd 54f7 103d 9609 2abc
00000020: c8d4 903b bb5f 6ebd 0ec7 29be a9b0 77bc
00000030: 8d69 2abe 9ed3 68be c3db e5bd 9cac acbd
00000040: fcfa 92bd 4027 8abd eae6 263d 9f72 ba3d
00000050: 7436 023e a81f 473d f02a 4c3d ee92 b43b
00000060: e48f 5dbd 788f 0abd 14fa 17bd 6184 0fbe
00000070: 4af8 80bd c7bc 81bc a391 e03c c805 d73c
00000080: c303 423d beb1 2d3d 54c0 433d 6ce2 143e
00000090: d6dd 2abe 5d73 35be 809c b2be 5077 56be
000000a0: cb3e 8fbe 4414 56be d356 6dbe 961c 6ebe
000000b0: 8756 8abe c64e c5bd 0a7e c2bd dfb2 a9bd
000000c0: e6c7 1abd 88c9 13ba 43fe b0bd 1e8f 10be
000000d0: efca 4fbc aca7 81bd a202 14bd 2e39 93bc
000000e0: 33f3 b0bc f462 a8bc aba1 033e 74a2 a13c
000000f0: 3f28 3b3e 60c2 b73d 42e8 1d3e 59a5 08be
00000100: c310 debc 3f36 16be 5461 bd3c fcff f6bc
00000110: 302d 683d 5109 483d 6830 31bb cd54 9e3d
00000120: a60c bbbc 575e 02be 5510 8abc f433 973c
00000130: 0e7d 8e3c 9824 e33d d448 993e 22e7 573e
00000140: 4570 763e 621e 03be 0479 15bd 74c1 eebd
00000150: afaa e3bd 8b78 babd cde2 8bbd 60ae 83be
00000160: b28c 83be 2c47 69be ca12 dfbd b5eb 4bbd
00000170: fb0c 05bc 5051 f43d 8755 433d 4cf2 fd3d
00000180: 0f33 243e 0224 153e 6ffd e23d 0f63 0dbc
00000190: 5f13 343d 645e cc3d eeca 7e3d cdff d53d
000001a0: e5a5 063d 4189 21bd c3b5 4a3c 897d 33bd
000001b0: 545d c73d 183e 423e 9506 2a3e b9e7 1d3e
000001c0: 6816 1c3e ece0 153e 8ea1 473e 8328 823e
000001d0: f475 843e 119b 59be a5e8 23be 2b15 48be
000001e0: 9ad6 07be 2b94 07be e05a c7bd 4a92 18be
000001f0: 4f87 1fbe b8a0 febd c8bc 88bc 1097 bb3d
00000200: dcc9 6c3d 6ac4 c13c 7f3e c9bc 016f bdbb
00000210: a80f 85bd 68d2 dbbd 88e0 a63c 1368 843a
00000220: b826 0b3c fcbe e1bc f57c 20bc c229 cfbc
00000230: dc16 05bd 5173 0fbe f274 e8bd bee5 5fbd
00000240: 4086 eabd 133a 02be c4f9 51bd 0dc5 4abe
00000250: d782 b2bd 3aeb a1bd a85a f3bd 16a1 b5bd
00000260: 1040 8fbd e557 8fbe abce 5abe 3d2d 64be
00000270: 5077 96be 1f7f 72be 25ed abbe 3d66 aabe
00000280: e72e cdbe 0d70 d9be 91e1 2f3d 50e3 a53d
00000290: 2162 c33d e60e 87bd 919f df3c aef1 a4bd
000002a0: 6848 8d3d dd57 243c 1b73 d33d 4357 123d
000002b0: 0675 b43d db7d df3c a5e6 043e d59e 223e
000002c0: f8c8 5a3e e2df 9d3d 5559 343d 929a 6f3d
000002d0: d8ae 083e ac1e 7d3d 6a88 c33c 6ecd 77bd
000002e0: 68e3 583d 2323 323d 9187 f43d 9ea7 a43c
000002f0: 7e13 ea3d a6cf 39be 02a7 05bd 02a3 c8bd
00000300: a6b1 92bd 1930 18bd c41a c6bd ee28 3dbe
00000310: e54a 4bbd 05ea b1bd 1531 ddbc 9818 7cbd
00000320: 87cc 0fbe 8467 a03b c430 8c3d c349 32bd
00000330: 5e71 8ebc 2db9 69bd cda9 d13c 9f2e 183d
00000340: ac52 d53b 5ac2 14bd 2569 75bd 32af 933c
00000350: 90c3 9a3d 5022 b03c b217 913d 5690 14bd
00000360: ef48 0c3e 190c 073e 36f3 4b3e 1cfa 4dbe
00000370: 9c76 70be 8029 f8bd 3b66 cebd fc43 58bd
00000380: 5af0 54bc 2a4a 1bbd 3f82 5d3d b4b2 0bbd
00000390: 89e2 3fbd d2a1 14be 6e99 9dbd 4350 7bbd
000003a0: 71f3 4abe 5136 0bbe fe76 8a3d 3aaf 973d
000003b0: b7e1 273d 24b2 113d 58c4 c5ba 4639 4ebd
000003c0: e758 0cbd b26f a43c 8ac1 b23d fb8f 26be
000003d0: 5a99 1cbe 6c4a 55be 8e2c 2fbe 89bc d7bd
000003e0: 03c7 efbd 4f52 cbbd 80e9 a9bd 7bbb 3bbe
000003f0: 626d 6c3e 4350 423e 2c8a 833e 02b6 383e

res_blocks.1.conv1.bias f4 [32]
0.07951363 -0.005254998 0.077700846 0.03330933 -0.06941039 -0.051890157 -0.052695274 -0.0311052
-0.06993895 -0.0051643746 0.0032602951 0.06593866 -0.048017655 0.04372348 0.023424186 -0.008688997
0.034224387 -0.07096371 -0.04035241 -0.01902675 0.07055563 0.054890167 0.060028188 -0.0211771
0.030678155 0.0463183 -0.0082026655 0.0726563 0.05073256 -0.036641847 0.030129775 -0.08036692
00000000: 0bd8 a23d 1e32 acbb 9f21 9f3d 5d6f 083d
00000010: 0927 8ebd c68a 54bd 00d7 57bd 55d0 febc
00000020: 273c 8fbd ea39 a9bb adaa 553b d90a 873d
00000030: 29ae 44bd 6417 333d 14e4 bf3c 4b5c 0ebc
00000040: df2e 0c3d 6c55 91bd 9248 25bd fddd 9bbc
00000050: 787f 903d 83d4 603d 1ee0 753d 997b adbc
00000060: c150 fb3c 42b8 3d3d 7964 06bc d4cc 943d
00000070: f2cc 4f3d c315 16bd b8d2 f63c 6997 a4bd

res_blocks.1.batchnorm1.weight f4 [32]
1.0678467 1.0534831 0.6690523 0.9535785 0.935268 0.99394447 1.0441808 0.9705004
0.77224934 0.97543544 1.0430126 0.9024225 0.676979 0.87894225 0.8342945 1.0676981
0.9548289 1.0025364 1.0108457 1.0335265 0.88839936 0.9721149 0.96376616 1.0962864
0.93229884 0.84886986 1.0900085 1.0522211 0.8772574 0.9243471 0.8282338 0.79495806
00000000: 33af 883f 89d8 863f 0347 2b3f b81d 743f
00000010: b96d 6f3f 2573 7e3f b7a7 853f b772 783f
00000020: 22b2 453f 23b6 793f 7081 853f 2905 673f
00000030: 7f4e 2d3f 5c02 613f 5394 553f 55aa 883f
00000040: ab6f 743f 1d53 803f 6463 813f 994a 843f
00000050: 246e 633f 86dc 783f 61b9 763f 1d53 8c3f
00000060: 23ab 6e3f 894f 593f 6685 8b3f 2eaf 863f
00000070: f193 603f 03a2 6c3f 2107 543f 5f82 4b3f

res_blocks.1.batchnorm1.bias f4 [32]
-0.4155936 0.07316296 -0.261554 -0.35332948 -0.3670185 -0.33514276 -0.36178243 -0.4394583
-0.24682873 -0.0244525 -0.5217777 -0.5508854 -0.62706834 -0.5159311 -0.45728195 -0.22813582
-0.30272385 -0.5518731 -0.59596413 0.02409408 -0.37335032 -0.29722264 -0.18357775 -0.23804374
-0.34148693 -0.521136 -0.2951026 -0.19090323 -0.43645263 -0.3862883 -0.3444007 -0.39537954
00000000: afc8 d4be 76d6 953d 68ea 85be 9ae7 b4be
00000010: d9e9 bbbe d597 abbe 8c3b b9be ae00 e1be
00000020: acc0 7cbe 9c50 c8bc 3993 05bf d306 0dbf
00000030: 8d87 20bf 1014 04bf dc20 eabe 709c 69be
00000040: 9ffe 9abe 8e47 0dbf 1b91 18bf f360 c53c
00000050: c627 bfbe 912d 98be cefb 3bbe bdc1 73be
00000060: 60d7 aebe 2b69 05bf b017 97be 237c 43be
00000070: b876 dfbe 94c7 c5be 4a55 b0be 306f cabe

res_blocks.1.batchnorm1.running_mean f4 [32]
-1.8129503 -2.315852 2.293703 -1.9591055 -1.4738501 -2.1915147 -3.2004998 -2.6673524
0.63911283 -4.8724103 -1.4745089 -3.9595745 1.1268924 -1.0158647 -0.20924209 -2.2273583
-1.9452726 -1.8644385 -0.5588313 -1.7754968 -1.2858444 -0.68820596 -5.0179815 -5.1462183
-2.0584784 -1.3213662 -3.4938958 -1.9151827 -0.03898377 -1.0230613 0.42692918 -0.20898081
00000000: c10e e8bf eb36 14c0 08cc 1240 f8c3 fabf
00000010: 1fa7 bcbf c741 0cc0 fdd4 4cc0 e7b5 2ac0
00000020: e69c 233f c9ea 9bc0 b5bc bcbf ab69 7dc0
00000030: 033e 903f db07 82bf 8f43 56be 0a8d 0ec0
00000040: b1fe f8bf eca5 eebf 910f 0fbf 7b43 e3bf
00000050: 8d96 a4bf 442e 30bf 4e93 a0c0 d2ad a4c0
00000060: 1cbe 03c0 8722 a9bf fd9b 5fc0 b524 f5bf
00000070: 72ad 1fbd acf3 82bf 7696 da3e 11ff 55be

res_blocks.1.batchnorm1.running_var f4 [32]
18.852993 56.57626 18.736977 8.569118 13.483996 17.510489 13.857532 17.528631
5.658883 45.45703 8.973884 23.986038 4.908167 6.213323 9.920132 13.590354
15.119383 6.7166843 9.224795 27.67707 18.37424 11.608931 48.619537 47.299706
5.690214 8.59893 28.781904 14.730085 9.333141 10.771317 9.352266 5.612626
00000000: eed2 9641 174e 6242 54e5 9541 1b1b 0941
00000010: 73be 5741 7b15 8c41 73b8 5d41 a33a 8c41
00000020: 9215 b540 00d4 3542 0795 0f41 68e3 bf41
00000030: b40f 9d40 8bd3 c640 dcb8 1e41 1772 5941
00000040: fee8 7141 14ef d640 c398 1341 a46a dd41
00000050: 72fe 9241 2ebe 3941 687a 4242 e632 3d42
00000060: 3c16 b640 3895 0941 5741 e641 6eae 6b41
00000070: 8c54 1541 5057 2c41 e2a2 1541 a29a b340

res_blocks.1.conv2.weight f4 [32, 32, 3, 3]
-0.032013196 -0.033492573 -0.038605757 0.019010346 0.03459036 -0.035662513 0.0052385754 0.07633282
0.07661219 -0.08095807 -0.1252302 -0.12351423 -0.19335376 -0.19472341 -0.19120805 -0.15313827
-0.11445421 -0.08386189 -0.05864842 0.020661145 -0.045601644 -0.03208601 -0.08589994 -0.022820603
0.05093512 0.030492451 -0.024779217 0.009987967 -0.0099903615 0.036606744 -0.060961373 -0.08023598
-0.08408265 -0.07680727 0.007835432 0.03475978 -0.06408871 -0.033685718 0.0012245694 -0.14486282
-0.07103153 -0.11029187 -0.09199904 -0.033367686 0.028749546 0.24868535 0.24012986 0.2598424
0.20037082 0.17770533 0.1830012 0.37068546 0.35634208 0.29772568 -0.08049136 -0.08177274
-0.07284195 -0.035898715 -0.0063026766 -0.023385355 -0.09711967 -0.013376814 -0.015101283 -0.018315993
-0.020391596 0.04097408 0.02541956 -0.0068144705 -0.023726216 0.043689985 0.028147334 0.017542193
-0.048866928 -0.025404938 -0.110032596 -0.07372075 0.0074708387 -0.02177108 -0.07465805 -0.076818615
-0.054839607 0.21544632 0.21910226 0.18207535 0.057021953 0.14217725 0.090011284 0.1384226
0.13175213 0.19994317 0.06605113 0.11765277 0.09225524 0.09651489 0.03483951 0.11845658
0.052414823 0.08174637 0.0346753 -0.12817034 -0.087908685 -0.18078376 -0.121927895 -0.106754206
-0.060010374 -0.10325595 -0.18111962 -0.1954877 0.006645811 -0.029988084 -0.03765505 -0.029604955
-0.04189037 -0.03585541 -0.15828642 -0.12116452 -0.09367455 -0.00606117 -0.004084415 0.04757257
0.038298164 -0.016434554 0.071833424 0.114197455 0.11715753 0.12900414 0.14043504 0.08214396
0.100501955 0.11957187 0.05429913 0.09533367 0.09513766 0.19495307 0.1256724 0.09534018
0.066990875 0.09431256 0.13486427 0.09824051 0.07061917 0.14128375 0.1190984 0.11548821
0.020876015 0.068352476 -0.032704137 0.0012305228 -0.06506451 -0.024489867 -0.012795349 -0.030544484
-0.034532204 -0.095013455 -0.09167552 -0.08743665 -0.042075425 -0.07203834 -0.041424677 -0.10304282
-0.105169766 -0.17528524 0.12725148 0.15429527 0.1620251 0.13130186 0.07732736 0.09441301
0.14389206 0.10120051 0.1563505 -0.14360243 -0.09809089 -0.20464599 -0.19124164 -0.21935885
-0.24507773 -0.17109224 -0.13105384 -0.12411072 0.068518974 0.013558099 0.06929849 0.037249185
-0.005931147 0.029542048 0.009162787 0.026383013 0.016727163 -0.07261677 0.012987955 -0.010707955
-0.06414025 -0.08497126 -0.08098752 -0.06778458 0.010489785 -0.0694308 0.09505713 0.0993165
0.07734816 0.0113304695 0.0086481795 0.05530977 0.072931975 0.034079336 0.15204036 -0.12858994
-0.10557309 -0.05076539 -0.078460015 -0.006610571 -0.0189165 -0.046822887 0.017251574 -0.011901114
0.15564644 0.13958049 0.22660919 0.024087058 0.03395636 0.042194456 0.17303197 0.115032725
0.08610574 0.0524513 0.14788993 0.14678477 0.10464318 0.050438203 0.030596128 -0.010789457
0.070843495 -0.025039379 -0.23764029 -0.17151949 -0.19116013 -0.24452847 -0.28881636 -0.27869657
-0.12742399 -0.17337109 -0.18867712 -0.060820248 -0.018386673 -0.093974166 -0.013871593 -0.02292232
-0.07081789 0.0010367611 -0.078566544 0.01414581 0.1343223 0.08312085 0.13312334 0.01138002
00000000: 4520 03bd 822f 09bd 1221 1ebd 96bb 9b3c
00000010: 9fae 0d3d db12 12bd 5ba8 ab3b 6254 9c3d
00000020: dae6 9c3d 58cd a5bd 583c 00be 07f5 fcbd
00000030: 87fe 45be 9365 47be 0bcc 43be 47d0 1cbe
00000040: f866 eabd c8bf abbd 5339 70bd 9041 a93c
00000050: cac8 3abd 9f6c 03bd 4fec afbd 46f2 babc
00000060: 58a1 503d 4ecb f93c c9fd cabc 92a4 233c
00000070: 9dae 23bc f4f0 153d a2b2 79bd c352 a4bd
00000080: 8633 acbd 214d 9dbd 2f60 003c 4560 0e3d
00000090: f140 83bd 09fa 09bd bb81 a03a eb56 14be
000000a0: fb78 91bd b4e0 e1bd fe69 bcbd 8eac 08bd
000000b0: 2b84 eb3c 5fa7 7e3e 9ae4 753e 100a 853e
000000c0: 022e 4d3e 63f8 353e ab64 3b3e 7cca bd3e
000000d0: 7872 b63e 806f 983e a7d8 a4bd 7778 a7bd
000000e0: 292e 95bd 880a 13bd af86 cebb a592 bfbc
000000f0: ade6 c6bd 6d2a 5bbc 5f6b 77bc 6c0b 96bc
00000100: 470c a7bc 70d4 273d ae3c d03c ec4b dfbb
00000110: 7b5d c2bc 45f4 323d 3d95 e63c a5b4 8f3c
00000120: b028 48bd 041e d0bc c558 e1bd e8fa 96bd
00000130: f0cd f43b 4459 b2bc 52e6 98bd 1453 9dbd
00000140: 7f9f 60bd f69d 5c3e 585c 603e f671 3a3e
00000150: da8f 693d ea96 113e d657 b83d a7be 0d3e
00000160: 08ea 063e e7bd 4c3e d145 873d eff3 f03d
00000170: 51f0 bc3d 99a9 c53d e0b3 0e3d 5d99 f23d
00000180: edb0 563d a46a a73d b007 0e3d 163f 03be
00000190: 7809 b4bd 611f 39be 55b5 f9bd f3a1 dabd
000001a0: 70cd 75bd db77 d3bd 6c77 39be ed2d 48be
000001b0: 1ac5 d93b 92a9 f5bc 2f3c 1abd 1786 f2bc
000001c0: 3d95 2bbd 1fdd 12bd d615 22be 1b25 f8bd
000001d0: 71d8 bfbd c79c c6bb 8ed6 85bb 75db 423d
000001e0: 89de 1c3d c2a1 86bc 671d 933d 5be0 e93d
000001f0: 49f0 ef3d a919 043e 34ce 0f3e 183b a83d
00000200: f8d3 cd3d 19e2 f43d c468 5e3d 4d3e c33d
00000210: 89d7 c23d c7a1 473e 44b0 003e b641 c33d
00000220: 8332 893d f226 c13d dc19 0a3e 5232 c93d
00000230: c9a0 903d b0ac 103e dde9 f33d 1585 ec3d
00000240: 2d04 ab3c 62fc 8b3d c6f4 05bd 7e49 a13a
00000250: 8b40 85bd f99e c8bc 95a3 51bc 6d38 fabc
00000260: a471 0dbd 6a96 c2bd 60c0 bbbd fd11 b3bd
00000270: 4857 2cbd d688 93bd ecac 29bd 1d08 d3bd
00000280: 3f63 d7bd f97d 33be 364e 023e 94ff 1d3e
00000290: e8e9 253e ff73 063e cf5d 9e3d 9c5b c13d
000002a0: 7158 133e 3742 cf3d 581a 203e 840c 13be
000002b0: e0e3 c8bd b88e 51be d9d4 43be 9b9f 60be
000002c0: a8f5 7abe ce32 2fbe fa32 06be c32d febd
000002d0: ad53 8c3d ca22 5e3c 5eec 8d3d 9a92 183d
000002e0: 115a c2bb 2a02 f23c 841f 163c 3021 d83c
000002f0: 6707 893c 1ab8 94bd 6ecb 543c 6b70 2fbc
00000300: f75b 83bd 6905 aebd c9dc a5bd a4d2 8abd
00000310: 59dd 2b3c bc31 8ebd 50ad c23d 7366 cb3d
00000320: b668 9e3d 6fa3 393c 18b1 0d3c 7f8c 623d
00000330: 5c5d 953d c696 0b3d 78b0 1b3e 15ad 03be
00000340: b436 d8bd 5fef 4fbd a5af a0bd 7d9d d8bb
00000350: c7f6 9abc 5bc9 3fbd 2c53 8d3c e4fc 42bc
00000360: c861 1f3e 30ee 0e3e 3d0c 683e 3952 c53c
00000370: d315 0b3d 18d4 2c3d 4b2f 313e 4796 eb3d
00000380: 3558 b03d 2dd7 563d 7570 173e bf4e 163e
00000390: 2a4f d63d 4a98 4e3d bba4 fa3c 43c6 30bc
000003a0: 6516 913d 621f cdbc fa57 73be cea2 2fbe
000003b0: 7bbf 43be ac65 7abe bddf 93be 51b1 8ebe
000003c0: 6f7b 02be 3188 31be 9334 41be a71e 79bd
000003d0: a69f 96bc 8775 c0bd ae45 63bc 97c7 bbbc
000003e0: f808 91bd eee3 873a 7fe7 a0bd d4c3 673c
000003f0: c98b 093e 443b aa3d 7c51 083e 4373 3a3c

res_blocks.1.conv2.bias f4 [32]
-0.040140077 0.034726284 0.039514124 -0.03181716 0.03953802 0.05040869 0.014347692 0.04143453
-0.03910625 -0.025755763 0.016662676 -0.03611183 -0.018493257 -0.028864311 -0.055669226 -0.026004992
0.05103838 -0.003594094 0.036833428 0.017779354 0.00027692402 0.027606597 -0.031199256 -0.019350078
-0.05489396 -0.040734183 0.04110824 0.041691843 0.04043428 -0.04568884 0.020388968 -0.0018880104
00000000: ec69 24bd 263d 0e3d 90d9 213d b652 02bd
00000010: 9ef2 213d 5879 4e3d 9512 6b3c 41b7 293d
00000020: e02d 20bd c0fd d2bc 2a80 883c 00ea 13bd
00000030: 2c7f 97bc d974 ecbc 6a05 64bd 6c08 d5bc
00000040: 9f0d 513d e48a 6bbb a6de 163d 02a6 913c
00000050: 1d30 9139 3b27 e23c 9595 ffbc 0e84 9ebc
00000060: 7dd8 60bd e3d8 26bd 1d61 283d 11c5 2a3d
00000070: 6a9e 253d 3924 3bbd c406 a73c 1e77 f7ba

res_blocks.1.batchnorm2.weight f4 [32]
2.400713 3.2385557 2.5049994 2.2512083 2.365337 2.3612154 3.0206497 2.1345155
2.5579822 2.712818 2.5078733 2.0470307 2.928071 3.0706255 2.510203 2.916858
2.3008308 2.8527098 2.3513143 2.3875906 2.2662218 2.8630693 2.7416136 2.4808185
1.9859759 2.451677 2.6043506 2.5754032 2.2345994 2.7763677 2.5420685 2.7585213
00000000: 48a5 1940 7f44 4f40 e951 2040 cc13 1040
00000010: ae61 1740 271e 1740 5352 4140 e79b 0840
00000020: fbb5 2340 cf9e 2d40 ff80 2040 8d02 0340
00000030: 8465 3b40 2185 4440 2aa7 2040 cdad 3a40
00000040: d040 1340 cc92 3640 ef7b 1640 49ce 1840
00000050: c709 1140 873c 3740 9976 2f40 bbc5 1e40
00000060: 7534 fe3f 47e8 1c40 aead 2640 68d3 2440
00000070: ad03 0f40 02b0 3140 40b1 2240 9d8b 3040

res_blocks.1.batchnorm2.bias f4 [32]
0.48899966 0.6626916 0.56398964 0.29127347 0.3966391 0.4239593 0.57206404 0.29387057
0.4404637 0.40364262 0.44461626 0.280164 0.45473367 0.48334035 0.4393741 0.5685944
0.34594887 0.4899741 0.03600703 0.29840052 0.33890897 0.7230287 0.48853207 0.2825916
0.27781335 0.299658 0.36680973 0.36344224 0.25619626 0.38304487 0.4198358 0.43013176
00000000: 2a5e fa3e 28a6 293f a061 103f cc21 953e
00000010: 4814 cb3e 3211 d93e ca72 123f 3476 963e
00000020: 7584 e13e 3faa ce3e bea4 e33e a871 8f3e
00000030: dad2 e83e 6378 f73e a4f5 e03e 678f 113f
00000040: 3620 b13e e3dd fa3e 1c7c 133d f4c7 983e
00000050: 7a85 ad3e 6918 393f e020 fa3e d9af 903e
00000060: 8d3d 8e3e c66c 993e 7cce bb3e 1a15 ba3e
00000070: 282c 833e 751e c43e b8f4 d63e 3b3a dc3e

res_blocks.1.batchnorm2.running_mean f4 [32]
-0.4948321 -0.056857098 -0.3838495 0.8616969 -0.031272877 -0.43402576 0.07851309 -0.44792598
-0.8146612 -0.019982206 -0.25996253 0.38778645 0.84271324 0.6937793 -0.07611984 -0.32349804
0.049404252 0.4491556 0.056799028 0.36436644 0.24318978 -0.19951548 0.28941578 -0.5090902
-0.7481241 0.17674863 0.6329747 -0.23951477 -0.5151905 -0.6092045 0.0971329 0.7046495
00000000: a25a fdbe fde2 68bd ec87 c4be 2b98 5c3f
00000010: fd17 00bd a038 debe 79cb a03d 8e56 e5be
00000020: a38d 50bf b9b1 a3bc cf19 85be f28b c63e
00000030: 0ebc 573f 859b 313f b8e4 9bbd 89a1 a5be
00000040: 1d5c 4a3d b9f7 e53e 19a6 683d 3d8e ba3e
00000050: be06 793e c94d 4cbe 4e2e 943e bc53 02bf
00000060: 1085 3fbf 98fd 343e a10a 223f 5c43 75be
00000070: 86e3 03bf d3f4 1bbf 9ded c63d e963 343f

res_blocks.1.batchnorm2.running_var f4 [32]
0.8663777 1.2972846 0.8799749 0.87131655 0.8608161 1.0079474 1.1102753 1.2361376
0.5995657 1.0213139 0.9916872 0.85656136 1.103959 1.0789713 0.9071679 1.0955588
0.6828025 0.71733767 0.61547315 0.58055437 0.99119407 1.1660076 0.7954245 1.235679
0.8453651 0.695207 0.9338084 0.80504054 0.64630955 0.8306196 0.93316483 1.0734986
00000000: eeca 5d3f 6c0d a63f 0946 613f 9a0e 5f3f
00000010: 725e 5c3f 6c04 813f 801d 8e3f c239 9e3f
00000020: 237d 193f 6aba 823f 36df 7d3f 9b47 5b3f
00000030: 874e 8d3f bb1b 8a3f 283c 683f 453b 8c3f
00000040: 25cc 2e3f 71a3 373f a68f 1d3f 369f 143f
00000050: e5be 7d3f bd3f 953f f1a0 4b3f bb2a 9e3f
00000060: d969 583f 16f9 313f 110e 6f3f 2317 4e3f
00000070: 8b74 253f 7ca3 543f e4e3 6e3f 6768 893f

res_blocks.1.residual_conv.weight f4 [32, 16, 1, 1]
-0.42173505 0.094292104 -0.104392625 -0.014352845 0.00010581506 -0.15653808 -0.19526331 0.63270473
-0.52425605 -0.39244598 0.602271 -0.5710121 -0.1374585 -0.45625722 -0.102264695 0.03933244
-0.82970357 -0.3325773 -0.38119048 0.30748856 0.3533672 -0.16133471 -0.15499385 0.47172514
-0.27713707 0.1745868 0.8117603 0.24994576 0.10735224 -0.40738738 -0.14902145 0.027475601
-0.102224074 0.5221919 -0.5403084 0.061445568 0.030425822 -0.060073525 0.09763659 -0.029137308
-0.58154964 -0.48219165 -0.1385317 0.03064381 0.056682736 -0.33103716 -0.029759219 0.14292915
0.31614915 0.32823154 0.08611132 0.30778864 -0.055968292 0.073262185 0.3001198 -0.7063784
-0.2228658 0.07782507 -0.6880258 0.2618068 0.18169162 -0.057854384 0.2862456 0.1762133
-0.448807 0.042527217 -0.25616878 0.13877808 0.23621278 -0.34238213 -0.28951904 0.21758479
-0.095832705 0.0062471176 0.29192856 -0.29539034 -0.03402006 0.2634608 0.08965143 0.20642754
-1.3398665 -0.5010981 -0.19359751 -0.14562456 0.3894643 -0.4891983 -0.3691062 0.78603894
0.036159668 0.11365382 0.89046 -0.44678777 0.048810083 -0.38157797 -0.014734073 -0.3969249
-1.0520786 -0.29917666 -0.01296727 -0.07185046 -0.045103397 0.41287026 -0.3108902 -0.22669022
-0.2236304 -0.36147743 -0.46497914 0.93474436 0.5340326 -0.16409066 0.25517982 -0.33487204
-0.42616084 0.1841753 -0.45435464 0.11065632 -0.4019562 -0.4158257 0.18778034 0.08592035
-0.5997194 -0.45019567 0.11704209 -0.11674813 -0.010919586 0.13240601 -0.18914089 0.2999632
0.23029712 0.2212934 -0.61989856 -0.1266212 0.19278428 0.08504997 0.3603997 0.4654303
-0.49148226 -0.6107106 0.66465694 -0.59025776 -0.091609664 -0.10751512 -0.40770957 -0.18624908
-0.16658615 -0.24828494 0.227336 -0.6304942 -0.37740052 0.13264276 -0.20552608 -0.57820463
-0.3371452 -0.34807202 -0.64447427 0.26727808 0.2568829 -0.18547037 -0.028732603 -0.32321516
0.71614254 0.25655362 0.28928876 -0.026238002 -0.13324703 0.6769614 0.08607332 -0.44345763
-0.15787779 -0.35554987 -0.7153747 0.21541934 0.17722185 0.27246043 -0.010661236 0.1926696
-0.22082123 0.108234726 -0.2983398 -0.15120527 -0.059330802 0.52513564 -0.10164209 -0.63129056
-0.5463847 -0.2408857 -0.4261155 0.21728908 0.2418938 -0.34693283 -0.27889654 -0.10853109
-0.21873645 -0.4252687 0.52813447 0.01270329 -0.27727306 0.5645805 0.06639242 -0.71782476
-0.13226621 -0.27205718 -0.41997376 1.0184355 0.2960508 -0.21860638 0.13039736 -0.3648447
1.5732054 0.3081298 0.17266987 0.006396543 -0.19083107 1.6878363 0.17015634 -0.33450547
-0.14030883 -0.038334522 -0.26298127 0.8189332 0.38608962 0.19446398 0.014048045 -0.25005457
-0.38110033 -0.07648704 -0.6611651 0.014391973 0.18375836 -0.19305828 0.22503904 0.43820715
-0.5898997 -0.3524413 0.43778554 -0.55005485 -0.45516396 -0.125847 -0.23612353 -0.005670894
-0.9506292 -0.40367344 0.14066537 -0.30101833 0.26402086 -0.30991632 -0.10621404 0.2980652
-0.27348247 -0.22436956 0.13537125 -0.06739928 0.22874393 -0.068711884 -0.25045043 -0.2843258
00000000: a8ed d7be 381c c13d cdcb d5bd 3228 6bbc
00000010: 07e9 dd38 854b 20be 1bf3 47be f0f8 213f
00000020: a535 06bf aeee c8be 6f2e 1a3f d92d 12bf
00000030: ecc1 0cbe 8c9a e9be 2770 d1bd 0d1b 213d
00000040: 7467 54bf 9247 aabe 662b c3be 246f 9d3e
00000050: 8cec b43e ed34 25be b5b6 1ebe f585 f13e
00000060: e9e4 8dbe e2c6 323e 86cf 4f3f c8f1 7f3e
00000070: 7edb db3d 1495 d0be 1499 18be 8314 e13c
00000080: db5a d1bd 5eae 053f a751 0abf 59ae 7b3d
00000090: 933f f93c a80f 76bd b1f5 c73d 5db1 eebc
000000a0: 70e0 14bf d3e1 f6be 41db 0dbe ba08 fb3c
000000b0: 282c 683d b47d a9be 9bc9 f3bc 055c 123e
000000c0: 4dde a13e f70d a83e 225b b03d 7996 9d3e
000000d0: 023f 65bd 7c0a 963d 4da9 993e 37d5 34bf
000000e0: ef36 64be c062 9f3d 7522 30bf 8a0b 863e
000000f0: 5e0d 3a3e b8f8 6cbd c98e 923e 4271 343e
00000100: 08ca e5be 0531 2e3d 8e28 83be d71b 0e3e
00000110: c3e1 713e b64c afbe d73b 94be 8cce 5e3e
00000120: f043 c4bd 9fb4 cc3b a977 953e 673d 97be
00000130: 9e58 0bbd 55e4 863e 2b9b b73d be61 533e
00000140: bf80 abbf f747 00bf 6d3e 46be 9b1e 15be
00000150: dd67 c73e 3378 fabe 7dfb bcbe d939 493f
00000160: 291c 143d 55c3 e83d 30f5 633f 5ec1 e4be
00000170: 15ed 473d 305e c3be 2e67 71bc be39 cbbe
00000180: 83aa 86bf af2d 99be ac74 54bc 5526 93bd
00000190: 57be 38bd bb63 d33e 002d 9fbe 7b21 68be
000001a0: 5eff 64be 9213 b9be bf11 eebe 684b 6f3f
000001b0: 5cb6 083f 6207 28be eea6 823e 5974 abbe
000001c0: c131 dabe 7398 3c3e 2ca1 e8be c89f e23d
000001d0: 34cd cdbe 1be7 d4be 7d49 403e 02f7 af3d
000001e0: 3687 19bf 0c80 e6be c3b3 ef3d a519 efbd
000001f0: 10e8 32bc 7195 073e 26ae 41be c794 993e
00000200: 02d3 6b3e bd9a 623e acb1 1ebf fda8 01be
00000210: 3e69 453e ae2e ae3d 4f86 b83e e14c ee3e
00000220: 90a3 fbbe 8857 1cbf f526 2a3f 221b 17bf
00000230: d99d bbbd e330 dcbd 4fbf d0be 14b8 3ebe
00000240: 8f95 2abe 683e 7ebe c5ca 683e 1168 21bf
00000250: a43a c1be 81d3 073e 6e75 52be 3805 14bf
00000260: 4c9e acbe 7f36 b2be 44fc 24bf acd8 883e
00000270: 2886 833e f2eb 3dbe a360 ebbc 757c a5be
00000280: 1e55 373f ff5a 833e a81d 943e 14f1 d6bc
00000290: e971 08be 584d 2d3f 3547 b03d e10c e3be
000002a0: b7aa 21be a20a b6be cc22 37bf e396 5c3e
000002b0: a579 353e ef7f 8b3e 77ac 2ebc 2e4b 453e
000002c0: f61e 62be 2baa dd3d ffbf 98be 8ed5 1abe
000002d0: db04 73bd 4a6f 063f ba29 d0bd 429c 21bf
000002e0: dedf 0bbf beaa 76be d02b dabe 0781 5e3e
000002f0: 02b3 773e 2ea1 b1be 87cb 8ebe 8c45 debd
00000300: 73fc 5fbe d2bc d9be d233 073f 7621 503c
00000310: bcf6 8dbe 5988 103f c0f8 873d 5dc3 37bf
00000320: cb70 07be 144b 8bbe cd06 d7be 185c 823f
00000330: f893 973e 5ada 5fbe e386 053e edcc babe
00000340: cb5e c93f 30c3 9d3e 5fd0 303e 179a d13b
00000350: 3869 43be 050b d83f 773d 2e3e 4d44 abbe
00000360: 1ead 0fbe a904 1dbd 7ba5 86be 9ba5 513f
00000370: 8aad c53e 9121 473e c529 663c 2707 80be
00000380: 951f c3be 3da5 9cbd 1e42 29bf 4fcc 6b3c
00000390: 272b 3c3e 12b1 45be a270 663e b05c e03e
000003a0: ab03 17bf 3073 b4be 6d25 e03e 65d0 0cbf
000003b0: 400b e9be 09de 00be 5eca 71be e8d2 b9bb
000003c0: 6f5c 73bf 49ae cebe 950a 103e 131f 9abe
000003d0: be2d 873e 5aad 9ebe bf86 d9bd 009c 983e
000003e0: e505 8cbe 22c1 65be c39e 0a3e a208 8abd
000003f0: d93b 6a3e d1b8 8cbd 0a3b 80be 2793 91be

res_blocks.1.residual_conv.bias f4 [32]
-0.033619113 0.08169326 0.22140148 -0.19588362 -0.015293293 0.1986364 -0.13362058 -0.07178396
-0.08093668 0.22129369 -0.01692755 0.19839561 -0.12857534 -0.25516823 0.1647562 0.19498456
-0.18395363 -0.20432271 0.119115174 0.10579288 -0.16489953 0.22563304 -0.14477864 0.16699833
-0.28844365 0.008770406 0.13528256 0.08072549 -0.13892052 -0.11359001 -0.0044025807 -0.19678879
00000000: 32b4 09bd cc4e a73d 12b7 623e b795 48be
00000010: b890 7abc 5767 4b3e d5d3 08be 7803 93bd
00000020: 21c2 a5bd d09a 623e a5ab 8abc 3828 4b3e
00000030: 41a9 03be 69a5 82be d9b5 283e 08aa 473e
00000040: 575e 3cbe f939 51be a8f2 f33d f0a9 d83d
00000050: 6cdb 28be 590c 673e da40 14be 9c01 2b3e
00000060: e3ae 93be c0b1 0f3c 8387 0a3e 6853 a53d
00000070: 2e41 0ebe e1a1 e8bd 8643 90bb 0083 49be
