logs/main_run/mel064_nblock2_lr0.0001_ks5/checkpoints/best.ckpt (torch, 643774 bytes, 89 tensors)

conv1.weight f4 [8, 1, 5, 5]
0	0xbd8431de	-0.06454824
1	0x3d5f45f2	0.054510064
2	0xbe545612	-0.20735958
3	0xbd2e6fc8	-0.04258707
4	0xbde61e61	-0.11236263
5	0xbc8faf1c	-0.017539553
6	0x3d1744c5	0.036930818
7	0x3e127904	0.14303976
8	0x3e2ac8ce	0.16678163
9	0xbcd2dcad	-0.025739992
10	0x3cf8a34b	0.030351302
11	0x3e32b0c6	0.17450246
12	0x3d829245	0.06375555
13	0x3d738c4b	0.059459966
14	0xbe22cd47	-0.1589862
15	0x3c0769ed	0.008265001
16	0x3d839bab	0.06426176
17	0xbe2a1cc6	-0.16612539
18	0x3dc28b1d	0.0949919
19	0x3c8ad851	0.01694885
20	0xbcd89beb	-0.026441535
21	0xbe0587a9	-0.13040031
22	0xbe250ea5	-0.16118868
23	0xbd9cd11a	-0.076570705
24	0x3d9f85fb	0.077892266
25	0xbd330069	-0.043701563
26	0xbe36253e	-0.17787644
27	0xbd8db4f3	-0.06919279
28	0x3e0c0380	0.1367321
29	0xbdb5e907	-0.08882337
30	0x3caed996	0.021343987
31	0x3de4b192	0.11166681
32	0x3dd6301d	0.10458396
33	0x3c96e44f	0.018419413
34	0x3dd8a2b6	0.1057791
35	0xbc92bddf	-0.017912803
36	0xbd41a09e	-0.047272317
37	0xbdf29039	-0.118439145
38	0xbde53c8d	-0.1119319
39	0xbd9e675a	-0.077345565
40	0x3e25f643	0.16207223
41	0xbce99784	-0.028514631
42	0xbd85a79c	-0.065261096
43	0x3e2e116e	0.16998836
44	0xbe41095b	-0.18851225
45	0x3b46303b	0.003024115
46	0x3e2f7aa7	0.17136632
47	0xba537ac3	-0.0008067304
48	0x3e36551c	0.17805904
49	0xbe2926ac	-0.16518658
50	0xbdaf1af9	-0.085500665
51	0x3dee7da5	0.116450585
52	0x3e2abba3	0.1667314
53	0x3c8f70ba	0.017509807
54	0x3ce56a46	0.028004777
55	0x3e1300f1	0.14355828
56	0x3d4e729d	0.050402272
57	0x3e08c2ed	0.13355608
58	0x3deeb7e0	0.11656165
59	0x3e506a4a	0.20353046
60	0xbdf838cf	-0.121202104
61	0xbe365edc	-0.17809623
62	0x3e22705e	0.15863177
63	0x3e40ce1d	0.18828626
64	0x3e0ddbab	0.13853328
65	0xbe0a9bcc	-0.13535994
66	0xbe40310e	-0.18768713
67	0x3ca7ea11	0.020497354
68	0xbde2da50	-0.11076796
69	0xbc5212a1	-0.012821824
70	0xbc9d0fd0	-0.019172579
71	0xbdcbc247	-0.09949165
72	0xbd12abff	-0.03580856
73	0x3e1d92e8	0.15388072
74	0xbe34ef8a	-0.17669502
75	0x3e4368a9	0.19082893
76	0xbcfcbdad	-0.030852163
77	0xbe489693	-0.1958869
78	0xbe2c670c	-0.16836184
79	0x3c917bf6	0.017759304
80	0xbd32408d	-0.04351859
81	0x3dc20f1c	0.09475538
82	0x3e49a693	0.1969245
83	0x3dc2eb62	0.09517552
84	0xbdaf6989	-0.08565051
85	0xbcaef31e	-0.021356162
86	0xbd41e535	-0.04733773
87	0x3e194516	0.1496776
88	0x3cc29c0a	0.023756046
89	0x3d3f8c25	0.04676451
90	0x3e321c3a	0.1739358
91	0x3e1becba	0.15227023
92	0x3e18c40e	0.14918539
93	0x3d07ec74	0.033184484
94	0xbe3cfe3e	-0.1845636
95	0xbe3a62a5	-0.18201692
96	0xbe1af15b	-0.15131132
97	0xbe30a214	-0.17249328
98	0xbdeead96	-0.11654203
99	0xbe2e176e	-0.17001125
100	0xbdce70d5	-0.10080115
101	0xbdfe8f60	-0.1242969
102	0xbd81aff7	-0.06332391
103	0x3cfc582f	0.030803768
104	0xbe02ef32	-0.12786558
105	0x3e24770d	0.1606104
106	0x3db76961	0.08955646
107	0xbe3d1e55	-0.18468602
108	0xbe6530af	-0.22381853
109	0x3e21875b	0.1577429
110	0x3c287f58	0.010284267
111	0xbe28a9f6	-0.16471085
112	0x3e1ed504	0.15510947
113	0xbd946274	-0.07245341
114	0xbd9d6010	-0.07684338
115	0x3dfffdc3	0.12499573
116	0x3cd1769d	0.025569255
117	0xbd2bbc5c	-0.04192768
118	0xbdfb7906	-0.12278943
119	0x3d755449	0.059894834
120	0xbd9ec468	-0.07752305
121	0x3e66de86	0.22545823
122	0xbdbfad6b	-0.09359249
123	0xbc09d72d	-0.008413118
124	0x3c3b7913	0.011442441
125	0xbe03d916	-0.1287578
126	0x3d86dc13	0.065849446
127	0x3d912fee	0.0708922
128	0x3cea27b8	0.028583393
129	0x3e128a0e	0.14310476
130	0xbe125f4c	-0.14294165
131	0x3ce28dab	0.027655443
132	0xbd75cbce	-0.060008816
133	0x3d5bd667	0.053671267
134	0xbe3966ef	-0.18105672
135	0xbe24f70d	-0.16109867
136	0x3d2c8abe	0.042124502
137	0xbc8e9d83	-0.017409092
138	0x3e1fb5b1	0.15596654
139	0xbdd60edd	-0.10452054
140	0xbe05d102	-0.13068011
141	0xbce1ac8f	-0.027548103
142	0x3e0de2f4	0.13856107
143	0x3e3b3c35	0.18284686
144	0x3e147d4b	0.1450092
145	0xbe11feab	-0.14257304
146	0x3dfc1704	0.123090774
147	0x3a515199	0.0007984876
148	0xbdb8ebb5	-0.090293325
149	0xba446bd7	-0.0007492876
150	0x3bcff05c	0.0063457917
151	0xbdf04b71	-0.11733139
152	0xbdf4f612	-0.11960997
153	0xbdbd9733	-0.092573546
154	0xbcce4c53	-0.025182879
155	0xbdf7fff8	-0.12109369
156	0xbe199296	-0.14997324
157	0xbdfb3e78	-0.12267774
158	0x3db382a8	0.08765155
159	0xbd0ae22e	-0.033907108
160	0x3d8896a8	0.066693604
161	0xbdb311c8	-0.08743626
162	0xbe47d1a9	-0.19513573
163	0xbe1c77c4	-0.15280062
164	0x3dfad7a5	0.12248162
165	0x3e5de74b	0.21670263
166	0x3c492e91	0.012279169
167	0x3d94c410	0.072639585
168	0x3d79729b	0.060900312
169	0x35b8b001	1.3760292e-06
170	0x3ca51d4d	0.020155573
171	0x3bb02079	0.005374965
172	0x3d899aaa	0.06718953
173	0xbd80585d	-0.06266854
174	0xbb80dc6f	-0.0039325277
175	0xbdb08593	-0.08619227
176	0x3e2bbd4b	0.16771428
177	0x3df45140	0.1192956
178	0x3d8c4211	0.06848539
179	0xbc22b076	-0.009929767
180	0x3d889d34	0.06670609
181	0x3e1b2654	0.1515134
182	0x3d1126d9	0.03543744
183	0xbe3b6a5e	-0.18302295
184	0xbda48e5b	-0.08034965
185	0xbdee6aba	-0.1164145
186	0x3e047258	0.12934244
187	0x3e044961	0.12918617
188	0xbe36995f	-0.17831944
189	0xbdce3488	-0.10068613
190	0x3e189c77	0.14903437
191	0x3dc3945c	0.09549782
192	0x3d83a821	0.064285524
193	0xbdaa14d1	-0.08304752
194	0xbd489667	-0.04897156
195	0x3e10409e	0.1408715
196	0xbc3cb8ed	-0.011518699
197	0xbe14f4ea	-0.14546552
198	0x3cfa1d2e	0.030531492
199	0xbe2e8438	-0.17042625

conv1.bias f4 [8]
0	0xbe3eee13	-0.18645506
1	0x3e4d081d	0.20022626
2	0x3e3b8505	0.18312462
3	0x3e456169	0.1927544
4	0xbb88660b	-0.004162555
5	0xbdd9907c	-0.10623261
6	0x3cbe6fa4	0.023246594
7	0x3d1643a1	0.03668559

batchnorm1.weight f4 [8]
0	0x3f804788	1.002183
1	0x3f815d35	1.010657
2	0x3f887775	1.0661455
3	0x3f756919	0.9586349
4	0x3f75edc5	0.9606593
5	0x3f76350f	0.9617471
6	0x3f7d929d	0.9905184
7	0x3f848803	1.0354007

batchnorm1.bias f4 [8]
0	0x3bc59ae6	0.006030428
1	0xbc339c8e	-0.0109626185
2	0xbc0fc060	-0.008773893
3	0xbbc28f8b	-0.005937522
4	0x3c2bbd3a	0.010482127
5	0x3d43ca9d	0.04780065
6	0x3cec3045	0.02883161
7	0xbd7b6422	-0.06137479

batchnorm1.running_mean f4 [8]
0	0xbe6cd939	-0.23129739
1	0x3e4663f9	0.19374074
2	0x3e99b8e4	0.30023873
3	0x3e0f8343	0.14014916
4	0xbddc493e	-0.10756157
5	0xbddcd83d	-0.10783432
6	0xbde080e4	-0.10962084
7	0x3d8b04a2	0.06787993

batchnorm1.running_var f4 [8]
0	0x3b927146	0.0044690697
1	0x3a6e3e8b	0.0009088299
2	0x3ce1a3b9	0.02754389
3	0x3bf2a7c8	0.007405255
4	0x3c9af2cc	0.018914603
5	0x3a5b1bcd	0.00083583297
6	0x3d02767a	0.03185127
7	0x3b514645	0.0031932753

res_blocks.0.conv1.weight f4 [16, 8, 5, 5]
0	0x3ae60605	0.0017549401
1	0xbd9c616e	-0.07635771
2	0xbd93f8d8	-0.072251976
3	0xbc204de2	-0.009784194
4	0x3cae4a94	0.021275796
5	0xbc6a3f1a	-0.014297271
6	0xbd9c9922	-0.07646395
7	0xbd13aa37	-0.036051
8	0x3d298a06	0.041391395
9	0xbd81a24c	-0.06329784
10	0x3cc0cac5	0.023534188
11	0xbd784082	-0.060608394
12	0x3ca82fbc	0.020530574
13	0xbd863eea	-0.06554969
14	0xbd38f031	-0.04515094
15	0x3c81cfe2	0.015846197
16	0xbd428212	-0.047487326
17	0x3cc49085	0.023994694
18	0x3cfbd985	0.03074337
19	0xbc7d5f33	-0.015464592
20	0xbdb295fc	-0.087200135
21	0x3ca6fe15	0.020384828
22	0xbd8bc954	-0.0682551
23	0x3d2b197d	0.041772354
24	0xbd465ac6	-0.048426412
25	0xbc4a98bf	-0.012365519
26	0x3ca99863	0.020702546
27	0x3c92305b	0.017845323
28	0xbc49a9b9	-0.012308531
29	0x3cb36b1a	0.021901656
30	0x3da1fd68	0.079096615
31	0x3d39511b	0.045243364
32	0x3d82c890	0.063859105
33	0xbd2b701e	-0.04185497
34	0xbba5639b	-0.0050472743
35	0xbd40d970	-0.047082365
36	0xbc522ac0	-0.012827575
37	0x3cc02d00	0.023458958
38	0x3cb0be70	0.021575183
39	0xbd09dcef	-0.033657964
40	0x3d1dc20f	0.038515147
41	0xbc3a5a5b	-0.0113740815
42	0xbd672821	-0.056434754
43	0xbd5f2506	-0.054478668
44	0x3d0268a8	0.03183809
45	0x3d3f8807	0.046760585
46	0x3bbe38da	0.005805117
47	0x3d59b16b	0.053147715
48	0x3d0c5dbc	0.03426908
49	0x3bb21332	0.005434417
50	0x3d3fef80	0.046859264
51	0xbd44a21d	-0.048006166
52	0xbd7ecdab	-0.06220786
53	0xbba1ebed	-0.0049414546
54	0x3cf54f98	0.02994518
55	0x3d43a9c6	0.04776933
56	0xbd7acbbe	-0.06122946
57	0xbd1802ec	-0.03711216
58	0x3d5e3d5b	0.054257732
59	0xbd101519	-0.03517637
60	0x3d170893	0.03687341
61	0xbae3087c	-0.0017321254
62	0xbd496ed4	-0.04917796
63	0x3c6a85fa	0.014314169
64	0x3d05feec	0.032713816
65	0xbc19783f	-0.009367048
66	0xbcb6afbd	-0.022300595
67	0xbcdfc6ba	-0.02731644
68	0x3cf431a8	0.029808834
69	0xbd867387	-0.06565004
70	0x3d652548	0.055943757
71	0xbc235060	-0.009967893
72	0xbd7348dc	-0.059395656
73	0x3b6970aa	0.0035620132
74	0x3d631414	0.05543907
75	0xbd2e1f1d	-0.04251014
76	0x3c81c91a	0.015842963
77	0xbd63bddf	-0.055600997
78	0xbd8f7b18	-0.070059
79	0xbbde9894	-0.006793091
80	0x3a13d0c9	0.00056387164
81	0x3ceeb47b	0.029138794
82	0x3d04808f	0.032349166
83	0x3cf5e8eb	0.03001829
84	0xbdafb0be	-0.08578633
85	0xbcd3a7fe	-0.02583694
86	0x3b186b6c	0.0023257388
87	0x3d161d44	0.036649004
88	0x3ca75d54	0.020430245
89	0x3a492c45	0.0007674138
90	0xbd63f4b8	-0.055653304
91	0xbda1c2d8	-0.078984916
92	0x3d0d5db0	0.034513175
93	0x3c086457	0.008324704
94	0xbd204a76	-0.03913351
95	0xbd98d7bc	-0.07463023
96	0xbc8e2a9a	-0.017354298
97	0xbd628ec6	-0.05531194
98	0xbd2db0fb	-0.04240511
99	0xbc9dfb39	-0.019284831
100	0xbd8c77f6	-0.06858818
101	0x3d4cd02c	0.050003216
102	0xbd22ba7b	-0.039728623
103	0x3be135fc	0.0068728905
104	0x3d2d9fa3	0.04238857
105	0x3d1b91ad	0.037980724
106	0xbd616d30	-0.05503577
107	0xbcbd8ffe	-0.02313995
108	0xbd913c49	-0.070915766
109	0x3ca794b8	0.020456657
110	0x3cb40659	0.021975683
111	0xbcf96bc9	-0.030446904
112	0x3d2c0726	0.041999005
113	0x3beb0f89	0.007173483
114	0x3c4169a5	0.011804973
115	0xbd6cdf1e	-0.05782997
116	0x3c1edf98	0.009696864
117	0x3ca38e08	0.019965187
118	0xbcae1738	-0.021251306
119	0xbc8e4aae	-0.017369594
120	0xbdb4a2d4	-0.088201195
121	0xbc6dc163	-0.014511439
122	0x3c54cc92	0.0129882265
123	0xbdb8329e	-0.089940295
124	0xbd034138	-0.03204462
125	0xbd01d87d	-0.0317006
126	0xbd7a3f04	-0.061095253
127	0xbd2cc39d	-0.04217874
128	0xbda2341f	-0.079200976
129	0x3ae10f30	0.0017170664
130	0xbd1226dc	-0.03568159
131	0xbdbe43a5	-0.09290246
132	0xbd497fff	-0.049194332
133	0x3b23841b	0.0024950567
134	0xbc20771c	-0.009794023
135	0xbc77e68d	-0.015130651
136	0x3d961bb3	0.07329502
137	0xba167bbb	-0.0005740483
138	0x3caa0005	0.020751962
139	0x3ca7dce2	0.020491067
140	0xbcf015a5	-0.029307196
141	0x3d0edf62	0.034881003
142	0xbd1ff41f	-0.03905117
143	0xbc043de6	-0.008071398
144	0xbc6712a1	-0.014103563
145	0xbc07b2d6	-0.008282384
146	0xbd146541	-0.036229376
147	0xbda8278a	-0.082106665
148	0xbde0c170	-0.10974395
149	0x3c2a24c7	0.010384745
150	0xbc34cf48	-0.011035748
151	0x3ca2ef8d	0.019889617
152	0xbc1ec12d	-0.009689611
153	0xbdb5e090	-0.088807225
154	0x3d3a96bd	0.04555391
155	0x3cfc0d2e	0.030768003
156	0xbd5705db	-0.05249582
157	0x3b840146	0.004028472
158	0xbcb866b9	-0.02250992
159	0x3cec66e5	0.028857658
160	0x3d20f061	0.039291743
161	0x3c9ae517	0.018908067
162	0x3cccd45b	0.025003603
163	0x3d544e90	0.051832736
164	0xbda198e4	-0.0789049
165	0xbd09a9f1	-0.033609334
166	0xbd82fd79	-0.06396002
167	0xbcae2c2a	-0.021261293
168	0x3cd498bc	0.025951736
169	0xbda8a259	-0.0823409
170	0xbd4e6369	-0.050387774
171	0xbd056fbc	-0.03257726
172	0xbbe44c5b	-0.00696711
173	0xbda20593	-0.079112194
174	0xbc88508d	-0.016639972
175	0xbd5430bf	-0.0518043
176	0xbd92004f	-0.07128965
177	0xbd92b75b	-0.071638785
178	0x3c873ae4	0.016507573
179	0xbab45460	-0.0013758056
180	0x3cbcccb3	0.023046827
181	0x3d2d44a0	0.042301774
182	0x3b53aa4b	0.0032297547
183	0x3d0980a4	0.033569947
184	0x3d2f0ae8	0.04273501
185	0xbc4bf345	-0.012448137
186	0xbd677bf5	-0.0565147
187	0x3c0141ef	0.007889255
188	0xbb7763c4	-0.0037748674
189	0xbd48d581	-0.04903174
190	0xbd1d38d6	-0.03838428
191	0xbd81195f	-0.06303667
192	0xbd212afa	-0.039347626
193	0xbd7f7094	-0.062363222
194	0xbd309e36	-0.04311963
195	0x3d1f161a	0.038839437
196	0xbd6e18ba	-0.05812905
197	0xbd01d4f8	-0.031697243
198	0x3937b2ff	0.00017518921
199	0x3a3674b8	0.00069601415
200	0xbd9c7436	-0.07639353
201	0xbda8d7b5	-0.08244268
202	0x3d131626	0.035909794
203	0x3cab9eb4	0.020949699
204	0xbcceed47	-0.025259627
205	0x3cb3683e	0.021900292
206	0xbd982e58	-0.07430714
207	0xbd965726	-0.07340841
208	0xbcf4038e	-0.029786851
209	0xbaf97d8b	-0.0019034607
210	0x3c3b75c3	0.011441651
211	0x3d0d272c	0.034461185
212	0x3c8635a4	0.016383
213	0xbd79e02d	-0.061004806
214	0xbcb763aa	-0.02238639
215	0xbd595e9c	-0.053068742
216	0x3d11bfa7	0.035583165
217	0x3b2a86d1	0.0026020298
218	0xbd933ffd	-0.07189939
219	0xbd89c4fa	-0.067270234
220	0xbc999fab	-0.018752893
221	0x3d202e81	0.03910685
222	0x3d903ab8	0.0704245
223	0x3cff66b6	0.031176906
224	0x3ccaacff	0.024740694
225	0xbd57a32d	-0.05264585
226	0xb99a7aaa	-0.0002946456
227	0xbc0cc56d	-0.008591992
228	0xbbe4e694	-0.006985495
229	0x3b4a4ea8	0.0030869637
230	0xbd738103	-0.059449207
231	0xbd26ea4b	-0.040750783
232	0x3d4fe557	0.050755825
233	0x3d5d9742	0.05409933
234	0x3c978e35	0.018500427
235	0x3d00a4fc	0.03140734
236	0x3d31f4c4	0.043446317
237	0xbd0ca0b0	-0.03433293
238	0x3c6246a7	0.01381079
239	0xbd43287d	-0.047646035
240	0xbda33598	-0.079692066
241	0x3d0b7538	0.034047335
242	0xbd689bfc	-0.056789383
243	0xbcfe0713	-0.031009233
244	0x3d86e32d	0.06586299
245	0x3b9b6251	0.004741945
246	0x3c7e458a	0.015519509
247	0x3bb35ce9	0.0054737222
248	0x3d4ff503	0.05077077
249	0x3d660650	0.056158364
250	0x3d24cde6	0.040235423
251	0xbcb63193	-0.022240436
252	0xbd1955e6	-0.037435435
253	0xbc9a7b07	-0.018857492
254	0xbc929f3b	-0.017898193
255	0xbc9311d9	-0.017952846

res_blocks.0.conv1.bias f4 [16]
0	0x3cd43667	0.025904847
1	0xbc716aeb	-0.014734964
2	0x3d2fa31f	0.042880174
3	0xbcdf7a2c	-0.027279936
4	0x3c5075d7	0.012723408
5	0x3c98cd63	0.018652624
6	0x3c6d898f	0.014498129
7	0x3d3e98ff	0.046532627
8	0xbd79e025	-0.061004777
9	0xbd8f4e64	-0.06997374
10	0xbd8e7e4d	-0.06957684
11	0x3c936e46	0.017996918
12	0xbd28fcbf	-0.041256662
13	0xbd3c8c74	-0.046032384
14	0x3d293a11	0.041315142
15	0x3d757306	0.059924148

res_blocks.0.batchnorm1.weight f4 [16]
0	0x3f79f09a	0.97632754
1	0x3f837a8f	1.0271777
2	0x3f7d6069	0.98975235
3	0x3f76fcc7	0.9647946
4	0x3f7a22b1	0.97709185
5	0x3f8050af	1.0024623
6	0x3f82db6d	1.0223213
7	0x3f7cc148	0.98732424
8	0x3f799e30	0.97507
9	0x3f7e4fcc	0.9934051
10	0x3f80e522	1.0069926
11	0x3f7db522	0.9910451
12	0x3f83ae02	1.0287478
13	0x3f802920	1.001255
14	0x3f89929f	1.074787
15	0x3f81edd2	1.0150702

res_blocks.0.batchnorm1.bias f4 [16]
0	0xbd478ef1	-0.048720304
1	0xbc230e25	-0.009952103
2	0xbd475446	-0.048664354
3	0xbd842abe	-0.06453465
4	0xbd01a7e4	-0.031654254
5	0xbd3d460d	-0.046209384
6	0x3ae4fe26	0.0017470762
7	0xbd1cef3c	-0.03831409
8	0xbd2a8756	-0.041632973
9	0xbdfd2d7b	-0.1236219
10	0xbd4c8e15	-0.049940187
11	0xbc9919bd	-0.01868903
12	0x3b4d4662	0.003132247
13	0xbd164657	-0.036688175
14	0xbcb37aaa	-0.021909077
15	0xbd21b6cf	-0.03948098

res_blocks.0.batchnorm1.running_mean f4 [16]
0	0xbf782287	-0.96927685
1	0xbe4607cb	-0.1933891
2	0x3e09edbe	0.13469598
3	0x3e87a6ee	0.26494545
4	0xbedfc212	-0.4370275
5	0xbd31ab85	-0.043376464
6	0xbeba30a8	-0.36365247
7	0x3ec15399	0.37759092
8	0x3e8037be	0.25042528
9	0x3dc09049	0.0940252
10	0xbe8c4c14	-0.27401793
11	0xbe72f6a2	-0.23726895
12	0x3de5af33	0.11215057
13	0xbe2522d6	-0.1612657
14	0xbc6aacb8	-0.014323406
15	0xbf093814	-0.53601193

res_blocks.0.batchnorm1.running_var f4 [16]
0	0x3e5c3f26	0.21508464
1	0x3dc9c278	0.09851545
2	0x3d67ab97	0.056560125
3	0x3d9aeb72	0.07564439
4	0x3e00f392	0.12592915
5	0x3daf1cbf	0.08550405
6	0x3dc52cd2	0.096276894
7	0x3e18d570	0.1492517
8	0x3e291587	0.16512118
9	0x3d049e5f	0.032377597
10	0x3d52d147	0.051469114
11	0x3e16bd0c	0.14720553
12	0x3d82e1e3	0.06390741
13	0x3e453cd1	0.19261481
14	0x3d960a6d	0.07326207
15	0x3df39ae5	0.11894778

res_blocks.0.conv2.weight f4 [16, 16, 5, 5]
0	0x3d1debe6	0.03855505
1	0x3c0a6097	0.00844588
2	0xbc28cf0e	-0.010303272
3	0x3c84fa21	0.016232552
4	0xbcf58b21	-0.029973568
5	0x3c841a63	0.016125863
6	0xbd0b5db5	-0.034024913
7	0x3c19ddf2	0.009391295
8	0xbd15a902	-0.03653813
9	0xbd1a0b91	-0.037608687
10	0xbcdb9c00	-0.026807785
11	0xbd7123fa	-0.0588722
12	0x3882c3db	6.235364e-05
13	0xbcf34625	-0.029696533
14	0x3ce35011	0.02774814
15	0xbcbf1073	-0.023323273
16	0x3c3aed51	0.01140912
17	0x3bec42b8	0.007210102
18	0xbccfbf4b	-0.02535977
19	0x3d073aa6	0.033014916
20	0xbd10a6af	-0.03531521
21	0xbc40ae9a	-0.011760378
22	0xbd05fd38	-0.03271219
23	0x3be1da64	0.0068924893
24	0x3cb5e7b7	0.022205217
25	0x3c07ac2e	0.008280797
26	0x3c975d8b	0.018477222
27	0xbc1a6c7e	-0.009425281
28	0xbdaf41d6	-0.08557479
29	0xbd2a4410	-0.041568816
30	0x3bef6d95	0.0073067644
31	0x3d004cb0	0.031323135
32	0x3c6b4feb	0.014362316
33	0xbcc6bda8	-0.024260357
34	0xbb7e949b	-0.00388459
35	0xbd82d27e	-0.063878044
36	0x39de3c73	0.00042388178
37	0xbd806a0e	-0.06270228
38	0xba919acf	-0.0011108759
39	0xbcf5bea2	-0.029998127
40	0x3d738f01	0.05946255
41	0x3d221aa9	0.039576206
42	0xbbb443fd	-0.005501269
43	0x3ca53f00	0.020171642
44	0x3cafb263	0.021447366
45	0xbd1a7b08	-0.037714988
46	0x3c579b33	0.013159561
47	0x3d0d79a5	0.034539837
48	0x3c9fda1c	0.019513182
49	0x3c279536	0.010228446
50	0xbd0d72c3	-0.034533273
51	0x3cabfe0f	0.020995168
52	0xbd086a4c	-0.033304498
53	0xb9a8beb9	-0.00032185556
54	0x3b87eea6	0.004148322
55	0xbc0182a4	-0.007904682
56	0x3c12bfd4	0.008956868
57	0x3b391131	0.0028239007
58	0xbcfcd0b8	-0.030861244
59	0xbd6fdf38	-0.058562487
60	0xbb2c9f75	-0.002634016
61	0xbc88a186	-0.016678583
62	0x3d2a5c4a	0.04159192
63	0x3bd3bae6	0.006461489
64	0x3d0fc16e	0.03509658
65	0xbce03b30	-0.027371973
66	0xbc39aed4	-0.011333186
67	0xbca62e92	-0.020285878
68	0xbc377e61	-0.011199565
69	0x3bcc44f2	0.006233805
70	0x3c8f5197	0.01749496
71	0x3bcd2480	0.0062604547
72	0xbc209f88	-0.00980366
73	0xbc00189d	-0.007818368
74	0x3ce154cc	0.027506255
75	0x3d233d7c	0.039853558
76	0x3c903996	0.017605584
77	0x3d29ce64	0.041456595
78	0xbd51c4ef	-0.0512132
79	0x3c50c6cb	0.012742708
80	0x3aa94c71	0.0012916458
81	0xbc901002	-0.017585758
82	0xbc913c1e	-0.017728861
83	0x3d399a89	0.04531339
84	0x3c4fe807	0.012689597
85	0x3c89f76c	0.016841613
86	0xbd64aff3	-0.05583186
87	0x3d0d8268	0.034548193
88	0xbcc108a5	-0.023563692
89	0x3cedd93d	0.029034251
90	0xbc8f3d8f	-0.017485408
91	0xbd163a48	-0.036676675
92	0x3cce699c	0.025196843
93	0x3d2a4e41	0.041578535
94	0xbd4daa30	-0.05021113
95	0xbd26065b	-0.040533405
96	0xbc81c8f2	-0.015842889
97	0x3b49d6be	0.0030798162
98	0x3d4b0b00	0.049571037
99	0xbd3a4b17	-0.045481768
100	0xbcd178b6	-0.025570255
101	0x3ceef21b	0.02916818
102	0xbd26c34a	-0.040713586
103	0x3d42bf00	0.047545433
104	0x3d23d529	0.039998207
105	0x3a89fece	0.0010528208
106	0x3d2edf10	0.042693198
107	0x3c1b6792	0.009485142
108	0xbb125dc2	-0.0022333716
109	0xbc725a7f	-0.014792084
110	0xbb8a3cc1	-0.004218668
111	0xbbc23444	-0.0059266407
112	0xbd18f23e	-0.037340395
113	0x3baaa678	0.005207833
114	0xbd435354	-0.04768689
115	0x3c8d6e7e	0.0172646
116	0xbce80c9a	-0.028326321
117	0xbc2d96c1	-0.010595025
118	0xbd833ed3	-0.06408467
119	0x3c3e64f6	0.011620751
120	0xbc9ecb16	-0.019383948
121	0x3bfe4b7c	0.0077604633
122	0x3d412934	0.047158435
123	0x3c72ae99	0.014812135
124	0x3d432d6b	0.047650736
125	0x3d966258	0.07342976
126	0x3c00e5a7	0.007867253
127	0x3d3d6f5c	0.04624878
128	0x39af549e	0.00033441646
129	0x3c9051ac	0.01761707
130	0xbcc48d3b	-0.023993125
131	0xbd98bee0	-0.074582815
132	0x3c903438	0.017603025
133	0xbd20aa9c	-0.039225206
134	0xbd7b2d72	-0.061322637
135	0xbc8b23e1	-0.016984882
136	0x3cfb849b	0.03070288
137	0xbc802d85	-0.015646705
138	0xbcdba033	-0.026809787
139	0x3cff906e	0.0311968
140	0x3d60fdbd	0.054929484
141	0x3d6966a9	0.05698267
142	0xbc8887dc	-0.016666345
143	0x3d9c6d65	0.07638053
144	0x3d07dbf1	0.033168737
145	0x3c0f4ab5	0.008745839
146	0xbd206809	-0.039161716
147	0xbd122d51	-0.03568775
148	0xbd54a6e2	-0.051916964
149	0xbc7f04c7	-0.015565104
150	0xbb16f815	-0.0023036052
151	0x3d176010	0.036956847
152	0xbcac48a0	-0.021030724
153	0x3bc2516d	0.005930117
154	0x3d2ce168	0.04220715
155	0xbc321298	-0.010868691
156	0xbce8fd42	-0.028441075
157	0x3cea307e	0.028587576
158	0x3c651fe0	0.01398465
159	0xbd5d891a	-0.05408583
160	0x3d4b733d	0.049670447
161	0x3c91a402	0.0177784
162	0x3d1621d4	0.036653355
163	0x3c54a5d5	0.012978991
164	0x3cdb1a44	0.026745923
165	0xbd2ebdae	-0.04266136
166	0x3d677208	0.056505233
167	0xbd9a132d	-0.07523189
168	0x3d4465d2	0.047948666
169	0x3d1dedd1	0.038556878
170	0xbd1be5c8	-0.038060933
171	0xbcf6e03d	-0.030136222
172	0xbcde3704	-0.027125843
173	0xbd5680bd	-0.05236887
174	0xb93139b0	-0.00016901526
175	0xbcc8f6fe	-0.024531838
176	0xbc150859	-0.0090962285
177	0x3cc8c03d	0.024505729
178	0xbd39127e	-0.04518365
179	0xbd71af8b	-0.0590053
180	0xbb46cec7	-0.0030335651
181	0xbd566b3e	-0.052348368
182	0x3d0ef863	0.03490485
183	0xb909c900	-0.00013140216
184	0x3cad7235	0.021172622
185	0xbb1ac3ee	-0.0023615318
186	0x3ba10488	0.0049138702
187	0xbd722aba	-0.05912278
188	0xbd036256	-0.032076202
189	0x3bc8fabe	0.0061334064
190	0xbb394433	-0.002826941
191	0x3cf19f30	0.029494852
192	0x3cb183cf	0.021669297
193	0x3cb82968	0.022480682
194	0x3bd3ec25	0.0064673596
195	0xbd625baa	-0.0552632
196	0xbc563a62	-0.013075443
197	0xbcad6f4a	-0.02117123
198	0xbca40e37	-0.02002631
199	0xbd8cc5e9	-0.06873686
200	0x3cb4d695	0.022074977
201	0x3b906542	0.004406602
202	0x3bda15af	0.006655417
203	0x3c81d5cf	0.015849022
204	0xbd15fb22	-0.036616452
205	0x3bf69ac1	0.0075257723
206	0x3cbad8f4	0.02280853
207	0xba680449	-0.0008850736
208	0x3d383d84	0.04498054
209	0x3cf3dcda	0.029768396
210	0x3d528cc8	0.05140379
211	0xba6ba20b	-0.0008988685
212	0xbd252aad	-0.040323902
213	0xbbf07a80	-0.007338822
214	0xbd049609	-0.032369647
215	0xbc45ed29	-0.012080469
216	0x3bb14796	0.005410145
217	0xbd23a10c	-0.03994851
218	0xbc86ea36	-0.016469102
219	0x3d30e995	0.04319151
220	0x3c5010a9	0.012699285
221	0x3d31c539	0.043400977
222	0xbb5197e5	-0.0031981405
223	0xbc08ab97	-0.008341691
224	0xbd3ed96f	-0.04659408
225	0x3d331ab6	0.043726645
226	0xbb746803	-0.003729344
227	0x3c9f6150	0.019455582
228	0x3d2c627e	0.042086117
229	0xbcc07f87	-0.02349831
230	0xbd03a7fd	-0.032142628
231	0xbc6a78c9	-0.014311024
232	0xbcd57710	-0.02605775
233	0xbca48fe8	-0.020088151
234	0x3ceac895	0.028660098
235	0xbd2e43e1	-0.042545203
236	0xbcd49fac	-0.025955044
237	0xbccc1aba	-0.024915088
238	0xbd017c6c	-0.0316128
239	0x3d1bd4c7	0.038044717
240	0xbac6ce8c	-0.0015167757
241	0x3d0dd9a2	0.03463138
242	0x3d18db07	0.037318256
243	0xbcd3f9f8	-0.02587603
244	0x3d200b47	0.039073255
245	0x3a924aa2	0.0011161158
246	0xbc88c585	-0.016695747
247	0x3c1eb2c7	0.0096861785
248	0x3d224788	0.039619
249	0xbd7ed1c1	-0.062211756
250	0x3cc2e97a	0.02379297
251	0xbcfb488d	-0.030674243
252	0xbb8f2bab	-0.0043692193
253	0x3c070741	0.008241476
254	0xbcb754e5	-0.022379348
255	0xbc77d673	-0.015126812

res_blocks.0.conv2.bias f4 [16]
0	0x3cd8c853	0.02646271
1	0xbd2c1861	-0.042015437
2	0x3d2a02e5	0.041506667
3	0x3ca8549c	0.020548157
4	0x3d171da7	0.036893513
5	0xbd2759a8	-0.040856987
6	0xbc790529	-0.015198984
7	0xbca12848	-0.019672528
8	0x3d22ca35	0.03974362
9	0xbd10fd58	-0.035397857
10	0x3d298072	0.04138226
11	0xbd32d34e	-0.043658547
12	0x3cf7cda7	0.03024943
13	0x3cc2def3	0.023787951
14	0xbc827823	-0.015926426
15	0x3d353fef	0.044250425

res_blocks.0.batchnorm2.weight f4 [16]
0	0x3f8b11e4	1.0864835
1	0x3f8f05a6	1.1173599
2	0x3f8b12a6	1.0865066
3	0x3f8fc58d	1.1232163
4	0x3f8c0fe6	1.0942352
5	0x3f90d94a	1.1316311
6	0x3f8daded	1.1068703
7	0x3f934254	1.1504617
8	0x3f8bca09	1.0921031
9	0x3f97ad8c	1.1849837
10	0x3f9610a5	1.172383
11	0x3f8f9233	1.1216491
12	0x3f907de5	1.128842
13	0x3f8d8f4e	1.1059358
14	0x3f94b42a	1.1617482
15	0x3f900a87	1.1253213

res_blocks.0.batchnorm2.bias f4 [16]
0	0xbcc01889	-0.0234492
1	0xbc70a488	-0.014687665
2	0xbcfd38f5	-0.030910948
3	0xbd52bfa2	-0.051452287
4	0xbcbdfef5	-0.023192862
5	0x3d9e65f0	0.07734287
6	0x3ba80a21	0.0051281606
7	0x3d8d9f36	0.06915133
8	0x3c6ead51	0.014567689
9	0x3c50842e	0.012726827
10	0x3d3e2835	0.046425063
11	0xbca327cf	-0.019916443
12	0x3c5f13ea	0.013615588
13	0x3d41c70b	0.047308963
14	0x3d88b0dd	0.06674359
15	0x3d08439b	0.0332676

res_blocks.0.batchnorm2.running_mean f4 [16]
0	0xbe0c63ea	-0.13709989
1	0xbddaed83	-0.10689833
2	0xbccf4b55	-0.025304476
3	0x3e547cb9	0.20750703
4	0xbe1da1f0	-0.15393806
5	0xbce494a5	-0.02790291
6	0x3c4372b2	0.011929201
7	0xbd906b98	-0.07051772
8	0x3e56dede	0.20983455
9	0xbc394cfa	-0.011309857
10	0xbe01f828	-0.1269232
11	0x3e1ea9a5	0.15494402
12	0xbdcf8157	-0.101320915
13	0x3e0434b2	0.12910727
14	0xbd52e525	-0.05148806
15	0x3b81b579	0.003958401

res_blocks.0.batchnorm2.running_var f4 [16]
0	0x3dcf8c2c	0.101341575
1	0x3db80af1	0.08986462
2	0x3dfa6b4d	0.12227497
3	0x3d8229ba	0.06355615
4	0x3e276cc4	0.16350085
5	0x3dbf808d	0.09350691
6	0x3db5c643	0.08875706
7	0x3dec4c27	0.115379624
8	0x3ddd2cd3	0.10799565
9	0x3db393ed	0.08768449
10	0x3dad8763	0.084730886
11	0x3dfbccff	0.12294959
12	0x3dd1c922	0.10243441
13	0x3dfe0fd6	0.12405364
14	0x3dd8aa12	0.10579313
15	0x3dc49166	0.09598045

res_blocks.0.residual_conv.weight f4 [16, 8, 1, 1]
0	0x3ea0d907	0.3141558
1	0x3e187b33	0.14890747
2	0xbeb16e09	-0.34654263
3	0x3dd57740	0.10423136
4	0x3c1146fe	0.0088670235
5	0x3babea6c	0.005246451
6	0xbea18c20	-0.3155222
7	0xbeac3f6c	-0.33642137
8	0x3e750297	0.23926769
9	0x3e662e5d	0.22478624
10	0xbeb7d30f	-0.35903212
11	0x3ebeacaf	0.37241122
12	0x3ea4b2ff	0.32167813
13	0x3da63390	0.081153035
14	0xbbec4d94	-0.0072113965
15	0x3e41df1b	0.18932764
16	0x3ec33d8f	0.38132903
17	0xbe3e840a	-0.18605056
18	0xbde3ba68	-0.111195385
19	0xbd561940	-0.052270174
20	0x3ddb323f	0.10702943
21	0x3e310478	0.17286861
22	0x3e001e1c	0.12511486
23	0x3ca5d279	0.020241963
24	0x3d9f4d4d	0.07778416
25	0xbe627cf8	-0.22117984
26	0xbed3f6bf	-0.4139919
27	0x3e14d1a9	0.14533104
28	0xbd79a1c2	-0.06094528
29	0x3c836574	0.016039588
30	0x3e13abad	0.14420958
31	0xbf017193	-0.50563926
32	0xbd88a0fd	-0.06671331
33	0x3deb7f93	0.11498942
34	0xbec3e50c	-0.38260686
35	0x3e47feb3	0.19530754
36	0xbe8c593a	-0.27411824
37	0xbe97acf0	-0.29624128
38	0x3c5b555c	0.0133870505
39	0x3e94ede7	0.29087755
40	0x3eb33368	0.35000157
41	0xbd06ca62	-0.03290785
42	0x3e542f69	0.2072121
43	0x3e897153	0.26844272
44	0xbe5b9ba8	-0.21446097
45	0xbda96c1d	-0.08272574
46	0x3e0dbfc3	0.13842683
47	0xbedeb146	-0.43494624
48	0xbe880eca	-0.26573783
49	0xbeb579a7	-0.35444376
50	0x3e4fab4c	0.20280188
51	0x3dbf295a	0.09334059
52	0xbe0d7820	-0.13815355
53	0xbdaeb08d	-0.08529768
54	0x3e85db6e	0.26143974
55	0xbe810e69	-0.25206307
56	0x3e6dd10d	0.23224278
57	0x3e0c82de	0.13721797
58	0x3ecb2490	0.39676332
59	0xbe53ea26	-0.2069479
60	0x3e62dd15	0.22154649
61	0xbe0aa845	-0.13540752
62	0xbead42ce	-0.3384003
63	0x3e218e41	0.15776922
64	0xbd925ebf	-0.07146978
65	0xbe9883de	-0.29788107
66	0x3dfaa5ef	0.122386806
67	0x3e7f0709	0.24905027
68	0xbe7c068f	-0.24611877
69	0xbce28a68	-0.027653888
70	0x3ddbb7fe	0.10728453
71	0x3d1419c5	0.03615739
72	0xbe8dd16d	-0.27698842
73	0x3e99af6d	0.30016652
74	0xbcb36002	-0.021896366
75	0xbe6c46bf	-0.23073862
76	0xbe224fa0	-0.15850687
77	0x3e0bfd21	0.1367078
78	0xbe491db1	-0.19640233
79	0x3e42931e	0.19001433
80	0x3ddacf17	0.106840305
81	0x3d9e7c2d	0.077385284
82	0xbe4a6879	-0.19766416
83	0x3cf09efb	0.029372683
84	0xbd858ee2	-0.06521393
85	0x3e078224	0.13233238
86	0xbe35c65e	-0.17751452
87	0xbe1313b0	-0.14362979
88	0xbdcaa93b	-0.098955594
89	0xbdd6767d	-0.104718186
90	0x3dc286b8	0.09498352
91	0x3d7b8e94	0.06141527
92	0x3e5e61a3	0.21716933
93	0x3e700522	0.23439458
94	0x3e683a33	0.22678451
95	0x3e548543	0.2075396
96	0x3e5ca1f2	0.21546152
97	0xbbbd6357	-0.0057796645
98	0x3e4e3aa0	0.20139551
99	0x3d6b6f92	0.05747945
100	0xbd53bf7f	-0.051696297
101	0xbdb232dc	-0.08701107
102	0xbd6cb0c2	-0.057785757
103	0xbd4473db	-0.04796205
104	0xbb7a680a	-0.0038208985
105	0xbd206d1b	-0.03916655
106	0x3df9fa3b	0.12205931
107	0x3d6299c7	0.055322435
108	0x3c8632da	0.01638167
109	0x3e2fed7a	0.17180434
110	0x3e7ec2c8	0.2487899
111	0x3e8518e8	0.25995564
112	0x3e29fcfd	0.16600414
113	0x3e0a3302	0.1349602
114	0x3de54dea	0.111965016
115	0xbe178b3b	-0.14799206
116	0x3e903f34	0.2817322
117	0x3d855403	0.065101646
118	0x3e9bbc95	0.30417314
119	0x3e75471c	0.23952907
120	0xbe617352	-0.22016647
121	0xbd653b23	-0.0559646
122	0x3ecda0a5	0.40161625
123	0x3dc98793	0.09840312
124	0xbde46725	-0.11152486
125	0x3d866340	0.06561899
126	0x3ea631b8	0.32459807
127	0x3cae6a17	0.021290822

res_blocks.0.residual_conv.bias f4 [16]
0	0xbeb62675	-0.35576215
1	0x3d4ed1b3	0.050492954
2	0x3e86273d	0.2620181
3	0x3de66d37	0.112513
4	0xbe243ee8	-0.16039622
5	0xbd55f79f	-0.052238103
6	0x3b89e977	0.0042087394
7	0x3e938558	0.2881267
8	0x3e7cc1c6	0.24683294
9	0x3dd47bd7	0.10375183
10	0x3e54fda3	0.2079988
11	0xbe022267	-0.12708436
12	0x3e2444d2	0.16041878
13	0x3d00a019	0.03140268
14	0xbe25c11e	-0.1618695
15	0x3e05d922	0.13071111

res_blocks.1.conv1.weight f4 [32, 16, 5, 5]
0	0x3ccf57e6	0.025310468
1	0x3cff8281	0.031190159
2	0xbca75ca7	-0.020429922
3	0x3c8850aa	0.016640026
4	0xbce73840	-0.028225064
5	0x36da187a	6.4997557e-06
6	0x3b7eb842	0.003886715
7	0x3d4b21d3	0.049592804
8	0xbd092d4c	-0.033490464
9	0x3d5881e5	0.052858252
10	0xbb2dc53c	-0.0026515266
11	0xb98d2e16	-0.00026927952
12	0xbd0650c0	-0.032791853
13	0x3a1a951e	0.0005896854
14	0x3d2dcac7	0.04242971
15	0x3d241103	0.040055286
16	0x3d0063ce	0.03134518
17	0xbd11b063	-0.035568606
18	0xbbad7cda	-0.0052944245
19	0xbd0e7e17	-0.034788217
20	0x3bce92af	0.006304107
21	0x3d25e739	0.040503714
22	0x3ccd382c	0.025051199
23	0xbc0bbab4	-0.0085284
24	0xbc410caf	-0.011782809
25	0x3cfaad36	0.030600172
26	0x3c91050a	0.017702598
27	0x3bdfcf16	0.0068301065
28	0x3d32ee9c	0.043684587
29	0xbcb6c39b	-0.022310069
30	0x3b72cc4d	0.0037048042
31	0x3b1336e0	0.0022463128
32	0x3ca43295	0.02004365
33	0xbd406704	-0.046973243
34	0xbcdddfaa	-0.02708419
35	0x3d2ad72f	0.04170912
36	0x3b3b31b3	0.0028563559
37	0x3c9ed3f4	0.019388177
38	0x3d01d921	0.03170121
39	0x3d58da51	0.052942578
40	0xbcdac51a	-0.026705313
41	0x3d80c031	0.062866576
42	0x3d0dca33	0.03461666
43	0xbcfc1f71	-0.030776711
44	0x3c6c6aa7	0.014429725
45	0xb9d4b86c	-0.00040573196
46	0xbc5d8027	-0.013519323
47	0x3d26144e	0.040546708
48	0xbc97e87e	-0.018543478
49	0x3d3bb6b4	0.045828536
50	0xbcb4790e	-0.02203038
51	0xbd2ec150	-0.042664826
52	0xbc640d6c	-0.013919216
53	0x3b945067	0.0045261863
54	0x3c9beaab	0.019032797
55	0xb9dde023	-0.000423194
56	0x3c6cd46b	0.014454941
57	0xbc12257a	-0.008920068
58	0xbd6cbe0d	-0.057798434
59	0xbcd85107	-0.026405824
60	0xbd069586	-0.03285744
61	0xbc3dbb10	-0.011580244
62	0x3c766950	0.015039757
63	0x3cc5dcb8	0.024153098
64	0xbd27ad90	-0.040937006
65	0xbd3815c7	-0.044942643
66	0xbd084002	-0.033264168
67	0xbd2e5adb	-0.042567115
68	0x3cf35616	0.029704135
69	0xbd1c4f9a	-0.03816185
70	0xbd234670	-0.039862096
71	0xbd91bd43	-0.07116177
72	0xbc229f1c	-0.00992563
73	0xbc7a3f0b	-0.01527382
74	0xbcd1b7ee	-0.0256004
75	0x3b18cf6b	0.002331699
76	0xbce58690	-0.028018266
77	0xbd4894fa	-0.0489702
78	0xbc316619	-0.010827565
79	0xbd01c0b9	-0.031677935
80	0xba8208ae	-0.00099208
81	0xbc88b34b	-0.016687056
82	0xbd0ba4f1	-0.034092847
83	0xbcf04808	-0.029331222
84	0xbc8ae5ae	-0.016955223
85	0x3b629ee4	0.003457957
86	0xbd5f9c91	-0.054592673
87	0xbc856deb	-0.016287765
88	0x3c5c458d	0.013444317
89	0xbd4054ca	-0.04695586
90	0xbd791fa8	-0.060821205
91	0xbd03feb9	-0.032225344
92	0xbd86511f	-0.06558441
93	0x3c3c9773	0.011510718
94	0xbc4ff151	-0.012691812
95	0xbda44dd2	-0.080226555
96	0xbd8bcabe	-0.068257794
97	0xbd70ff0b	-0.058836978
98	0xbcb46524	-0.022020884
99	0xbd181d76	-0.03713747
100	0x3ce1b1c2	0.027550582
101	0x3c052814	0.008127231
102	0xbc4a5e51	-0.012351588
103	0x3c1136bf	0.00886315
104	0x3d6537bb	0.05596135
105	0x39fdf7f4	0.0004844066
106	0xbb368dd1	-0.0027855525
107	0x3d758f83	0.059951317
108	0xbbe972f6	-0.0071243
109	0x3d5fcb78	0.054637402
110	0x3d08b973	0.033379983
111	0x3ca61e9d	0.02027827
112	0x3c81658e	0.015795495
113	0x3c2bdb90	0.0104893595
114	0x3d73f558	0.05956015
115	0x3d6862f6	0.056735
116	0x3d725769	0.059165392
117	0x3d0c08b5	0.03418799
118	0x3dcdc077	0.100464754
119	0x3dde0273	0.10840311
120	0x3bef6b8e	0.0073065227
121	0x3c671157	0.014103255
122	0x3c1b08a4	0.009462509
123	0x3d72805d	0.059204448
124	0x3b5e8b5c	0.0033957576
125	0x3b2834d3	0.0025666251
126	0xbd648f38	-0.055800647
127	0xbc2f50e4	-0.010700438
128	0xbd917ade	-0.07103513
129	0xbd801092	-0.062531605
130	0xbcc7a22c	-0.024369322
131	0xbcc0e93e	-0.023548719
132	0xbd63e6c6	-0.055640005
133	0xbce46609	-0.027880685
134	0xbd642db6	-0.055707656
135	0xbd9bd090	-0.076081395
136	0xbd447b55	-0.04796918
137	0xbd6bd594	-0.05757673
138	0xbc8b107c	-0.016975634
139	0xbd57f128	-0.05272022
140	0xbcacc0a3	-0.02108795
141	0x3d0f8191	0.035035674
142	0xbd55668e	-0.052099757
143	0x3c77aa8b	0.015116344
144	0xba5e11ff	-0.00084713096
145	0xbcbc04b8	-0.022951469
146	0xbd70bb6d	-0.058772493
147	0xbd5dbcbc	-0.05413507
148	0xbd811160	-0.06302142
149	0xbd81e3a7	-0.06342249
150	0x3d0dcb5d	0.03461777
151	0xbc8ec575	-0.01742814
152	0x3d2b689e	0.041847818
153	0x3cad2feb	0.021141013
154	0xbc82e58f	-0.015978603
155	0x3c3c00a1	0.011474759
156	0xbd02a207	-0.031892803
157	0xbd0aac24	-0.033855572
158	0x3d0c53ec	0.03425972
159	0xbd538ba1	-0.051646832
160	0x3c9b500b	0.018959066
161	0xbd36af90	-0.044601023
162	0xbcbf8a4a	-0.023381371
163	0x3c09dcb9	0.008414441
164	0xbd81af67	-0.063322835
165	0xbda480d1	-0.08032382
166	0xbd66c311	-0.056338374
167	0xbb04d9a4	-0.0020271325
168	0xbd1a6da7	-0.03770223
169	0x3b8375b4	0.004011834
170	0xbd95cbdd	-0.073142745
171	0xbd8805a2	-0.066416994
172	0xbd8651f0	-0.06558597
173	0xbb43b167	-0.0029860379
174	0xbd65cfc9	-0.056106362
175	0xbd2fad9a	-0.04289017
176	0xbd7c0dcd	-0.0615366
177	0x39c5098d	0.00037581884
178	0xbc54d0cf	-0.012989237
179	0x3cd71144	0.02625335
180	0x3cbdb443	0.023157245
181	0xbce1c185	-0.027558098
182	0xbc52d8b9	-0.0128690535
183	0xbbfe25fe	-0.007755994
184	0x3cfac32d	0.030610645
185	0x3c4879e6	0.012236094
186	0xbcf95f49	-0.030440943
187	0x3b14474c	0.0022625504
188	0x3cbd3212	0.023095164
189	0x3d04db39	0.03243563
190	0x3cfffb06	0.031247627
191	0x3a96f2ba	0.001151643
192	0xbcb3a336	-0.021928411
193	0xbc544878	-0.012956731
194	0xbc2dc772	-0.0106066335
195	0x3d2e0d6c	0.04249327
196	0x3c8037bd	0.015651578
197	0x3d0e602f	0.034759697
198	0xbd0924e9	-0.033482466
199	0x3d01e0dd	0.031708587
200	0xbc656f25	-0.01400355
201	0xbccf291d	-0.025288159
202	0xbcfd2ad7	-0.030904217
203	0x3cbb2226	0.022843432
204	0x3d306583	0.04306556
205	0xbab9a419	-0.0014163285
206	0x382d6a33	4.134532e-05
207	0xbbec4e38	-0.007211473
208	0x3d837e7d	0.0642061
209	0xba333bdb	-0.0006837227
210	0x3d2e6b00	0.042582512
211	0xbd1e8c32	-0.03870792
212	0x3d212457	0.039341297
213	0x3c91c1ad	0.017792547
214	0x3b853146	0.0040647117
215	0x3d2ba04f	0.04190093
216	0x3c85d78b	0.01633813
217	0xbc93a2d1	-0.018021973
218	0x3d613c94	0.054989412
219	0x393a478e	0.00017764998
220	0x3d5d879e	0.054084413
221	0x3caae729	0.020862179
222	0xbc6431c4	-0.013927881
223	0x3d77ca2d	0.060495544
224	0x3c14d796	0.009084603
225	0xbd19bf5b	-0.037536006
226	0x3c2cea49	0.010553905
227	0xbd1e73d2	-0.038684674
228	0xbaa826f1	-0.0012828988
229	0xbc86a255	-0.016434828
230	0x3d2848a5	0.041084904
231	0x3d0aac23	0.03385557
232	0xbb3164c5	-0.002706812
233	0x3c61c95f	0.013780921
234	0xbc4e5896	-0.012594363
235	0x3ccfbba7	0.025358034
236	0xbd375b33	-0.04476471
237	0xbcdb1d79	-0.026747452
238	0x3bea62f9	0.0071529117
239	0x3b88a5b9	0.0041701463
240	0xbcf07838	-0.0293542
241	0xbd415480	-0.047199726
242	0xbd23af45	-0.039962072
243	0xb732b143	-1.0650899e-05
244	0xbd2d3d47	-0.042294767
245	0xbbdaa966	-0.006673026
246	0xbc1743c9	-0.00923247
247	0xbcbf8f99	-0.023383902
248	0xbd50ad16	-0.050946318
249	0x3bb8899e	0.0056316396
250	0x3b879885	0.004138055
251	0xbb8207a7	-0.0039681974
252	0x3d37b3e1	0.04484928
253	0x3b6f4364	0.0036508674
254	0x3bf64a3f	0.007516175
255	0x3cec33b5	0.02883325

res_blocks.1.conv1.bias f4 [32]
0	0x3b285a79	0.0025688692
1	0x3c03f89f	0.008054881
2	0x3ceced25	0.028921673
3	0x3c87dbd9	0.016584324
4	0x3d28947a	0.041157223
5	0x3d45ab78	0.04825923
6	0x3d1e2de1	0.038617972
7	0xbcfae966	-0.030628871
8	0x3cc1daf2	0.023663972
9	0xbceadc45	-0.028669486
10	0xbc880851	-0.016605528
11	0xbbeb3a36	-0.00717857
12	0xbc937664	-0.018000789
13	0xbc9a01fd	-0.018799776
14	0x3cacc280	0.021088839
15	0x3c153184	0.009106044
16	0x3c468caf	0.0121185025
17	0x3d328ae9	0.043589506
18	0x3cc29059	0.023750471
19	0x3cdf546c	0.027261935
20	0x3cb1f85e	0.021724876
21	0x3c081759	0.008306348
22	0x3d47fd57	0.048825588
23	0x3d3bf347	0.045886304
24	0xbbf13c8b	-0.0073619536
25	0xbd0bb283	-0.03410579
26	0x3d02d85f	0.03194463
27	0xbd3cac83	-0.046062957
28	0x3cbb7331	0.022882076
29	0x3c1d167a	0.009587878
30	0xbcb66aac	-0.022267662
31	0x3d3acf58	0.045607895

res_blocks.1.batchnorm1.weight f4 [32]
0	0x3f84c6e9	1.0373203
1	0x3f7f7533	0.99788207
2	0x3f7e018d	0.99221116
3	0x3f7be2cf	0.9839296
4	0x3f7dbf5f	0.99120134
5	0x3f8a6ff1	1.0815412
6	0x3f801de2	1.000912
7	0x3f7ad6cf	0.9798402
8	0x3f7dbd67	0.9911713
9	0x3f74cc64	0.95624375
10	0x3f83e481	1.0304109
11	0x3f7c896e	0.986472
12	0x3f7eeb7d	0.99578077
13	0x3f7904f9	0.9727321
14	0x3f822e18	1.0170317
15	0x3f7ba2a9	0.98295075
16	0x3f8210e3	1.0161403
17	0x3f7df947	0.9920849
18	0x3f86b989	1.0525371
19	0x3f80b6cc	1.0055785
20	0x3f7e48f8	0.9933009
21	0x3f761f6b	0.9614169
22	0x3f7cdba7	0.9877266
23	0x3f749845	0.95544845
24	0x3f7b9805	0.9827884
25	0x3f80f9e5	1.0076262
26	0x3f83ebb7	1.030631
27	0x3f7f2783	0.99669665
28	0x3f87ed73	1.0619339
29	0x3f75fdf4	0.96090627
30	0x3f764503	0.96199054
31	0x3f7c09cb	0.9845244

res_blocks.1.batchnorm1.bias f4 [32]
0	0xbc294d37	-0.010333351
1	0xbe0be6b1	-0.1366222
2	0xbde9ee0c	-0.11422357
3	0xbdd279f9	-0.10277171
4	0xbd1f3d73	-0.038876962
5	0xbd81ead6	-0.063436195
6	0xbde68516	-0.11255853
7	0xbe23aa71	-0.15982987
8	0xbd8d3253	-0.06894364
9	0xbe12d767	-0.14339982
10	0xbd9ba608	-0.07600027
11	0xbdae2bb0	-0.085044265
12	0xbdde6d81	-0.1086073
13	0xbcae54d8	-0.021280691
14	0xbdd17603	-0.10227587
15	0xbd920231	-0.07129324
16	0xbd9a1caf	-0.07525002
17	0xbda2fe24	-0.0795863
18	0xbcd33ebd	-0.025786752
19	0xbd2fda2f	-0.042932685
20	0xbd80c579	-0.06287665
21	0xbdc4b872	-0.09605493
22	0xbd97d198	-0.07413024
23	0xbdc23a05	-0.094837226
24	0xbd7eb30d	-0.062182475
25	0xbd591cbe	-0.053005926
26	0x3cda0e98	0.026618287
27	0xbd0398e9	-0.03212825
28	0xbd9ce645	-0.07661108
29	0xbd1ee95c	-0.038796768
30	0xbd8af345	-0.06784681
31	0xbda1feb9	-0.079099126

res_blocks.1.batchnorm1.running_mean f4 [32]
0	0xbfb01cb4	-1.375876
1	0xbf3558a8	-0.70838404
2	0xbf1e7106	-0.6189121
3	0x3f1d6a86	0.61490667
4	0x3f04db61	0.51897246
5	0xbf810e4f	-1.0082492
6	0xbf2d5a56	-0.67715967
7	0xbf4b0e6c	-0.7931888
8	0xbfb994f4	-1.4498582
9	0x3e204fdb	0.15655462
10	0xbf1f7009	-0.6228033
11	0x3ea2177e	0.31658548
12	0xbec47a4d	-0.38374558
13	0xbf2c017e	-0.67189777
14	0xbedc47ce	-0.43023533
15	0xbf827358	-1.019145
16	0xbd1bfdc6	-0.038083814
17	0x3ec74af9	0.38924387
18	0xbf47cd93	-0.78048056
19	0xbea13bb3	-0.3149086
20	0xbed77f1d	-0.42089167
21	0x3ebe19e7	0.37129137
22	0xbf18d626	-0.59701765
23	0x3fa98416	1.3243434
24	0x407b80ee	3.9297442
25	0xbfb2878b	-1.3947614
26	0xbf4c7797	-0.7986998
27	0xbdeb15e5	-0.114787854
28	0xbf3e1d15	-0.74263126
29	0x3f307a54	0.6893666
30	0x3f311780	0.69176483
31	0xbe3e7921	-0.18600895

res_blocks.1.batchnorm1.running_var f4 [32]
0	0x400b8d9f	2.1805189
1	0x3f1da026	0.6157249
2	0x3fe386e9	1.7775546
3	0x3f3a56f8	0.72788954
4	0x3f8e0875	1.1096331
5	0x3fdc6f2f	1.722143
6	0x3f6ff870	0.9373846
7	0x3efe215f	0.49634835
8	0x3f494558	0.78621435
9	0x3f877290	1.0581837
10	0x3f8b8224	1.0899091
11	0x3f11e72e	0.5699338
12	0x3ecd919a	0.40150148
13	0x3f9c7414	1.2222924
14	0x3ee82a67	0.4534485
15	0x3f50e566	0.81600034
16	0x3fa50e8b	1.2895063
17	0x3f4d69bb	0.80239457
18	0x3f4b60d7	0.7944464
19	0x3fe8f1fd	1.8198849
20	0x401bb329	2.43281
21	0x3f913737	1.1344975
22	0x3f4c7ff4	0.7988274
23	0x3fabcfec	1.3422828
24	0x40c9b687	6.303531
25	0x3f919f6c	1.1376777
26	0x3fb9d13d	1.451698
27	0x3fcc9e38	1.5985785
28	0x3f713c1f	0.9423236
29	0x3fefa024	1.8720746
30	0x3f86bef7	1.0527028
31	0x3fca0988	1.5784159

res_blocks.1.conv2.weight f4 [32, 32, 5, 5]
0	0xbc1764ed	-0.009240371
1	0xbcf8e26f	-0.03038141
2	0xbd5105b3	-0.051030826
3	0xbd67b9fb	-0.05657385
4	0xbbeb74a3	-0.007185535
5	0xbd34dcea	-0.044155993
6	0xbd337dbe	-0.04382109
7	0x3c1de0c0	0.009636104
8	0xbc694068	-0.014236547
9	0x3abf28dd	0.0014584322
10	0xbbb285ed	-0.005448094
11	0xbc52df91	-0.012870685
12	0xbca69a05	-0.020337114
13	0xbcb0efaf	-0.021598665
14	0xbbde4f04	-0.0067843217
15	0xbd633b7e	-0.055476658
16	0xbd2657ce	-0.04061108
17	0x3b28cd28	0.0025757048
18	0xbd0f67bf	-0.03501105
19	0xbc6e4690	-0.014543191
20	0xbc3577d3	-0.011075932
21	0xbd01655d	-0.03159081
22	0x3bbe93ee	0.0058159744
23	0xbc1d9489	-0.009617933
24	0x3af64abb	0.0018790582
25	0x3ce0bcdf	0.02743381
26	0x3ab99e56	0.0014161568
27	0x3cd83c59	0.026395964
28	0x3be727fc	0.007054327
29	0x3be3eea1	0.006955937
30	0x3cd21904	0.025646694
31	0xbc5c4f7b	-0.013446684
32	0xbcbe2308	-0.023210064
33	0xbc4e4e4d	-0.012591911
34	0x3d06ceca	0.032912053
35	0xbc819e47	-0.015822543
36	0x3c9c47c5	0.019077191
37	0x3bd0a68b	0.0063675097
38	0x3c3ccd6f	0.011523589
39	0x3c521d0e	0.01282431
40	0x3c6676c6	0.014066404
41	0x3b7b7d90	0.0038374402
42	0xbc462761	-0.01209435
43	0xbc690737	-0.014222912
44	0x3c822544	0.01588691
45	0xbbd6a110	-0.006549962
46	0x3ae6a2e2	0.001759615
47	0x3c102df9	0.008800023
48	0x3b031d1b	0.0020006362
49	0xbbdac79e	-0.0066766283
50	0x3cd7d336	0.02634583
51	0x3bf98f96	0.0076159937
52	0x3d070e59	0.032972667
53	0x3d397149	0.045274053
54	0x3ba40709	0.0050057215
55	0xbc00bdc2	-0.007857742
56	0x3cab7454	0.020929493
57	0x3cb8efc0	0.02257526
58	0xbc8b6ce3	-0.017019695
59	0x3c821cec	0.015882932
60	0x3cb95be9	0.022626834
61	0xbcae0500	-0.021242619
62	0xbb6a5112	-0.0035753888
63	0x3ccc3263	0.02492637
64	0x3cb1ae0a	0.021689434
65	0xbc91d5cf	-0.017802147
66	0x3ce332c7	0.027734173
67	0xbc4109df	-0.011782139
68	0xbc0ffe53	-0.008788663
69	0xbc3ec3e6	-0.0116433855
70	0x3d16b7db	0.036796432
71	0xbbcac2ff	-0.006187796
72	0xbc241e73	-0.010017025
73	0xbc6087e3	-0.013704273
74	0x3c9e5940	0.019329667
75	0x3c777887	0.01510442
76	0x3c998b02	0.018743042
77	0x3d1c1881	0.038109306
78	0x3cc05b12	0.023480926
79	0xbb05cc6c	-0.0020416034
80	0x3bfb220c	0.007663971
81	0x3cb82a20	0.022481024
82	0x3cd809d4	0.026371874
83	0x3bdeed6b	0.006803205
84	0x3ce6d419	0.028177308
85	0x3cadfacd	0.021237755
86	0xbc821f92	-0.015884195
87	0x3d188c5d	0.037243236
88	0x3c317774	0.0108317025
89	0x3c9c0150	0.019043595
90	0x3d1d94b3	0.03847189
91	0xbc15eaba	-0.009150201
92	0x3b4323a4	0.0029775882
93	0x3ce12e2a	0.027487833
94	0x3c88f591	0.016718658
95	0xbb37c9d0	-0.0028043874
96	0x3ced768e	0.028987195
97	0xbbea3033	-0.007146859
98	0x3bf89428	0.007586021
99	0x3cd6b54f	0.026209502
100	0xbc473ef9	-0.01216101
101	0x3d2b0517	0.0417529
102	0x3b6ece9e	0.0036439071
103	0x3d1ed02c	0.038772747
104	0x3b591c29	0.0033128357
105	0xbca28e52	-0.019843254
106	0x3cc60375	0.02417157
107	0x3c58061b	0.013185049
108	0x3d03668d	0.032080222
109	0xbc19e05c	-0.00939187
110	0x3bf7c309	0.007561092
111	0x3ccb5a58	0.024823353
112	0xba25c50e	-0.0006323614
113	0x3bef994d	0.007311976
114	0x3c8d95f4	0.017283417
115	0x3c5bf0c4	0.013424102
116	0x3c285f2a	0.010276595
117	0x3c84ef83	0.01622749
118	0x3c1c9bc5	0.009558623
119	0xbd04210b	-0.032258075
120	0xbadb2b99	-0.0016721367
121	0xb9cfed5a	-0.00039658957
122	0x3d026855	0.03183778
123	0x3c8a1ac5	0.016858468
124	0x3bb5c462	0.0055470923
125	0xbd66161c	-0.05617343
126	0xbc815534	-0.015787698
127	0xbd39dc0e	-0.045375876
128	0xbcba80e9	-0.022766547
129	0xbd26d6df	-0.04073226
130	0xbc41f19d	-0.01183739
131	0xbc6aef2e	-0.014339251
132	0xbbf75e72	-0.0075491006
133	0xbcf77b14	-0.030210055
134	0xbc889af2	-0.016675446
135	0xbcedf033	-0.0290452
136	0xbc20330b	-0.009777795
137	0x3aac41c5	0.001314216
138	0xbcdb4896	-0.02676801
139	0xbc126a50	-0.00893648
140	0x3b8496bd	0.0040462897
141	0xbd0588bd	-0.032601107
142	0xbc79b170	-0.015240058
143	0x3c38e4f6	0.011285057
144	0x3bdb6974	0.0066959206
145	0x3c36e5fd	0.011163232
146	0x3c992562	0.018694583
147	0x3caba784	0.020953901
148	0x3cacb8dc	0.021084242
149	0xb9fb3080	-0.00047910586
150	0xbc624db1	-0.013812468
151	0xbca85f67	-0.020553304
152	0x3b8a0b84	0.0042127986
153	0x3c92a195	0.017899314
154	0xbc64dd47	-0.013968772
155	0xbc976e2e	-0.018485155
156	0x3cca8373	0.024720883
157	0xbcca3ade	-0.024686273
158	0xbcf18845	-0.029483924
159	0xbcd51bf1	-0.0260143
160	0xbcacf2e4	-0.021111913
161	0xbc248ce2	-0.010043355
162	0x3c0caa2a	0.008585492
163	0xbcf259ee	-0.029583897
164	0xbbd218e1	-0.006411657
165	0x3b89fbf1	0.004210942
166	0xbc6f9ef0	-0.014625296
167	0xbc0b8995	-0.008516689
168	0xbb8ef427	-0.0043626013
169	0xbc620b63	-0.01379666
170	0x3ca2f788	0.019893423
171	0x3ca959c7	0.020672692
172	0xbce5ccd8	-0.028051779
173	0xb749b698	-1.2023047e-05
174	0x3c3ae762	0.011407705
175	0x3d295432	0.04134006
176	0x3d2ec26f	0.042665895
177	0x3be1e96b	0.0068942807
178	0x3d4250d4	0.047440365
179	0x3c89681b	0.016773274
180	0xbb918d5b	-0.0044418997
181	0x3cf9c5a3	0.030489748
182	0x3d32fe48	0.043699533
183	0x3c743d79	0.014907234
184	0x3cd1d8b2	0.025616024
185	0x3cbd0572	0.023073886
186	0x38032789	3.1269654e-05
187	0x3b3ee936	0.0029130704
188	0x3c7a16fb	0.015264268
189	0x3c4bfc85	0.012450342
190	0x3cdaaabc	0.02669274
191	0xbc66c42d	-0.014084858
192	0x3c938543	0.01800788
193	0x3d03aad4	0.032145336
194	0x3bfce9af	0.007718287
195	0x3d0af880	0.033928394
196	0x3cde97a0	0.02717191
197	0x3c92fafb	0.017941942
198	0x3c2369a3	0.009973916
199	0x3adec6ec	0.0016996539
200	0x3c6697da	0.01407429
201	0xbd053176	-0.032517873
202	0xbb941e30	-0.0045202
203	0x3cb4452c	0.02200564
204	0x3b94b043	0.0045376136
205	0x3ccc1df3	0.024916625
206	0xbcac3cae	-0.021025028
207	0x3be200c8	0.006897066
208	0xbc54c513	-0.012986439
209	0x3c4836b9	0.012220078
210	0xbd128350	-0.03576976
211	0xbb1c644c	-0.0023863493
212	0xbc1962a8	-0.0093619
213	0xbd1daf22	-0.038497098
214	0x3c71cfc7	0.014759011
215	0xbc960605	-0.018313417
216	0xbbb58a25	-0.0055401498
217	0xbc352903	-0.011057141
218	0xbc9609a1	-0.018315138
219	0xbab2cb96	-0.0013640996
220	0xbc899c52	-0.016798172
221	0xbc6bac64	-0.014384363
222	0xbcc16484	-0.0236075
223	0xbc761414	-0.015019435
224	0xbce9de1f	-0.028548298
225	0x3a9c5e33	0.0011929929
226	0xbbb6683e	-0.005566626
227	0xbcff7509	-0.031183736
228	0x3c603e51	0.013686732
229	0xbbb083c1	-0.0053868
230	0x3c1d1b11	0.009588973
231	0x3ba55541	0.0050455634
232	0xbad7ad3e	-0.0016454828
233	0xba53d6bb	-0.00080810086
234	0xbcd4eac0	-0.025990844
235	0x3b3f56f3	0.0029196113
236	0xbbec68c4	-0.0072146375
237	0x3c8b035d	0.016969377
238	0xbcd26256	-0.025681656
239	0xbcb7e0c9	-0.022446053
240	0xbcb6169e	-0.022227582
241	0x3c3cca12	0.011522787
242	0x3c541c3e	0.012946187
243	0x3c37fa12	0.011229055
244	0xbd1ddaf5	-0.03853889
245	0xbc30498f	-0.010759725
246	0xbcb98ef3	-0.022651171
247	0xbd35fdad	-0.044431377
248	0xbc271da9	-0.010199943
249	0xbb5da65e	-0.0033821086
250	0xbd52830b	-0.051394504
251	0xbb42fe30	-0.0029753558
252	0x3c2fdf51	0.010734395
253	0xbcf2ac0e	-0.029623058
254	0xbc60c411	-0.013718621
255	0xbd2929da	-0.04129968

res_blocks.1.conv2.bias f4 [32]
0	0xbc9e860d	-0.01935103
1	0xbcd19341	-0.025582911
2	0xbcc23135	-0.023705104
3	0xbca184ed	-0.019716704
4	0xbcd77293	-0.02629975
5	0xbcd8eaf8	-0.02647923
6	0xbba356c6	-0.0049847094
7	0x3cef9b4d	0.029248858
8	0x3d06fc44	0.032955423
9	0xbc4e81a1	-0.012604148
10	0x3cf983c3	0.030458337
11	0x3cad16e4	0.02112908
12	0x3c04728b	0.00808395
13	0x3c957b10	0.018247157
14	0xb98e0263	-0.0002708613
15	0x399ea427	0.0003025841
16	0xbcd2ad36	-0.025717359
17	0xbcd28618	-0.025698707
18	0x3bb44218	0.005501043
19	0xbd01d4f2	-0.03169722
20	0xbcb38272	-0.021912787
21	0xbccb799c	-0.024838261
22	0xbc9441cd	-0.018097783
23	0x3d065bd3	0.032802414
24	0xbd07b4b3	-0.033131313
25	0xbcd969f6	-0.026539784
26	0xbbc9b355	-0.0061554112
27	0xbc920a1e	-0.01782709
28	0x3c93b14e	0.018028881
29	0x3c66a235	0.014076759
30	0x3ca87584	0.020563848
31	0x3c7b3ddc	0.015334573

res_blocks.1.batchnorm2.weight f4 [32]
0	0x3fe4a201	1.786194
1	0x3fdb0c65	1.7113158
2	0x3fc66ad8	1.5501356
3	0x3fe73b34	1.8064942
4	0x3fcc52c1	1.5962754
5	0x3fdc1e7b	1.7196802
6	0x3fc35758	1.526103
7	0x3fe587f2	1.7932112
8	0x3fcde1b4	1.6084504
9	0x3fd24e23	1.6430095
10	0x3fd35598	1.6510496
11	0x3fe28bf1	1.7698957
12	0x3fd593a5	1.6685683
13	0x3fec5428	1.8463182
14	0x3fe070c6	1.7534416
15	0x3ff6fd86	1.9296119
16	0x400643d5	2.0978901
17	0x3febc68a	1.8419964
18	0x3feacc9f	1.8343695
19	0x3fc3bf80	1.5292816
20	0x3feef68d	1.8668991
21	0x3fe5d2cd	1.7954956
22	0x3fec5318	1.8462858
23	0x3fc63d1f	1.5487403
24	0x3fe5937a	1.7935631
25	0x3ff22536	1.8917606
26	0x3ff55a17	1.9168118
27	0x3fd54e05	1.6664435
28	0x3ff2a4ab	1.8956503
29	0x3fe260a3	1.7685741
30	0x3fdf3f72	1.7441237
31	0x3fe5d484	1.795548

res_blocks.1.batchnorm2.bias f4 [32]
0	0x3ea388c0	0.3194027
1	0x3e9f1616	0.31071538
2	0x3e57d472	0.21077135
3	0x3ec330aa	0.38123065
4	0x3e63aa55	0.22232945
5	0x3e84dcdc	0.25949752
6	0x3e64d301	0.22346117
7	0x3ec7fe9f	0.39061448
8	0x3e7d0475	0.24708731
9	0x3e85cbf9	0.2613218
10	0x3e5d30f0	0.216007
11	0x3ea5fcb7	0.3241937
12	0x3e8a5e6a	0.27025157
13	0x3ed1a5f6	0.4094693
14	0x3e8fd961	0.28095534
15	0x3e8964ec	0.2683481
16	0x3f146fe6	0.57983243
17	0x3ebb1ac3	0.36543855
18	0x3ec46998	0.38361812
19	0x3e6563f4	0.2240141
20	0x3eb49072	0.35266453
21	0x3edbc192	0.4292112
22	0x3e81ffce	0.25390476
23	0x3e2c37c0	0.16818142
24	0x3e9afc6f	0.30270717
25	0x3e996a4f	0.2996392
26	0x3eab7f06	0.3349535
27	0x3e9cc5c3	0.3061963
28	0x3ea607d9	0.32427862
29	0x3eacfd14	0.33786833
30	0x3ea3ed87	0.32017156
31	0x3e9c37ed	0.30511418

res_blocks.1.batchnorm2.running_mean f4 [32]
0	0x3da4af7f	0.08041286
1	0xbdcd6127	-0.10028296
2	0x3f1d4f78	0.61449385
3	0x3ef24b06	0.47322863
4	0x3ece68c1	0.40314296
5	0x3f638d05	0.88887054
6	0x3ea3f39d	0.320218
7	0x3ef1919e	0.4718141
8	0x3dc7ae4e	0.09750043
9	0xbdf7bb9e	-0.12096332
10	0x3de3e883	0.111283325
11	0x3eccc46a	0.39993602
12	0x3f54d89b	0.83143014
13	0x3eeb86a9	0.46001175
14	0x3ecdc16b	0.4018663
15	0x3f028187	0.50978893
16	0x3f00056e	0.50008285
17	0xbdfac24a	-0.12244089
18	0x3f4a7360	0.790823
19	0x3db168fa	0.08662601
20	0x3de87559	0.11350507
21	0x3ea4c13e	0.32178682
22	0xbe7abaab	-0.2448527
23	0x3d23ea5f	0.040018436
24	0x3f4bd419	0.7962051
25	0x3da8142f	0.08206975
26	0x3e655b80	0.22398186
27	0x3ea96a9d	0.33089152
28	0x3db8a0a4	0.09015015
29	0xbec21382	-0.37905508
30	0x3ebd41f1	0.36964372
31	0x3e8efdcc	0.27928007

res_blocks.1.batchnorm2.running_var f4 [32]
0	0x3ea97272	0.33095127
1	0x3e56f3ee	0.2099149
2	0x3e4d08cc	0.20022887
3	0x3ec9f3ba	0.3944376
4	0x3e3eb7ff	0.18624876
5	0x3e90dbf2	0.28292805
6	0x3e50caec	0.20389909
7	0x3e67eba8	0.2264849
8	0x3e6ae276	0.2293795
9	0x3e5d19d3	0.21591882
10	0x3e225c6f	0.15855573
11	0x3e6300ff	0.22168349
12	0x3e4ae07f	0.19812201
13	0x3e845260	0.25844097
14	0x3e38f04d	0.18060417
15	0x3ebeb0f2	0.37244374
16	0x3eb51617	0.35368416
17	0x3e5e64af	0.21718095
18	0x3eb80cc7	0.35947248
19	0x3e4cda36	0.20005116
20	0x3e7faf30	0.24969172
21	0x3e93c220	0.28859043
22	0x3e2b957e	0.16756245
23	0x3e3a8b40	0.18217182
24	0x3e87e0c0	0.26538658
25	0x3e6ac529	0.22926773
26	0x3e7f33dc	0.24922127
27	0x3e6d63d1	0.23182608
28	0x3e434ebf	0.19073008
29	0x3e34ff1a	0.17675439
30	0x3eabc2e9	0.33547142
31	0x3e6b4dd6	0.22978911
