logs/main_run/spec_nblock2_lr0.0001_ks3/checkpoints/best.ckpt (torch, 273598 bytes, 89 tensors)

conv1.weight f4 [8, 1, 3, 3]
000000 2c 46 05 be 64 4f c5 3d 75 da a9 be 2f 58 a2 bd
       -0.1301505 0.09634283 -0.33174482 -0.07926976
000010 7e 4f 2e be fd 49 99 bd 70 bf 09 3d cd ed 6e 3e
       -0.17022511 -0.07484815 0.033629835 0.23332901
000020 16 70 68 3e b5 48 95 bd fe fb 97 3c 53 f0 88 3e
       0.22699007 -0.072892584 0.018552776 0.26745853
000030 54 45 8d 3d 45 71 71 3d 7a f9 9a be f8 7a 1c bb
       0.06897989 0.058945913 -0.3026846 -0.0023877006
000040 d3 45 b2 3d 59 e0 a0 be 9e ab 8f 3d b8 e1 67 be
       0.08704724 -0.31421164 0.07015155 -0.22644699
000050 95 f0 54 3c a5 c2 64 be c4 29 0d bf 19 1f b4 3c
       0.012996812 -0.22339876 -0.55141854 0.021987485
000060 e3 c7 d0 3d f2 5f 35 be 63 96 22 bd 14 3e 19 be
       0.10194375 -0.17712381 -0.0396942 -0.14965087
000070 44 5d 3e 3e 2e f1 40 be 99 eb d5 3c d2 f2 32 3e
       0.18590266 -0.18842003 0.026113318 0.17475441
000080 47 c0 84 3d c3 1d 92 3c 05 44 3d 3e 11 e5 e7 bd
       0.064819865 0.017836457 0.18482979 -0.11322988
000090 81 fa e2 bd 3a 92 3b be 48 a3 34 be fa fb 19 be
       -0.11082936 -0.183175 -0.17640412 -0.15037528
0000a0 6d f8 89 3e e8 4d 4d bd 51 d4 95 bd 94 de 9a 3e
       0.26947346 -0.050123125 -0.07315887 0.3024794
0000b0 e7 a6 71 be 1a b1 61 bd 2f 97 dd 3e dd 05 6c bc
       -0.23598824 -0.055100538 0.43279406 -0.014405695
0000c0 50 7c 11 3e 52 c2 e0 3c 64 ed a7 bd 15 75 c9 3e
       0.14207578 0.02743641 -0.081995755 0.3934714
0000d0 04 13 29 3e 1d bf d5 bd a5 7e a3 bc 02 65 11 3e
       0.1651116 -0.104368426 -0.01995785 0.14198688
0000e0 ee b1 06 3e f7 f4 48 3e ba 03 9e 3d f5 e8 17 3f
       0.13153812 0.19624697 0.077155545 0.5933984
0000f0 71 c3 47 be e9 19 ac be 5c 0f 32 3e 3e 2d 4e 3e
       -0.19508149 -0.33613518 0.17388672 0.20134446
000100 dd de 05 3e 3c 91 db be 50 62 ba be 2a 70 83 bd
       0.13073297 -0.42884243 -0.3640313 -0.06417878
000110 36 90 83 be 18 26 10 bd 12 d7 31 bd 17 10 0c be
       -0.25695962 -0.03519258 -0.043417998 -0.13678013

conv1.bias f4 [8]
000000 ed 2b 1f be 20 7e 64 3e df d2 a6 be 52 ef a4 3e
       -0.155441 0.22313738 -0.32582757 0.32213837
000010 ad e3 76 bd 15 d6 9c be 4c 9e 88 be 00 ff 3b 3c
       -0.060275722 -0.30632082 -0.2668327 0.011474371

batchnorm1.weight f4 [8]
000000 03 d7 78 3f c8 d7 75 3f 2a f4 7b 3f f2 a1 87 3f
       0.9720308 0.9603238 0.9841944 1.0596297
000010 04 59 7d 3f 52 98 85 3f 02 5a 87 3f 18 23 78 3f
       0.9896395 1.043711 1.0574343 0.9692855

batchnorm1.bias f4 [8]
000000 5f d5 8a bc a6 10 0e 3d 11 78 04 3d 35 32 54 bc
       -0.016947446 0.034683846 0.032341067 -0.012951423
000010 6b 83 ad 3a 47 5d aa bc c5 e7 a8 bd 47 7b d3 bc
       0.0013238018 -0.020796431 -0.082473315 -0.02581562

batchnorm1.running_mean f4 [8]
000000 42 0b 57 be e5 c7 2e 3e 2e 9c 1a bf 20 62 c1 3e
       -0.21000388 0.17068441 -0.6039456 0.37770176
000010 c1 42 30 be 92 dc 6c bd 35 43 68 bd e3 9c 86 be
       -0.17212965 -0.05782754 -0.05670472 -0.2629157

batchnorm1.running_var f4 [8]
000000 92 75 7b 3b 7f 10 6c 3b ab 58 b6 3d 23 29 81 3b
       0.0038369638 0.0036020575 0.08903631 0.0039416715
000010 63 a0 72 3c e9 e3 91 3d b4 1c 52 3d 61 70 b0 3d
       0.014808747 0.071235485 0.051296905 0.086151846

res_blocks.0.conv1.weight f4 [16, 8, 3, 3]
000000 bf c6 3c bd 3d be 3e 3d 27 8b a1 3d 53 6e 46 3d
       -0.046087977 0.046568144 0.07887869 0.048445057
000010 20 13 1d bd 17 e7 e2 bc e5 2d 39 bd d0 12 b2 3d
       -0.038348317 -0.027698083 -0.045209784 0.086949944
000020 43 11 da 3b 7a 03 8f bb 85 73 9a 3d c0 cc 77 3d
       0.00665489 -0.004364428 0.07541565 0.060498
000030 b2 44 30 3d 48 62 e8 3a 80 d6 fe bd cc 16 e8 bd
       0.043034263 0.0017729485 -0.124432564 -0.11332473
000040 9f a6 a9 bd 6c a7 cd bd 35 21 90 bd 79 51 ca bd
       -0.082837336 -0.10041699 -0.07037584 -0.09878821
000050 c5 ad 10 bd eb 1e 8a bd 2d c6 b4 bc 66 e8 90 3d
       -0.03532197 -0.067441784 -0.022067154 0.070755765
000060 0b 5d 83 bd 69 ec e1 3d 4f 9a 94 3d 41 d9 8d bd
       -0.06414231 0.1103142 0.072559945 -0.069262035
000070 f4 75 1c be 7b 6b d7 3d 22 f5 29 3c b9 9a e9 bd
       -0.1527937 0.10518547 0.010373386 -0.11406464
000080 3f d8 e7 3d bb 93 1c bd 23 bb 5f bd 20 e3 d5 3d
       0.113205425 -0.038226824 -0.054621827 0.10443711
000090 f1 02 f3 ba 7a 12 fd bc 5a b7 ab bd c5 cb c1 3c
       -0.0018540305 -0.0308926 -0.08384581 0.023656735
0000a0 23 ce 61 bd e1 4f dd 3d 34 31 9d bd d1 77 5b bc
       -0.055128228 0.10806251 -0.076754004 -0.013395266
0000b0 1d d5 60 bc 13 8d af bd 77 9b a7 3c 59 d0 33 3d
       -0.013722685 -0.0857183 0.020459874 0.043899868
0000c0 dc d2 ac 3c d0 95 aa 3d 19 45 8b bd f8 1a c0 3c
       0.02109664 0.08329356 -0.06800289 0.02345036
0000d0 cb 44 0c bd d5 04 67 3d 24 5a d8 bd af b8 bf bd
       -0.034245294 0.056401093 -0.10564068 -0.093613975
0000e0 3a 28 a8 3b 02 74 88 bc 2f 6e ce 3d 80 41 aa bd
       0.0051317485 -0.01665688 0.100796096 -0.083132744
0000f0 3d f9 a6 bd ac b2 b3 bb 32 55 3c 3d ad 6e d0 3d
       -0.08153007 -0.005483946 0.045979686 0.1017736
000100 39 6d b5 3d 42 75 a9 bd 43 5b 82 3d 18 c0 4a 3b
       0.08858723 -0.08274318 0.06365063 0.003093725
000110 34 fb 39 bd fd d8 0a 3b 60 ba 59 3b 4f f2 96 bd
       -0.04540558 0.0021186464 0.003322266 -0.073704354
000120 d4 98 ad bd 1b 02 90 bd d0 37 4a bc 43 52 3e bd
       -0.08476415 -0.070316516 -0.012342408 -0.04646517
000130 20 2f 9d bd f0 75 2a bd a3 3f b2 3d 64 25 22 3d
       -0.07675004 -0.04161638 0.08703544 0.03958644
000140 91 ec 8a 3d f0 92 bc bd d0 4e d8 bd 3e 1f b8 bd
       0.06783403 -0.092077136 -0.10561907 -0.08990334
000150 c4 75 0b 3d 08 0a b4 3d 28 b5 42 bd 8f 3b 1f bc
       0.034047857 0.08790976 -0.047536045 -0.00971879
000160 e8 4b 5c 3c 5d 09 70 bd 8b 35 e8 bc 1a c3 15 bd
       0.013445832 -0.05860268 -0.028345844 -0.036563016
000170 d8 88 be 3a b5 2c 9e bd 69 41 ff bc df 2d 85 bd
       0.0014536632 -0.07723371 -0.03115912 -0.0650289
000180 f4 2f c4 3d 24 58 6a 3d d4 59 e4 3c 6f 8e 4b bd
       0.09579459 0.057212964 0.027874865 -0.049696382
000190 4b 3b 76 3d 93 c4 0f 3e df 55 6d bb 7a d9 6f bd
       0.06011514 0.14039831 -0.0036214513 -0.05855701
0001a0 b4 91 3e bd e3 4e 91 bd d5 bc e5 3d 9a b8 94 3d
       -0.046525672 -0.070951246 0.112176575 0.072617725
0001b0 e7 f9 a3 bd 7b 8d 72 bd 9e c6 a7 3d 63 05 81 3d
       -0.080066495 -0.059216958 0.0819218 0.062998556
0001c0 06 57 0a 3d 40 f8 46 bd 4e 3c f6 bc 0e f4 88 3d
       0.0337744 -0.048576593 -0.030058052 0.06687175
0001d0 ed 6e 49 bc b9 6b b0 bd 72 6c ff 3c 30 cc 61 bd
       -0.012294513 -0.086142965 0.03117964 -0.05512637
0001e0 85 53 f5 bd c1 6a f9 3d 2e af eb 3d 79 d9 dc 3d
       -0.11978821 0.12178565 0.11508022 0.10783667
0001f0 77 03 da 3c 5d c6 25 bd b9 d8 4b 3d d3 e6 66 3d
       0.02661298 -0.040472377 0.04976723 0.056372475
000200 51 9c 21 3c e6 b3 aa bd 2b 63 d0 bd 6f fe d4 bc
       0.009863929 -0.08335094 -0.10175165 -0.02600023
000210 da 39 83 3d 8a d2 21 bc 90 cb d9 bd f3 8d 9f bc
       0.06407519 -0.009876857 -0.106345296 -0.019476866
000220 89 08 e4 3d a9 e6 86 bd f3 3e cb 3d e3 38 37 bd
       0.111344405 -0.06586964 0.09924116 -0.044731986
000230 63 74 b0 3d 76 82 49 bd a7 1b b5 bc 85 49 60 3d
       0.08615949 -0.049196683 -0.022107912 0.054757614
000240 21 57 83 bd 5e 5d 43 3d 2e c1 52 3d f4 17 96 bc
       -0.06413103 0.047696464 0.05145376 -0.018321969
000250 14 a4 07 be 03 7b 1d 3d d2 8b ca bd c1 77 93 3d
       -0.13246185 0.03844739 -0.0988995 0.072005756
000260 36 32 63 bd 56 da a8 bd 86 4c 41 bd cc 2d 97 bc
       -0.055467807 -0.08244769 -0.04719212 -0.018454455
000270 9c 00 ad bd 72 a2 c9 3c ea 83 c3 3d 63 6c 2e 3d
       -0.08447382 0.024613593 0.09546645 0.042583834
000280 0b c9 22 3d e4 74 06 be 37 cf f5 bc 36 e6 72 bd
       0.03974251 -0.13130528 -0.030006034 -0.059301578
000290 57 bb 3d bd c7 e5 ea 3c ad f8 22 3d 72 af 82 bc
       -0.04632124 0.02867402 0.039787937 -0.0159528
0002a0 b5 fa 8f 3d fc f1 41 bc dc d1 ee bd fb 09 4a bd
       0.070302404 -0.011837479 -0.11661121 -0.049325924
0002b0 80 c4 bd bc 63 4c 9b 3d e1 d6 49 3d 03 52 31 bc
       -0.023164988 0.07582929 0.04927719 -0.010822776
0002c0 67 be 3c 3c a2 da ee bc 24 64 4f ba 0a 1b ac bd
       0.011520005 -0.029156987 -0.00079113455 -0.08403595
0002d0 35 80 dd bd 66 d9 5b bc d2 56 3c 3d 13 f9 6d 3d
       -0.10815469 -0.013418531 0.045981236 0.058098864
0002e0 e1 54 fe bd 35 fc b0 bd 8b f5 9b 3d 05 59 9e bd
       -0.12418533 -0.08641855 0.07615193 -0.07731823
0002f0 f0 b2 4e 3d 0a ac 72 bc a4 85 32 be a8 23 20 bc
       0.050463617 -0.014811525 -0.17433792 -0.009774126
000300 d6 29 35 3d 48 14 93 bd ce 0b 52 bd b1 9a 9a bd
       0.04422935 -0.07181603 -0.05128079 -0.07549036
000310 e7 14 c6 bc 87 e8 0a be 4e 89 5f bc 30 e4 2d bd
       -0.024179889 -0.13565265 -0.013643576 -0.042453945
000320 b7 0f fb bd cd ed 31 bd cd 72 7e 3d 4b 29 ea bd
       -0.12258857 -0.043439675 0.0621212 -0.11433657
000330 67 58 e2 3c 3c e8 9c bd aa 45 45 be df 6e e3 3c
       0.027630044 -0.07661483 -0.19264856 0.027762828
000340 c9 bb 03 3d fc bf 9f 3d 3a 92 9b 3d 73 20 96 3d
       0.032161508 0.0780029 0.0759625 0.07330408
000350 4a f4 e6 bd c8 bf b1 bb 0b d3 37 3d 2c 94 d5 3d
       -0.11277063 -0.0054244734 0.044879 0.10428652
000360 93 3b b7 3d e1 b8 42 3d c8 eb 62 bd 4c 4b c8 bd
       0.0894691 0.047539596 -0.05540064 -0.09779987
000370 9b b0 99 3d 5d f9 42 3d 88 f6 09 bd f1 cd c5 bd
       0.07504388 0.047601093 -0.033682376 -0.09658421
000380 41 c5 84 3b ec d6 11 bd 81 41 3f bd a5 ca b8 3c
       0.004051835 -0.035605356 -0.04669333 0.022557566
000390 bd af bb bd 37 ff b2 3d 67 4f f6 bc 76 42 1e 3d
       -0.09164379 0.087400846 -0.030067159 0.0386376
0003a0 25 47 a5 3d 0d 84 b0 3d 6b de 61 bd 5c e0 39 bb
       0.0807021 0.08618937 -0.055143755 -0.0028362488
0003b0 58 71 ad bd e3 42 85 3d 3f a9 9a 3d e6 b3 5b bc
       -0.08468884 0.06506898 0.075518124 -0.01340959
0003c0 38 a5 e9 3d a8 5c 49 3d f9 96 79 3d 36 9f a5 bc
       0.11408466 0.04916063 0.060934994 -0.02021752
0003d0 31 ec da 3c 05 5f 36 bc 24 f9 0d 3d 28 84 84 bc
       0.026723953 -0.011131053 0.034661427 -0.016176298
0003e0 af 4e 10 be fe 0b ff 3c de 29 6d 3d fb 08 2b be
       -0.14092515 0.031133648 0.057901256 -0.16702645
0003f0 c0 86 fc b9 c4 83 3a bd 99 34 84 bd 0e 16 b8 bc
       -0.00048165582 -0.045535818 -0.06455345 -0.022471454

res_blocks.0.conv1.bias f4 [16]
000000 b5 12 2d 3c b7 cc 60 3d 03 e4 96 3d fc be bc 3d
       0.010563542 0.05488273 0.073677085 0.09216115
000010 99 e3 18 bc dc d8 62 bd bc 90 ae bd 11 87 ae 3b
       -0.009331607 -0.055382594 -0.085237 0.0053261598
000020 b1 14 da bc 6d ed 66 bc 9b df 5a 3d 66 c7 ba 3d
       -0.026621195 -0.014094693 0.053435903 0.091200635
000030 92 33 55 3d ab b8 b0 bd ef 2f 6b 3d c5 2e b4 3d
       0.052051134 -0.086289726 0.05741876 0.08797983

res_blocks.0.batchnorm1.weight f4 [16]
000000 f9 1e 7a 3f 61 c3 7e 3f 51 15 73 3f 9c 63 7f 3f
       0.9770351 0.99516875 0.949544 0.99761367
000010 b1 bf 79 3f 2f 66 7a 3f 8e 8d 74 3f 9a 47 7b 3f
       0.9755812 0.9781217 0.95528495 0.9815613
000020 e0 c4 88 3f 9f 93 7a 3f 36 e8 7d 3f 74 42 7b 3f
       1.0685081 0.978815 0.9918245 0.98148274
000030 22 80 84 3f f4 69 83 3f b7 e2 75 3f b0 cb 81 3f
       1.0351603 1.0266709 0.96049064 1.0140285

res_blocks.0.batchnorm1.bias f4 [16]
000000 cf e3 88 bc 9f 68 bf bb 65 e6 11 bd 2b 98 40 bc
       -0.01671019 -0.005841329 -0.035620112 -0.01175503
000010 23 71 83 bc 36 b9 10 bd c2 9d c9 bc c2 19 b3 bc
       -0.016045159 -0.03533288 -0.024611358 -0.021862868
000020 c5 22 6b bc 0b 74 d9 bc e1 d9 a6 bc a2 aa eb bc
       -0.014351551 -0.026544591 -0.020367565 -0.028767888
000030 89 35 9d 3c 21 3f ab 3b 03 3f b9 bc 2f 35 37 bd
       0.019190567 0.0052260314 -0.022613054 -0.044728454

res_blocks.0.batchnorm1.running_mean f4 [16]
000000 14 37 88 be 1b 41 af bc 57 cb 14 bf 40 fe 14 3e
       -0.2660452 -0.02139335 -0.5812277 0.14550114
000010 f2 00 11 bd 3b 01 75 3e 01 0d 51 bf c7 94 ca 3e
       -0.035401292 0.2392625 -0.8166047 0.39566633
000020 7e e1 85 3d 3c 9f b2 be 9c c0 81 be 45 17 b7 be
       0.0653715 -0.3488711 -0.25342262 -0.3575994
000030 b1 1e e8 3d d6 2f b6 bd 51 f1 bc be e0 65 2d 3e
       0.11333979 -0.08895843 -0.3690286 0.16933393

res_blocks.0.batchnorm1.running_var f4 [16]
000000 6f 70 05 3d 3f 85 21 3d 44 b6 8f 3e 05 e7 98 3c
       0.03257793 0.039433714 0.28068745 0.018664846
000010 4e 5d 00 3d 23 0e 91 3d 70 de 5f 3e ce e7 4a 3f
       0.031338982 0.070827745 0.21862197 0.79259956
000020 f1 02 b3 3c 5e 34 1f 3e 1b 61 fb 3d 4e d8 ec 3d
       0.021851989 0.1554732 0.12274381 0.11564694
000030 0a f5 69 3c e2 66 41 3d fe a4 7d 3e e8 42 54 3c
       0.014279613 0.047217257 0.24769971 0.012955405

res_blocks.0.conv2.weight f4 [16, 16, 3, 3]
000000 cb e7 09 3c f5 e7 d3 bb 00 9e 03 3e 8e d6 54 3d
       0.00841708 -0.0064668604 0.12853241 0.051962428
000010 96 0a f9 ba 26 a4 0c 3d cb be 9c 3d 0c e5 32 bd
       -0.0019000347 0.03433623 0.07653578 -0.043675467
000020 dd 7e ec 3d 9a 82 5a bd ef 1e b7 bd 31 51 03 3d
       0.11547635 -0.053347208 -0.08941447 0.032059852
000030 d0 4f a1 bd a5 6b 9f bd a4 f9 7e bb e2 53 71 bd
       -0.07876551 -0.077842034 -0.0038906122 -0.058917888
000040 e1 a2 39 bd a9 88 0e bd e8 10 58 3d c0 f3 cd 3d
       -0.04532135 -0.034798298 0.052750498 0.10056257
000050 15 03 05 3d 70 01 04 3d 25 de 74 bb 9d f7 34 bd
       0.032473642 0.032227933 -0.0037363854 -0.044181455
000060 e0 be 6a bc 51 d7 38 3d 6b 0d f6 bc 37 0c 49 3d
       -0.014327735 0.045127217 -0.030035695 0.049083915
000070 0c 0d 53 3d 65 d7 ac 3b 9f 70 00 3d 73 47 f7 3d
       0.051526114 0.0052747005 0.031357404 0.12074175
000080 3e 74 99 3d 91 cc fe 39 59 08 c3 3d f0 53 93 3d
       0.074928746 0.0004859907 0.095230766 0.07193744
000090 ed db 7a 3c 9b 36 19 3c b9 dc 6c bc e3 ef 07 bd
       0.015311223 0.009351398 -0.014456921 -0.03318776
0000a0 2f 4b 9f 3d a6 64 49 3d 7d d3 36 3d 3a 75 d0 3d
       0.07778012 0.04916825 0.044635285 0.10178609
0000b0 82 b6 e3 bc 44 ea fa 3c 7b 12 c0 bc ca 0d da bc
       -0.027796987 0.030629285 -0.023446312 -0.026617903
0000c0 a9 aa 97 bc ca 2e 93 3d a9 4e 34 bd 04 20 b6 3c
       -0.018513994 0.07186659 -0.04402033 0.022232063
0000d0 8e 57 da bc bc a3 93 bd 68 52 53 3d 98 ff 1e bd
       -0.026653077 -0.07208964 0.05159226 -0.038817972
0000e0 8d ea 77 3d da 13 4c 3d 82 85 1b bd ea 2e 98 bc
       0.06052642 0.04982362 -0.03796912 -0.018577058
0000f0 f7 dc 8f 3d 3a 22 30 bd 9d 94 08 3d 6c 42 4e bd
       0.070245676 -0.04300139 0.033344854 -0.050356314
000100 90 4a 85 3c f8 3c 95 3d d8 fb bc 3c d0 be 99 bb
       0.016270906 0.072870195 0.023069307 -0.004691936
000110 61 3f 51 bd 93 ed 4a bd 8d cb 2b 3b 37 c3 22 bd
       -0.051085833 -0.049542975 0.0026213855 -0.039736953
000120 a2 c5 c5 bb 9a 67 86 3c 10 fc 54 3d 8a 96 ba bc
       -0.0060355226 0.016406823 0.051998198 -0.02277686
000130 bd 7a 89 3a c1 cc 00 bd d8 3b 83 3c af 1f a1 3c
       0.0010488849 -0.03144527 0.016019747 0.019668428
000140 ee 9e 41 3d 8f f1 71 3d 3a d0 a5 bc b3 68 51 bd
       0.047270708 0.05906826 -0.020240892 -0.05112524
000150 fc b1 99 3b 60 25 b5 3c 9c 02 b6 bc 12 1a af 3d
       0.004690407 0.022112548 -0.022218041 0.085498944
000160 3e 90 55 3c b9 ae 14 bd 43 ae 16 bd 6e d4 b5 3d
       0.013034878 -0.03629944 -0.036787283 0.08878408
000170 bc 64 b8 3d 47 b2 4c ba 5b 8a 91 3c be d4 b1 3c
       0.090035886 -0.0007808548 0.017766168 0.021707889
000180 1f e8 1b 3d d3 2e b5 3d ca d7 0f bd 2d 8c 55 bd
       0.038063165 0.08846822 -0.0351179 -0.052135635
000190 f2 0d 2e 3d ce b9 c3 3d da d8 3b 3d 54 64 58 bd
       0.042493768 0.09556924 0.045861103 -0.052830055
0001a0 8a a2 4a 3d d7 b5 20 3d 65 68 33 3d 5f f4 99 bd
       0.049471416 0.039235916 0.04380073 -0.07517313
0001b0 74 aa 46 bd cc cd 45 bd c1 b7 b6 bc 0e 38 f6 3c
       -0.0485024 -0.048291966 -0.022304418 0.030056026
0001c0 ca de 6f bc fe 3d 10 bd 59 f7 89 bc 02 58 08 bb
       -0.014640519 -0.03521537 -0.016841577 -0.002080441
0001d0 a9 59 28 3d 62 bd 2c 3d 04 f6 fe bc 8c 45 06 bd
       0.04110113 0.042172797 -0.031123169 -0.03278117
0001e0 38 18 78 bd f5 90 82 3c 79 55 34 bd 72 d4 05 bd
       -0.06056997 0.015938262 -0.044026826 -0.032673307
0001f0 18 02 31 3d 5f f7 89 bc 51 9a 75 bd 0a 15 b8 3c
       0.043214887 -0.016841589 -0.05996162 0.02247097
000200 45 9a a2 bb 4d a8 8e 3d 7f c5 e0 3d c2 ab 50 bd
       -0.004962238 0.069656946 0.109751694 -0.05094505
000210 85 8c 87 bd 6d dd 79 3d 09 c0 8a 3d 82 92 de bc
       -0.06618599 0.061002184 0.06774909 -0.02716947
000220 5f fb 3b 3d d5 97 be 3c bf c0 8b 3d df 78 6f bd
       0.045894023 0.023265759 0.06823873 -0.05846488
000230 5a ee 1c 3d e6 d2 94 3c 2e 86 cc 3c d0 a7 51 bb
       0.038313247 0.01816697 0.024966326 -0.0031990893
000240 0e 10 ce 3c 47 2a ae 3a a0 83 27 3d 68 5f 37 3d
       0.02515414 0.0013287746 0.04089701 0.04476872
000250 47 ff dd 3c bc 4c 5b 3b ad ef 82 3d c3 78 e3 3b
       0.027099265 0.0033462485 0.06393371 0.006941886
000260 7a 8b 6d 3d 4d 57 82 bd df aa 15 3d 66 47 ac 3c
       0.057994343 -0.063643076 0.03653991 0.02103014
000270 65 fc ab 3c 9b 9c 56 3d 11 b4 9f 3c f7 19 e8 bc
       0.020994375 0.052395444 0.019495042 -0.028332694
000280 52 ad 05 bd c9 10 12 3d 62 26 81 3d 80 f5 92 bd
       -0.032635994 0.03566054 0.06306149 -0.07175732
000290 80 03 2b bd d3 8d 51 3d 24 2a 37 3d ad 8b 81 3d
       -0.041751385 0.051160645 0.044717923 0.06325469
0002a0 b2 76 96 3c b7 5f b6 bc 43 18 6b bd 90 de f5 bc
       0.018367145 -0.022262437 -0.057396185 -0.030013353
0002b0 41 bd a4 3c 85 77 a0 3d 79 1c 67 3d 1a 13 b0 bc
       0.020109775 0.078352965 0.056423638 -0.021493483
0002c0 06 ad 53 3d 7f d4 44 bd 6b ec 04 3e 7d c0 d6 3b
       0.05167868 -0.048054215 0.12980811 0.006553708
0002d0 59 55 de 3d 75 8d dd 3b 81 0e 97 3d 54 77 59 bd
       0.108561225 0.0067612478 0.07375813 -0.053092316
0002e0 f8 53 ad 3d 95 fb 39 3d e3 bd 01 3d 40 34 41 bd
       0.084632814 0.045405943 0.03167523 -0.04716897
0002f0 e4 17 ef bc 4d 6c 4d bc 91 97 53 bd 5f 8b fe 3c
       -0.029186197 -0.012538028 -0.051658217 0.031072317
000300 be d3 06 bd 6b 7d e6 bd 39 28 1c bd a0 8b 3a 3d
       -0.032916777 -0.1125439 -0.038124297 0.045543313
000310 c7 db 50 3d 39 fb a5 bd aa 37 9a 3c a3 c8 b2 3c
       0.050990846 -0.081045575 0.01882537 0.021824187
000320 7d 38 47 3d a1 b2 96 bd 5b 27 72 3d 27 cf 3a 3d
       0.048637856 -0.073582895 0.059119564 0.045607712
000330 ff 1f 8a bd a8 89 83 3d ce aa 28 3c 1b 9a 43 bd
       -0.06744384 0.0642274 0.010294629 -0.04775439
000340 de a8 37 3d 84 35 83 bb ab b1 78 bd 9a da 97 3d
       0.04483878 -0.0040041823 -0.060716312 0.07414742
000350 98 b4 b2 3d fe fb 1c bd db 83 54 3b cd 18 40 3d
       0.08725852 -0.038326256 0.0032427225 0.046898652
000360 a9 81 40 bc 6e 8d 81 3c bc 40 65 3d fd 17 33 3d
       -0.011749663 0.01581451 0.05596994 0.04372405
000370 bb 88 a3 3c 49 97 a0 3d 22 83 a9 3d 56 38 02 bb
       0.01996266 0.07841355 0.08276965 -0.0019870005
000380 34 07 8b 3d e2 0b 3d 3c fb 02 a2 bc 45 46 09 bc
       0.06788483 0.011538478 -0.019776812 -0.00837857
000390 b7 14 12 bd 74 bf 4c 3a 31 1a 1d bc 0a d1 98 bd
       -0.035664286 0.0007810511 -0.009588764 -0.07461746
0003a0 14 cc 80 bd de 52 8c bd 24 2d 85 bd db 68 28 3c
       -0.06288925 -0.06851743 -0.065027505 0.010278906
0003b0 ad ad 8b 3d 75 6a a1 bd 07 6b c1 bc a1 a4 7b 3d
       0.068202354 -0.07881633 -0.023610605 0.0614363
0003c0 7e ab d5 3a 4b 67 3c 3d 28 39 91 bd f1 2a 8b bd
       0.0016301719 0.045996945 -0.0709098 -0.067953
0003d0 b4 c8 69 3d 1c 4b 36 3c 67 1f 81 bc 27 39 21 bd
       0.05707617 0.011126306 -0.015762044 -0.039361145
0003e0 50 b5 6b bd 28 9c 89 bd d3 6e 35 bd 94 a0 d5 3c
       -0.05754596 -0.067192376 -0.044295143 0.026077546
0003f0 a0 f6 7f 3d 09 e1 64 bd a5 ec d2 ba 83 1f 01 3d
       0.06249106 -0.055878673 -0.0016092254 0.031524193

res_blocks.0.conv2.bias f4 [16]
000000 37 e0 9d bd b9 1d ad bc db 4c 03 bc db 90 09 bd
       -0.07708781 -0.021132337 -0.008013929 -0.03358541
000010 d1 7d 96 3c 81 d0 74 bd 47 54 23 bd 5a 01 c1 bc
       0.01837054 -0.059769157 -0.039875295 -0.023560215
000020 d3 c0 9e 3d 3b d1 00 bd a6 0d bb bd b4 2c 91 3d
       0.07751622 -0.031449538 -0.091334626 0.070886046
000030 1c ee 5a 3d bb 18 a0 3d f1 2b bd bd 8a ad 8c 3d
       0.053449735 0.07817217 -0.09236897 0.068690374

res_blocks.0.batchnorm2.weight f4 [16]
000000 bb a7 97 3f 59 55 8f 3f 76 89 8f 3f 26 1a 90 3f
       1.1848062 1.1197921 1.1213825 1.125798
000010 fe 83 96 3f 0a 54 90 3f ba 54 90 3f f1 17 a2 3f
       1.1759031 1.1275647 1.1275856 1.2663556
000020 0c e0 8e 3f bc 83 95 3f d6 f5 ae 3f 75 57 92 3f
       1.1162124 1.1680827 1.3668773 1.143294
000030 8d 03 97 3f dd 96 9d 3f 67 75 90 3f 19 84 94 3f
       1.1797959 1.2311665 1.1285828 1.1602813

res_blocks.0.batchnorm2.bias f4 [16]
000000 7e 95 a9 3d 50 91 85 3c 4a 8e 65 bc c9 9c 92 bc
       0.082804665 0.016304642 -0.014010975 -0.017897027
000010 38 03 80 3d 22 ed 14 bc 89 74 8d 3d fd ea 83 3d
       0.06250614 -0.00908974 0.06906993 0.06441305
000020 4e 46 0a 3d e9 2d 30 3d b7 26 12 3e b8 73 79 3d
       0.033758454 0.043012533 0.14272581 0.060901374
000030 0b d4 8a 3d 9a d8 3a 3d 5c 28 e9 3c ca 8b 32 3d
       0.06778725 0.045616724 0.028461628 0.043590344

res_blocks.0.batchnorm2.running_mean f4 [16]
000000 83 76 d5 3e 09 7e b9 3e 0e a0 7d be b2 54 66 bd
       0.4169198 0.3622897 -0.24768087 -0.056233115
000010 12 10 b9 3e f6 8a 41 3e db b3 d1 3c c5 85 c1 3e
       0.36145073 0.18900666 0.025598457 0.3779737
000020 8c bd dd bd 83 65 32 3e 5d 63 83 3e 7e 0d 0b 3e
       -0.10827169 0.17421536 0.25661746 0.13579366
000030 f7 c9 87 bd 3b fa 5b 3e af 10 60 bd 27 e3 c2 3e
       -0.066303186 0.21482174 -0.05470341 0.38063928

res_blocks.0.batchnorm2.running_var f4 [16]
000000 3f 4c cc 3d bf 7a b8 3d f6 7c 39 3e ad 8b 02 3d
       0.0997548 0.09007787 0.18114075 0.031871486
000010 c3 2f 66 3d 26 94 1f 3e 13 d2 0c 3e 50 19 b2 3d
       0.056197893 0.15583858 0.13752012 0.08696234
000020 c5 7d 4a 3d 3e 7d 2d 3e 77 a5 87 3d d4 95 68 3d
       0.04943635 0.16942307 0.06623357 0.056783512
000030 7c f3 8b 3d 15 80 aa 3d 5e 1c 97 3d 8f 1a ea 3d
       0.0683355 0.08325211 0.073784575 0.11430847

res_blocks.0.residual_conv.weight f4 [16, 8, 1, 1]
000000 17 2f 3f 3e 3b 27 ba 3e e1 47 1f bd 40 24 cb be
       0.18670307 0.36358055 -0.03888691 -0.39676094
000010 ca ff 48 be d0 f0 7a bc 94 fa 68 be 22 7c 6a 3e
       -0.19628826 -0.015316203 -0.22751838 0.22898915
000020 0c a3 3b be 97 f4 39 bd 1a ca 9c 3e cf 3d 0b be
       -0.18323916 -0.045399275 0.3062294 -0.13597797
000030 9f 6d bd bc ab fe 38 3e 02 73 09 3e 62 3a 95 be
       -0.02312356 0.18065898 0.13422778 -0.29146105
000040 d8 bd 18 3e 2f ed 28 3e 83 08 5d 3d a2 8d 24 bc
       0.1491617 0.16496728 0.053963196 -0.0100435335
000050 24 92 d6 3d 29 69 3c be f1 35 a2 3e 1f c0 ce be
       0.10477093 -0.1839949 0.3168178 -0.40380952
000060 c0 99 bc 3e 7b 65 82 3e ed 70 bc bd bd f1 26 bd
       0.36836052 0.25468048 -0.092012264 -0.040757883
000070 be 49 e6 bd 3c 4b 0e be 47 df 97 3d ca d1 c9 3b
       -0.11244534 -0.13895887 0.07415634 0.006159042
000080 ac 87 79 3e 03 c9 d6 3e 77 26 b1 bd 53 c0 a0 be
       0.24368161 0.41950235 -0.08649915 -0.31396732
000090 3e 2a 8d 3d 90 d2 a6 be 2a 92 7e 3e 00 33 d3 3d
       0.06892823 -0.3258252 0.24860445 0.10312462
0000a0 50 62 81 3e b9 d3 b2 3d e5 30 27 3e 5a 0a 8a be
       0.2527032 0.08731789 0.16327246 -0.26961023
0000b0 b4 12 e4 bd f2 cb 3f 3e 56 05 f6 3d de 35 a0 3e
       -0.1113638 0.18730143 0.120127365 0.31291097
0000c0 4e fb 97 3e 78 63 ab 3e c6 08 3b 3e ae ec 4d be
       0.29683918 0.33474326 0.18265066 -0.20109817
0000d0 f2 be 3a 3e 82 28 fe bc b1 85 8c 3d 23 b3 89 be
       0.18236902 -0.031025175 0.06861437 -0.26894483
0000e0 af f8 7c bd f0 4f eb bd 32 32 9a bd 92 7b b6 bd
       -0.0617606 -0.11489856 -0.07529105 -0.08910288
0000f0 14 ad 7d be f4 42 82 be 9b c3 ea bd 73 0e 84 bd
       -0.24773055 -0.25441706 -0.1146309 -0.064480685
000100 1c c2 6f 3e 95 3c 26 3e 9a b9 0c 3e ac 2e a3 bd
       0.2341389 0.16234048 0.13742676 -0.07967886
000110 d2 59 cd be ba 91 cf bc dc b8 3c be a9 89 9d be
       -0.4010759 -0.025338043 -0.18429893 -0.3076909
000120 ae 0b 2c be 1d de c5 be a5 75 44 be 8c c1 bf 3e
       -0.1680133 -0.3864602 -0.19185503 0.37452352
000130 32 a1 9d bd 60 e1 b1 3e 3d 65 9a 3d 50 4b 43 bc
       -0.07696761 0.3474226 0.07538841 -0.011919811
000140 d9 14 92 bd 23 35 b9 3e 48 b6 e1 bd c9 55 df 3d
       -0.071328826 0.36173353 -0.110210955 0.10905034
000150 fb 79 c2 3e 90 76 c9 be d6 22 f6 be ec 1c 89 be
       0.3798369 -0.39348269 -0.48073453 -0.26779878
000160 f4 ee 44 be e2 cb 85 be d7 8e 05 3d b1 05 84 be
       -0.19231778 -0.26132113 0.032606926 -0.25785592
000170 ea ee 98 be ed 14 f5 bd 3b 8f d2 bd 64 c5 d6 3d
       -0.29869777 -0.11966882 -0.10281225 0.10486868
000180 52 37 11 be fe d6 1b 3e e1 dc 5c 3d c5 02 67 be
       -0.1418126 0.15218732 0.053921584 -0.2255965
000190 f0 fc 5a 3e 89 16 94 bd bc c5 00 bd 41 70 7f 3e
       0.2138555 -0.07230861 -0.031438574 0.24945165
0001a0 17 1b 8f 3e a9 08 4a be 12 67 61 3e 77 57 81 be
       0.27950355 -0.19729866 0.22011974 -0.25262043
0001b0 57 f6 f2 bc b3 80 d5 3c 82 99 70 be 8b ba 1b 3e
       -0.02965848 0.026062345 -0.23496059 0.15207879
0001c0 ee 11 3b 3d 7c da 1b bc 70 fb e6 bd 4c d7 30 3e
       0.045671396 -0.00951254 -0.11278427 0.17269629
0001d0 6a 5b 41 3d 0a 6e 23 3e 4c f1 c1 3e 14 11 83 3e
       0.04720632 0.15959945 0.37879407 0.25598967
0001e0 18 91 9b 3e 2d 8c b1 3d ab a8 e9 bd 2e 7c f9 3d
       0.30384135 0.086693145 -0.11409124 0.121818885
0001f0 80 a0 b3 3d 8b ee 58 3d 13 d2 86 bd 3e 4b b5 bc
       0.08770847 0.052961867 -0.06583037 -0.022130605

res_blocks.0.residual_conv.bias f4 [16]
000000 1d 30 7e be da 63 75 3e d8 72 96 be d1 14 f3 3d
       -0.24823041 0.23963872 -0.29384494 0.11869205
000010 fa d6 20 3e bd 1a aa be 1a 88 9c 3e 75 86 9f be
       0.15707007 -0.33223525 0.30572587 -0.3115727
000020 ca 14 a4 3e f4 eb 8b be e8 2d 08 be 4e 97 ab 3e
       0.3204711 -0.27328455 -0.13298762 0.33513874
000030 7a 60 90 3e 30 a1 84 3e ac 43 a3 3e 4c f6 b3 3e
       0.28198606 0.25904226 0.31887567 0.35148847

res_blocks.1.conv1.weight f4 [32, 16, 3, 3]
000000 4b 84 25 3d c0 c9 d5 bd 95 0a 1a bd 4a 57 12 3c
       0.040409368 -0.104388714 -0.037607748 0.008931944
000010 24 79 31 3d 1d 46 a7 bd 54 74 3f bd cd 0e 9f bd
       0.04332842 -0.0816767 -0.0467418 -0.07766495
000020 c5 e0 a8 bd 81 c4 eb 3c 02 88 f4 bd f5 1c 63 bb
       -0.082459964 0.028780224 -0.11940004 -0.003465471
000030 3c 0f 8c 3c 15 62 bf bd 15 f2 a4 3b 77 1e 5d 3d
       0.017097108 -0.093448795 0.0050337412 0.05398413
000040 13 50 79 39 ae d4 37 bb 27 22 89 bd f8 5d de bb
       0.0002377632 -0.002805035 -0.06695967 -0.0067861043
000050 93 86 4b 3c ff 37 26 bd d2 fd b2 bc 38 93 86 bd
       0.012422222 -0.040580746 -0.021849547 -0.065710485
000060 7a a2 b4 bd 24 5a 43 bd 6c b0 92 bd 91 59 bf bb
       -0.088200524 -0.047693387 -0.07162556 -0.0058395346
000070 fd 3b 23 3d d8 ef b7 3d 53 b7 9f bc 1f 60 13 bd
       0.03985213 0.089812934 -0.019496595 -0.03598034
000080 2d 91 cd bb 2e ca f0 ba 30 3b 90 bc d6 f2 a6 3d
       -0.00627341 -0.0018370801 -0.017606348 0.08151786
000090 48 fc 3a 3d e9 2f 7a 3d d9 b8 32 bd ee 7b d1 3b
       0.04565075 0.061080847 -0.043633316 0.0063929474
0000a0 f3 4e bf bc a9 d9 b2 3d f2 0f a2 bc 90 b0 25 3b
       -0.023353076 0.08732922 -0.019782994 0.0025282241
0000b0 da e6 ab bb 5e 95 1d bd 14 68 46 bd b7 2c 33 bd
       -0.0052460255 -0.038472526 -0.0484391 -0.043743815
0000c0 0c 3e eb 3c 52 fe 4e 3d 6f aa f2 bc c0 30 49 bd
       0.02871611 0.050535508 -0.029622285 -0.049118757
0000d0 f5 a2 80 3d 75 de bb 3a f9 be 3c 3c a3 bc 5b 3c
       0.062810816 0.0014333265 0.011520141 0.013411674
0000e0 77 26 54 bc aa 65 5a bd 05 59 a1 3d 2e f7 22 bd
       -0.012948624 -0.05331961 0.07878307 -0.03978651
0000f0 03 9f 0d 3d 1b 1a 8b bd 57 a1 83 bc 6e 88 49 bd
       0.034575474 -0.067920886 -0.016068144 -0.049202375
000100 83 ee 31 3d 6f d6 74 bd 7c db 4f 3b 3b 9f 4d bd
       0.043440353 -0.059774812 0.0031716516 -0.050200682
000110 b0 4f 1f 3d a9 ac 9d 3c fb f7 38 bd b3 3b 14 3d
       0.038894355 0.01924737 -0.045158368 0.036189746
000120 9d cb 41 3d 85 45 6a bd 3f 2d 7e 3d 3b 94 aa bd
       0.04731332 -0.057195205 0.06205487 -0.08329054
000130 9d fa 83 bd 47 df 13 3d 0a 36 7e 3d fd 7e 76 bb
       -0.06444285 0.036101606 0.062063254 -0.0037612312
000140 6b 00 c1 3c 27 ed 26 3b 0f 97 9e 3d 44 17 4e bc
       0.02355977 0.0025470944 0.07743656 -0.012578789
000150 46 87 bc bb c9 9b 9e 3b 94 f6 da 3c 44 9b 1b bc
       -0.0057534305 0.0048403484 0.026728906 -0.009497467
000160 e6 bd 9a bc b6 cb d1 b7 96 98 71 bd bd 7a 61 bc
       -0.018889379 -2.5009602e-05 -0.058983408 -0.013762173
000170 6a 39 49 3d 36 fb c9 3c 3e 18 1e bd 9b 0e 4b 3d
       0.04912702 0.02465592 -0.038597338 0.049574476
000180 31 81 2d 3d 54 49 9c 3c a6 b8 bb ba 74 86 b9 bd
       0.042359535 0.019077934 -0.0014321997 -0.09058848
000190 26 33 4d bd 96 dc df bc af 09 cb 3c da 14 67 3d
       -0.050097607 -0.027326863 0.024784891 0.05641637
0001a0 0a a4 1a bd ad 63 3e bd f4 39 5d bb 34 e3 a3 bd
       -0.037754096 -0.046481777 -0.0033756467 -0.0800232
0001b0 b5 85 05 3e 9d ed 1b 3e 05 6c 2c 3e bd b4 26 3e
       0.13039286 0.15227361 0.16838081 0.16279884
0001c0 ec 46 00 3e 54 95 03 3e 89 57 08 3e b2 ab 11 3e
       0.12527055 0.12849933 0.13314642 0.14225653
0001d0 4d 3d 21 3e 15 55 61 bd b4 14 87 bc 1a 28 b7 bd
       0.1574604 -0.05501278 -0.016489364 -0.08943196
0001e0 5a 39 0a 3c a2 db 89 bb 24 11 71 3b d5 78 d1 bc
       0.008436525 -0.0042070905 0.0036783898 -0.025570313
0001f0 5a 7b 84 bd 90 2f 8d bd 4a 89 86 bd b5 7c db 3c
       -0.0646884 -0.068938375 -0.065691546 0.026792863
000200 86 42 b9 bb 00 3c d6 3b 51 6d 1a bd b1 12 ba bc
       -0.005653682 0.0065379143 -0.03770191 -0.02271399
000210 5b a3 ac bc bf c2 76 bd 3b 2e 69 3d e0 17 68 3d
       -0.021073988 -0.060244318 0.056928854 0.056663394
000220 7b 22 41 3d 46 aa b3 bc 81 7a 46 3d 2d 36 ac 3b
       0.047152024 -0.021931779 0.048456673 0.0052554817
000230 40 89 c9 bc 4a 9f 74 bc 1c 77 d2 bc 37 56 f3 3b
       -0.024601579 -0.014930556 -0.025691561 0.007426049
000240 87 c4 25 3d da 21 03 3d a9 0a bf 3d 5c fa 31 bc
       0.040470626 0.032014705 0.09328205 -0.010862913
000250 9d f4 9a 3d 0f b8 8b 3d fb 70 be 3c c6 89 0a 3d
       0.075661875 0.06822216 0.023247233 0.033822797
000260 0c b0 f5 3c 54 01 02 be 7a 4a 7b bd 6a d5 82 bd
       0.029991172 -0.12695819 -0.061350323 -0.06388362
000270 59 69 b7 bd 5e 26 bb bc e3 9d 0f be d5 ff 29 bd
       -0.0895564 -0.022845443 -0.14025073 -0.041503746
000280 25 61 bd bd 25 65 25 be 2c 85 cf 3b e9 c1 56 3c
       -0.092470445 -0.16151865 0.006333014 0.013107755
000290 16 ba 53 3d 97 e2 14 3d ad fe 80 3d 4d 26 c0 bb
       0.051691137 0.036348905 0.062985756 -0.005863941
0002a0 75 5f a6 3d 30 d1 cb 3b dc 12 bf 3d f1 e3 2d bc
       0.08123676 0.0062200055 0.09329769 -0.0106134275
0002b0 e5 16 b1 3c 5c ba 84 bc 3e 3a 68 bc ff 88 40 bc
       0.021617362 -0.016202144 -0.014174042 -0.011751412
0002c0 18 94 18 3d 24 c3 19 3d b4 e4 0e bc d7 c6 c4 bb
       0.03725061 0.037539616 -0.008721519 -0.006005149
0002d0 5e b3 84 3d be 43 0c b9 b0 59 a1 bc 7c 7b 7d bd
       0.06479524 -0.00013376676 -0.019696087 -0.061885342
0002e0 7a 2b 1a 3d f8 7e d1 3c e1 6a 17 3d d4 32 21 bd
       0.03763912 0.025573239 0.036967162 -0.039355114
0002f0 2f b9 5f 3d 9e 10 96 bc f1 da 9a 3d e4 44 b7 3d
       0.054619964 -0.01831847 0.07561291 0.08948687
000300 54 81 c6 3b 66 97 d1 3c 89 22 b0 3c 39 eb 11 bd
       0.0060578976 0.025584888 0.021500843 -0.035624716
000310 3b 07 9a 3d 8e ec 92 3d 85 28 01 3e c0 ed 50 3d
       0.0752091 0.071740255 0.12613113 0.051007986
000320 83 f2 ee b9 9a bc 24 3d 86 95 cc 3d 48 2f 2f 3c
       -0.00045575583 0.040218927 0.09989457 0.010692425
000330 89 b1 ae 3d 28 f4 31 3d ea 5a e7 3d cc 3f 87 bc
       0.08529956 0.043445736 0.11296637 -0.016509913
000340 d4 84 10 bd ea 05 94 bd 3b 55 97 bd 5f 87 a5 3a
       -0.035282925 -0.072276905 -0.07389303 0.0012628845
000350 a0 2d 34 3d c3 5c 0c bc 0d 2a 4f 3d ce 2d 4f bd
       0.043988824 -0.008567038 0.050577212 -0.050580792
000360 b4 0d 2e 3d 52 76 40 3c 10 16 35 3c bc 08 37 bc
       0.042493537 0.01174696 0.011052623 -0.011171516
000370 c4 d7 25 bd ca 40 14 bd bf 9a 2d 3c 52 3e 68 3d
       -0.040488973 -0.0361946 0.010595976 0.05670006
000380 b9 39 91 3c 1c 19 c7 3c 42 1c 9d 3d 24 02 e7 bc
       0.01772772 0.024303965 0.076714054 -0.028199263
000390 7f 26 92 3d 3f 14 00 bd 33 f5 86 3b de ca b6 3d
       0.07136249 -0.03126931 0.0041185855 0.089254126
0003a0 87 69 6a bd c5 54 21 bd a1 eb 8c 3c cb 36 1e 3d
       -0.057229545 -0.039387483 0.0172022 0.038626473
0003b0 23 fd 37 3b 00 0c c9 3c ce b2 15 bc 1e fd 8e bd
       0.0028074465 0.024541855 -0.009136869 -0.06981872
0003c0 b8 69 58 bd 71 36 6e bb a7 bc 23 3d 1e 7e c4 bd
       -0.052835196 -0.0036348368 0.039974835 -0.095943674
0003d0 73 35 dc bd 41 1f 0c be 79 91 a7 bd 6e d3 53 bc
       -0.10752382 -0.13683797 -0.081820436 -0.012928827
0003e0 5f b3 a1 bb 2e e3 18 bd f9 43 b6 bc eb 67 a3 bd
       -0.004934713 -0.03732603 -0.022249209 -0.07978805
0003f0 01 02 42 3d 6c bb 01 3b 96 97 c2 3d 84 72 91 3d
       0.047365192 0.001979555 0.09501569 0.0710192

res_blocks.1.conv1.bias f4 [32]
000000 a8 24 a5 3d 4b c2 0f bb a3 44 93 3d a4 f4 fb 3c
       0.08063632 -0.0021935876 0.07190826 0.030756302
000010 5a 15 8a bd 59 f8 53 bd 2a 16 47 bd 16 ad c7 bc
       -0.06742354 -0.051750515 -0.04860512 -0.024374526
000020 48 04 90 bd ea a6 06 bc cc 3c 68 3a 1a 51 89 3d
       -0.070320666 -0.008218506 0.0008859157 0.06704922
000030 96 95 3c bd fa a0 3a 3d 50 9f b0 3c 9d 82 d9 bb
       -0.046041094 0.045563675 0.021560341 -0.006637885
000040 23 19 14 3d 9c 50 8b bd 97 83 1a bd 4a eb 9c bc
       0.036156785 -0.068024844 -0.03772315 -0.019155163
000050 ee 5a 86 3d 35 7f 4d 3d 68 ce 59 3d 57 7c ac bc
       0.06560312 0.050170142 0.05317536 -0.021055384
000060 a4 cf ee 3c 0f 45 43 3d 4d 59 83 bb fc 8b 9f 3d
       0.029151745 0.04767328 -0.004008448 0.07790372
000070 b0 f9 46 3d f9 e8 24 bd 9a 10 a8 3c 19 67 aa bd
       0.048577964 -0.040261243 0.020515729 -0.083204456

res_blocks.1.batchnorm1.weight f4 [32]
000000 d4 a7 76 3f cf 97 73 3f 57 78 72 3f ef 03 83 3f
       0.96349835 0.95153517 0.94714874 1.0235575
000010 22 ae 81 3f 7d df 79 3f 11 b5 7d 3f 8c 0c 85 3f
       1.0131266 0.9760664 0.9910441 1.0394454
000020 d3 5d 78 3f 5e 43 80 3f e0 0b 84 3f c4 e6 7b 3f
       0.97018164 1.0020559 1.0316124 0.98398995
000030 66 08 78 3f 6f fb 7f 3f cb 72 78 3f 89 df 81 3f
       0.96887815 0.9999303 0.9705016 1.0146343
000040 bf 43 81 3f f6 26 83 3f f6 e5 7f 3f ff 48 76 3f
       1.00988 1.0246265 0.9996027 0.96205133
000050 4b 90 81 3f 78 8e 83 3f b2 9e 7d 3f 23 fe 7d 3f
       1.012216 1.0277853 0.99070275 0.99215907
000060 6f 53 6d 3f 99 b6 7c 3f 3b b4 7a 3f fe 92 71 3f
       0.92705435 0.9871612 0.9793126 0.9436492
000070 35 84 80 3f fb 23 79 3f 36 0a 7b 3f 3c 4c 88 3f
       1.0040346 0.97320527 0.98062456 1.0648265

res_blocks.1.batchnorm1.bias f4 [32]
000000 a3 38 51 bd 95 b6 02 bd f2 ca e7 bc 18 54 9a bd
       -0.051079404 -0.031912405 -0.028295014 -0.07535571
000010 74 9a f2 bc 1a da 82 bd b5 bc 22 be e5 f8 1b be
       -0.029614665 -0.06389256 -0.15892299 -0.15231664
000020 f1 46 31 ba 43 dd 88 bd 1e b4 84 3d 4a 43 da bd
       -0.0006762585 -0.06682827 0.06479667 -0.106573656
000030 47 aa 1a bd 05 0a a5 bc 12 3c 62 bc 5e 14 2b 3d
       -0.037760045 -0.02014638 -0.013808267 0.04176747
000040 d1 4e dd bd ec 00 a0 bd ff 43 09 be a5 35 3d bd
       -0.10806049 -0.07812676 -0.13404845 -0.046193738
000050 7e 61 12 3c b8 6c 95 bc 9c fc 03 be 8b ab a8 3b
       0.008934377 -0.018240318 -0.12889332 0.0051474026
000060 58 7e b0 bd 13 2d 95 bd 62 ec 2c bd 1e 35 5e bd
       -0.08617848 -0.07283988 -0.04221762 -0.054249875
000070 ee 81 0e bd 10 eb 90 bc 53 51 04 be a5 82 c1 bd
       -0.03479188 -0.017690212 -0.12921648 -0.094487466

res_blocks.1.batchnorm1.running_mean f4 [32]
000000 dd c1 37 3f 13 71 7b 3f 6e e9 c5 3c 3e 30 93 bf
       0.71780187 0.9821941 0.02415916 -1.1499097
000010 c0 f6 7a bf 85 c5 c8 bf dd 39 07 c0 7f a9 35 c0
       -0.9803276 -1.5685278 -2.1129067 -2.8384702
000020 f5 42 ed bf 77 eb c2 bd 49 21 5b c0 92 bf a0 bf
       -1.8536059 -0.095175676 -3.4239066 -1.2558463
000030 74 20 22 c0 d3 9f 0e c0 62 62 92 bf b7 2c 3a c0
       -2.5332308 -2.228505 -1.1436274 -2.9089792
000040 86 77 ad bf 40 cd 0f c0 8f bb 87 bf bd 09 51 3f
       -1.3552101 -2.2469025 -1.0604113 0.81655484
000050 62 11 53 3e d4 8b 09 bf ef da 4c be 64 f3 43 bf
       0.206121 -0.53728986 -0.20005392 -0.7654326
000060 47 fe 44 3f a8 1f fa 3d 66 1b b1 bf 30 60 84 bf
       0.76950496 0.12213069 -1.3836486 -1.0341854
000070 24 3c ae bf c3 e7 f8 bf c3 33 9f bf ef b8 4e bf
       -1.3612103 -1.9445728 -1.2437671 -0.80750936

res_blocks.1.batchnorm1.running_var f4 [32]
000000 f9 78 ea 3f 86 2e f5 3e 45 c4 af 3f 81 52 94 3f
       1.8318168 0.47887057 1.3731772 1.1587678
000010 75 b6 ba 3f 47 0d 70 3f 3f ff a6 3f b9 52 8f 3f
       1.4586931 0.9377026 1.3046645 1.119712
000020 1f 3d 90 3f 66 44 34 3f ad 0a e1 40 2c b3 1a 40
       1.1268653 0.7041687 7.032553 2.4171858
000030 3f 1d 42 40 ee ff 36 40 0c 3f 88 3f 07 8b 64 40
       3.033035 2.8593707 1.064424 3.5709856
000040 3b 45 53 3f 14 72 ed 3f 2f d4 25 3f 74 78 9c 3f
       0.8252751 1.8550439 0.6477689 1.2224259
000050 b2 24 05 40 6b 00 09 40 20 85 54 3f c4 92 c8 3f
       2.0803647 2.1406505 0.8301563 1.5669789
000060 63 24 9f 3f 49 87 16 3f 54 ef 15 40 08 e0 36 40
       1.2432979 0.5880018 2.3427324 2.8574238
000070 b0 81 35 40 c5 52 87 40 55 d4 37 3f ad 7a 79 3f
       2.8360405 4.2288537 0.7180837 0.97452813

res_blocks.1.conv2.weight f4 [32, 32, 3, 3]
000000 b7 10 6b bc 90 75 16 bd b8 71 09 bd 6b be 64 bc
       -0.014347247 -0.03673321 -0.033555716 -0.013961415
000010 41 2b 79 bc ec 01 8c bd ab df 82 bd bb fd 98 bc
       -0.015208066 -0.06836304 -0.063903175 -0.018675676
000020 83 1e e0 bb 3f 44 cc 3c 90 08 0d bc fe 6f 50 bc
       -0.006839575 0.024934886 -0.0086079985 -0.0127220135
000030 55 4c f2 3c 4b d1 05 3d d9 1b 08 3d 2e 74 41 bc
       0.029577414 0.0326703 0.033229683 -0.011807485
000040 76 fd a6 3c 9f f1 21 3d d0 17 54 bd cb 98 a5 3c
       0.020384531 0.03953707 -0.051780522 0.020214459
000050 09 1c d3 bc 86 a7 23 bc c7 d3 85 bd 2b 69 3c 3c
       -0.025770204 -0.009988671 -0.06534534 0.011499683
000060 6f 74 29 3d 53 f4 b7 3c 52 a4 71 bc ca d9 77 3c
       0.041370805 0.02245537 -0.01474865 0.015127609
000070 7e 55 9d bc 3b 59 a4 3c 97 3e 52 3c 23 41 59 bc
       -0.019205805 0.02006208 0.012832305 -0.013260159
000080 ec 4b 14 bd 2f b0 d0 bc bf 98 ff 3c 93 c8 02 3d
       -0.036205217 -0.025474636 0.031200765 0.031929564
000090 6c 96 4f 3c 8b 30 58 bc e1 96 64 bc 33 5c 3b bc
       0.012670141 -0.013195167 -0.013951988 -0.011435556
0000a0 e4 56 43 3c f5 29 54 bd da ec 90 bd e1 d7 7a bd
       0.011922572 -0.051797826 -0.07076426 -0.061241034
0000b0 eb c6 09 bc ca 3c 16 3c 0a 28 f8 bb f7 05 1f 3c
       -0.008409242 0.009169767 -0.0075731324 0.009706012
0000c0 bc 7d ce b9 e6 77 4b bc 98 00 55 bc 97 b3 00 3d
       -0.0003938506 -0.012418723 -0.01300063 0.03142127
0000d0 1e b4 c1 3c f7 b9 12 bd 44 fe c7 bb 24 47 3e bc
       0.023645457 -0.03582188 -0.006103309 -0.011613641
0000e0 87 78 31 bc ba 80 17 3d aa e2 69 3d b4 a2 2a 3d
       -0.010831959 0.036987998 0.05710093 0.041659072
0000f0 aa 37 27 bb 8e 1b 4c 3d 91 8d 23 3d e5 10 ad bc
       -0.0025515356 0.049830966 0.03992993 -0.02112622
000100 fc 25 f5 bc aa 3f 87 bc 8c 78 69 3c 5e 45 c3 bc
       -0.029925339 -0.01650985 0.014249932 -0.023836788
000110 ee 76 6b bd 9e 40 6b bc f6 64 ea bc 86 c9 4d bd
       -0.057486467 -0.014358668 -0.028612595 -0.050241016
000120 ae 01 cc bb 08 d9 a2 3a 5d 98 bd bd c0 40 41 bd
       -0.006225786 0.00124243 -0.092575766 -0.04718089
000130 5e f4 b9 3c b7 b8 17 bd 9e 6d bf bc a9 c5 03 bd
       0.022699531 -0.037041392 -0.0233677 -0.032170925
000140 32 b4 12 bd 2a a4 1f 3d 8c 54 d4 3c e0 ce 74 bb
       -0.03581638 0.03897492 0.025919221 -0.0037354752
000150 50 c5 03 bc 8e ca 2c 3d 33 66 24 3c 7d a5 ae 3b
       -0.008042648 0.04218536 0.010034132 0.0053297863
000160 94 80 22 bc 02 e1 0e 3d cf 63 62 bd 54 a3 8a 3b
       -0.009918351 0.034882553 -0.055270966 0.004230896
000170 73 8d ce bc 3c db d1 3b 13 85 88 bd 09 ae f4 3c
       -0.025213933 0.0064043086 -0.06666007 0.029868143
000180 24 64 aa bb 50 4e 9c 3c 7d d3 99 bc df 5f 64 bc
       -0.005199926 0.019080311 -0.018777603 -0.013938873
000190 0b e9 55 3c 6a 6f 6f bd 8b 08 a6 bc 67 69 5c bb
       0.01305605 -0.058455862 -0.020267745 -0.003363216
0001a0 c2 5b 1b 3d b8 90 35 3d 9f 28 c3 bc 24 ce 2f bd
       0.037929304 0.044327468 -0.02382308 -0.0429212
0001b0 43 53 5c 3d 79 09 d0 bc af 37 1f bc 06 38 06 3d
       0.053790342 -0.025395142 -0.009717866 0.032768272
0001c0 6b da c8 bc 42 05 6b 3b e4 84 ab bc 65 3a a6 bc
       -0.024518212 0.0035861288 -0.02093739 -0.020291517
0001d0 62 7a 16 3d 2a ad 4a bc e1 6f 60 bb 92 89 0b 3d
       0.036737807 -0.012370387 -0.0034246373 0.034066744
0001e0 87 15 28 3b 34 b5 2a bd 1c 7a d0 3c c3 d2 6d bd
       0.0025647597 -0.041676715 0.025448851 -0.058062326
0001f0 58 e9 18 bd 39 fe 65 bd 62 c4 a6 bc 37 6d 7c bd
       -0.03733191 -0.05615065 -0.020357314 -0.061627593
000200 cd ce ed bc 71 d7 64 bc f7 98 64 bd 67 ea ea bb
       -0.029029274 -0.013967381 -0.05580994 -0.007169056
000210 10 c6 9f bd 96 5b f6 bb a9 27 10 bd e9 00 d9 3b
       -0.07801449 -0.007518242 -0.035194073 0.006622423
000220 2c bd 48 bd fe 81 03 3c dc c2 f7 3c 00 1c dc bc
       -0.049008533 0.008026598 0.030244283 -0.02686882
000230 62 27 01 bd a6 05 04 3d f6 10 cc bb 1e 0c b3 3b
       -0.0315317 0.03223195 -0.006227608 0.005464091
000240 20 b7 c6 bb 56 b6 db 3c 96 9e c6 bc 9a 04 86 3c
       -0.0060643107 0.026820343 -0.024245542 0.016359616
000250 92 82 4c bd e0 29 b1 3c 45 cd 5a 3c 7e 7e a9 bb
       -0.04992921 0.021626413 0.013354604 -0.0051725497
000260 c1 bd 8e 3c dd 10 63 bd ae c0 24 bd ff 75 19 bd
       0.017424466 -0.055436004 -0.040222816 -0.037466045
000270 77 ea 2f 3c 66 75 d2 bb f7 7e a8 3b 6d 99 c6 3b
       0.010737053 -0.0064226864 0.0051420885 0.0060607702
000280 65 b3 93 3c 89 a3 31 bd c5 8d 0e 3c ea 40 07 3c
       0.018029878 -0.04336885 0.008700793 0.008255223
000290 15 65 8d 3a 33 f7 39 3c d1 f7 3e bd 53 dd 2a bd
       0.0010787571 0.011350441 -0.046623055 -0.041714977
0002a0 38 5e e5 3c 44 2d 69 bb 5d 52 46 3c 87 32 85 3d
       0.027999029 -0.003557996 0.012104598 0.06503778
0002b0 84 da a9 3d ff 42 26 3b 43 42 2a 3d 20 68 ad bb
       0.08293632 0.0025369523 0.0415671 -0.0052919537
0002c0 79 03 5e bc fd f6 53 3d ee e8 8b 3d 46 da aa 3d
       -0.013550633 0.05174922 0.06831537 0.083424136
0002d0 db ad b2 bc 37 a8 5a bd 4f 34 84 bc c5 14 37 39
       -0.021811416 -0.05338308 -0.016138224 0.00017459977
0002e0 2a 68 04 bd 0c a9 0e bc ec bd 80 bd 95 6e 21 bd
       -0.0323259 -0.008707296 -0.06286225 -0.0394121
0002f0 df 9d 6a bd 2f 1a 03 bd 28 43 db 3c 3a 97 81 3c
       -0.057279464 -0.032007392 0.026765421 0.01581918
000300 92 e7 d5 b8 d2 d8 32 bd bb 38 eb bc 78 d6 ac bb
       -0.00010199765 -0.043663807 -0.028713575 -0.00527459
000310 45 f6 19 3d a3 10 98 bc 1f 3a da 3d cb 52 c1 3d
       0.037588377 -0.01856262 0.10655617 0.0943962
000320 c9 9e 6f 3d 62 49 97 3d 46 da 5c 3d 0e 7a 62 3d
       0.05850104 0.073870435 0.0539191 0.05529218
000330 7d 61 a0 3d 57 8e 0e 3d 1b 02 aa 3d bf 26 2d bd
       0.078310944 0.034803715 0.08301183 -0.04227328
000340 f3 47 ce bc 31 a4 f9 3c 23 3c 5e bd f3 16 85 ba
       -0.025180792 0.0304738 -0.05425657 -0.0010153934
000350 0a f1 83 bc 34 07 0f bd 49 db 26 3c b1 ec d0 bc
       -0.016106147 -0.03491898 0.010184118 -0.025503488
000360 eb 70 06 3d 98 7c ee 3b f4 e4 b1 3d 86 7c 31 3c
       0.03282253 0.0072780363 0.086862475 0.010832911
000370 6e 04 12 3c 7b 82 9c 3c 9f e4 bd 3d d6 ac 2c 3d
       0.008912189 0.019105187 0.09272122 0.042157017
000380 7e 7b 65 3c e6 4e 01 be f6 65 5a bd 12 2d 68 bd
       0.014006494 -0.12627754 -0.053319894 -0.056683607
000390 4c ed 6c bd 63 69 c2 bd d1 19 da bd eb 0d d0 bd
       -0.05784349 -0.09492757 -0.10649455 -0.10158905
0003a0 d1 53 3a bd 03 96 ef bd 0b 03 14 bd 9d a2 40 3c
       -0.04549009 -0.11698534 -0.036135715 0.01175752
0003b0 7b 3f 95 3c 39 59 32 3d 52 36 1d bc e5 e8 76 3c
       0.018218746 0.04354212 -0.0095954705 0.015070175
0003c0 8f 55 64 3d c2 1d eb 3b b8 80 1e 3b 11 10 1c bd
       0.055745658 0.0071751783 0.002418561 -0.03810126
0003d0 9c 5d 99 3c 09 e8 18 bd ea bd eb 3c d0 e3 50 3d
       0.018721394 -0.03733066 0.028777082 0.05099851
0003e0 49 f4 94 3b 4d 72 2d 3b 55 f0 04 bd 19 a3 22 3d
       0.0045457226 0.0026465834 -0.03245576 0.039706323
0003f0 87 90 de 3c 8a 2f 9f b9 41 8b 0f 3d 9c 2b bf bc
       0.027168525 -0.00030362263 0.035044912 -0.023336224

res_blocks.1.conv2.bias f4 [32]
000000 83 7e 3c bd 55 65 52 3d a5 20 53 3d bc b8 d4 bc
       -0.04601909 0.05136617 0.051544804 -0.025966994
000010 24 d6 46 3d 6f 79 5d 3d d6 ea ab 3c 8d 53 4f 3d
       0.048544064 0.054070886 0.020986002 0.05061679
000020 cc 97 c4 bc b2 b6 2a bd e3 b7 cb 3c 88 19 19 bd
       -0.023998164 -0.041678138 0.024867957 -0.037377864
000030 53 31 8d bc e6 80 e5 bc 0c b8 59 bd 4c fb 31 bc
       -0.017235434 -0.028015565 -0.053154036 -0.0108631365
000040 4f f9 66 3d 8d 8d a7 3b 08 03 31 3d ff 23 62 3c
       0.056390103 0.0051133097 0.04321578 0.013802527
000050 3b d6 ab 3b bf 95 e9 3c 99 4e 0b bd de a7 91 bc
       0.005244044 0.028513787 -0.034010503 -0.01778024
000060 8f ea 44 bd 77 ee 2c bd 1d 92 46 3d 9f 1a 1c 3d
       -0.048075255 -0.042219605 0.04847919 0.038111325
000070 de 09 25 3d 6c f0 4a bd bb 80 fe 3c 33 0a be bb
       0.040292613 -0.04954569 0.031067243 -0.0057995557

res_blocks.1.batchnorm2.weight f4 [32]
000000 b6 c7 ed 3f c0 c0 e5 3f de 9a ce 3f 3e 8b d6 3f
       1.8576572 1.7949448 1.6141012 1.6761243
000010 cf 8e c1 3f df d8 e8 3f 04 af f2 3f 04 2d bb 3f
       1.5121707 1.8191184 1.895966 1.4623113
000020 a0 41 ea 3f d2 be de 3f e6 63 d0 3f 7d 58 bb 3f
       1.8301277 1.7401984 1.6280487 1.463638
000030 10 56 fa 3f fb da d8 3f 5f 84 e7 3f 45 08 e2 3f
       1.9557514 1.6941828 1.8087271 1.7658774
000040 ab 2a cb 3f 0b 51 f8 3f 41 6f eb 3f 4c cf 02 40
       1.5872396 1.9399732 1.8393327 2.0439024
000050 2d 85 d8 3f df 2d f8 3f 7b 83 d8 3f e4 39 c9 3f
       1.6915642 1.9388999 1.6915125 1.5720792
000060 b6 b9 d8 3f 1b 14 bc 3f b3 f6 f5 3f bf d3 ea 3f
       1.6931674 1.4693636 1.9215912 1.834587
000070 7d 15 e6 3f 1e 5c 04 40 3c b4 dc 3f 49 4a d5 3f
       1.7975308 2.0681224 1.7242503 1.6663295

res_blocks.1.batchnorm2.bias f4 [32]
000000 b4 57 cd 3e 28 a2 bf 3e a5 d2 b4 3e 98 f8 8b 3e
       0.40105975 0.37428403 0.3531696 0.273381
000010 bc 58 2a 3e 3a 20 f2 3e 53 50 cf 3e b5 6d 51 3e
       0.16635412 0.47290212 0.4049097 0.20452006
000020 15 5b bb 3e f5 c8 28 3e f5 f2 64 3e 87 62 83 3e
       0.36592928 0.16482909 0.22358306 0.25661108
000030 c5 62 ef 3e 04 09 c8 3e 48 fd 98 3e a0 ec b3 3e
       0.46755043 0.39069378 0.29880738 0.35141468
000040 01 82 cb 3e 47 a2 92 3e f4 7d 98 3e 97 56 95 3e
       0.39747623 0.28639433 0.29783595 0.29167625
000050 5a 55 84 3e a7 52 d2 3e 5b 79 bd 3e 69 07 86 3e
       0.25846368 0.41078684 0.3700665 0.26177529
000060 0f 76 a4 3e 6d de 90 3e ab 9f a9 3e 60 13 70 3e
       0.32121322 0.28294697 0.3312963 0.23444891
000070 58 ef 84 3e 14 22 8e 3e 47 7e bf 3e 3c cc 80 3e
       0.25963855 0.27760375 0.3740103 0.25155818

res_blocks.1.batchnorm2.running_mean f4 [32]
000000 1e d5 88 be df ef 75 be 2a 86 a5 3e aa ac 8a 3e
       -0.26725096 -0.24017285 0.32328922 0.27084857
000010 b2 6a cc bd 2b a7 6c be c8 b7 84 3e de d1 7c 3e
       -0.09981288 -0.23110645 0.25921464 0.24689433
000020 0b 62 93 3e ad 2a eb 3d 08 82 83 3e 63 75 6b 3e
       0.28785738 0.11482749 0.25685143 0.22993998
000030 97 ac 0e 3f d3 3a 9b 3e 42 9f 80 be b6 b8 d9 bd
       0.557321 0.30318317 -0.25121504 -0.10630934
000040 23 34 d3 3e a2 09 60 3d a0 1f 7f 3e 4d e6 9c 3e
       0.41250715 0.054696687 0.24914408 0.30644456
000050 93 62 aa 3e 71 6b 91 3e 4a 6f 04 be 9f 2b 9d bd
       0.3327833 0.28402284 -0.12933078 -0.07674336
000060 31 51 16 3c 92 9f 5f 3e 90 bc 04 3e 70 f1 38 3e
       0.009174631 0.21838215 0.12962556 0.18060851
000070 d6 2b 95 3d b3 1e d6 3b 28 54 7b 3e d3 e6 63 3c
       0.07283752 0.0065344214 0.24543822 0.013910013

res_blocks.1.batchnorm2.running_var f4 [32]
000000 24 a0 4e 3e 01 7e ee 3d d9 c5 f9 3d 65 bc 09 3e
       0.20178276 0.11645127 0.121959396 0.13450773
000010 19 38 ae 3d 92 34 3f 3e ea 71 83 3e 47 87 4a 3e
       0.085067935 0.18672398 0.25672847 0.19778167
000020 48 20 83 3e 71 33 cf 3d f9 91 83 3d 5f 54 47 3e
       0.25610566 0.101172335 0.064243264 0.19465779
000030 7d 99 2f 3e ee 83 37 3e 35 5d d1 3d 87 04 20 3e
       0.17148395 0.17921421 0.10222856 0.15626727
000040 25 cf f7 3d a0 ff 86 3e 42 bd ba 3d 53 5a f4 3d
       0.121000566 0.263669 0.09118129 0.119312905
000050 20 1f 7a 3e 7d 5b b3 3e b3 03 ba 3d f7 62 05 3e
       0.24425936 0.35030738 0.09082737 0.13026033
000060 7f ae 86 3e 47 45 14 3e f5 6d 08 3e 0f 99 6f 3e
       0.26305005 0.14479552 0.13323195 0.23398231
000070 c7 a4 01 3e c6 79 a8 3e 0b 95 17 3e f4 55 ba 3d
       0.12660514 0.32905406 0.14802949 0.090984255
