logs/main_run/mel064_nblock2_lr0.001_ks5/checkpoints/best.ckpt (torch, 643774 bytes, 89 tensors)

conv1.weight f4 [8, 1, 5, 5]
000000 41 86 07 be f4 91 86 bc df fa 89 be aa 39 10 be
       -0.13234808 -0.016427018 -0.26949212 -0.14084497
000010 42 db 4c be 66 aa 22 bd 9c 5a 6d 3c d0 a5 ff 3d
       -0.20005515 -0.039713286 0.014486935 0.12482798
000020 a9 33 f6 3d 9f 05 7a bd 31 9b c4 3d 3a 7c 78 3e
       0.12021572 -0.061040517 0.09599913 0.24266139
000030 77 b2 09 3e 9e e4 cb 3d 14 02 dd bd 76 29 d8 bd
       0.13446985 0.09955715 -0.10791412 -0.10554783
000040 96 e6 41 bd 3b 8b 8e be f5 c1 62 bd 73 e8 e7 bd
       -0.047339045 -0.278406 -0.055360753 -0.11323633
000050 8d ad c6 bd b0 10 4f be c3 96 6c be b0 8b 34 be
       -0.09701071 -0.2022121 -0.23104386 -0.17631412
000060 11 5b 2e bc 5b 8d 2e bb a2 b7 11 be 7a 03 95 bd
       -0.010641829 -0.0026634547 -0.14230207 -0.07276054
000070 9b 14 36 3e 9f b4 dd bd f2 f4 7f 3d 48 39 21 3e
       0.17781298 -0.10825466 0.062489457 0.15744507
000080 9c 58 e7 3d cc fe bd 3d 45 33 c1 3d f4 c5 dd bd
       0.11296198 0.09277114 0.09433607 -0.10828772
000090 51 be da bd e3 23 56 be 7b ca 0a be df 1c 4b be
       -0.10680831 -0.20912127 -0.13553803 -0.19835232
0000a0 5b 51 25 3e a2 72 2d bc 56 ed ac bd d2 46 5d 3e
       0.16144316 -0.010586413 -0.08443706 0.21609047
0000b0 ba 36 7b be 3a 9c e5 3d f0 e8 8b 3e bb ac 8c 3d
       -0.24532595 0.112114385 0.27326155 0.06868883
0000c0 bd 4b 9a 3e 20 f0 19 be e2 aa 96 bd 95 88 60 3d
       0.3013591 -0.15033007 -0.07356812 0.054817755
0000d0 a9 10 3a 3e 9e d8 5f 3c d2 01 f7 3c 41 f5 5c 3e
       0.18170418 0.013662485 0.030152235 0.21577932
0000e0 b5 10 b8 3d 7a 6f 8c 3e 86 1e 4b 3e cd 98 8e 3e
       0.089875616 0.274288 0.19835863 0.27850953
0000f0 44 1b b4 bd e4 ad 1f be 4a 3d 83 3e a9 a9 5c 3e
       -0.08794263 -0.15593678 0.25632697 0.21549095
000100 9f 66 25 3e 2e 34 34 be 3a 8d 73 be c6 58 81 3c
       0.16152428 -0.1759803 -0.23784342 0.0157894
000110 e9 eb 33 be ca 0f a0 bd 0e ee d5 bd 55 a2 3e be
       -0.17570461 -0.078155115 -0.10445796 -0.18616612
000120 01 32 c5 bd f4 d1 31 3d 06 47 8e be 6d 41 59 3e
       -0.09628678 0.043413118 -0.27788562 0.21216364
000130 28 81 18 bc 2e 1a 2d be d5 dc 11 be ce 66 27 3d
       -0.009308137 -0.16904518 -0.14244397 0.040869527
000140 d9 f9 08 3d e2 26 31 3e 45 4c 91 3e 93 cd 38 3e
       0.0334414 0.17299989 0.28378502 0.1804717
000150 6f 62 76 bc 5f 1f a5 ba c1 c1 c9 bc 71 2c 41 3e
       -0.015038117 -0.001259785 -0.024628522 0.1886461
000160 80 c8 4a 3d 7b 81 61 3d c2 b0 1e 3e ee e5 11 3e
       0.049507618 0.055055123 0.15497115 0.14247867
000170 1d 42 1b 3e c8 10 f6 3b 74 b3 67 be 0d 20 96 be
       0.15161939 0.0075093247 -0.2262705 -0.29321328
000180 af e1 83 be ba ff 8a be e1 10 76 be 1f 7d 9e be
       -0.2575812 -0.2714823 -0.24029876 -0.30954835
000190 67 7c 2d be f9 33 1d be 81 c0 33 be e4 7d e3 bc
       -0.16941987 -0.15351857 -0.17553903 -0.02776999
0001a0 e7 c8 5c be de b1 56 3e 61 74 47 3e 60 bc 5b be
       -0.21561013 0.20966288 0.19477989 -0.21458578
0001b0 4e 5e 6d be a4 fa 4d 3e b8 41 f6 3d b3 65 18 bc
       -0.23180506 0.20115143 0.120242536 -0.009301591
0001c0 53 ba 03 3e a8 55 34 bd cf 44 fa 3c 32 12 65 3e
       0.12864046 -0.044027 0.030550389 0.22370222
0001d0 ed dd 14 3e b9 25 e9 bd 09 97 d2 bd c3 8f 1d 3e
       0.14537783 -0.11384148 -0.10282714 0.15386872
0001e0 e5 6b 9b bd bf 58 68 3e 76 be 72 be c7 35 3f bd
       -0.075889386 0.22690104 -0.23705468 -0.046682145
0001f0 4b 65 10 3c 81 da 4c be 27 22 49 3d 15 3d 7e 3c
       0.008813213 -0.20005228 0.049104836 0.015517493
000200 01 89 b5 bc 85 28 98 3d f5 12 5e be 86 98 35 3c
       -0.022160055 0.074296035 -0.21686919 0.011083728
000210 f4 14 e1 bd 5e 7d af 3b d3 79 83 be bd 75 5b be
       -0.109903246 0.005355521 -0.25678882 -0.21431632
000220 ed b3 86 3d 1b a0 d8 bc b1 ee 13 3e 48 6d 06 be
       0.06577287 -0.026443532 0.14446522 -0.13127625
000230 8a ee c2 bd 49 e4 fe 3d a2 fc 78 3e c8 90 90 3e
       -0.09518154 0.12445886 0.24315122 0.2823546
000240 8f 24 7d 3e 9a 8c e9 bd a2 ad 95 3e 48 9e bd 3d
       0.24720977 -0.11403771 0.29234034 0.092587054
000250 05 b1 1d 3c 6b e7 f0 3d f4 0a c8 3b d8 be 04 be
       0.009624724 0.117628895 0.0061048213 -0.12963426
000260 a8 55 0e be d6 6e ca bd 95 3c ac bd 6e 38 16 be
       -0.13899863 -0.098844215 -0.084099926 -0.14669964
000270 35 0b 3b be d6 b2 1f be 4a 40 0a 3d 14 0d 15 be
       -0.18265994 -0.15595564 0.033752717 -0.1455577
000280 4b c8 24 bc 01 00 2c be 70 c1 8c be 14 dc 7f be
       -0.010057519 -0.16796876 -0.2749133 -0.24986297
000290 ab f3 82 bc 8b ec 8b 3e 7e 30 8e 3d 28 44 05 3e
       -0.01598533 0.27328905 0.06942843 0.13014281
0002a0 08 6e d2 3d 37 cc 0e 3b ff 0c 2c 3e b8 b0 1d 3e
       0.10274893 0.0021789202 0.16801833 0.15399444
0002b0 17 e3 5d 3e c2 63 9a 3d 20 87 d0 3d 00 c7 04 be
       0.21668659 0.075385585 0.10182023 -0.12966537
0002c0 90 08 6c 3e 76 99 96 3d b0 0b 98 bc bc 91 cc bd
       0.23050141 0.07353489 -0.01856026 -0.09988734
0002d0 9a 40 41 3e 9a c5 ee 3e 2b 1d 34 3e d0 b3 0e be
       0.188723 0.46635133 0.17589252 -0.1393578
0002e0 78 bc 5b bd b0 b3 1d be c1 3a 6e 3e 0d cf 8b 3d
       -0.053646535 -0.15400577 0.232646 0.06826601
0002f0 ff 73 86 be 68 62 2d be b2 c0 26 3e 4d 7c 35 3e
       -0.26260373 -0.1693207 0.16284445 0.17723198
000300 18 d9 5c 3a ba a8 12 be 2a 22 ba bd aa 29 69 3e
       0.00084246835 -0.14322177 -0.090885475 0.227698
000310 6b f9 be 3d b9 4b 15 be 89 28 34 3d bc c1 0f be
       0.093249165 -0.14579667 0.04398397 -0.14038748

conv1.bias f4 [8]
000000 d6 ff 1f be 83 ae 07 3e 02 4b b1 3e 1c 73 65 3e
       -0.15624937 0.13250165 0.3462754 0.22407192
000010 83 0f d3 3d b0 eb 29 be 23 fa a3 3d 05 11 31 3d
       0.10305693 -0.16593814 0.08006694 0.04322912

batchnorm1.weight f4 [8]
000000 a1 45 38 3f 3f 32 a3 3f 5d 67 96 3f e1 d0 83 3f
       0.71981245 1.2749709 1.1750294 1.029812
000010 15 2b 3a 3f be be a9 3f 72 09 5a 3f 29 e0 6d 3f
       0.7272199 1.3261335 0.8517066 0.92920166

batchnorm1.bias f4 [8]
000000 73 d2 2b bd 37 39 e6 bd 5b 59 7f be dc 3e ad bd
       -0.041948747 -0.112413816 -0.2493643 -0.08459255
000010 bb f2 80 be 74 3b bb bd 67 6a 96 ba 1c f6 8d be
       -0.2518519 -0.09142199 -0.0011475802 -0.2772683

batchnorm1.running_mean f4 [8]
000000 df 8e f6 be 3d c5 3a 3e a3 46 e4 3e 4e cc 27 3e
       -0.48155877 0.18239303 0.44585142 0.1638653
000010 62 80 60 3d 62 af a2 bd 51 fc 1f bd 31 aa 3a 3e
       0.054809935 -0.07943608 -0.039058987 0.18228985

batchnorm1.running_var f4 [8]
000000 fb 85 4a 3e 0a 92 fc 3b c8 9c fa 3c 4e c0 97 3c
       0.19777672 0.007707839 0.030592337 0.018524315
000010 82 ca 13 3c 1d 72 bf 3c 24 03 11 3d 4a 4c 23 3d
       0.00902045 0.023369843 0.035403386 0.039867677

res_blocks.0.conv1.weight f4 [16, 8, 5, 5]
000000 85 43 8a bd 5c 2d 13 be e5 c1 13 be ad 5c a2 bd
       -0.067511596 -0.14372772 -0.14429434 -0.07927833
000010 51 0d 3e bd d8 e6 2a bd 17 d3 d2 bd cb 9b 89 bd
       -0.04639942 -0.041724056 -0.102941684 -0.06719168
000020 0d 6c 2f 3c 8a 6f c1 bd f5 a8 b9 3c e2 68 7b bd
       0.010706914 -0.094451025 0.022663573 -0.06137932
000030 91 66 71 3c fe 91 92 bd 1c cf 52 bd 5d 04 ff bc
       0.014733926 -0.07156752 -0.051467046 -0.03113001
000040 eb a5 bb bd 47 a7 bf bc b0 11 90 bc d8 e8 85 bd
       -0.09162506 -0.023395194 -0.017586559 -0.06538552
000050 a9 79 da bd ff d7 c2 3a b5 3e b4 bd 2a 30 a2 3c
       -0.10667736 0.0014865397 -0.08801023 0.019798357
000060 e3 8b 8d bd 39 f8 52 3d 6d 89 d6 3d f5 6f f5 3d
       -0.06911447 0.051506255 0.10475431 0.11984245
000070 54 ee 9d 3d 66 26 05 3e 2c 93 9b 3d db ed 88 3d
       0.07711473 0.13002929 0.0759643 0.06685992
000080 53 14 a0 3d bf be 03 bd 5a 9d 4b 3c a2 81 a2 bc
       0.078163765 -0.03216433 0.012427652 -0.019837204
000090 44 99 a8 bb 30 a3 6b 3d 3c 25 4a 3d 39 f7 0e 3c
       -0.005145224 0.057528675 0.049351916 0.008725935
0000a0 4b 89 97 bd 2f 66 f7 bd fb 02 2b be 3d 1d 15 be
       -0.073992334 -0.12080037 -0.16700356 -0.14561935
0000b0 ac 54 a8 bd 59 ab 65 3e b3 99 65 3e 31 0b 66 3e
       -0.08219275 0.22428645 0.22421913 0.22465207
0000c0 05 19 7c 3e e5 17 4a 3e da 71 02 bd 53 3b 04 be
       0.24618919 0.19735678 -0.03184686 -0.12913255
0000d0 a2 e1 1b be d2 bc 92 bd 96 33 ee bc 04 cf 36 3e
       -0.15222791 -0.07164921 -0.029077332 0.17852408
0000e0 f6 f6 91 3d c9 71 b5 3d e0 49 4e 3e eb f7 f7 3d
       0.07127182 0.088595934 0.20145369 0.121078335
0000f0 3e d5 8b 3d 86 08 fb 3c f2 84 c3 bc ad 53 80 3d
       0.06827782 0.030643713 -0.023867104 0.0626596
000100 6f 9f b8 3d a9 ec a4 bd 2c 84 c2 bd be ea e2 bd
       0.090147845 -0.08052952 -0.09497866 -0.1107993
000110 1c f6 16 bd f5 83 f8 bd 1c 9c 0f be a2 da 57 be
       -0.036855802 -0.12134544 -0.14024395 -0.21079496
000120 20 d3 8e be 6e eb 4e be 30 59 11 be 50 8c f1 bd
       -0.2789545 -0.20206997 -0.14194179 -0.117943406
000130 ec 26 65 bd bd da 02 be 9a 3d 0b be cb 5a 8d bd
       -0.055945322 -0.12778755 -0.13597718 -0.06902083
000140 72 ba d9 3c a4 f1 6a 3d f8 09 74 3d 68 09 82 3d
       0.026578162 0.057359353 0.05957982 0.0634945
000150 6a 5f 41 bd 52 30 7d bb 42 ab ec 3c 4d d4 81 3d
       -0.047210135 -0.0038633537 0.028890256 0.06339321
000160 c8 f8 52 3d 59 5a f0 3c 81 d7 88 bd 4f e9 ae bd
       0.051506788 0.029339956 -0.06681729 -0.08540594
000170 1e fb de 3c 9d 71 9c 3a e4 23 61 bd 7d 2a 9f bd
       0.027219351 0.0011935715 -0.05496587 -0.07771776
000180 77 a0 8d bc e7 0d 66 bd bf ab 43 bd ba d8 fe bc
       -0.01728843 -0.056165602 -0.04777121 -0.031109203
000190 22 f5 9c 3c 57 06 1e 3e 78 0d 8d 3d 0f f9 dd 3d
       0.019159857 0.15432106 0.068873346 0.1083852
0001a0 5c 5b 08 3e d8 ed fa b8 81 a4 9b bd e2 c2 3b bd
       0.13316101 -0.00011965231 -0.07599736 -0.04584015
0001b0 75 f2 d3 bd 56 6c 95 bc ab d4 99 3d 1d f5 05 3d
       -0.103489794 -0.018240135 0.07511266 0.03270446
0001c0 3f a8 c2 3d 61 5d 50 3d 91 4f 5a 3d 97 56 70 bd
       0.09504747 0.050870303 0.053298537 -0.05867633
0001d0 29 af 4d 3c 7c cf be 3c 47 13 f9 bc ad 89 0e bd
       0.0125539685 0.023292296 -0.0304047 -0.034799267
0001e0 72 1c a9 3c 04 21 ce 3d 92 94 03 3e be 65 00 3d
       0.020643447 0.10064891 0.12849644 0.03134703
0001f0 f7 44 84 3d 6a 2a ab 3d ac 79 45 3d b4 a8 6d 3d
       0.064584665 0.08357699 0.04821174 0.058022216
000200 f4 12 b4 3c 9d 7d b6 3d 01 8d 3d 3d 32 49 20 bc
       0.021981694 0.089106776 0.04627705 -0.009783076
000210 25 27 94 3c cb 18 98 3d df bb 45 3d 9a c8 ce 3c
       0.018085072 0.07426604 0.04827487 0.025242139
000220 1e e8 01 3e 3d 72 61 3d e1 39 74 3d c4 68 5b 3d
       0.12686202 0.055040587 0.05962551 0.05356671
000230 9d 0e d4 3c 14 eb c3 3d b2 02 a3 3c 34 76 55 3d
       0.025885874 0.09566322 0.019898746 0.05211468
000240 b8 cf eb 3c 33 16 9c 3d 8b a1 36 3c ba ef 29 bc
       0.028785571 0.07621422 0.011146913 -0.010372097
000250 10 50 fc bc df 1d a7 3d 48 dc 5c 3e a0 f6 7f 3e
       -0.030799896 0.08159994 0.21568406 0.24996424
000260 59 df 64 3e a6 0c 10 3e 26 a4 8c 3e c8 29 8c 3e
       0.22350825 0.14067325 0.27468985 0.27375627
000270 83 8b 45 3e 09 ad 80 3e ee e7 61 3e 20 ec 8a 3e
       0.19291501 0.25132015 0.2206113 0.27133274
000280 3f 67 75 3e b4 d3 62 3e 7c 96 6c 3e b6 2b 82 3e
       0.23965167 0.22151071 0.2310428 0.25423974
000290 20 dc fe 3d 26 ad a9 3d b7 e6 61 3d e9 30 cd 3d
       0.12444329 0.082849786 0.055151667 0.100190945
0002a0 14 8c 14 3e fd 5e 1d 3d d1 8c 59 3c de ec 02 3d
       0.1450656 0.038420666 0.013278202 0.031964175
0002b0 e8 6b 73 3d ea f3 75 bc b4 b3 49 3d ad e1 6c be
       0.05942908 -0.015011767 0.049243644 -0.23132963
0002c0 92 d7 83 be 3e 20 83 be 4e 77 25 be 16 3b 45 be
       -0.25750405 -0.25610536 -0.16158792 -0.19260821
0002d0 c8 a5 1c be df cd 12 be ae 5f 37 be 4d 1e 14 be
       -0.15297616 -0.14336346 -0.17907593 -0.14464684
0002e0 59 b8 1d be 10 6a 3f be 32 5c 73 be dc c3 2c be
       -0.15402354 -0.18692803 -0.23765638 -0.1687159
0002f0 ba 7c 38 be b9 e1 7d be 30 cd 64 be 89 fa 78 be
       -0.1801633 -0.24793138 -0.22343898 -0.24314322
000300 43 3f 63 be 2d 36 7b be b0 bf 79 be 35 3c 5f bd
       -0.22192101 -0.24532385 -0.24389529 -0.054500777
000310 d6 eb 18 be f3 5e 0b be 29 59 e2 bd ab e8 f6 bd
       -0.14933714 -0.13610439 -0.11052162 -0.12056097
000320 76 c1 e3 bd 33 92 f7 bd 10 00 aa 3b 13 88 94 bc
       -0.11120884 -0.12088432 0.0051879957 -0.018131291
000330 09 1c 5e bd c4 3d 5f 3d a2 8a 0c bd ff ab 0e bd
       -0.054225955 0.054502264 -0.034311898 -0.034831997
000340 40 ce 22 3c 50 28 17 3d 5b 3c 41 3d 84 4f 9e 3d
       0.009936869 0.03690368 0.0471767 0.0773001
000350 34 9d 6e 3d a8 78 74 bc 27 16 8e 3c ad 45 12 bd
       0.05825539 -0.014921345 0.017344547 -0.03571098
000360 72 54 79 3d 24 12 06 3d 6f ff 4f bd 17 8b 36 bd
       0.06087155 0.032732144 -0.05078071 -0.04456624
000370 56 16 8f bd af ec ea bb ce 81 cc 3c 64 46 dd bc
       -0.06986682 -0.007169328 0.02496424 -0.027011104
000380 c3 66 cb bc 5f 07 c9 bd 0a a4 88 3d 56 29 2d 3e
       -0.024829274 -0.09815859 0.06671913 0.169103
000390 53 ac c6 3d 03 d9 db bc 8b e0 2c bc 1e ee b0 3d
       0.09700837 -0.026836878 -0.010551582 0.08639167
0003a0 7b 18 8f 3e b6 0b 2c 3e 0e 81 a2 3d b0 51 33 be
       0.27948365 0.16801342 0.079347715 -0.1751163
0003b0 68 b5 ce bc ea a9 4b bd c0 72 94 bd 73 d4 69 be
       -0.025232986 -0.04972259 -0.07248449 -0.22834949
0003c0 e4 5e 14 be 30 30 58 3d 58 d5 00 3d 4d 36 94 3c
       -0.14489323 0.05278033 0.03145346 0.018092299
0003d0 b2 2f 96 bc a9 c7 24 be 8f 15 b0 bd 30 23 38 bd
       -0.01833329 -0.1609179 -0.08597862 -0.044955432
0003e0 9b 79 84 bb 0c 7c b3 bd 6e 7d a4 3d 77 64 92 3d
       -0.004042817 -0.087638944 0.08031736 0.071480684
0003f0 b4 39 d1 3d 21 28 df bc 17 1f 90 bd dc 38 ae 3c
       0.10216084 -0.027240815 -0.0703718 0.021267347

res_blocks.0.conv1.bias f4 [16]
000000 26 70 f2 3c 4c e0 46 3a 35 63 42 3d 91 63 3c bd
       0.029594492 0.00075865234 0.047457892 -0.04599339
000010 43 95 62 3c b3 4b 87 3c 8a 67 6f 3c 19 26 51 3d
       0.013829532 0.016515588 0.014612088 0.051061723
000020 96 4a 97 bd 71 01 92 bd 8f cc 89 bd 4a 15 d0 3c
       -0.07387273 -0.07129181 -0.067284696 0.025400776
000030 aa 05 42 bd 58 8f 47 bd 28 e7 04 3d 64 6a 62 3d
       -0.047368683 -0.048720688 0.03244701 0.055277243

res_blocks.0.batchnorm1.weight f4 [16]
000000 9c 41 66 3f aa ff 8c 3f 4c a1 44 3f 85 2e 72 3f
       0.8994386 1.1015522 0.7680862 0.94602233
000010 2f 34 70 3f 08 45 88 3f 52 bd 3a 3f 40 29 95 3f
       0.93829626 1.0646067 0.7294513 1.1653214
000020 32 01 59 3f eb 73 35 3f 46 12 66 3f 35 1a 81 3f
       0.8476745 0.7088 0.89871633 1.0086123
000030 1d d6 48 3f 39 81 51 3f 0c ad 98 3f b5 af 36 3f
       0.7845171 0.81837803 1.192781 0.7136186

res_blocks.0.batchnorm1.bias f4 [16]
000000 63 f8 89 be 71 09 38 bf 31 7a 85 be 30 c1 08 bf
       -0.26947317 -0.71889406 -0.26069787 -0.5341978
000010 a0 16 ce be 70 75 3b be 42 e1 19 bf 56 f8 0e bf
       -0.40251637 -0.18306518 -0.6010934 -0.5584768
000020 e2 ee 1b bf be 4f ac be 3d f9 cb be 7d 2c a4 be
       -0.6091138 -0.33654588 -0.3983859 -0.32065192
000030 4d 38 39 bf e4 2d 4e be 3d af 07 bf 8f d0 b7 be
       -0.72351533 -0.20134693 -0.5300177 -0.35901305

res_blocks.0.batchnorm1.running_mean f4 [16]
000000 32 2b 72 3e 1c b6 88 bf 63 f5 2a c0 ba 0a 8d bf
       0.2364929 -1.0680575 -2.6712272 -1.1018898
000010 b4 48 4b c0 c4 14 52 be 29 45 71 3f da 72 c3 bd
       -3.1763124 -0.20515734 0.94246155 -0.095433906
000020 80 9b 25 3f c7 d4 37 3f 84 26 8e 3e 3d f5 9e bf
       0.646904 0.7180905 0.2776376 -1.2418591
000030 ea 9c dd 3f b3 68 11 c0 e7 ca 7e bd 2e b7 7e c0
       1.7313511 -2.2720153 -0.06220522 -3.9799304

res_blocks.0.batchnorm1.running_var f4 [16]
000000 6f 24 87 40 13 e4 13 40 14 d3 e6 41 1a d4 e6 3f
       4.2231975 2.3107955 28.853065 1.8033478
000010 2f 39 a0 40 ff c8 53 40 ea 7e 63 40 42 bb 72 3f
       5.0069804 3.3091428 3.5546212 0.9481698
000020 cd 8c 5f 40 95 6f 63 40 38 fe 14 40 3f 43 60 40
       3.4929688 3.5536854 2.3280163 3.5041044
000030 be b2 f2 3f a2 9d de 40 59 79 cc 3f 4e cb 95 40
       1.8960798 6.9567423 1.5974532 4.6810675

res_blocks.0.conv2.weight f4 [16, 16, 5, 5]
000000 9c 93 b6 bd 07 b2 e3 bd 9f cc f5 bd e7 4b a0 bd
       -0.08914873 -0.111179404 -0.12001919 -0.07826977
000010 80 03 c6 bd 2e c5 97 bd 6b 2c 1d be be 4a dc bd
       -0.09668636 -0.07410656 -0.15348975 -0.107564434
000020 c7 d2 1c be 2d a4 06 be 53 22 43 be 32 c4 74 be
       -0.1531478 -0.13148566 -0.19056062 -0.23902968
000030 d3 f0 33 be de 97 3f be 8e 13 05 be 2d f1 27 be
       -0.17572336 -0.18710276 -0.12995741 -0.16400595
000040 02 3f 09 be 1d 07 0d be e8 65 2b be e6 b3 e2 bd
       -0.13402942 -0.13772245 -0.16738093 -0.11069469
000050 c8 fa 49 be ec 6c 44 be d0 a9 50 be 8b ee 27 be
       -0.19724572 -0.19182175 -0.20377278 -0.1639959
000060 e9 04 12 be 7d 5e 8e 3c 8f 42 13 3e 31 99 3e 3e
       -0.14259686 0.01737904 0.14380859 0.18613125
000070 f6 ab 29 3e 55 cd ec 3d 88 97 6c 3d 0a bf 5b 3e
       0.16569504 0.115626015 0.0577617 0.21459594
000080 09 a2 38 3e 8b 3e 4f 3e 2f 16 2b 3e 18 d3 3b be
       0.18030562 0.20238702 0.16707681 -0.18342245
000090 a9 a9 99 bd 2d 40 fc bd 31 cb b4 3a 99 76 c0 bd
       -0.07503063 -0.12316928 0.0013793466 -0.09397621
0000a0 21 ff 15 3d 5c 06 c4 3d 32 5c 13 3e a5 62 88 3e
       0.036620263 0.095715255 0.14390638 0.2663776
0000b0 23 34 1a 3e 46 5b e9 bd 82 16 87 3d 07 e3 5d 3e
       0.15058951 -0.11394362 0.0659609 0.21668635
0000c0 5a 11 7e 3e 1e c3 12 3e 63 03 9f bd d2 c0 24 bd
       0.24811307 0.14332244 -0.07764318 -0.04022295
0000d0 ef f3 60 bd 15 eb 5d bd 4c 6a c9 bc da 14 39 be
       -0.054920133 -0.05417927 -0.02458682 -0.1807436
0000e0 05 5c 21 be 55 7d fc bd b2 57 32 be c2 9a 41 be
       -0.15757759 -0.12328593 -0.17416266 -0.18906692
0000f0 d4 ea d8 bd 78 08 02 be 9c bc cf bc 1a 1d 82 bd
       -0.10591665 -0.12698543 -0.02535849 -0.06353207
000100 cf 3a 14 bd a7 36 28 bd 87 c7 9b bd b7 30 4b bd
       -0.036188897 -0.041067746 -0.07606416 -0.049607005
000110 84 9f 07 bd b1 c3 f9 bc 7a c1 94 bd e7 fc b4 bd
       -0.03311111 -0.03048882 -0.07263465 -0.088373
000120 84 d2 d2 bd ba f6 bf bd 63 33 3f bd 93 f4 61 bd
       -0.10294059 -0.09373231 -0.046679866 -0.055164885
000130 51 94 13 bd 62 12 04 3d 9d 96 3d be ec 65 c4 3d
       -0.036030117 0.032244094 -0.18514486 0.095897526
000140 a4 a2 65 3d c4 35 6f 3c 5d f1 97 3d 77 3f 9a 3d
       0.05606331 0.014600221 0.07419083 0.07531636
000150 eb 6f 15 3e 16 ca 0d 3e b9 f8 1f 3d 65 d4 55 3e
       0.14593475 0.13846621 0.03905556 0.20881803
000160 f8 f9 87 3d 68 19 3d 3e f8 7b ca bc 00 ff 9d bd
       0.06639475 0.18466723 -0.024717316 -0.07714653
000170 bf 8c 62 3d 6d a7 6d bd 94 3d 23 bd d5 06 34 be
       0.055310007 -0.058020998 -0.039853647 -0.17580731
000180 a1 d9 2a be ad 7c 13 be 39 92 4a be 8b ee 2e be
       -0.16684581 -0.14403029 -0.19782342 -0.17083184
000190 59 9f c4 3d bd e0 42 3e b8 5a 17 3c 22 46 3d 3e
       0.09600706 0.19031043 0.009237938 0.18483785
0001a0 a4 dd 1c 3e 77 8c 58 3e 05 df 8e 3e c6 cd 48 3e
       0.15318924 0.21147333 0.27904525 0.19609746
0001b0 56 a1 71 3e 89 d2 7a 3e c1 db 1d 3c 7d 46 b5 3c
       0.23596701 0.24494375 0.009634913 0.022128338
0001c0 ae e8 06 bd 2a ea 29 3d ef 12 1d 3d fe 17 55 be
       -0.032936744 0.041483082 0.038348135 -0.20809934
0001d0 66 4b 6d be 61 9a 8f be a3 c6 93 be 71 a8 59 be
       -0.23173293 -0.2804747 -0.28862485 -0.21255662
0001e0 03 c5 01 be fa eb cb bd 3e 3e 15 be 4e 18 ff bd
       -0.1267281 -0.09957118 -0.14574525 -0.124558076
0001f0 0e f5 eb bd f2 52 38 3b 8b e8 25 bd 44 4d ea 3b
       -0.1152135 0.002812561 -0.040504973 0.007150324
000200 bb 1a ea bd 10 dc 94 3d f5 b5 04 3d 42 bc d6 3c
       -0.1143088 0.07268536 0.03240009 0.026212815
000210 d6 02 96 3d 40 6c 06 bd fe 5c ba 3d 30 5a 0e bd
       0.0732476 -0.03281808 0.09099768 -0.03475398
000220 bd f7 44 bb f9 40 d6 bd 7f 8f 4c bd 16 a8 b3 3d
       -0.003005489 -0.10461611 -0.049941536 0.08772294
000230 9d 32 c8 bd f8 27 28 be f8 68 96 be 51 fa 2b bd
       -0.09775279 -0.16421497 -0.2937696 -0.041986767
000240 6a 3e 9a bd e6 11 8b 3e c9 b4 d3 3d a0 4c 27 3e
       -0.07531436 0.27162093 0.103372164 0.16337824
000250 c8 27 0a 3e c5 2f 84 3e 1c e3 8d 3d 58 23 eb 3d
       0.13491738 0.25817695 0.06928083 0.11481351
000260 ba d8 68 3d 5c e0 61 3d b4 dc 01 3e 84 65 13 3d
       0.05684731 0.055145606 0.12681848 0.035985485
000270 6d 5d bb 3c 14 d1 24 3d 44 11 c0 39 22 ac d7 bc
       0.022871697 0.040238455 0.00036633958 -0.026327197
000280 94 08 19 3e c8 97 fe 3d cb 44 e1 3d 24 5f aa 3d
       0.14944679 0.12431294 0.10999449 0.08318928
000290 0d 02 15 3e eb 95 6f 3c 64 0f ac 3d da a0 05 bd
       0.14551564 0.014623146 0.08401373 -0.032624103
0002a0 55 b5 57 3d 60 b1 c4 3d 36 64 27 be 99 9f 11 be
       0.052663166 0.09604144 -0.16346821 -0.14221038
0002b0 9f 48 18 be ec e4 2a be e5 f9 3e bd 35 9c f1 bd
       -0.14871453 -0.1668889 -0.046625037 -0.11797372
0002c0 78 ed f6 bd 77 7c 79 bd 60 ff d8 bd a8 77 4c bc
       -0.12057012 -0.060909715 -0.10595584 -0.0124797
0002d0 ab 86 91 bc 38 4c 1f bd a5 4a 10 3d 8d 7b ba bc
       -0.01776441 -0.038891047 0.035227437 -0.022763992
0002e0 94 b6 f6 3d d1 29 24 be 4a 00 00 be 02 c1 08 be
       0.12046543 -0.16031577 -0.1250011 -0.13354877
0002f0 ac 04 ee bd fe 7e c2 3d eb a1 35 be 63 26 0d be
       -0.11621985 0.09496878 -0.17737548 -0.13784175
000300 85 c2 40 bd 40 fc 01 bd 68 29 0d 3e e1 67 71 bd
       -0.04706051 -0.031734705 0.13785326 -0.058936957
000310 51 24 99 3c 3e 94 d5 3d 27 98 4a 3c e5 39 e4 3d
       0.018694075 0.104286656 0.0123653775 0.11143855
000320 75 eb 27 be ec dc 05 be ea 03 64 be d3 87 d8 bd
       -0.16398413 -0.13072556 -0.22267118 -0.105727814
000330 b7 f2 6b be 70 89 5f bd 41 c7 b9 ba 9f e3 98 bd
       -0.23041807 -0.05457443 -0.0014173762 -0.0746529
000340 9c ab 4e 3d 66 da a3 bc 7e 8f 9f 3d 8e f4 8c 3d
       0.05045663 -0.020001601 0.07791041 0.068825826
000350 12 51 bf bc 3a 3e 4b 3d 48 41 de bc 6c 70 5a 3d
       -0.023354087 0.04961989 -0.027130738 0.05332987
000360 e1 e0 e8 3d 71 72 12 3d 73 47 a7 3d 98 ab 04 3e
       0.11371017 0.03575367 0.08167925 0.12956083
000370 d7 91 0e 3e be 85 60 3e 21 3a 0e 3e e2 5b 33 3e
       0.13922821 0.21926019 0.13889362 0.1751552
000380 9d 62 06 3e fe 93 be 3c b6 12 fc bc d5 d1 34 3d
       0.13123555 0.023263928 -0.03077064 0.044145424
000390 c7 48 7a 3d ef ca 48 bd d8 05 cb bd 6b f8 d1 bd
       0.061104562 -0.049021658 -0.09913224 -0.1025246
0003a0 55 96 65 bd 86 4e 76 bd c7 8c 71 bd 1b 38 8d be
       -0.05605157 -0.06013348 -0.058972146 -0.27581868
0003b0 76 7f 95 be 24 00 65 be dc 6b 44 be 0d e4 3a be
       -0.29198807 -0.22363335 -0.1918177 -0.18251057
0003c0 c5 45 02 bd b8 f2 c4 bc a9 a3 56 bb 76 0f 4b bc
       -0.03180482 -0.024041519 -0.0032751358 -0.012393823
0003d0 8e de a8 3b 05 6d c3 bd 73 9c e1 bd bf dd 67 bd
       0.0051534837 -0.09542278 -0.110161684 -0.056607958
0003e0 9d 99 9f bc 9d ba 03 be 8a 16 2f 3e 96 78 12 3e
       -0.019482428 -0.12864156 0.17098442 0.14303812
0003f0 b0 cc e0 3d 98 31 33 3e 75 06 33 3e ae af c2 3d
       0.10976541 0.17499387 0.17482932 0.095061645

res_blocks.0.conv2.bias f4 [16]
000000 87 bc d5 3c 4b 04 17 bd 43 1b 17 3d ad 0d 29 3c
       0.026090873 -0.03686933 0.036891233 0.010318202
000010 70 1b 1d 3d f4 ae 31 bd e1 97 ca bc 7d a9 b7 bc
       0.038356245 -0.04337974 -0.024730625 -0.022419685
000020 b5 e8 17 3d b2 e4 2b bd 89 6b 25 3d e5 24 38 bd
       0.03708716 -0.041966148 0.040385757 -0.04495706
000030 cf 3a 06 3d 31 81 a6 3c 01 83 8f bc 53 3b 24 3d
       0.032770928 0.020325275 -0.017518522 0.04009564

res_blocks.0.batchnorm2.weight f4 [16]
000000 89 02 c4 3f e5 ee 99 3f 83 ec b4 3f 30 19 c1 3f
       1.5313274 1.202603 1.4134678 1.5085812
000010 a9 4e b5 3f 2e 5f c4 3f 7b cd bb 3f cd 9e bd 3f
       1.416463 1.5341547 1.4672083 1.4814087
000020 a0 a0 b0 3f 10 27 bc 3f 3e f0 bd 3f 5d 58 aa 3f
       1.3799019 1.4699421 1.4838941 1.3308216
000030 7f 11 de 3f d3 85 c4 3f a2 4b a5 3f 48 0f b0 3f
       1.7349089 1.535334 1.2913706 1.3754663

res_blocks.0.batchnorm2.bias f4 [16]
000000 7f f0 ef bd 64 f5 a7 be 2b d5 52 bd 9d 95 82 bc
       -0.11715793 -0.32804406 -0.051472824 -0.015940482
000010 60 ee 9f be d0 44 60 be 56 4f cd bd 05 a7 24 be
       -0.31236553 -0.2190125 -0.10024898 -0.16079338
000020 50 69 18 be 21 9a e1 bd 4d 24 84 be 63 7c b5 be
       -0.14883924 -0.11015726 -0.25808945 -0.35446462
000030 97 e3 43 3d 2c d7 cc 3d 9e 40 b0 bb 5f e6 97 bd
       0.04782447 0.10001978 -0.0053787967 -0.07416987

res_blocks.0.batchnorm2.running_mean f4 [16]
000000 33 4b 93 be 78 c8 37 bf 11 dc 1f 3e 27 16 16 3f
       -0.2876831 -0.71790266 0.15611292 0.5862755
000010 cb e2 4d 3f e2 40 bf 3e 30 65 a2 be 57 d1 b6 3d
       0.80424184 0.3735419 -0.31717825 0.08926647
000020 c2 68 f8 3f 74 13 09 be 7d b3 f6 3d c0 f9 ac 3d
       1.940697 -0.13386327 0.120459534 0.084460735
000030 66 c8 34 3f 74 7c 32 be d2 57 9a bf c9 74 db 3c
       0.70618284 -0.17430288 -1.2058051 0.026789086

res_blocks.0.batchnorm2.running_var f4 [16]
000000 a9 11 51 40 1b b6 55 40 de a0 49 40 3e 3b 64 40
       3.266703 3.3392398 3.1504436 3.5661159
000010 0c 55 56 40 b6 9b 73 40 00 ed e0 40 9f 10 c5 40
       3.3489408 3.8063788 7.0289307 6.158279
000020 6c 27 c2 40 12 50 80 40 b8 fe b6 40 3c 31 2d 40
       6.0673122 4.009774 5.7185936 2.70613
000030 f9 b9 e6 40 e5 f3 91 40 69 8b f3 40 1d 8f 73 40
       7.2102017 4.5610223 7.610768 3.80561

res_blocks.0.residual_conv.weight f4 [16, 8, 1, 1]
000000 9a 57 c4 3e 80 0b 4a 3d ed fd 07 bf fb e1 a2 bd
       0.38348085 0.049327374 -0.53121835 -0.079532586
000010 a0 5a b3 bd 93 da 21 be cc 88 7d be de ae 0b bf
       -0.0875752 -0.15806036 -0.24759215 -0.545637
000020 47 e4 91 3e 46 0a 5d 3e 97 75 04 bf ab d3 ac 3e
       0.28494474 0.2158595 -0.5174193 0.3375524
000030 87 23 62 3e 5a 8f 9b 3d f3 16 df 3c 14 c1 88 3d
       0.22083865 0.075957015 0.027232623 0.06677452
000040 99 02 75 3e 59 5d 89 be e8 0b 05 bf fa dc f1 be
       0.23926772 -0.2682903 -0.5197129 -0.47238904
000050 b0 9d 8a bd f3 6a 82 3c ce e9 cf bc 77 f9 fc bd
       -0.06768358 0.015920138 -0.025380041 -0.12352269
000060 94 15 14 3d cd 9a ae be ac ef 22 bf bd b0 16 bd
       0.03615339 -0.3410248 -0.6364696 -0.036789645
000070 a8 d6 a8 bc ee 31 07 3e 53 87 ac 3d 0b f4 03 bf
       -0.020610169 0.1320264 0.084242485 -0.51544255
000080 14 d0 de 3d b0 d2 0b 3e 29 4a 10 bf 81 20 64 3d
       0.108795315 0.1365459 -0.5636316 0.05569506
000090 7f 7d 98 be 7d 66 00 bf d5 07 37 3e b8 07 e9 3d
       -0.29783246 -0.50156385 0.17874081 0.11378425
0000a0 41 09 a7 3e 18 f0 a7 be 3d 06 4d 3e 62 6c c1 3d
       0.32624248 -0.32800364 0.20021911 0.094445005
0000b0 7d fd 8d be b5 57 f8 be 06 fd 97 3d 96 7d 0b bf
       -0.2773246 -0.48504415 0.07421307 -0.54488504
0000c0 e7 1c 0b be 50 58 fa be 03 1d 0f 3e 1a e8 97 3c
       -0.13585244 -0.48895502 0.13975911 0.018543292
0000d0 c8 5e 9a be 3a bc ae be 60 c7 c9 3e e6 d1 f5 be
       -0.30150437 -0.3412798 0.39409924 -0.48011702
0000e0 8d 88 91 3e 0b 04 be 3d 96 16 1e 3e 26 a2 77 be
       0.28424492 0.09278115 0.15438303 -0.24182948
0000f0 4a 01 52 3e 6f 38 d2 be 63 b9 a2 be 62 3f 86 bc
       0.20508304 -0.4105868 -0.31782064 -0.016387645
000100 f7 ca 1c be dc e9 f2 be eb 69 31 3c ef 63 a0 3e
       -0.153118 -0.47444046 0.0108284755 0.31326243
000110 f7 bb 97 be c7 d9 be be 42 b9 b7 3d ee 5c 6e be
       -0.29635593 -0.37275526 0.08970882 -0.23277637
000120 f7 e2 3f be 5b 7c ea 3d 87 3d 37 be 1f 70 5b be
       -0.18738924 0.114495 -0.17894565 -0.2142949
000130 55 48 2d be 3a 60 b9 3b 53 b9 ec bd b3 ff ef 3d
       -0.16922124 0.005657223 -0.11558785 0.11718693
000140 ac 96 8b 3d 90 8a 63 be 4e e3 34 bf 35 cd 5c be
       0.06815848 -0.22220826 -0.7065934 -0.21562655
000150 f7 f8 13 be d0 9c 68 3d a6 50 1f be 17 67 d5 be
       -0.14450441 0.056790173 -0.15558109 -0.41680214
000160 0d 0b d1 bd 94 51 52 be e9 09 44 bd d2 f2 13 3e
       -0.10207186 -0.20538932 -0.047861014 0.14448097
000170 bd fd 44 3e f1 ab 50 3e 0d 6a 55 3e 94 12 05 3e
       0.19237418 0.2037809 0.20841236 0.12995368
000180 ad 74 0e 3e 47 a5 22 be 0b 3f 4b 3e 73 c4 4a 3d
       0.13911696 -0.15883361 0.19848268 0.049503755
000190 91 61 f2 be 90 91 9f be 2a b4 30 be b3 df 0d be
       -0.47340062 -0.31165743 -0.17256227 -0.13854866
0001a0 6f d8 92 bd 9c ca 27 be d6 bf 63 bb be 69 b7 bd
       -0.07170188 -0.16385883 -0.0034751794 -0.089557156
0001b0 38 4f 55 be 19 e6 21 3d b2 6b 20 3e 0f 50 89 3e
       -0.20831001 0.03952608 0.15666083 0.26818892
0001c0 ef 09 a3 3d 3c 7f 00 3d 70 cd 09 3c f4 f2 c5 be
       0.07960879 0.03137134 0.0084107965 -0.3866192
0001d0 7b 85 e3 3b 5d b7 c3 bb cd d5 e6 3d 5c ab 4a 3e
       0.0069434023 -0.0059727863 0.11271248 0.19791931
0001e0 e8 ca 45 be 39 af ca bd cb 6e 80 3e ff f6 fb 3d
       -0.19315684 -0.09896702 0.25084528 0.1230297
0001f0 bd fb 67 be 7d c0 10 3e 12 70 b4 3e ff 60 f8 bd
       -0.22654624 0.14135928 0.35241753 -0.121278755

res_blocks.0.residual_conv.bias f4 [16]
000000 10 3f a1 be e1 9d 60 bd ff 4f 03 3e 4d 90 16 3e
       -0.31493425 -0.054838065 0.12823485 0.14703484
000010 45 c5 64 be 89 87 c6 bd d8 a9 1a 3c ce 4c 4f 3e
       -0.22340877 -0.0969382 0.009439908 0.20244142
000020 37 17 d8 3d f2 c7 f3 3c 98 82 d2 3d 5d b5 52 be
       0.10551303 0.029758427 0.10278815 -0.20576997
000030 bb 48 ea 3d ff fe f0 bc 6a 8b a5 be c6 8a 9b 3b
       0.114396535 -0.029418467 -0.32332927 0.0047467677

res_blocks.1.conv1.weight f4 [32, 16, 5, 5]
000000 b7 2b 87 3d 84 53 12 3d 5e b6 05 bc a5 3c 0e 3d
       0.06600135 0.035724178 -0.0081611555 0.034725804
000010 80 a9 2b bc 3f a2 31 bd 72 44 9c bd 18 0d c0 bc
       -0.010477424 -0.04336762 -0.076302424 -0.023443744
000020 7f 88 e4 bd 9b 93 f3 bc 72 bc a8 3d 38 ee 4b 3d
       -0.11158847 -0.02973347 0.08239068 0.04978773
000030 22 59 b4 3c 99 8f 80 3d 61 f9 e0 3d 74 78 43 3e
       0.022015158 0.06277389 0.10985065 0.19088918
000040 a8 d2 24 3e 8e a8 df 3d 0d 4b 1e 3e 44 3c 02 3e
       0.16095984 0.10920821 0.15458317 0.12718302
000050 15 c4 21 3d 07 02 56 3d 6c f8 3f 3d 70 d6 cf 3c
       0.03949364 0.052248027 0.046867773 0.025370806
000060 7d c3 b7 3c d1 88 0b 3e e6 20 0c 3e d1 d0 27 3e
       0.022432083 0.1362641 0.13684425 0.16388251
000070 20 69 5d 3e 45 bb 21 3e b9 ae 37 bd bb 63 fd bc
       0.21622133 0.15794094 -0.044844363 -0.030931344
000080 ed d2 02 3d 0c a7 dc bc d9 a0 f8 bb 88 e5 81 bd
       0.031939436 -0.026935123 -0.007587534 -0.06342608
000090 60 ea 9a bd ce 09 3a bc cb 17 80 3c 19 66 43 3d
       -0.07564235 -0.011354877 0.015636345 0.04770479
0000a0 1b 2a 94 3c d2 42 05 3e 0f 79 1b 3e 3a 2a e0 3d
       0.018086484 0.13013771 0.15182899 0.10945554
0000b0 cc f5 34 3e 7a 44 6c 3e 85 91 6a 3e fe d9 9a 3e
       0.17671889 0.23072997 0.22907074 0.3024444
0000c0 29 ec 77 3e b3 3d a2 3e 6b 0f cc bd 25 9a d0 bd
       0.24211182 0.31687698 -0.09963878 -0.10185651
0000d0 50 8e b1 bd b7 16 6c bd b4 26 fa bc fa fa 11 be
       -0.08669722 -0.05763885 -0.030536033 -0.14255896
0000e0 5a 03 d3 bd 92 e7 06 be a3 fa 2a be e5 f6 ff bd
       -0.10303374 -0.13174275 -0.16697173 -0.12498263
0000f0 b2 0e 30 be a8 e3 00 be bf e7 cb bd 5d cb 98 bd
       -0.17193106 -0.12586844 -0.099563114 -0.074606635
000100 f1 e5 f2 bd 70 75 5d be f8 e6 3f be 21 49 4d be
       -0.11860264 -0.2162683 -0.18740451 -0.20047428
000110 87 de d6 bd 37 dc 17 be 23 0f 0c be a9 ab 19 be
       -0.104916625 -0.14830099 -0.13677649 -0.1500689
000120 4b b2 be bd 81 36 a0 bd 68 6b 86 bd dd ab c3 bd
       -0.093113504 -0.07822896 -0.06563455 -0.09554265
000130 72 a4 c7 bd 1d aa 12 be 86 b4 fb bd 2e 36 2f be
       -0.09748162 -0.14322706 -0.122902915 -0.17110512
000140 d3 71 2b be 43 f7 0e be 96 f4 2d be 0b c1 34 be
       -0.16742639 -0.1396151 -0.16987833 -0.17651765
000150 86 7e 36 be 59 21 1a bd 08 81 5c bd 4f 8a 8c bc
       -0.17821702 -0.03762946 -0.05383399 -0.017155794
000160 8c 5d 70 3c 7e 7f 61 bd 1c 0b 77 be 7f a4 24 be
       0.014670741 -0.055053227 -0.24125332 -0.16078375
000170 e2 5b 33 be 1b e3 a6 bd 7b 0f f3 bd 8e 10 b2 be
       -0.1751552 -0.08148786 -0.11868187 -0.34778255
000180 dc 3a 93 be f7 b7 80 be 60 32 48 be 38 aa 66 be
       -0.28755844 -0.25140354 -0.19550467 -0.22525871
000190 f8 a8 05 3d ee c1 e6 39 bc 7c a4 b9 7e f7 17 bb
       0.032631844 0.00044013507 -0.00031373452 -0.0023188288
0001a0 3c 15 87 3d 7f 86 da bd 6d 2f e2 bd d4 6c c4 bc
       0.06595847 -0.10670184 -0.11044202 -0.023977675
0001b0 c5 b4 eb bd ba 84 f3 bc 47 2b f5 3d 89 3e df 3d
       -0.115090884 -0.029726375 0.11971145 0.109005995
0001c0 8b d7 f1 3d 43 79 a3 3d d3 06 1c 3e c4 52 87 3d
       0.1180869 0.07982113 0.15236978 0.06607583
0001d0 19 8d 9a 3d 4f c2 90 3d 48 e7 eb 3d cb 04 11 3e
       0.075464435 0.070683114 0.11518723 0.14161985
0001e0 c2 a0 6d 3d d0 e3 77 3d 83 24 60 3d cf 16 9d 3d
       0.05801464 0.060519993 0.05472232 0.07670366
0001f0 5d 11 40 3d 03 48 e6 3c c3 55 3c bd e5 63 1c bc
       0.04689156 0.02811051 -0.045980226 -0.009545301
000200 af 5f a9 bd 64 bd 4e bd 32 50 da 3c c1 d5 64 3c
       -0.08270203 -0.050473586 0.026649568 0.0139669785
000210 7b e4 17 bd 98 35 c2 bc bd 28 e0 bc 64 ff 19 3d
       -0.03708313 -0.023707196 -0.027363176 0.037597075
000220 fb ce 67 3d ac ec 13 3d d9 a0 81 3d 44 79 4f 3d
       0.056593876 0.03611438 0.063295074 0.050652757
000230 f8 4e d9 b9 d7 f2 54 3d 4f 9c 40 bd 46 ca d3 3b
       -0.00041448302 0.051989403 -0.047024067 0.006463322
000240 bb 9b 4e 3c b7 53 e8 bc 1a 2e 8b bd c0 b2 86 bd
       0.012610371 -0.02836023 -0.067959026 -0.065770626
000250 c3 c9 a8 bd 70 aa 83 bd 53 cc 27 3d 06 75 b0 ba
       -0.08241608 -0.06428993 0.040966343 -0.001346261
000260 98 6a a0 3d 1d 0b a4 3d df fe 59 3d 61 c6 18 3e
       0.07832831 0.08009932 0.05322158 0.14919426
000270 4a f0 e3 3d f5 eb fd 3d c1 a9 51 3e 92 d6 fd 3d
       0.11129816 0.12398521 0.20474912 0.12394442
000280 08 5d b3 3b 11 38 3d bd 10 7c 89 bb 38 bd 22 3d
       0.0054737367 -0.046196047 -0.0041956976 0.039731234
000290 c2 69 18 bd be 96 89 bd 9e ac dd bc c4 2b 32 3d
       -0.037210234 -0.06718205 -0.02705985 0.04349877
0002a0 17 15 6f 3c a0 d4 53 3d 72 38 9b 3e 4c a4 a3 3e
       0.014592431 0.051716447 0.30316502 0.31961286
0002b0 fb 94 ac 3e bf 07 d5 3e dc a0 ba 3e c2 9a ff bd
       0.33707413 0.41607472 0.3645085 -0.124806896
0002c0 e2 fa 18 be 20 c9 b9 bd 2a 64 05 be f8 a6 f7 bd
       -0.14939454 -0.09071565 -0.13026491 -0.12092394
0002d0 ea 81 cb bd be 2a 17 be 76 3d 03 be 89 61 18 be
       -0.099368885 -0.14762399 -0.12816414 -0.14880957
0002e0 61 7e 14 be ac b7 da bd 85 0e 0d be 94 f2 bd bd
       -0.14501335 -0.10679564 -0.1377507 -0.09274784
0002f0 90 b9 ce bd 24 3b 08 be 14 54 f0 bd c9 42 09 be
       -0.10093987 -0.1330381 -0.11734787 -0.13404383
000300 f7 97 0a be d1 13 1e be a7 e9 50 be a1 81 ce bd
       -0.13534532 -0.15437247 -0.20401631 -0.100833185
000310 a9 b6 e4 bd fb a2 93 bd 5c 60 2b be 43 23 19 be
       -0.11167652 -0.072088204 -0.16735977 -0.14954858
000320 0c 86 a7 3d 44 ac 9f 3d f7 ab 9f 3d 10 9b 0a 3e
       0.08179864 0.07796529 0.077964716 0.13535714
000330 60 a7 1e 3e 05 7d 28 3b 2d 53 43 3c 10 f5 2d 3c
       0.15493536 0.0025709283 0.011921686 0.0106175095
000340 02 2e a7 3d 6d 05 4e 3c d1 67 69 3e a3 fe 18 3e
       0.08163072 0.012574536 0.22793509 0.14940886
000350 e6 1e 6e 3e 3c 94 54 3e a6 d8 41 3e a0 81 04 3d
       0.23253974 0.20759672 0.18930301 0.032350183
000360 a5 f0 c9 3b 25 50 29 bd d9 18 31 3c 4a 66 63 bd
       0.0061627203 -0.041336197 0.010809147 -0.055517472
000370 5b 2b 40 bd d9 9f a7 bd 2b d8 01 be 19 4a 95 bd
       -0.046916347 -0.081847854 -0.12680118 -0.07289524
000380 33 09 0f be bb 44 51 3d 83 76 ff 3d e2 b6 b5 3d
       -0.13968353 0.051090937 0.12473776 0.08872773
000390 b3 73 ed 3d e0 9c ab 3d 82 de c1 3c fa 6a 17 3d
       0.115943335 0.08379531 0.02366567 0.036967255
0003a0 e8 d1 3d 3c 4f 6e a6 3c 83 ea 85 bc ba b1 0c 3c
       0.01158569 0.020316271 -0.016347175 0.008587295
0003b0 e0 98 47 bd ec 35 9a bc 5f ae 3d 3c 40 61 48 3b
       -0.048729777 -0.01882454 0.011577218 0.0030575544
0003c0 9e 9c 11 3d e2 e5 f6 3c 5e aa 53 3d 6b a0 bc 3d
       0.035549752 0.030138914 0.051676147 0.09210285
0003d0 f9 d4 39 3d f0 e4 31 bd 6f 8c 18 bd 92 4d 17 bd
       0.045369122 -0.043431222 -0.037243303 -0.03693921
0003e0 4a 0c 86 bd 67 1c d2 bb 72 10 3e bb 26 43 91 bb
       -0.06545313 -0.006412077 -0.0029001501 -0.0044330535
0003f0 25 fa 6a 3d b2 6b ac 3c 75 08 00 3d 90 e8 c0 bd
       0.057367463 0.021047447 0.031258065 -0.09419358

res_blocks.1.conv1.bias f4 [32]
000000 dc 55 51 3b f2 0a 02 3c cd ed ea 3c 34 9e 87 3c
       0.0031942045 0.00793718 0.028677845 0.01655493
000010 2e f6 26 3d c3 dc 43 3d f8 77 1f 3d 6f f5 ff bc
       0.04076212 0.047817957 0.03893277 -0.031244962
000020 a1 e8 bc 3c 72 14 e9 bc f2 2d 8d bc 17 3d f5 bb
       0.023060145 -0.028452132 -0.017233822 -0.007484089
000030 8f 38 93 bc 9e 86 95 bc 2c e0 aa 3c 6a ec 0f 3c
       -0.017971305 -0.018252667 0.020858847 0.008784393
000040 06 cb 43 3c 04 5f 32 3d 95 00 c6 3c c6 ed e1 3c
       0.01195026 0.043547645 0.0241702 0.0275792
000050 6e 84 b1 3c 77 2e 10 3c 34 9c 47 3d 47 ee 3b 3d
       0.021669593 0.008800141 0.04873295 0.045881536
000060 21 21 ef bb 1c a2 0a bd 70 35 00 3d a0 1f 3e bd
       -0.0072976504 -0.033846006 0.031300962 -0.04641688
000070 6c c8 c0 3c ce a6 29 3c a4 9e b8 bc 20 d1 3a 3d
       0.023533069 0.010354711 -0.022536583 0.045609593

res_blocks.1.batchnorm1.weight f4 [32]
000000 9e df 75 3f 06 bf 7c 3f fe d9 8b 3f e9 03 56 3f
       0.9604434 0.9872898 1.0925901 0.83599716
000010 c1 3f 58 3f 74 33 84 3f 63 eb 58 3f 97 18 6d 3f
       0.8447228 1.0328202 0.8473417 0.92615646
000020 66 52 4a 3f 10 7a 75 3f 45 59 89 3f 56 62 3e 3f
       0.7903198 0.9588938 1.0730368 0.743688
000030 f9 c0 87 3f 76 43 52 3f 39 1e 4c 3f 05 7a 67 3f
       1.0605766 0.8213419 0.79733616 0.9042056
000040 fe af 83 3f 8d 2b 64 3f 4c 04 83 3f 1c 48 40 3f
       1.0288084 0.89128953 1.0235686 0.7511003
000050 f8 59 74 3f 5f f7 55 3f 0b c8 80 3f 12 90 68 3f
       0.9544978 0.83580583 1.0061048 0.90844834
000060 87 1b 5b 3f bc d1 80 3f 67 39 94 3f 7b 20 5c 3f
       0.8558888 1.0064006 1.1580018 0.8598706
000070 72 3a 78 3f 95 f2 82 3f 51 55 68 3f 0d 7e 77 3f
       0.9696418 1.023028 0.9075518 0.96676713

res_blocks.1.batchnorm1.bias f4 [32]
000000 ed 27 f5 be b2 f5 15 bf 89 4c fe be 98 63 06 bf
       -0.47882023 -0.58578026 -0.49667767 -0.5249572
000010 f0 b9 83 be dd ac 87 be 42 24 eb be 7c c7 d7 be
       -0.25727797 -0.26499072 -0.459261 -0.42144382
000020 48 fc ae be cc 9e 28 bf ee 1d 92 be 1b 80 e3 be
       -0.3417685 -0.65867305 -0.2853846 -0.44433674
000030 82 64 e8 be c2 68 fc be 90 df f8 be be 2f 0a bf
       -0.4538918 -0.49298674 -0.48608065 -0.539791
000040 35 df 17 bf 60 79 00 bf cc c4 b7 bd 4d 73 e5 be
       -0.5932496 -0.50185204 -0.08973083 -0.4481453
000050 3b a3 19 bf ad e7 1e bf 61 f9 07 bf cd ed d3 be
       -0.60014695 -0.6207226 -0.53114897 -0.41392365
000060 63 b9 2c bf 1c 1d f0 be 5d 0b 62 be e4 fb 99 be
       -0.6747038 -0.4689721 -0.22074647 -0.3007499
000070 a2 d0 ed be d1 ce 46 bf 48 60 eb be 0e 82 8a be
       -0.46448237 -0.77659327 -0.45971894 -0.2705235

res_blocks.1.batchnorm1.running_mean f4 [32]
000000 e6 71 53 bf 39 d2 dd bf 95 15 80 c0 07 21 86 bf
       -0.8259567 -1.732978 -4.0026345 -1.0478829
000010 a9 ed db be 74 f8 7c c0 69 53 05 3e 4d 52 5d c0
       -0.42954758 -3.9526644 0.130201 -3.4581482
000020 05 ee 53 40 3c 60 72 c0 53 7e 47 c0 70 4b 0f 40
       3.3114026 -3.7871237 -3.1170852 2.2389793
000030 c8 87 61 c0 fd 67 3a bf 02 db 64 40 ea af 72 3e
       -3.5239124 -0.72814924 3.5758672 0.23699918
000040 e4 14 27 c0 38 72 34 c0 83 15 0d c1 9e d9 3d 40
       -2.61065 -2.8194714 -8.817752 2.9664073
000050 e5 7e ac c0 7e e6 14 bf fa 85 85 c0 b8 06 e0 3e
       -5.39049 -0.58164203 -4.1726046 0.43755126
000060 7f 46 83 c0 f7 97 a6 c0 51 01 cf c0 23 d2 4d 3f
       -4.1023555 -5.2060504 -6.4689107 0.8039877
000070 41 13 92 c0 47 fa df bf 49 ef e1 c0 84 8e f0 c0
       -4.5648503 -1.7498254 -7.0604596 -7.517397

res_blocks.1.batchnorm1.running_var f4 [32]
000000 67 9d 27 42 57 e3 a5 42 80 77 d8 42 b8 a3 95 42
       41.903713 82.94402 108.2334 74.81976
000010 a0 45 75 42 1b a3 cc 42 fc 00 5b 42 e8 40 ab 42
       61.317993 102.318565 54.75096 85.62677
000020 ec 70 a3 42 34 0b c8 42 1f 0a 8f 42 17 2b 56 42
       81.72055 100.02188 71.51977 53.54208
000030 15 22 b7 42 7b 12 c3 42 ce 5c de 42 c3 2c a0 42
       91.56657 97.536095 111.18126 80.087425
000040 85 72 b3 42 cc 1e 8c 42 7d e4 86 43 38 48 92 42
       89.72367 70.06015 269.78506 73.14105
000050 ce 58 e9 42 8c e4 84 42 64 3c 88 42 25 c3 b7 42
       116.67345 66.44638 68.11795 91.88114
000060 42 df 94 42 94 73 f4 42 05 eb 25 43 1a 0b 88 42
       74.43605 122.22574 165.91805 68.02168
000070 30 2b 94 42 36 a0 ba 42 82 b2 52 43 4c 45 0a 43
       74.08435 93.31291 210.6973 138.27069

res_blocks.1.conv2.weight f4 [32, 32, 5, 5]
000000 7c 2e a5 3d 32 70 ba 3c 1b f5 20 bc d1 54 89 bb
       0.08065507 0.022758577 -0.009824063 -0.004191019
000010 a6 c6 c1 3d aa 62 6b 3d a8 ca 9c 3c 0d e8 71 3d
       0.09461717 0.05746714 0.019139603 0.05905919
000020 d7 95 22 3d 25 c3 cb 3d 81 c9 2b 3e da 08 fc 3d
       0.03969368 0.0994933 0.16776086 0.12306376
000030 0c e4 d3 3d 68 b9 de 3d 22 84 2d 3e 8b 0e 19 3e
       0.10346231 0.10875207 0.16944936 0.14946954
000040 a6 66 03 3e 0b d5 26 3e c7 a9 0a 3e 9e 62 4d 3e
       0.12832126 0.16292207 0.13541327 0.2005715
000050 d9 27 5e 3e 17 e7 25 3e 95 03 45 3e 28 3a 42 3e
       0.21694888 0.16201435 0.19239648 0.18967497
000060 3e f2 7f 3e e6 b8 56 be 6e b0 67 be a6 12 4b be
       0.24994752 -0.2096897 -0.22625896 -0.19831333
000070 ba fb 6c be 64 fd 81 be 5b 4b 20 be 61 03 3a be
       -0.23142901 -0.25388634 -0.15653746 -0.18165351
000080 ad 41 44 be 47 5b 3a be 25 5f 17 be 12 74 53 be
       -0.19165678 -0.18198882 -0.14782389 -0.20649746
000090 9b 4c 0f be 3d 85 13 be b3 3d 0d be 81 7a 1e be
       -0.13994066 -0.14406295 -0.13793068 -0.15476419
0000a0 91 e8 21 be 2a 98 11 be 0a 65 17 be 90 72 1f be
       -0.15811373 -0.14218202 -0.14784637 -0.15571046
0000b0 c8 2a 12 be 50 2f 40 be b3 0d 17 be c9 6a fd bd
       -0.14274132 -0.18768048 -0.1475132 -0.12373883
0000c0 b1 46 0c be ca 40 2e be aa ee 87 be 81 54 8e be
       -0.13698842 -0.17016903 -0.26549274 -0.27798846
0000d0 02 9d 7d be 70 15 79 be 7e a1 98 be 2c be 1c be
       -0.24766925 -0.24324584 -0.2981071 -0.1530692
0000e0 75 87 ef bd b7 88 e6 bd 10 9b 27 be 3f 33 13 be
       -0.11695758 -0.11256545 -0.16367745 -0.14375018
0000f0 30 fe 8e bd b6 67 e4 bd 90 54 ba bd 34 b3 89 bd
       -0.06982076 -0.11152594 -0.0909816 -0.067236334
000100 fc ee a9 bd 2e 32 3c be e7 c1 05 be 8c d1 30 be
       -0.08297536 -0.18378517 -0.13062249 -0.17267436
000110 67 35 33 be 10 75 42 be d2 c1 03 be 63 11 2c be
       -0.1750084 -0.18989968 -0.12866905 -0.16803508
000120 68 4c 34 be b7 02 3f be 53 63 26 be 73 24 2a 3e
       -0.17607272 -0.1865338 -0.16248827 0.16615467
000130 c6 5f 1b 3e 79 43 30 3e 78 1a 32 3e 8c ac 3d 3e
       0.15173253 0.17213239 0.1739291 0.18522853
000140 51 42 d9 3d e0 e2 cd 3d 2b 86 ce 3d 3f 5b bc 3d
       0.10608352 0.100530386 0.10084184 0.09197091
000150 07 e2 23 3e 70 db ae 3d 54 a1 b7 3c 00 51 98 3d
       0.16004191 0.08537948 0.022415794 0.074373245
000160 49 18 83 3d d4 f8 e8 3d 98 7a 1c 3e 4f 84 99 3d
       0.064011164 0.11375585 0.15281141 0.07495939
000170 9f 3c a1 3d a6 55 fb 3d 76 60 19 3e f4 e6 84 3d
       0.07872891 0.122721955 0.14978203 0.06489363
000180 ba 79 a6 3d 98 7d fb 3c d5 d4 87 3d 0f 73 06 3e
       0.08128686 0.030699536 0.06632391 0.13129829
000190 28 ec 43 be 70 e9 06 be b9 cb 2c be eb 36 fa bd
       -0.19133055 -0.13174987 -0.16874589 -0.12217506
0001a0 4e 6b 19 be 0d 31 54 be e8 19 1e be 7f 71 27 be
       -0.1498234 -0.20721836 -0.1543957 -0.16351889
0001b0 30 db 08 be 48 13 2d be 04 de 3c be d0 6a 22 be
       -0.13364863 -0.16901886 -0.18444067 -0.15861058
0001c0 fc f2 3b be 6c 55 2c be e9 84 1d be ab 86 50 be
       -0.1835441 -0.16829461 -0.15382732 -0.20363872
0001d0 5b 1d 4c be 1c 51 40 be 7e 41 40 be a8 84 6a be
       -0.19933073 -0.18780941 -0.18774983 -0.22902167
0001e0 fd a5 40 be 7c 75 39 be 0d b7 0e be 32 77 16 be
       -0.1881332 -0.18111223 -0.13937016 -0.14693907
0001f0 e1 54 1d be 80 d0 8d 3c cb 37 36 3d 4b e1 39 bc
       -0.1536441 0.017311335 0.044486802 -0.011345218
000200 47 b6 d7 bb 7e f1 1e bd e8 18 a0 3d 3b 37 88 3d
       -0.0065830084 -0.038804524 0.078172505 0.066511594
000210 53 19 5f 3d 30 31 5b 3c b9 70 67 3c b2 1b 82 bc
       0.05446751 0.013378426 0.014125996 -0.015882347
000220 d6 5e 02 bb 5e 57 13 bc 2b c0 5f bd 90 37 64 bd
       -0.0019892952 -0.008992998 -0.054626625 -0.05571705
000230 c4 40 b6 3d a4 e2 23 3d 85 7e 18 3d 3f e5 48 3d
       0.08899072 0.040011063 0.037230033 0.04904675
000240 ff a0 b5 3c 28 e1 8d 3d 3d 11 82 3d d6 26 38 3d
       0.022171495 0.06927711 0.06350944 0.04495891
000250 3c 07 f0 3c e5 04 56 bc f6 03 ae bd 75 0a 96 bd
       0.029300325 -0.01306269 -0.08496849 -0.07326213
000260 4f 88 35 bd ec 36 2c bd d7 91 cd bd db 19 89 bc
       -0.044319447 -0.042044565 -0.10037582 -0.016735962
000270 62 4e 3d 3d 1a df 9d bb 82 74 c0 bc 88 ec 36 bd
       0.04621733 -0.0048178555 -0.023493055 -0.044659168
000280 57 27 42 3c de 8e 1f 3d 9c 8e 7e 3d 1c dd 2d 3c
       0.0118502 0.03895461 0.06214772 0.010611799
000290 27 ef 4c 3c bb 7a 8b 3c 24 08 81 3c 42 a1 d9 3c
       0.01250819 0.017026296 0.015750952 0.026566152
0002a0 a7 89 aa 3c 87 f6 cd bb 46 9f 9e bd 55 51 86 bd
       0.02081759 -0.006285492 -0.07745223 -0.065584816
0002b0 d6 64 e9 bd 11 a2 b5 bd 1d e5 be bd 04 8e 59 3d
       -0.11396186 -0.08868802 -0.09321044 0.053113952
0002c0 da 0c 7d 3d 64 4e d5 3c 47 50 b3 3d a6 ab 66 3d
       0.061779834 0.026038356 0.08755546 0.05631604
0002d0 af 41 af 3c 47 9c 94 3d 17 0f cb 3d 00 7b 94 3d
       0.021393625 0.0725637 0.099149875 0.07250023
0002e0 52 1a bb 3d a8 40 73 3d c6 7d 06 3d 1e 7a 53 3d
       0.091358796 0.059387833 0.03283479 0.051630132
0002f0 b8 36 8d 3d e4 ab 84 3d ca 88 9d 3d b0 26 bb 3c
       0.068952024 0.06478098 0.07692106 0.022845596
000300 9b 0d 9b 3d c0 b5 c2 3d a6 e8 7c 3d 1d 2c 8f 3d
       0.075709544 0.09507322 0.06174531 0.06990836
000310 80 f1 6e 3d 42 87 6d 3d 7a 1a 51 3d b5 c3 0b 3d
       0.05833578 0.05799032 0.05105064 0.034122188
000320 00 98 6e 3d c9 7f bb 3b 9d c9 2b 3d e6 16 90 3d
       0.058250427 0.0057220203 0.04194032 0.070356175
000330 5e b7 46 3d 14 f1 a6 3d 79 51 e4 3c d4 98 70 3d
       0.048514716 0.08151451 0.02787088 0.0587395
000340 2a bf ff 3c aa f1 8d 3d 6d 86 88 3c 7f a8 55 3d
       0.031219084 0.069308594 0.016665662 0.052162644
000350 31 33 5a 3d f5 95 7e 3c c0 ca b7 3d a2 48 47 3c
       0.053271476 0.015538682 0.08974218 0.012163313
000360 6d d2 e0 3c 52 cb d3 3c b1 e9 09 3c bf 5a 29 3d
       0.027444089 0.025853787 0.008417533 0.041346308
000370 97 86 b0 3d 50 6e b4 3d 18 61 a7 3d 5c 23 a4 3d
       0.08619421 0.08810103 0.08172816 0.08014557
000380 a4 d2 9d 3d 10 0d 04 3c e7 d5 d4 bb b0 61 01 bd
       0.07706192 0.008059755 -0.0064952257 -0.031587303
000390 20 66 cc 3c 83 6d 31 3c 30 24 da 3a 7f 1e 8c bb
       0.02495104 0.010829332 0.0016642865 -0.0042760964
0003a0 9a 2d b6 bb ee 6d 31 3a 10 98 8d bc e4 b8 b0 ba
       -0.0055596353 0.0006768395 -0.017284423 -0.0013482836
0003b0 f2 2b 0a bc 28 8d ca 3c 47 6e 9d bc 85 4f 3f bc
       -0.008433329 0.024725512 -0.019217623 -0.011676674
0003c0 64 aa d3 bb 15 77 10 3d 7e 88 25 3d dd 2d 27 3d
       -0.006459521 0.035269815 0.040413372 0.040815223
0003d0 1e b8 46 bc fc d4 09 3d a5 e4 c8 3c 36 28 04 3a
       -0.012128858 0.033650383 0.024523089 0.0005041392
0003e0 52 31 23 3d 64 d6 48 3d 5a 2c 51 bc 5e 73 f1 3c
       0.039841957 0.049032584 -0.012766922 0.029473957
0003f0 41 97 04 3d bd 8d 03 3c 44 37 59 3d 34 54 c9 3c
       0.03237081 0.0080293985 0.05303122 0.024576284

res_blocks.1.conv2.bias f4 [32]
000000 4e 22 9d bc 07 53 ae bc cc 92 b6 bc 42 1b 9d bc
       -0.019181397 -0.021279825 -0.022286795 -0.019178037
000010 e7 5a df bc dd 66 e1 bc d3 bc ff bb 13 45 e8 3c
       -0.027265025 -0.02751487 -0.007804492 0.02835325
000020 1f c9 08 3d 00 d4 71 bc 75 06 ec 3c 2b c0 c9 3c
       0.03339493 -0.014760017 0.028811673 0.024627766
000030 4a cb 07 3c 1c 78 8d 3c 61 43 86 39 56 cf dc 39
       0.008288214 0.017269187 0.00025608673 0.00042116147
000040 4b 5f b7 bc a8 53 ef bc 15 b5 c5 3a 85 53 fe bc
       -0.022384306 -0.029214695 0.0015083874 -0.031045685
000050 dc 91 c7 bc 1e d4 e4 bc aa 0e 99 bc e8 b0 08 3d
       -0.024361543 -0.027933177 -0.01868375 0.033371836
000060 e1 79 17 bd 2f 57 bd bc 4c 95 c2 bb ec e5 99 bc
       -0.036981467 -0.023112861 -0.0059382077 -0.018786393
000070 c8 1c 91 3c 49 91 90 3c c1 f3 c0 3c 33 08 7b 3c
       0.01771392 0.017647402 0.02355373 0.015321779

res_blocks.1.batchnorm2.weight f4 [32]
000000 e0 6c 30 40 fd 13 5c 40 87 96 23 40 24 f7 37 40
       2.7566452 3.43872 2.5560625 2.8744593
000010 24 3d 54 40 8a c8 40 40 07 7d 1d 40 2d 29 59 40
       3.3162317 3.01224 2.460756 3.3931382
000020 82 8d 32 40 5c 48 35 40 ea e9 67 40 42 2d 47 40
       2.789887 2.8325415 3.623652 3.1121373
000030 fb 2c 56 40 2e 10 3e 40 6e d9 51 40 41 4b 59 40
       3.3464954 2.9697375 3.2788959 3.3952181
000040 2f de 43 40 ba 7c 3d 40 6f e9 55 40 95 be 4b 40
       3.060436 2.9607377 3.3423727 3.1835072
000050 e6 6c 28 40 fd 3b 5c 40 84 94 52 40 d6 c0 37 40
       2.6316466 3.4411614 3.2903147 2.8711448
000060 e5 a6 7a 40 32 45 48 40 de d4 2f 40 1e e4 3a 40
       3.9164364 3.1292233 2.7473674 2.9201732
000070 ed ab 4b 40 31 a9 41 40 f6 6f 44 40 f6 46 47 40
       3.1823685 3.0259516 3.0693336 3.113706

res_blocks.1.batchnorm2.bias f4 [32]
000000 f7 98 99 3e b1 0d 21 3f 6d c7 b3 3e 3f 6b c1 3e
       0.29999515 0.62911516 0.35113087 0.37777135
000010 18 84 28 3f 5b 15 ff 3e 18 98 cc 3e fa 9f 07 3f
       0.6582656 0.4982098 0.39959788 0.5297848
000020 d2 c4 19 3f a5 4a c4 3e 3b ce 3f 3f f9 93 1e 3f
       0.6006595 0.383382 0.7492406 0.6194454
000030 8a a4 2c 3f 3c ce 0d 3f 60 38 05 3f 6e 80 ab 3e
       0.67438567 0.55392814 0.52039146 0.33496422
000040 1f 12 1e 3f ee a8 d6 3e 27 72 36 3f 5d 75 16 3f
       0.617464 0.41925758 0.7126793 0.5877283
000050 1b 9c 13 3e b0 64 3c 3f cd a3 ca 3e b1 f5 f2 3e
       0.14415018 0.73591137 0.39578095 0.47453073
000060 3a e1 3e 3f a0 19 2b 3f 5d b5 a1 3e 5c 8f fc 3e
       0.7456242 0.66835976 0.31583682 0.49328125
000070 af e0 02 3f c0 7b 01 3f 83 7f 25 3f 13 13 b6 3e
       0.5112409 0.5057945 0.6464769 0.35561427
