logs/main_run/spec_nblock3_lr0.001_ks3/checkpoints/best.ckpt (torch, 994210 bytes, 123 tensors)

conv1.weight f4 [8, 1, 3, 3]
00000000: b3e0 e4bd 4b94 b63d 3054 b9be e02b 6bbd
00000010: 5660 20be 5edf 05bd 47a1 823d 455f 913e
00000020: ea3a 9f3e f06d acbd af94 af3d c340 a03e
00000030: 3b88 5c3d d0ce e73d fe24 a6be 6162 8fbc
00000040: 0a26 133e 44a4 a1be 410a ab3e 4298 d23d
00000050: 8570 dcbd 95ca cebc ce13 13be 9079 2abe
00000060: 5857 8e3e d5d3 15bd 269e c9be d1b3 5dbe
00000070: 59e4 243e d49c 84be 1197 d4bb dcac 503e
00000080: 3414 b73d 448a 1a3d 5f3d 753e b393 a0bd
00000090: 0200 6fbe 1a9b 33be 18ef 89bd 75ad 8bbe
000000a0: bc2f 973e 0db7 d93d 77f9 65be e8a4 a23e
000000b0: 38b7 dbbd eab3 c03d 4661 833d 74ad bbbd
000000c0: fa58 b13e f258 e4be 1d8b 2ebe 5c9d c93e
000000d0: f010 9b3d 6118 4e3b f81b 08be 8d70 7c3d
000000e0: 13af ee3d f91d a73c 7a60 393d 0e9e d03e
000000f0: 6ed2 a7be 7de3 c6be 3712 c13e 464d a43e
00000100: e9f4 9c3e 61dd 51be 2ad5 9fbe 0916 8d3d
00000110: 7292 8fbe 6721 69bc fb09 7f3a f525 78be
-0.111756705 0.089150034 -0.36197042 -0.05741489 -0.15661749 -0.032683723 0.063784175 0.28392997
0.31099635 -0.084194064 0.08573281 0.3129941 0.053840857 0.11318743 -0.32450098 -0.017502965
0.1436998 -0.31570637 0.3340626 0.10282947 -0.10763649 -0.025243083 -0.14363024 -0.16647935
0.27801013 -0.036578972 -0.3937847 -0.21650626 0.16102733 -0.259009 -0.006487735 0.2037844
0.089394 0.037729517 0.23949192 -0.078406714 -0.23339847 -0.17539635 -0.06735057 -0.27280775
0.29528606 0.10630617 -0.22458445 0.31766438 -0.107283056 0.09409316 0.06415038 -0.09163943
0.34638196 -0.4459911 -0.17045255 0.39377868 0.0757159 0.0031447636 -0.13291919 0.061630774
0.116544865 0.020400034 0.045258023 0.40745586 -0.32777733 -0.38845435 0.3770921 0.32090205
0.30655602 -0.20494606 -0.3121732 0.068889685 -0.28041416 -0.014229155 0.0009728965 -0.2423323

conv1.bias f4 [8]
00000000: 587c 01bd 78c2 313e a2e1 a1be b75a 3a3e
00000010: 7626 13bd d3f4 c8be 5ba0 a1be d69a 03be
-0.031612724 0.1735934 -0.31617457 0.18198667 -0.03592535 -0.39249286 -0.31567654 -0.12852034

batchnorm1.weight f4 [8]
00000000: 1e47 513f ac86 6f3f 1c85 393f 9b07 983f
00000010: f8c1 5f3f 4ef3 8a3f 6e75 8c3f 1ac0 4f3f
0.8174914 0.9356487 0.72468734 1.1877321 0.8740535 1.0855501 1.0973337 0.811525

batchnorm1.bias f4 [8]
00000000: 5c99 6dbe 34bd d9bc 22a6 98be 3f49 f4bd
00000010: 9097 e5bd 3b4d c43d abdd 94bd 69fd b8bd
-0.23203033 -0.026579477 -0.2981425 -0.11928033 -0.11210549 0.09585043 -0.07268842 -0.09032709

batchnorm1.running_mean f4 [8]
00000000: 6b17 c8bc e520 263e acf9 b9be 7a5d 643e
00000010: 61df 07be de63 a7be 5135 8cbe 0333 66be
-0.024425229 0.16223486 -0.36323297 0.22301283 -0.13268806 -0.3269338 -0.27384427 -0.22480397

batchnorm1.running_var f4 [8]
00000000: 9276 3f3a 6cb1 3e3a 7c75 823b 686b 303b
00000010: b7fd 3e3c fd38 d83b 2acc 823b 1184 453c
0.000730374 0.0007274363 0.0039812904 0.0026919488 0.01165717 0.0065985904 0.0039916234 0.012055413

res_blocks.0.conv1.weight f4 [16, 8, 3, 3]
00000000: 6df2 263c f62b 553d b79f a63c 2475 d53d
00000010: 9a52 443c dcac 6ebd e300 afbb 0ac8 983d
00000020: 0e1f 91bc 78c0 753d efa6 be3e 1ae9 1d3e
00000030: 8d41 263e d2b4 303e 6050 74bd df1f ccbc
00000040: 0d2a bf3d ecad 82bd cdb4 ddbd 64db 5abd
00000050: 52f1 31bd d077 d8bd 448d a73c 12df 6f3d
00000060: 2900 cdbd 654e 1d3e 9e29 6e3d 3c5f ffbc
00000070: 3b87 85be 9d10 933e 2f82 be3d de87 03be
00000080: f0f0 9d3e 8e9d 3d3c 9808 30bd 3a34 883e
00000090: fc6c 8a3c 4a22 42bc 8f33 f8bd 767e 2d3d
000000a0: 78bf dcbc dd4d ad3d 43c0 b0bd 8c39 f33b
000000b0: 3846 57bd ddb3 d1bd d534 893d d175 4abb
000000c0: aa45 893c e4e2 fc3d e9a0 07be c2aa da3c
000000d0: 5052 be39 4a55 113d 4817 96bd 2bd1 7cbb
000000e0: b544 60bc 37f5 bf3c e957 313e d45c d2bd
000000f0: c994 4d3c fcce f83b e859 763d 8496 b63d
00000100: 4803 1b3e 6763 b1bd 7753 433d 2d88 7b3d
00000110: ee08 78bd 4b20 6bbc b47b 603d 84e4 b9bd
00000120: e7c1 113e 5801 013e 3afd 7a3d 6cd1 b83d
00000130: 9d99 c73d ebf7 c8bb 6a54 b43d f70a 113e
00000140: 831a 0a3d 17e1 8dbe 91d7 60be 304d 8ebe
00000150: 65f0 0d3d 1a70 fc3c 71e2 2cbe d747 8c3d
00000160: 8aef 91bd cd64 abbd 7e13 c7bc 55f7 fdbc
00000170: 034a 5f3c 9747 91bd a40d b4bc f724 60bd
00000180: f6a0 d43d a098 8e3d c1bd 1d3d 034e 853e
00000190: 665d 99bc cab4 313e 2e0e 513e 59e7 4cbd
000001a0: ead5 d83d 3f3a bcbd 25fd 0b3e eef3 783e
000001b0: 1b8b 26bd 8c36 16bd 39ac d33d 4575 bf3d
000001c0: 750f 323d 2cf5 fcbc f011 feba 27b4 883d
000001d0: 267a f13b 4466 99bd 2100 893d 571f f2bd
000001e0: d82d 33bd 5925 113e c5ec 0f3e e0ac 823e
000001f0: 9514 893d c855 3cba 3502 aabd f19d e7bd
00000200: f523 9abc b1dd bcbd 3c97 6abd 2bbe 75bd
00000210: bdc1 043e 8d2a 653e cd47 75be 2ea9 ec3b
00000220: 49d8 183e 635b 0cbd d67a 093e 5996 0cbc
00000230: dcaf e83d 909b 013b 0252 9b3c b03a c03d
00000240: 731b 963d 6def fb3c 4e0f 0cbd 9dad f43d
00000250: 80e4 b7bd fc7b 0bbd 4b9d f23c 2ead da3d
00000260: 5746 c6bc 07d4 aa3d 9035 bbbd f702 1dbe
00000270: 5347 cd3d 2b5f 99bd 2d61 b2bc 2a13 0c3e
00000280: 2ec7 c0bd 5346 58be a5ed a8bc edbe 80bb
00000290: 306b 7bbd 6299 2a3d 9167 d03d 3993 dbbc
000002a0: 257c a43d 0e0c 3f3d 2d1e 04be 9230 dabd
000002b0: 5558 4e3e 58bf 313e 0d5e a43d ef11 4b3e
000002c0: edcb 293e b2ad dfba ee35 183e 7fb0 8fbc
000002d0: 72ac 92bd d34c a1bd 9bd1 873d b1dd be3d
000002e0: 06a5 2cbe dc66 50bd bff3 e63d 887b eebd
000002f0: af28 a53d 1da1 d3bd fd2a 09be a410 cc3d
00000300: 4cbe b0bd a806 6fbd dc73 243d 1bb6 42be
00000310: e8d3 933a 5c16 a2bd 8946 273e 21d7 81bd
00000320: 6457 52be 9e56 2a3e 983f ec3d f1eb c2bd
00000330: b8bd 663e acd8 07bc 8cb7 31bd dabc 573d
00000340: d5e1 d73d 6c45 b43d ecf8 de3d 57c7 1d3e
00000350: 6940 d0bd 6b41 8b3c 151a f13d bc62 c63d
00000360: 5a97 843d 1b9a 553c b8fa d7bd f1e8 3abe
00000370: 2f3b e33c 43e7 d9bb 3b57 8cbc 3526 fabd
00000380: 74ed b73d 2605 0fbd 7993 2d3c bb3c d43d
00000390: dd69 95bd d9a0 323e 3c0d 3a3d cebc 453e
000003a0: 1fbd 763e baef b33c bf32 a8bd 1d4d 0c3c
000003b0: e30a 03be 5788 2f3d 4b22 b83d 4446 4dbd
000003c0: 54d2 b03d 5c75 723d 0bd3 f03c 8191 25be
000003d0: 86d1 1f3e 564b 163e e07e bebd a4ab 0a3e
000003e0: 173a 9cbd 4bfb 18bc 4028 5e3e 07c8 40be
000003f0: e1e5 273d da91 4cbd e11f 8fbd 7176 243c
0.010189635 0.052043878 0.02033983 0.104227334 0.011982584 -0.05827032 -0.005340682 0.074600294
-0.017715003 0.059998006 0.37236735 0.15420952 0.16235943 0.17256477 -0.059646964 -0.024917541
0.093341924 -0.06380829 -0.10825501 -0.053431883 -0.04344303 -0.105697274 0.020453103 0.058562346
-0.10009796 0.15361936 0.058145158 -0.031173341 -0.26079735 0.28723612 0.09302174 -0.12844798
0.30847883 0.0115732085 -0.042976946 0.26602346 0.01689767 -0.011848995 -0.12119209 0.04235693
-0.026946768 0.08462117 -0.08630421 0.0074226316 -0.0525572 -0.10239384 0.0669953 -0.0030892978
0.016756851 0.123479635 -0.13244976 0.026692752 0.00036300952 0.03548173 -0.07328659 -0.0038576822
-0.013688256 0.023432357 0.17318691 -0.10271612 0.01254768 0.007593034 0.060144335 0.08915427
0.1513797 -0.086615376 0.04768702 0.061409164 -0.06055539 -0.014350961 0.054805472 -0.09076789
0.14234124 0.12598169 0.061276652 0.09024319 0.09746096 -0.0061330697 0.08805163 0.14164339
0.03371669 -0.27710792 -0.21957232 -0.27793264 0.034653086 0.030815173 -0.16883256 0.0684964
-0.071257666 -0.083688356 -0.024301287 -0.031001726 0.013628486 -0.07093733 -0.02197916 -0.054722752
0.10382263 0.06962705 0.03851104 0.2603608 -0.018721294 0.17354122 0.20415565 -0.050025318
0.10587676 -0.09190797 0.13670786 0.24311802 -0.040660005 -0.036673114 0.10335583 0.09348539
0.043471772 -0.030878626 -0.0019384008 0.06674986 0.0073692976 -0.07490209 0.06689478 -0.11822384
-0.043744892 0.14174403 0.14055164 0.25522518 0.06693379 -0.0007184413 -0.08301202 -0.11309422
-0.018815974 -0.09221972 -0.057273135 -0.05999581 0.1296453 0.22379513 -0.23953171 0.007222316
0.14926256 -0.03426684 0.13425764 -0.008580768 0.113616675 0.001977656 0.018960003 0.09386194
0.07329454 0.030753816 -0.034194283 0.119471766 -0.0897913 -0.034053788 0.029616019 0.10677563
-0.024203463 0.08341222 -0.091410756 -0.15333162 0.1002337 -0.07488855 -0.021774853 0.13679186
-0.094129905 -0.21120577 -0.02062113 -0.00392901 -0.06138152 0.041650183 0.10176004 -0.0268036
0.08031491 0.046642356 -0.12902136 -0.10653795 0.20150883 0.17358148 0.08025751 0.1983106
0.16581698 -0.0017065315 0.14864323 -0.017540215 -0.071617976 -0.07875981 0.06631776 0.09319628
-0.16859826 -0.050879344 0.1127696 -0.116446555 0.080644004 -0.10333464 -0.13395305 0.099641114
-0.08630046 -0.058355957 0.040149555 -0.1901478 0.0011278363 -0.07914421 0.16335501 -0.06339861
-0.2054115 0.16634604 0.11535567 -0.095176585 0.2253331 -0.008291405 -0.043387935 0.052670337
0.10541121 0.08802304 0.10887322 0.15408073 -0.10168535 0.016998967 0.11772553 0.09686801
0.064741805 0.01303723 -0.10545868 -0.18252923 0.027738182 -0.006649883 -0.017131438 -0.12214319
0.089808375 -0.03491702 0.010594242 0.10363146 -0.072955824 0.17444171 0.045422778 0.19310305
0.24095581 0.021964896 -0.08212804 0.008563307 -0.12797122 0.042854633 0.08990916 -0.05011584
0.08633867 0.059193954 0.029397508 -0.16168787 0.1560727 0.14677176 -0.09301543 0.13542038
-0.07628267 -0.009337257 0.21695042 -0.18826304 0.040990714 -0.049943782 -0.06988502 0.010038004

res_blocks.0.conv1.bias f4 [16]
00000000: c17c fabc baa0 203d b830 cb3d 0d44 833d
00000010: fe09 0b3d d98d 90bd 010c f6bd 2373 81bd
00000020: 34f3 4cbd 8f02 20bd 585a 343d 542b f93d
00000030: e812 c93d 9ee3 4cbd 705a 403e 6487 b03c
-0.030577065 0.03921578 0.09921402 0.06409464 0.033945076 -0.07058305 -0.12014008 -0.06320789
-0.050036624 -0.03906494 0.04403147 0.12166467 0.09818059 -0.05002176 0.18784499 0.021548934

res_blocks.0.batchnorm1.weight f4 [16]
00000000: d0ee 653f df9c 783f deea a13f 9b67 803f
00000010: 1386 873f 59da 643f de8d 853f 5c7b 7a3f
00000020: d7fa 2b3f 81bb 753f 5ab7 783f 1291 833f
00000030: 519b 513f 8021 8d3f f57c 433f b042 543f
0.89817524 0.97114366 1.2649801 1.0031618 1.0587791 0.8939567 1.043392 0.9784448
0.67179626 0.95989233 0.9715477 1.0278647 0.8187762 1.1025848 0.76362544 0.8291426

res_blocks.0.batchnorm1.bias f4 [16]
00000000: dbf0 98be 85b5 39be 3254 d1bd d991 87be
00000010: 6f6d 2bbe 3d21 90be e39f b9bd cb27 35be
00000020: 20f6 b1be 08ec 1fbe 43e5 f0bd d1b7 c1be
00000030: 7af2 a6be 18db a2bb aa29 9cbe 1b2b a4be
-0.29871258 -0.1813565 -0.10221137 -0.2647846 -0.16740964 -0.2815036 -0.09063699 -0.17690961
-0.3475809 -0.15617383 -0.11762478 -0.37835553 -0.3260687 -0.0049699657 -0.30500537 -0.32064137

res_blocks.0.batchnorm1.running_mean f4 [16]
00000000: 2c16 033f cdde 253f 90d7 d13e c5ed 493e
00000010: 7e45 a1bf fa83 85be ed0d 54bf 0233 4b3e
00000020: f447 2abf 5384 ba3f 5433 ae3e cf01 143f
00000030: 2c93 44be c1c1 6bbf eeb7 213f ee7a 843e
0.51205707 0.6479309 0.40984774 0.19719608 -1.2599332 -0.26077253 -0.8283375 0.19843677
-0.6651604 1.4571632 0.34023535 0.5781526 -0.19196767 -0.9209252 0.6317128 0.25875038

res_blocks.0.batchnorm1.running_var f4 [16]
00000000: 27c3 d23e 739c 3f3f aaa8 cf3e 8e27 fe3e
00000010: 5e3d 353f 7bc3 0b3f df3a 303f f700 e43e
00000020: e0ec 1740 d24a 1440 a4a2 e93e 464d 6c3f
00000030: 3a3a 963f 612e 653f e2e9 953f 7079 df3e
0.41164514 0.748481 0.40558368 0.49639553 0.70796764 0.54595155 0.6883983 0.44531986
2.3738327 2.3170667 0.45631897 0.9230541 1.1736519 0.89523894 1.1712 0.43647337

res_blocks.0.conv2.weight f4 [16, 16, 3, 3]
00000000: 3a86 e73d 708c 98bd c271 a2bd cbdd bd3d
00000010: c65a e5ba 5d9d 02be 665c 023e e1b2 81bd
00000020: 7f4d 7fbd 39b4 283c 4d3d bbbc bf5b c43d
00000030: cd38 aebc e5c0 63bd 554f 723d 1b27 833c
00000040: b430 563d ea06 193b 2cf5 2ebd 6a15 743e
00000050: 8c1d ecbd f7b0 96bd 9d11 db3d f054 13be
00000060: be17 0abe 1987 1e3e b066 fcbd ea24 c2bd
00000070: 419b c53d cb9d 52be 5473 0abe 3c5d eb3d
00000080: 7d13 803c 8d83 82be debe 443e e83e 173c
00000090: c83b 01be 136b 87bd 1b80 35be 9b87 18be
000000a0: 3ece 11bd ae4c d5bd 9552 91bd d192 36bd
000000b0: c3e7 20be f13f ea3c c705 b83c d212 d8bd
000000c0: 7bd4 d8bc 75e8 e63d 3e75 c6bd 6a32 97bc
000000d0: 84ce 3c3d 48cb 4ebe c7e0 0e3e e7f9 0ebe
000000e0: ceed a33c 3b6c 983d e6cb 27be 9169 a7bd
000000f0: ef79 9c3d 248b 37be 0dad c9bc bf66 45be
00000100: 9bca 1b3d 21be c63d c0f5 50bd 6889 b53c
00000110: 28e4 93bd 5557 dcbc 4d47 723d e622 2ebd
00000120: ac49 d5bc eea3 16bc 0dc4 af3d 21e4 0ebd
00000130: d998 713c b68f 16bd f486 a73d cd3f 063d
00000140: 435c 9b3d 6a1a 2a3d 5e8b 02bd 6acb febd
00000150: b995 4fbb 8783 173d f72c abbd 0886 c03d
00000160: 5763 113d 2c46 c1bd 9e54 03be 71ec 6638
00000170: db13 95bc ae9e bdbd de75 a0bd f350 98bd
00000180: 9654 75bc 573b 70bc 0695 2dbe 2286 debd
00000190: 2c1e b9bd 4327 0e3e a5ba 1e3c 7aae 0dbe
000001a0: 6ce4 963d d794 1cb9 a21e 28bd 9be6 29bd
000001b0: 5cba 46be bba3 823d 3477 f53d e953 8cbd
000001c0: 0d93 6b3d 44b9 8c3d f517 01be 433b 853d
000001d0: 0faa 183e 92f0 50bd e5b6 87be 11f5 003d
000001e0: 577c 1abe 4f56 50be a860 293d aa5e dcbd
000001f0: 3428 71be 13d1 8e3d b5d8 15bd b842 cd3d
00000200: 4fc4 883c 1efc a63d c939 2d3e c271 b4bc
00000210: a1ac 8ebd 6cee 0b3e 8034 ca3d e0b2 a9bd
00000220: 378b 733c d77c edbd 93be 503d db9b ebbd
00000230: 0a79 0bbe 8767 5fbd 2bdd a8bd 5d98 f2bd
00000240: 7981 3ebd d8aa 5cbe f499 a0bd 5a8b b1bd
00000250: 7c43 86be 2cb4 b0bd a926 a4bc d4ad 6fbe
00000260: 78b8 163d 5158 ddbd d412 b1bd 4704 03be
00000270: eeda d2bd 8a69 ebbd 380d 7dbd 8af7 d0bd
00000280: 403e a5bd 2185 da3d 29ce b1bd a65a 6fbd
00000290: 343d d4bd 9a95 c9bd 4865 8ebd 7484 0bbe
000002a0: facd eebd 56a4 4bbe bf67 9ebe be9e 34be
000002b0: 6e6b 84bd df81 e23c 7553 42bc 25d7 f1bd
000002c0: 7adf b3bb 6cfe 09be b0a4 2fbd c641 e3bd
000002d0: 3645 483e a60c a63d 87bd 2e3e cecb 3a3d
000002e0: d08b 273e a9ea e73d 98aa 043e bf2b 503d
000002f0: e082 193d a0ff c33d bcb7 c13d 0d20 0e3e
00000300: d1aa 8b3d 794e 863c 9eec e53d cd6e 753d
00000310: 8cf3 ce3d 95b7 e43c b2f9 87bc ac1b cc3c
00000320: 8516 b53c a616 f8bd fdca 193d f767 2d3d
00000330: 1c63 05bd 44a3 b03d cc81 6f3d d481 01be
00000340: 1cdf d4bb 61e0 e7bd 9aae c7bd 01e9 f33d
00000350: c568 673d 13aa b0bd 16f7 0f3d 1c8a 0dbd
00000360: 8502 f9bc 338d 723d 5c99 923c 9b06 043d
00000370: 5251 2f3d a6cf bb3d c4f4 523d 56d0 5abc
00000380: 8c73 a43d 0c76 d6bc f2ce 0abd 7a05 6abd
00000390: 66cc bbbd b0ea 1ebd eddf 43bd 7160 39be
000003a0: 694f 16be 9cae d3bd 0f06 20be 3373 1abe
000003b0: f87b 14be 89c5 47be f639 5dbe 095f debd
000003c0: c62b 12be 51e6 e6bd 884b 1ebe ec81 9c3c
000003d0: 1a53 dd3d 185f 9fbc ef68 873c 8c24 4d3d
000003e0: 9d74 b53c 706e 103d d782 8239 e158 0d3e
000003f0: 7184 7f3d f7c4 b03d d135 003d 17cf 763d
0.113048986 -0.07448661 -0.07931854 0.09270819 -0.0017498366 -0.12755342 0.1273056 -0.063329466
-0.062329765 0.010296875 -0.022856379 0.09587812 -0.02126732 -0.05560388 0.05915769 0.016009858
0.05229254 0.0023350068 -0.042714283 0.23836294 -0.11529073 -0.07357972 0.10696719 -0.1438787
-0.1348562 0.15481223 -0.123242736 -0.09479697 0.09648753 -0.20568006 -0.13520557 0.114923924
0.015634293 -0.2549099 0.19213435 0.009231307 -0.12620461 -0.0661222 -0.1772465 -0.1489548
-0.03559708 -0.10415016 -0.070958294 -0.04457361 -0.1571341 0.028594943 0.022463692 -0.10550465
-0.026468506 0.112748064 -0.09690331 -0.018456656 0.046095386 -0.20194733 0.13952933 -0.13962518
0.020010855 0.07442518 -0.16386375 -0.08174432 0.076404445 -0.17924172 -0.02461865 -0.19277476
0.038035017 0.09704233 -0.051015615 0.022160247 -0.07221252 -0.026897112 0.05915003 -0.04251375
-0.026036106 -0.009194357 0.085823156 -0.03488553 0.014745914 -0.036758147 0.08180037 0.03277569
0.07585957 0.041529097 -0.031871192 -0.12441142 -0.0031674935 0.03699067 -0.08358186 0.094005644
0.03549513 -0.09437212 -0.12825248 5.5056476e-05 -0.018197944 -0.092587814 -0.078349814 -0.07437315
-0.01497378 -0.014662585 -0.16951379 -0.108654276 -0.09038958 0.13882165 0.009688054 -0.13836089
0.07367787 -0.00014932766 -0.04104484 -0.04147969 -0.19407028 0.06378885 0.11985627 -0.06851942
0.057513285 0.06871274 -0.12606795 0.06505444 0.14908622 -0.051010676 -0.26506725 0.031483714
-0.15086494 -0.20345424 0.041351944 -0.10760243 -0.23550493 0.069734715 -0.03658362 0.10022491
0.01669517 0.08153556 0.16916575 -0.0220269 -0.0696652 0.1366517 0.09873295 -0.08286071
0.014864734 -0.11596077 0.050962996 -0.115043364 -0.13620391 -0.05454209 -0.082453094 -0.11845467
-0.046510193 -0.21549547 -0.07841864 -0.08669157 -0.26223361 -0.08628115 -0.020037966 -0.23406154
0.036797017 -0.10807861 -0.08646169 -0.127946 -0.10295664 -0.11494739 -0.061780185 -0.10203464
-0.08068514 0.106699236 -0.086819 -0.05843606 -0.10363236 -0.09842987 -0.069529116 -0.13624746
-0.11660381 -0.19886908 -0.30938527 -0.1763868 -0.06465803 0.027649818 -0.011860718 -0.11808614
-0.005489287 -0.1347596 -0.042881668 -0.1109653 0.19557652 0.08107881 0.17064486 0.04560452
0.16361928 0.11324055 0.12955701 0.05082297 0.037478328 0.09570241 0.09458873 0.13879414
0.0681969 0.01639484 0.11226772 0.05992012 0.10105047 0.02791957 -0.016598556 0.024915539
0.022105465 -0.12113695 0.0375471 0.042335477 -0.03256522 0.086248904 0.058473393 -0.12647182
-0.0064963233 -0.11322094 -0.097500995 0.11909676 0.0564964 -0.08626189 0.03514775 -0.03455554
-0.03039671 0.05921669 0.017895393 0.032232862 0.042802162 0.09170465 0.051502958 -0.013355335
0.08029851 -0.026179336 -0.033888765 -0.05713413 -0.09169845 -0.038798034 -0.047820974 -0.18103196
-0.1467873 -0.103360385 -0.15627311 -0.15083008 -0.14500415 -0.19508947 -0.21604142 -0.1085797
-0.1427451 -0.11274398 -0.154585 0.01910492 0.10806866 -0.019454524 0.016529528 0.050083682
0.022150332 0.03526157 0.00024893016 0.13803436 0.062382165 0.08631318 0.031301323 0.06025609

res_blocks.0.conv2.bias f4 [16]
00000000: 0c63 e7bd e6d8 8a3d bb24 90bd 954f 6d3c
00000010: 610c bb3b 50c6 1abd 1963 75bc 522d 92bc
00000020: ff00 9d3d 791a c9bd 71f7 85bd 2625 cd3d
00000030: 921d 7c3d e70f b83d 3fbe dabd dfbb a33d
-0.112981886 0.06779651 -0.07038256 0.014484306 0.005708263 -0.03778678 -0.01497724 -0.017843876
0.076662056 -0.098195024 -0.06541336 0.10016851 0.061551638 0.08987408 -0.10680818 0.07994818

res_blocks.0.batchnorm2.weight f4 [16]
00000000: ab4d 923f 0f3c 693f bacd 6c3f 209e 873f
00000010: afeb 723f a905 993f 4e48 8d3f 400e 8b3f
00000020: 0e91 813f f519 a03f 2bd9 863f c094 963f
00000030: ac7b 893f dbaa 893f 8d1e 633f d264 883f
1.1429952 0.9110727 0.92501414 1.0595131 0.94890875 1.1954852 1.1037691 1.0863724
1.0122392 1.2507921 1.0535024 1.1764145 1.0740867 1.0755266 0.8871849 1.0655768

res_blocks.0.batchnorm2.bias f4 [16]
00000000: b0f4 1bbc f446 6abd 9c4d 4cbd 7d14 9abd
00000010: 3757 95bb 7df1 81bd 185e 08be e980 2ebd
00000020: 4c4e 37be 4e9c 4cbc e972 06be ec6d c7bd
00000030: bd8f f5bd dc94 88bd cb18 d8bd b893 a2bd
-0.009518787 -0.057196572 -0.0498787 -0.07523439 -0.004557516 -0.06344888 -0.13317144 -0.042603407
-0.17900962 -0.012488438 -0.13129772 -0.09737763 -0.119903065 -0.06669018 -0.10551604 -0.07938331

res_blocks.0.batchnorm2.running_mean f4 [16]
00000000: 626a b4bf 11fd 7ebf bf80 acbf c055 66bf
00000010: dd74 c8bf 0811 98be a607 5ebe 08e8 0d3f
00000020: a8c0 5d3f fb32 dabf 011a c43e 7447 673e
00000030: 45a8 b53e b886 123f 9669 24c0 1b18 413f
-1.4094965 -0.996049 -1.347679 -0.89974594 -1.5660664 -0.29700494 -0.21682605 0.55432177
0.86622095 -1.7046808 0.3830109 0.22585851 0.35479942 0.57236814 -2.5689445 0.7542741

res_blocks.0.batchnorm2.running_var f4 [16]
00000000: 4292 8a40 a309 9240 6d86 6540 6967 0940
00000010: 8694 f240 7aef ea3f 2747 c93f 56c1 1740
00000020: 4316 0d40 fb48 aa40 d9c3 2940 16bc 2840
00000030: 28df 0d40 9d39 ea3f 992e 7841 f485 c83f
4.3303537 4.5636764 3.5863297 2.1469367 7.5806303 1.8354332 1.5724839 2.3711753
2.2044837 5.3214087 2.6525786 2.6364799 2.2167454 1.8298832 15.511376 1.5665879

res_blocks.0.residual_conv.weight f4 [16, 8, 1, 1]
00000000: bc40 143e aa68 853e 9c04 13be 8f31 82be
00000010: 2f3a 9dbe ef01 a3bd 4f94 a6be ee8f 143e
00000020: a107 cbbe 7696 70be 5060 413e efb4 d7be
00000030: f2cb 14be 6d4d b6bc 43c5 803d 22a3 d8be
00000040: 5555 373e 8d53 083e 8076 3d3d 8d87 483d
00000050: f710 bc3d 233c 84be b260 873e 78ca cdbe
00000060: 1512 643e dfa4 db3d 08b3 eebb 04a8 3abe
00000070: 4556 78bd b9cc a9be 83f3 23bd b46a 883d
00000080: 1a30 26be af31 3d3e 2d95 4ebe de0e 29bf
00000090: ebeb 03bd 9f9d 07bf a18a 8e3e 2f21 103b
000000a0: 2121 433e 4a07 5a3d 3dd4 203e 1f46 6ebe
000000b0: 1b68 bdbd 95f6 293e ce77 063e 62ba a63e
000000c0: 354f 883e f4b6 ac3e 3ee7 113e 532c 94be
000000d0: a2e7 163e 515a e7bc 1d6e 68bb 9baf 9ebe
000000e0: d593 5cbe a29e 97bd 3087 7bbd 71f2 253c
000000f0: 1a4f 73be 86e6 71be 9d4f 72bd 3a83 82bd
00000100: 7a32 283e e8ff 693e 795f 133e a6eb f1bd
00000110: caeb bebe 58be 74be 3230 0ebf e03a 8dbe
00000120: 6bdf 4bbe 014f 86be 9414 01be 55ea 803e
00000130: e8c4 9bbc 266a 263e 86b8 293d e1d2 9f3d
00000140: ad7a 94bd db74 1d3e 7d74 1dbe dc4d 2f3e
00000150: 89d6 a63e 7109 f7be 9677 d9be 100b 9abe
00000160: 6736 c6bb bd71 9cbe 13ca be3c 4bdd e1be
00000170: a9d4 9ebe 8684 90be 8eec a7bd e93a c63d
00000180: 508c b0be a0e3 99bb c389 0abd 2139 67be
00000190: fa34 083e 6b2d 32be b674 3cbe 28d9 383e
000001a0: ccb4 403e 5f4a 5fbe 50d0 723e b6ba 84be
000001b0: 446d 52bb 3018 fa3c dd14 adbe a22f 253e
000001c0: 8fa2 91bd 5fee 81bd 05a4 36be 9720 e53c
000001d0: 3d18 53bd b2b9 10be 32e6 593e 6069 463e
000001e0: 9d2c 293e 7889 ed3d 077f bfbd faa0 933b
000001f0: faff db3d e073 6bbe 9092 c8be 60a1 60bc
0.14477819 0.26056415 -0.14357227 -0.25428435 -0.30708453 -0.07959353 -0.32535025 0.1450803
-0.39654258 -0.23494896 0.18884397 -0.4213023 -0.14530924 -0.022253716 0.06287625 -0.4231196
0.17903645 0.13313122 0.04625559 0.048957396 0.09182923 -0.2582713 0.2644096 -0.40193534
0.22272523 0.10724806 -0.007284526 -0.18228155 -0.060629148 -0.33164003 -0.040027153 0.06660977
-0.16229287 0.18475984 -0.20174094 -0.6603831 -0.03220741 -0.52974886 0.2784014 0.0021992435
0.19055606 0.053229608 0.15705962 -0.23268937 -0.09248372 0.1659797 0.1313164 0.32564074
0.2662293 0.33733332 0.14248368 -0.28940067 0.14736798 -0.028241308 -0.0035466023 -0.3099335
-0.21540768 -0.07403304 -0.06140822 0.010128603 -0.23760644 -0.23623094 -0.059157956 -0.06372686
0.16425505 0.22851527 0.14391889 -0.118125245 -0.37289268 -0.23900735 -0.5554229 -0.2758398
-0.19909446 -0.2623215 -0.12605506 0.2517878 -0.01901479 0.1625143 0.04143574 0.07803894
-0.07249961 0.15376608 -0.15376468 0.17119545 0.32585552 -0.4824939 -0.4247405 -0.30086565
-0.0060489657 -0.30555525 0.023289716 -0.44114146 -0.31021622 -0.28226107 -0.08199416 0.09679205
-0.3448205 -0.0046963245 -0.033822786 -0.22580387 0.13301459 -0.17400138 -0.18403897 0.18051589
0.18818969 -0.21805714 0.23712277 -0.259237 -0.0032108584 0.030529112 -0.3380498 0.16131452
-0.07111084 -0.06344294 -0.17836006 0.027969642 -0.051536787 -0.14133337 0.21279219 0.19376135
0.16520925 0.11598486 -0.093504004 0.004505274 0.10742183 -0.22993422 -0.39174318 -0.01371035

res_blocks.0.residual_conv.bias f4 [16]
00000000: 5b71 abbe ed4d bf3d 8124 c3be 1e18 0b3d
00000010: 3ada 55bd 4aa7 b2be 01fe 403e 62bd 9cbe
00000020: 972a 913e 6ccb afbe f88c 8cbe 575c 7a3e
00000030: d558 383e f9cc 723e 0d28 4c3c 0b5f 963e
-0.3348492 0.09341035 -0.38113788 0.033958547 -0.05221007 -0.34893256 0.18846895 -0.30613238
0.28352806 -0.34334886 -0.274513 0.24449287 0.18002637 0.23711003 0.012460721 0.29369387

res_blocks.1.conv1.weight f4 [32, 16, 3, 3]
00000000: 3c48 8c3e 171e 023e df1d 453e 268d 7d3e
00000010: 7473 8d3e 1ce2 1b3e 18c9 413e 6f4d 1d3e
00000020: 07be 283e c0fd 223d 2de3 c9bd d80b 873d
00000030: e395 363b f689 c5bd 14c8 463d 996e 0b3c
00000040: a8de e9bc 6ba9 973c e775 1abe 44de abbd
00000050: a293 85bd 9cc6 c8bd becb a7bd 7958 16be
00000060: fec6 0bbe 7bf8 d4bd f553 f3bd 26bc 8cbe
00000070: 196c 89be 15dc 5dbe d49e 64be f627 96be
00000080: 02e6 84be c8b4 4cbe bf0f 89be ce9a 0fbe
00000090: b806 afbb 0b96 9f3c cd37 c9bd d0bf 0cbd
000000a0: 9b6a 90bd 04cc 4a3d 73fc 4abd f6b0 fbbc
000000b0: 8b23 fabc 65fb acbc 02a2 6dbd fbc9 73bd
000000c0: f9e8 533d db96 483d 9d8d 43bd 3ed4 433b
000000d0: 4624 ab3d c66e 0b3c 6d51 323c d530 b13c
000000e0: 8974 bd39 c541 2cbd 47cc c63d b709 b4bc
000000f0: 44e5 953d 3196 12bd 2127 fb3c 5932 06bd
00000100: d0ad af3d e3af 09bc c3e5 e6ba 7b99 3bbd
00000110: 5884 863d 6b81 9c3a f851 33bd 7edd 5c3d
00000120: 99d2 7c3c b688 8bbd 9459 723d bb42 00be
00000130: d6e7 a8bd b123 d73c 75ff 253d 261f 84bb
00000140: 90e5 153d a228 abbd 7190 89bd 5f32 09be
00000150: fbf3 86bd 0bde e7bd 015e 90bd e16d 8ebd
00000160: fcce 12be 3685 c7bd 232b 403c 8bbe a23c
00000170: 6223 b33d 1cde 1c3e 682a e43c c02c 063e
00000180: b22e 473e 75f8 023e 1d6a e43d 7c81 d33d
00000190: 6038 af3d 3be5 2e3e 985c 733e 36e1 5c3e
000001a0: b283 3a3e 8003 313e fd6d 243e 472a 1c3e
000001b0: 69b7 79bc 8425 833c 5fb8 efbc 2070 893d
000001c0: a652 053c 4c08 83bc fa9b aa3d 99e9 bd3d
000001d0: 15fc ad3d d7ca 84bd 46e4 0e3d 1f52 c5bd
000001e0: 35c9 afbc ea7a 063c 3f35 21bd 5c04 a7bd
000001f0: d7ab 8cbd 1757 edbd e377 28be 4466 c8bd
00000200: bca9 09be 8c1b efbc 8377 e3bd f4f6 cabd
00000210: 096f 5bbd efe8 06be 2735 debb cf2b 0dbd
00000220: 7666 0fbd 48a7 edbd 8f5b 89bd 48d8 cfbd
00000230: 2601 15be a746 21be 54ae 1fbe 427f 00be
00000240: 168e 8c3c 5ab5 7dbc 7961 2f3d dadc 4fbd
00000250: e35f f33c 5101 063d a2b6 48bd 30a8 7bbd
00000260: 7bd0 4cbd e11d d6bd e456 acba 0ae7 033d
00000270: 4696 32be 8e6a 8abd 1e0e 18be cb35 bdbd
00000280: d973 f0bd d101 18be 967a 12be 0f61 bcbd
00000290: 97f0 6dbd 421b edbd 176b a6bc 116a d6bd
000002a0: b45a ba3c 1457 e0bc 54e1 bb3d c0a3 86ba
000002b0: f17a 503d f3a9 fa3b efab c63b 68c8 223d
000002c0: 11e6 da3d 3411 fb3d a0ef 9e3d 3d87 9d3d
000002d0: 61b0 0bbb a643 9cbd 8879 c9bd 434a 39be
000002e0: 699e 6dbd 39ed 4dbd 142e 07bd 6f7e fabd
000002f0: 9ffb 4fbc 3311 c9bc 7e60 cf3d 2bc6 eb3d
00000300: a6e4 b63d 7e87 d33d 8ad3 c93d 3787 e23d
00000310: 98ff 643e 4f6b 6b3e 28e5 bc3d d30a f23c
00000320: 43bf 59bd 432a 973d 27d1 023e 232d 8a3c
00000330: f46e 203e 7a21 db3d ec11 303e 846c 633b
00000340: 92a9 24bd 21ff ccbd 9b79 b7bd 32c3 adbc
00000350: 06a1 833c 64c7 c9bc 4590 7a3c b905 dfbd
00000360: fc5f ebbd b11d ddbd 25e2 00be af38 00be
00000370: 37a4 17be 7299 07be 76a7 cabd 1cd7 6fbd
00000380: f28f cbbd 8911 7ebd a757 fc3c 2135 7bbd
00000390: 683c a0bc e90d e3bd f65c 60bd c71e b43d
000003a0: 2e91 29bd bb50 02bb 6ff4 3d3d 6594 dc3c
000003b0: 4d17 92bc 6704 733d 325e 14bc 5a89 8bbd
000003c0: dc86 55bc d61f b03b ad32 643d c6de bdba
000003d0: 1942 d9bc e317 85bd d963 3e3d 0156 ad3d
000003e0: 1d8a d63d 4a91 af3d aff1 a83d e826 9b3c
000003f0: e50c e93d c4a0 623d caf2 043e 83e1 3b3e
0.2739886 0.12706791 0.19249676 0.24760875 0.27627146 0.15222973 0.18924367 0.1536157
0.1647874 0.039792776 -0.098577835 0.06594056 0.0027860336 -0.096454546 0.048530653 0.008510255
-0.028548554 0.018513402 -0.15084039 -0.08392003 -0.06522299 -0.09803507 -0.081931576 -0.14682187
-0.13650128 -0.103989564 -0.11881248 -0.27487296 -0.26840284 -0.21665986 -0.22326213 -0.29327363
-0.25956732 -0.19990838 -0.26769826 -0.14023897 -0.005341377 0.019480726 -0.09825096 -0.034362614
-0.070515834 0.04951097 -0.04955716 -0.03072403 -0.030534526 -0.021115968 -0.05801583 -0.059518795
0.051735852 0.048971992 -0.047742475 0.0029881145 0.08356528 0.008510297 0.010883671 0.02162973
0.00036135715 -0.04205491 0.097069316 -0.021977289 0.073191196 -0.035787765 0.030658307 -0.03276286
0.08578074 -0.008403751 -0.0017616082 -0.045800667 0.06568211 0.0011940425 -0.043779343 0.05392217
0.01543107 -0.06813185 0.05916746 -0.12525456 -0.08247344 0.026262136 0.040526826 -0.0040320335
0.03659588 -0.083573595 -0.06717003 -0.13398121 -0.06589504 -0.11321648 -0.0704918 -0.069545515
-0.14336771 -0.09742205 0.011729035 0.019866249 0.08746983 0.15319103 0.027852252 0.13103008
0.19451407 0.12790091 0.11153052 0.103274316 0.085556746 0.17079632 0.2376579 0.21570286
0.182143 0.17286491 0.16057582 0.15250503 -0.015241482 0.0160091 -0.02926272 0.06710839
0.008137381 -0.015995167 0.083305314 0.09273071 0.084953465 -0.06484001 0.034885667 -0.09634804
-0.021458248 0.008208016 -0.03935742 -0.08155128 -0.06868713 -0.11588877 -0.16451983 -0.097851306
-0.13443655 -0.02918794 -0.111067794 -0.09910384 -0.05357269 -0.13174795 -0.0067812386 -0.034465607
-0.035009824 -0.11604172 -0.067069165 -0.10148674 -0.1455122 -0.15749608 -0.15593845 -0.12548545
0.017157596 -0.015485132 0.042817567 -0.05074773 0.029708808 0.0327161 -0.049002297 -0.061439693
-0.05000351 -0.10454918 -0.0013148454 0.032202758 -0.17440137 -0.06758605 -0.14849135 -0.09238776
-0.11740846 -0.14844443 -0.14304575 -0.091982 -0.058090772 -0.11577465 -0.020314736 -0.10469449
0.022748329 -0.027385272 0.09173837 -0.001027219 0.050898496 0.007649654 0.0060629766 0.039741904
0.10688413 0.122591406 0.077605486 0.0769181 -0.0021314847 -0.076300904 -0.09837633 -0.18094735
-0.0580124 -0.05027506 -0.033002928 -0.122311465 -0.0126942685 -0.024544334 0.10125826 0.11512407
0.0893033 0.103285775 0.09854801 0.110609464 0.22363126 0.22990154 0.092233956 0.029546177
-0.053160917 0.07381108 0.12775098 0.016867226 0.15667325 0.106997445 0.17194337 0.0034702132
-0.040200777 -0.100095995 -0.08958741 -0.02121124 0.016067993 -0.02463121 0.015293186 -0.108897634
-0.11492917 -0.10796679 -0.12586267 -0.12521623 -0.14808737 -0.13242128 -0.09895222 -0.058554754
-0.09939565 -0.06202844 0.030803515 -0.061329965 -0.019560054 -0.110866375 -0.054776154 0.08794933
-0.04139822 -0.0019884545 0.04637569 0.026926229 -0.017833376 0.05933037 -0.009055661 -0.06813307
-0.013032641 0.005374889 0.05571239 -0.0014485947 -0.026520776 -0.06498697 0.04648194 0.084636696
0.10475562 0.085726336 0.082492225 0.01893945 0.113794126 0.0553291 0.12983242 0.18347745

res_blocks.1.conv1.bias f4 [32]
00000000: 93dc 923d bc17 283b 3ec5 963d e15e 4d3d
00000010: 360b 8abd 70f8 5abd c7b8 68bd 52c4 41bc
00000020: f3e5 9ebd a566 06bc 677d a8bb ba9e c43d
00000030: 812e 35bd aa03 1a3d 969e 163d bead 9cbc
00000040: 7036 1f3d 66ee 8ebd 3e33 22bd 8f69 54bc
00000050: e8f1 9f3d 753f 123d 7c49 9d3d 3a3e 0d3b
00000060: cd79 103d f717 333d 3e29 c7bb 7db1 b03d
00000070: 9b27 8c3d 10cb 02bd 69b7 1e3d 9d5c 80bd
0.071709774 0.0025648912 0.0736184 0.05013931 -0.067404196 -0.053459585 -0.056816842 -0.011826592
-0.07758703 -0.008203183 -0.0051419022 0.09600587 -0.044233803 0.03760115 0.036772333 -0.019125815
0.038870275 -0.06979065 -0.03959965 -0.01296462 0.07809812 0.03570505 0.07680032 0.0021551982
0.03527241 0.043724027 -0.0060779145 0.08627603 0.06843492 -0.031931937 0.038749132 -0.062676646

res_blocks.1.batchnorm1.weight f4 [32]
00000000: 6fab 653f 067b 593f f91c 913f 99d8 693f
00000010: 8ce7 763f 60e6 4a3f a3d3 6e3f 4c8e 863f
00000020: d5b5 7c3f eaa8 613f f181 6f3f e9d2 853f
00000030: 4dec 843f 9aea 703f 906a 6e3f 5d4e 8b3f
00000040: 031f 803f f503 853f a274 643f 6d41 7c3f
00000050: 9f31 7e3f 38ce 843f b9d7 803f 1960 8c3f
00000060: 2931 843f d09f 623f 4891 653f 92d0 633f
00000070: 0189 5f3f 4790 833f 0015 4f3f 4094 803f
0.8971471 0.84953344 1.1336967 0.91346127 0.9644706 0.79257774 0.9329168 1.0512176
0.98714954 0.8814837 0.9355765 1.045499 1.0384613 0.94107974 0.9313135 1.088329
1.0009464 1.0391833 0.8924047 0.9853733 0.99294466 1.0375433 1.0065833 1.0966827
1.0327502 0.88525105 0.89674807 0.8899013 0.87318426 1.0278405 0.8089142 1.0045242

res_blocks.1.batchnorm1.bias f4 [32]
00000000: c1ba a1be 61a3 87be e833 ccbe 99b1 47be
00000010: 8359 5bbe 7bf5 adbe add4 a3bc db0f c4be
00000020: 9d60 54be 78f3 f6bd da4d efbe c403 44be
00000030: 2dd1 e1be fd7f 6ebe 1e4e 9abe d582 f7bd
00000040: 4307 01bf 3a93 a4bd 8aff eebd 3dd6 52bd
00000050: 583f 89be f67d 8fbe 4416 f9bd 30a9 9cbe
00000060: 0cb1 31be b886 8bbe 2b2d 55be af27 2abe
00000070: e974 36be ccb6 d7bd dbc5 73be 11a2 2fbe
-0.31587794 -0.26491836 -0.3988335 -0.19501342 -0.21420865 -0.3397635 -0.019998873 -0.38293347
-0.2073998 -0.12058157 -0.46739084 -0.19142061 -0.441049 -0.23291011 -0.30137724 -0.12085501
-0.50401706 -0.08035894 -0.11669834 -0.051473845 -0.2680614 -0.28025788 -0.1216245 -0.3059783
-0.17352694 -0.2725122 -0.20818011 -0.166167 -0.17818035 -0.105329126 -0.23805945 -0.17151667

res_blocks.1.batchnorm1.running_mean f4 [32]
00000000: 79ed e8bf 9b80 b7bf 4b3d 83be c1be c2bf
00000010: f924 a43e eccd b040 2150 a3c0 af62 fabf
00000020: 4eec 7f3e a750 2440 0e53 2dc0 0f5e 1cc0
00000030: 061b bbbf 293c 2bc0 4272 f2bf 38cb 77c0
00000040: ca74 22be 73eb 97c0 6c28 8e3f bd1d 9cc0
00000050: 51c5 74c0 861b 0c40 2eb8 53c0 ce89 9abf
00000060: b1f2 a13f 321f 7540 0b31 4ebf 2bcf 78bf
00000070: 0e6d 77c0 f46a 54bf 3f9a 8cc0 21b1 03c0
-1.8197471 -1.4336122 -0.256327 -1.5214463 0.32059458 5.525137 -5.1035314 -1.9561366
0.24992487 2.5674226 -2.7081943 -2.443241 -1.4617622 -2.675547 -1.8941119 -3.8717785
-0.15864864 -4.7474914 1.1106086 -4.87863 -3.8245432 2.18918 -3.3081164 -1.2073305
1.2652189 3.830029 -0.80543584 -0.97191113 -3.8660312 -0.829757 -4.393829 -2.057686

res_blocks.1.batchnorm1.running_var f4 [32]
00000000: b2d1 5840 55f2 2641 a199 7440 b3f1 7841
00000010: 19dd c240 4522 6541 b190 0a42 afe1 8240
00000020: 7d71 7540 6c22 5641 5b4c 8840 6f0c 3f40
00000030: 46dc 7040 f46e 9940 c68b e640 9ae2 8b41
00000040: e1e0 e33f a9e7 c441 43d6 8b40 c02f 3b41
00000050: 8ef2 c040 642d a13f 9994 c840 7616 3540
00000060: 5885 1741 9f1d d340 30ac c940 9ca7 2841
00000070: be14 a441 0696 a940 bd0f ab41 d954 e940
3.3877988 10.434163 3.8218768 15.559009 6.0894895 14.320867 34.6413 4.0900493
3.8350518 13.383404 4.2593207 2.985134 3.7634444 4.794794 7.204562 17.485645
1.7803003 24.613115 4.369905 11.699158 6.0296087 1.2591977 6.2681394 2.829496
9.470055 6.597366 6.302269 10.54092 20.510128 5.2995634 21.382685 7.2916074

res_blocks.1.conv2.weight f4 [32, 32, 3, 3]
00000000: 5896 8a3e dcb2 833e c8df 8a3e 64e9 913e
00000010: e0bf 923e 2200 723e ee13 8b3e 3f2a ac3e
00000020: a607 b13e 7be3 a5bc 8520 99bd abf3 adbd
00000030: cc5c c83b 71b8 d4bb 0588 8ebc 16ab 49bd
00000040: a7cb a2bc f453 e4bb f0a3 f0bd 788e 5cbd
00000050: 2fbe 4cbe c84e 5cbd 7f9b febd d16a 09be
00000060: c544 c0bc 5c92 7dbd 0a9e 3ebe 004c 513d
00000070: 881a 7cbb dc32 403d 7465 4e3d f709 38bb
00000080: 3d81 2fbc 5ce7 71bc 513e 3f3d 8b8a 8a3d
00000090: bae0 553d 087e e83c 6452 8f3c b502 643c
000000a0: e02a 3a3d 3c50 ddbc b23a 95bd 7bae 4ebd
000000b0: 0006 a83b b443 e9bd 80f6 e1bd 1a8d b7bd
000000c0: 6f0b 9bbd c839 aebd de17 a5bd 175a a1bd
000000d0: 675d a3bd 291f 12be 37d5 e1bd b11e c1bd
000000e0: 4850 63bd b675 42bd 39da 743b 9bbb 7b3c
000000f0: df53 f6bd a46b 83bc fe46 7e3c 85f1 01bd
00000100: 95de a8bd 7f68 37bd 764b 12bd 73af e0bd
00000110: e3ad 0fbe 00ba 4bbd 2c50 cebd e2b0 f0bd
00000120: afb8 333e eca8 333e 2318 ec3d 4550 c13d
00000130: 32a5 0d3e bb17 193e 68e9 183e 8a16 d63d
00000140: 90bc 233e 3cac 453d 7bd5 9c3d 4f25 ad3c
00000150: 9442 9e3b db41 f63d a53c 513d 1204 873c
00000160: 22f5 393d e44c b03d da6e ef3c db1a cb3d
00000170: cd09 7a3d cdd8 9e3d ea04 cc3c c012 d03d
00000180: 5f90 7f3d f8d6 d63d d725 4d3d b82a 1e3e
00000190: 51e3 393e c477 b83d 51f6 f23d fc6c ec3d
000001a0: 0148 2a3e 5979 563e bad4 f03d d90e d53d
000001b0: 54fc d93d ae5a 813c 40d3 123d f074 bf3d
000001c0: 72d1 043d 97d5 853d 0c6c febb b937 b4bc
000001d0: 1717 353d 98d8 aebc a07f 04bd 6923 683c
000001e0: df3b 28bc bc93 adbd 57a2 f3bb 10d6 85bd
000001f0: 46b2 a6bd 69f6 b6bd b0e9 9e3d 1224 14b9
00000200: 195e ff3c cdb0 a53d 2734 e4bb c5ac 493d
00000210: 9d63 00bc e159 a53d 4c4e cb3c 14f0 02be
00000220: 43f0 26be a0df bdbd 6167 ebbd 322b 19be
00000230: 7693 0cbe 3880 05be 4732 13be 2095 e3bd
00000240: a79f 69bd 2fcf 5c3c 5e5f 91bd 0b5a fbbb
00000250: b573 48bd 99fd f43b e4d2 20bd fc96 f6bc
00000260: 523d 96bc d81d 6f3c f908 be3c 5a48 4b3d
00000270: 4119 c23d b4be 843d 5953 df3d b7cc ac3d
00000280: 4fba a83d b175 793c 949e 56bc 251a f73c
00000290: 66b3 5f3d 5a10 153a 72ea 0ebd 08d6 25bb
000002a0: e612 513c 508b 26bc 08a0 6c3d b25a e3bd
000002b0: df20 8bbd e4d6 31be 98d8 d3bd eca4 0fbe
000002c0: f022 30be 63dc ebbd 4b9e a6bd ed03 aabd
000002d0: 3dcd 413d d22d 0cbd 8bd8 f43c c514 4f3d
000002e0: 99b4 a6bc 67cf ca3c 28aa fcbc 0db9 1bbd
000002f0: 07cf 0cbd 3e7e 7ebe 11b0 29be b570 4cbe
00000300: 989d 55be a1f4 6fbe 3b23 7abe df38 56be
00000310: 4238 0cbe 3050 71be dc5f 65bd a46f 43bd
00000320: c949 d3bd d1c9 a2bd bf07 99bd 6db7 7abd
00000330: e4c3 b6bd a335 f9bd 723f 40bd 5cf7 9bbc
00000340: 02f1 b6bb 8626 953d 211a efbc f4dd e63c
00000350: 79bb 2d3d 3703 2dbc cb43 173d e53e 0d3d
00000360: d783 37bc 0026 79bc 6814 a33d 615f c2bc
00000370: 3689 153c 0215 713c 64e4 ab3d 2ce5 4b3d
00000380: 4305 f13b c6e7 eebd 7c7e 0ebc d21d 0abc
00000390: e5f6 d4bc 48f3 9bbd 1203 cbbd 3029 cebd
000003a0: b533 b2bc 832c f2bd 7a02 fc3d 350d 303e
000003b0: fa85 293e 3e35 3a3e a037 e43d 20f9 103e
000003c0: ea7d 653e a3ae 1c3e 2713 1d3e cae5 603b
000003d0: 253d 303d ee61 0abd 6845 813d 7028 4c3d
000003e0: bf00 9c3b 6e9e dc3c 577e 65bd 94ab 4d3d
000003f0: 1ac0 a53c e3e1 40bc 8884 2f3d 5c03 bdbc
0.27067828 0.25722396 0.27123857 0.28498375 0.28662014 0.23632863 0.27163643 0.3362598
0.34576148 -0.020250073 -0.07476906 -0.084937416 0.006114578 -0.0064917137 -0.017398844 -0.049235426
-0.0198725 -0.006968016 -0.117500186 -0.053846806 -0.19994424 -0.05378607 -0.12432002 -0.13419653
-0.023470292 -0.061907157 -0.18614975 0.05109787 -0.0038467962 0.046923503 0.050389722 -0.0028082111
-0.010711965 -0.014764633 0.04669029 0.06764706 0.05221627 0.028380409 0.017495342 0.013916661
0.045451045 -0.027015798 -0.07286586 -0.050459366 0.0051276684 -0.113898665 -0.11033344 -0.0896246
-0.0757054 -0.08507115 -0.08061193 -0.078785114 -0.079767995 -0.14269699 -0.11026996 -0.09429682
-0.055496484 -0.04747554 0.0037361516 0.015364553 -0.12027716 -0.016042538 0.015519856 -0.03172447
-0.08245579 -0.04477739 -0.035716496 -0.10970964 -0.14031176 -0.04973793 -0.10073885 -0.11752488
0.1755092 0.17544907 0.11528041 0.09439138 0.13832548 0.14950459 0.14932787 0.10453518
0.159899 0.04825996 0.07657906 0.021135954 0.004829714 0.1202428 0.051083226 0.016481433
0.045399792 0.08608416 0.029227663 0.09917232 0.061044503 0.07756195 0.024904687 0.10159826
0.062393542 0.10490221 0.050084915 0.15445983 0.1815312 0.090072185 0.118633874 0.115442246
0.1662903 0.20944728 0.11759324 0.104032226 0.10643831 0.01579031 0.035845995 0.09348476
0.032426305 0.0653488 -0.007764345 -0.021999227 0.044211473 -0.021343514 -0.032348275 0.014168599
-0.010268181 -0.08475444 -0.007435124 -0.0653497 -0.08139472 -0.08933718 0.07759416 -0.00014127817
0.031172799 0.08090363 -0.006964225 0.04923703 -0.00783625 0.08073784 0.024817608 -0.12786895
-0.1630259 -0.09271169 -0.11494327 -0.14957884 -0.13728127 -0.13037193 -0.14374648 -0.11112428
-0.057037022 0.013477131 -0.07098268 -0.007670646 -0.04893847 0.0074765203 -0.03926362 -0.030101292
-0.018339787 0.014594518 0.023197638 0.049629547 0.09477473 0.06481686 0.10904569 0.08437484
0.082386605 0.015225814 -0.013099331 0.030163834 0.054614447 0.00056863355 -0.034891553 -0.0025304575
0.012760853 -0.010165051 0.057769805 -0.11101283 -0.06793379 -0.1736713 -0.10344046 -0.14027756
-0.17200828 -0.11516645 -0.08135661 -0.0830153 0.04731487 -0.034223385 0.029888412 0.050556917
-0.020349788 0.0247571 -0.030842856 -0.038018275 -0.034377124 -0.24852845 -0.1657107 -0.1996487
-0.20860898 -0.23433162 -0.24427502 -0.20920132 -0.13693336 -0.23565745 -0.05599962 -0.04771389
-0.10316808 -0.0794865 -0.074721806 -0.061210085 -0.08924082 -0.121684335 -0.046935506 -0.019038849
-0.0055829296 0.072827384 -0.029187264 0.028182007 0.042415116 -0.0105598485 0.036929887 0.03448381
-0.011200867 -0.015206814 0.079628766 -0.02372712 0.009126952 0.014714481 0.083931714 0.049779102
0.0073553636 -0.11665301 -0.008697148 -0.008429961 -0.025996635 -0.076147616 -0.09912695 -0.1006645
-0.021753171 -0.11824896 0.1230516 0.17192538 0.16555014 0.18184373 0.11143422 0.14157534
0.22411314 0.15300994 0.15339337 0.0034316652 0.043027062 -0.0337848 0.06312066 0.04984325
0.004760831 0.026931014 -0.05602869 0.050212458 0.020233203 -0.011772606 0.042851 -0.023072891

res_blocks.1.conv2.bias f4 [32]
00000000: baf7 17bd 42b4 473d 8663 2f3d 7086 e0bc
00000010: 1668 563d 4b52 423d 347f 573c 34f1 4d3d
00000020: 25bb d7bc fd80 d3bc e0cd b23c 240a 64bd
00000030: 9c05 84bd 7217 a7bc 0e09 62bd a0cb 4abc
00000040: 747c 173d 53a5 01bc a52f 373d 3c41 b23c
00000050: fef0 3f3c 9876 0f3d af38 18bd b5ae ce3b
00000060: 6a3b 84bd 3d85 02bd 40c0 813d 2531 2a3d
00000070: e35f 1f3d c19c 5cbd 1758 ed3c b1c0 9fba
-0.037101485 0.04875589 0.042819522 -0.027407855 0.052345358 0.047441762 0.013152886 0.050278857
-0.026334355 -0.025818342 0.021826684 -0.055673733 -0.064463824 -0.020396922 -0.055184416 -0.01237765
0.036983922 -0.0079129515 0.04472317 0.021759622 0.011715172 0.03502521 -0.037163433 0.006307448
-0.06456645 -0.031865347 0.06335497 0.041550774 0.038909804 -0.05386043 0.028972669 -0.0012188164

res_blocks.1.batchnorm2.weight f4 [32]
00000000: d809 d13f 607c d13f 17ed cb3f e59a bc3f
00000010: c7ac cd3f df5e d43f 3f4a c03f afee c53f
00000020: 43f9 be3f 1ea0 c83f bfc5 a43f b02b bb3f
00000030: 17dd d23f 2cb4 c83f 3b2c be3f 0373 db3f
00000040: 9513 ca3f c494 b03f cd59 bd3f 25e1 d33f
00000050: 0d78 d83f e560 c03f 1085 ba3f 5af9 bc3f
00000060: be2e a43f b729 d63f e3bd bd3f eb8f aa3f
00000070: b29e b93f 42eb ae3f 918c c33f b990 b63f
1.6331129 1.6366081 1.5931729 1.473477 1.6068352 1.6591452 1.5022658 1.5463465
1.4919819 1.5673864 1.2872847 1.4622707 1.6473721 1.5679984 1.4857248 1.7144474
1.5787226 1.37954 1.479303 1.6553084 1.6911637 1.502957 1.4571857 1.4763596
1.2826765 1.673148 1.4823574 1.332517 1.4501555 1.3665545 1.5277272 1.4262916

res_blocks.1.batchnorm2.bias f4 [32]
00000000: cfb6 11bd 98af eb3b 7241 913d a04f bdba
00000010: afb0 c73d 5c9d 433d 56eb c23d bfd2 6f3e
00000020: a290 943d dc00 183d 769e dbbd 56cd a13d
00000030: 9fa8 9d3d b86e 0b3d 1bff 5d3d a932 d43d
00000040: 4611 54bd d881 003e cbff 543e ac66 813c
00000050: f980 f43c 7246 5b3e 0752 453e dfaf f63c
00000060: 2d1f 8e3d 45b6 5bbd b187 003d d528 133e
00000070: 04fd 053e 7020 dc3d 1a81 553d bdcc 2c3e
-0.03557473 0.0071925633 0.07092561 -0.0014443286 0.097504966 0.04775749 0.09517543 0.23420237
0.07254149 0.037110195 -0.107235834 0.07900493 0.076981775 0.034041137 0.054198366 0.10361225
-0.051774286 0.12549531 0.20800702 0.015796028 0.029846655 0.21413592 0.19269572 0.030113159
0.0693954 -0.053640623 0.031379405 0.14371045 0.13084799 0.107483745 0.052125074 0.16874976

res_blocks.1.batchnorm2.running_mean f4 [32]
00000000: 2ea4 fbbc b996 223f 2861 97bf 23b6 a43f
00000010: 24d5 fe3d 70a8 a43f fc6a 3240 cd3f c3bf
00000020: 5950 d43f db4f a53f 14d1 90be 5aae e33e
00000030: 81dc b43e 9ca1 403f 00ec e4bd 03a6 b03d
00000040: a9f9 57be 4bd7 12bf 71d4 b9bf 5344 d23f
00000050: d30a ef3e b4ee b23e 8fb7 23c0 786c e13e
00000060: ae23 cd3f fffb a83f d0ab 7abf 1fef c8be
00000070: f44e 97bf 8812 d73f bf58 a93f e6f1 453f
-0.030717935 0.63511235 -1.1826525 1.2868084 0.12442997 1.2863903 2.7877798 -1.5253845
1.658702 1.2914995 -0.28284514 0.44468957 0.3532448 0.75246596 -0.11177826 0.08625414
-0.21091332 -0.5735976 -1.4517957 1.6427101 0.46687946 0.3494774 -2.5580785 0.44028068
1.6026514 1.3201903 -0.97918415 -0.39244935 -1.182097 1.680253 1.3230208 0.7732223

res_blocks.1.batchnorm2.running_var f4 [32]
00000000: b8d3 1441 1831 2541 aff9 bc40 6cfa 3941
00000010: 41ac c740 3b28 dc40 549a dd40 51ac a740
00000020: 55cd 8c41 de27 fc40 3371 9440 bf82 4241
00000030: 8bcc 6441 443d e540 eec0 5641 6848 6740
00000040: ff59 0c41 a4b8 d740 4f8c 9940 e526 d740
00000050: 68a8 2641 4591 0841 45c1 b940 e9da 4241
00000060: c411 9140 f925 1741 72df e840 ade5 a940
00000070: 109f c440 6765 9d40 8479 e041 9ceb af40
9.301689 10.324486 5.905479 11.623638 6.239777 6.879911 6.925089 5.2397847
17.60026 7.8798666 4.6388183 12.15692 14.299937 7.1637287 13.422102 3.6137943
8.771972 6.741289 4.7983775 6.723498 10.416115 8.535466 5.8048425 12.178445
4.5334187 9.446771 7.277276 5.3092866 6.144417 4.918628 28.059334 5.497511

res_blocks.1.residual_conv.weight f4 [32, 16, 1, 1]
00000000: 8037 913e 584e 693e 0d67 d03d 9437 663c
00000010: f3ea 27bd 7896 d1bd 479b 8ebe cef7 94bd
00000020: 2637 59be 9564 bcbe ae8b b73e 709a f3bd
00000030: 5dcd 633d 23f2 93be 582a 523d 4a5b 1f3d
00000040: dcbe 203e db81 34be 848e 5cbe 6e7f 813e
00000050: c635 603d 4fb4 eabd 0dae a0bd f375 a2be
00000060: 5fbd 6cbe e115 f53d e374 bf3e 1ce8 b03e
00000070: 8a78 893d 2f29 9dbe 43d8 8dbd 7f86 993d
00000080: 3313 ac3e 812d 8c3e f9e0 1dbe c0fe 6dbe
00000090: 49df 9f3e 88f8 d0be b6f5 5cbe a143 953d
000000a0: 8159 34be e67d 83be 772f 173d 919c b3bd
000000b0: 712c 28be d613 20be a943 d73c c61e 313d
000000c0: 1c76 0f3e 4b9c 5c3e 9a90 6c3e 936d 063e
000000d0: aed8 a93e bda3 13bf 0fe2 81bc 4fa3 e5bd
000000e0: f317 52be 90d5 51bd 3bc7 063d f678 39be
000000f0: 5013 57be 40d2 a5bc 4c48 433e b609 3f3e
00000100: 38f5 28be 3eb9 9c3d 27f9 41be 6fd3 023e
00000110: 0529 3c3e f9b7 043d 981c 11be fc75 1f3d
00000120: 58f1 8dbe 89cc b6bd 54dd 0d3e 1360 25bc
00000130: 71d1 2abd 021a ec3d 8e27 153d eeca 29bd
00000140: 391e 62bd b689 26be f8e8 d2bd fc89 08bd
00000150: ff22 173e 4023 3bbe 6ff3 64be 972a c4bd
00000160: 9ab1 483e 29fe 513d 94dc f93e 4f7a 80bd
00000170: 324e 613e 1df7 43be af86 f03d 4765 68be
00000180: f7bb 44be 087b c8bd f11a 6bbe b770 85bd
00000190: 191e 9c3d 17d9 753e 0d87 17be f251 28be
000001a0: 6475 673d 2e1f 8bbe dc9f 07bd 6664 4c3e
000001b0: 74fb 2a3e 6347 59be c9d3 043e 043a b2be
000001c0: c988 373c e7b5 593b 7ced 39be ee38 543b
000001d0: 1c03 05be 9143 f5be 43cc 22bd 47ca aa3e
000001e0: ca4c 76be 409d 96be 007a 813e c3ee 8abc
000001f0: 513d c9bd 8a1d 723e 0111 1bbe 9152 ae3e
00000200: eaa6 063e 139f 0a3e 645e 8dbe 1a3c 993d
00000210: ce3b 883d 73c8 9a3e 1f1d 9e3e 30c7 a5bd
00000220: d1e2 16be 18da 57be 26a2 c13e 1b15 8abd
00000230: 4597 933e 74e1 20be ecd5 05be 8049 98be
00000240: c0cd 4a3e 5707 7c3d 6624 4b3d 4d3e 8ebe
00000250: 1813 0cbe 3f72 17be 2427 c1bd 81ab aa3c
00000260: 58df b73d fdf0 93be 620e a6be 69e5 c6be
00000270: c70b 3bbd 2d9f ac3d 439b 01be 2fb4 0abd
00000280: 962d 723e 761e 7e3c 5751 b53d ccd2 f03d
00000290: 94a8 593e 5c2f 24be 610b 29be 4b86 dcbd
000002a0: 6b1b f5bd 8dd5 c0be 9391 87bd 1912 263e
000002b0: b705 1dbc 1b26 283e a1ae 4cbd fbac db3d
000002c0: a327 8ebe 159e 3f3d 5198 e4bd f0d0 c0bd
000002d0: c3b7 0f3d d57d b13e d06d 57bc 0db1 a6be
000002e0: 812d adbe 58a5 ed3d 23d2 c93d 5f96 44bd
000002f0: b89c ff3d 3d40 babe a1bd 66be 5589 83be
00000300: 870e b9be 5f9c 82be d940 763e 6e4c 8a3e
00000310: 86d0 49be 97a0 d0bd 2485 b93e d1f6 9dbe
00000320: 5ef2 76be 7685 6abe 1a9e 86bc a3c0 6a3e
00000330: abb3 28be d8af bdbd 11a1 fd3c d2c0 95be
00000340: c150 8d3d 190d 793c c7d3 973d 1064 183d
00000350: dd76 5bbe 72d5 d83e f3d1 383e fdd6 86be
00000360: bc2b a2be e643 4f3d cb29 2ebb 3756 963e
00000370: 4052 613e a7b1 473d a357 853d 96af afbe
00000380: 0e5b 443d d351 31bd bb77 18be 9656 b13d
00000390: d06e 203e a1f5 5dbd ea06 993e d06a 58bd
000003a0: cd55 88be dd33 1abd 2d7e 41be 1a18 3cbe
000003b0: 1ce2 8cbe 19d0 f0bc 5a15 633c 70d1 66bd
000003c0: ea3c 91be 5bfa 51be cf7b 023e 14ad 36be
000003d0: f27f 853e ef18 2bbd 299a abbd cd03 b53d
000003e0: a32c 2dbe cd14 663d 0a6b 84be ed29 0f3e
000003f0: acff a83d 21fe 763e 55de 69be 4858 69be
0.28362656 0.22783792 0.101759054 0.014051337 -0.04099555 -0.10233778 -0.27852842 -0.072738275
-0.21212444 -0.36795488 0.35848755 -0.11894691 0.05561577 -0.28895673 0.051309913 0.03890542
0.15697807 -0.17627661 -0.2153874 0.25292534 0.054738782 -0.114601724 -0.078456976 -0.31730613
-0.23119114 0.11967064 0.37393865 0.34552085 0.06712444 -0.30695483 -0.06926014 0.07496356
0.33608398 0.27378467 -0.15417852 -0.2324171 0.3122504 -0.40814614 -0.21578106 0.0728829
-0.17612268 -0.2568199 0.0369105 -0.08770097 -0.16423203 -0.15632567 0.02627738 0.04324224
0.14009899 0.21543996 0.23102036 0.13127737 0.33173126 -0.5767172 -0.015854863 -0.11212789
-0.20516948 -0.05122906 0.032904845 -0.18112549 -0.21003461 -0.020241857 0.19070548 0.18656048
-0.16499794 0.0765252 -0.189427 0.12775968 0.18375023 0.032402012 -0.14171064 0.038930878
-0.27723193 -0.08925731 0.13853961 -0.010093707 -0.041703645 0.11528398 0.036414675 -0.041453294
-0.055204604 -0.1626347 -0.102983415 -0.033334717 0.14759444 -0.18275166 -0.22358488 -0.09578436
0.19599 0.051267777 0.488011 -0.062733285 0.22002485 -0.19137235 0.11744439 -0.22694884
-0.19212328 -0.09789091 -0.22959496 -0.06515639 0.07622928 0.24008594 -0.14797612 -0.1643751
0.056508437 -0.27172226 -0.03311144 0.19960174 0.16697484 -0.21218638 0.12971415 -0.34809887
0.011202046 0.0033219995 -0.18157 0.0032382566 -0.12989467 -0.47903112 -0.03974558 0.3335745
-0.2405273 -0.29416847 0.2528839 -0.016959554 -0.09826148 0.23644081 -0.15143205 0.34047368
0.1314961 0.13537244 -0.27611077 0.074821666 0.06652032 0.30231056 0.30881593 -0.080946326
-0.14734961 -0.2107929 0.37819022 -0.06742307 0.28826347 -0.15711004 -0.13069886 -0.29743576
0.1980505 0.061530437 0.04959526 -0.27781907 -0.13679159 -0.14789675 -0.094312936 0.020833733
0.08978146 -0.28894797 -0.32432848 -0.388469 -0.04566553 0.08428798 -0.12656884 -0.033863243
0.23650202 0.015510192 0.08853405 0.11758956 0.21255714 -0.16033691 -0.16508247 -0.10767802
-0.1196812 -0.37662926 -0.06619563 0.16217841 -0.009583882 0.16420786 -0.049971227 0.10726353
-0.27764615 0.04678162 -0.111618645 -0.09414852 0.03508736 0.34666315 -0.01314874 -0.32556954
-0.3382378 0.116038024 0.098545335 -0.047994968 0.124810636 -0.36377135 -0.22533275 -0.25690714
-0.36143896 -0.25509927 0.24048175 0.27011436 -0.19708452 -0.1018688 0.3623439 -0.30852368
-0.24115893 -0.22902474 -0.01643281 0.22925048 -0.16474788 -0.09262055 0.030960592 -0.29248673
0.06900168 0.015200877 0.0741344 0.037204802 -0.21432061 0.42350346 0.1804884 -0.26335898
-0.31673992 0.050601862 -0.0026575204 0.29362652 0.22004032 0.048753407 0.06510856 -0.3431365
0.0479384 -0.043290924 -0.14889424 0.08659093 0.15667272 -0.054189328 0.29888088 -0.05283624
-0.2662796 -0.037647117 -0.18895788 -0.18368569 -0.27516258 -0.029396104 0.013860071 -0.05635208
-0.28366786 -0.2050566 0.12742542 -0.17839462 0.26074177 -0.041771825 -0.08379013 0.088386156
-0.16911559 0.05617218 -0.25862914 0.13980837 0.082518905 0.2412038 -0.22838719 -0.22787583

res_blocks.1.residual_conv.bias f4 [32]
00000000: 1fcb d6bd b81b d8bc c317 333e 427e 87be
00000010: ab49 5ebd 23ac 273e 71e0 03be 477b 39bd
00000020: 9784 4bbe d962 683e 7b85 b7bc 0b6f 223e
00000030: 56f6 e8bd 7252 98be af6c 093e 2fae d03d
00000040: f2e9 5fbe 3abb 49bd c2e5 b53d dd93 203d
00000050: 07f4 1fbe fc21 483e 3a46 55be 878b 613e
00000060: 4b59 93be 1fd7 413d 3930 513d 3dea ee3d
00000070: b647 31be 5fb3 d7bd c3c8 433c 7dbb 35be
-0.10487961 -0.026380405 0.17489533 -0.26463515 -0.054269474 0.16374259 -0.12878586 -0.045283582
-0.19874798 0.22693957 -0.022402516 0.15862672 -0.1137511 -0.297504 0.13420366 0.10189473
-0.21866587 -0.04925082 0.088817134 0.039203513 -0.15620433 0.19544214 -0.2082757 0.22025882
-0.28779063 0.047324296 0.05107138 0.11665771 -0.17312512 -0.10532259 0.011949721 -0.17747302
