torch_introduction/best_model.ckpt (torch, 23142 bytes, 5 tensors)

weight f4 [64, 5]
0	0xbc904cf4	-0.01761482
1	0x3c07c0a8	0.008285679
2	0xbea2d3e4	-0.31802285
3	0x3eae814c	0.3408302
4	0x3e9ca1b9	0.30592135
5	0xbea7142c	-0.32632577
6	0xbe82b17d	-0.25526038
7	0x3e9fb788	0.3119471
8	0xbe0bad7e	-0.13640401
9	0xbe6628c5	-0.2247649
10	0xbea12103	-0.31470498
11	0xbf098587	-0.5371937
12	0x3e3d7f0f	0.185055
13	0xbeee62ad	-0.4655966
14	0x3ec6a1b6	0.3879525
15	0xbe30ee7d	-0.17278476
16	0xbf071989	-0.5277334
17	0x3d32d63a	0.043661334
18	0xbe410292	-0.18848637
19	0x3eae9c33	0.34103546
20	0x3ead2566	0.33817595
21	0xbdcf4605	-0.10120777
22	0x3e9a0c0b	0.30087313
23	0x3d274685	0.040838737
24	0x3db909d8	0.09035081
25	0x3eda2d4d	0.42612687
26	0xbe390597	-0.18068539
27	0xbeaa0566	-0.33207244
28	0x3e7a4771	0.24441315
29	0xbd2c9ab1	-0.042139713
30	0xbf025aca	-0.50919783
31	0xbf44d41b	-0.7688615
32	0x3e95cff4	0.29260218
33	0xbe0d5908	-0.13803494
34	0x3dd7ba45	0.10533575
35	0x3eab1e27	0.33421442
36	0xbf163ff1	-0.58691317
37	0x3ea9a1b6	0.33131188
38	0x3eaf6ee9	0.34264305
39	0x3eb760dc	0.35816085
40	0xbd8d0ad4	-0.06886831
41	0xbd8d0316	-0.06885354
42	0x3ee41479	0.4454687
43	0x3e817892	0.252873
44	0xbbaad826	-0.005213755
45	0xbd74b159	-0.059739444
46	0x3f01f51e	0.50764644
47	0xbd2b8712	-0.04187686
48	0x3e252704	0.16128165
49	0xbe1a697b	-0.150793
50	0xbd4862e0	-0.04892242
51	0x3e80172e	0.25017685
52	0x3e3f5240	0.1868372
53	0xbe99612c	-0.2995695
54	0x3ea68bdf	0.32528588
55	0xbd18f3c2	-0.03734184
56	0x3e8ab93e	0.27094454
57	0x3ea496e1	0.3214636
58	0x3d7fcc4b	0.06245069
59	0x3e0d5867	0.13803254
60	0x3ece3e17	0.40281746
61	0xbeef17c2	-0.46697813
62	0x3d8fe78b	0.07026585
63	0x3d594e2c	0.053053066
64	0x3d78716b	0.06065504
65	0xbe9ce125	-0.30640522
66	0xbf5285f2	-0.82235634
67	0xbe4177ea	-0.188934
68	0xbe243b0f	-0.16038154
69	0x3e3a8601	0.18215181
70	0x3e02cf19	0.12774314
71	0x3ed5d0cb	0.4176086
72	0xbec54169	-0.38526466
73	0xbbbb5c52	-0.0057177925
74	0x3e0ec0b8	0.13940704
75	0xbee62d47	-0.4495642
76	0xbf3354e4	-0.7005141
77	0xbe61f39f	-0.2206559
78	0xbda78c78	-0.08181089
79	0x3e9cd55d	0.30631533
80	0x3cfad319	0.030618237
81	0x3d8f2912	0.069902554
82	0xbc8744a4	-0.016512223
83	0x3ea03aca	0.31294852
84	0x3e90366a	0.28166515
85	0xbe604ee9	-0.21905102
86	0xbed8edc1	-0.42368892
87	0x3e5f74dc	0.21821922
88	0xbd6ffd40	-0.058591127
89	0xbdc39ba8	-0.095511734
90	0xbea50418	-0.32229686
91	0xbee5da86	-0.44893283
92	0x3da35ef6	0.07977097
93	0xbe22a8ef	-0.15884756
94	0x3e8ba9f7	0.2727811
95	0x3e73467d	0.23757358
96	0xbd16893d	-0.036751974
97	0xbe2b7411	-0.16743495
98	0xbe77a00a	-0.24182144
99	0x3e10c6e3	0.1413837
100	0xbe9086ca	-0.28227836
101	0xbc86a90e	-0.016438033
102	0xbec109c0	-0.3770275
103	0x3ed0322d	0.4066328
104	0x3da734eb	0.0816439
105	0x3da8f15b	0.0824916
106	0xbf2e3377	-0.6804728
107	0xbd92cf1b	-0.071684085
108	0x3e9440d2	0.28955704
109	0x3d5193d5	0.051166374
110	0xbe5f6525	-0.21815927
111	0xbe303982	-0.17209437
112	0xbe8a7cde	-0.2704839
113	0x3eb063e4	0.3445121
114	0xbec047b8	-0.37554717
115	0xbe50eef0	-0.20403647
116	0x3ec56095	0.3855025
117	0x3e884627	0.26616022
118	0x3ee0fb42	0.43941694
119	0xbc504960	-0.012712806
120	0xbeda3a96	-0.42622823
121	0x3e41a994	0.18912345
122	0xbe31a982	-0.17349818
123	0xbe949071	-0.2901645
124	0xbedbc268	-0.42921758
125	0x3e3359e7	0.17514764
126	0x3da89128	0.08230811
127	0x3f11e28b	0.569863
128	0x3e94f2ce	0.29091495
129	0xbe248a5c	-0.16068405
130	0x3e5e53c7	0.21711646
131	0x3eb90124	0.36133683
132	0x3ed9c3f1	0.42532304
133	0xbdcc555e	-0.0997722
134	0xbeca36a2	-0.39494807
135	0xbe12c186	-0.14331636
136	0xbe4a7886	-0.19772539
137	0xbec43e24	-0.3832866
138	0x3ed9c6ae	0.42534393
139	0x3de521f6	0.11188118
140	0x3ea48126	0.32129782
141	0x3f39e316	0.7261213
142	0xbec2c978	-0.38044333
143	0x3e73236c	0.23743981
144	0x3dc6a7c7	0.0969997
145	0x3bc4fbcd	0.0060114623
146	0x3f496b2f	0.78679174
147	0xbe4a53e5	-0.19758566
148	0x3e8761fb	0.2644194
149	0x3d596f0a	0.05308441
150	0xbbe7617a	-0.0070611807
151	0xbf40f5f5	-0.753753
152	0x3e0ee2d5	0.13953717
153	0x3dd0974f	0.1018511
154	0x3d31923c	0.04335235
155	0x3e04f60f	0.12984489
156	0x3d8b9255	0.0681502
157	0xbebb90d7	-0.36633942
158	0x3ec62dee	0.38706917
159	0xbe9f92ff	-0.31166837
160	0xbd9e7e36	-0.077389166
161	0x3f0b4787	0.5440602
162	0xbe4c20cd	-0.19934388
163	0x3ed5824b	0.41700968
164	0xbe56ac44	-0.20964152
165	0xbddc502c	-0.10757479
166	0xbe8b3348	-0.27187562
167	0xbe50d87f	-0.20395087
168	0xbe9a3dc2	-0.30125242
169	0xbcd6c210	-0.026215583
170	0xbeaa3264	-0.3324157
171	0xbe981002	-0.29699713
172	0xbeaa6567	-0.3328049
173	0x3eae70d0	0.34070444
174	0xbe9471e4	-0.28993142
175	0xbe94f5e3	-0.29093847
176	0x3d937fc2	0.07202102
177	0xbe233c3b	-0.15940945
178	0x3e78f204	0.24311072
179	0xbe39ee28	-0.18157256
180	0x3e07f3ee	0.13276646
181	0x3e9dd842	0.30829054
182	0x3e0cbc76	0.13743767
183	0xbe845569	-0.25846413
184	0x3e536577	0.20644175
185	0xbe777da2	-0.24169019
186	0x3e82fbe3	0.255828
187	0x3e1775e8	0.14791071
188	0xbe8ceb3f	-0.2752323
189	0x3e625a50	0.22104764
190	0x3eb3c391	0.35110143
191	0x3f1dae1d	0.615938
192	0x3ed6ae60	0.41929913
193	0xbcc5b561	-0.02413434
194	0x3e16cfc2	0.14727691
195	0x3e37702a	0.17913881
196	0x3eedfe5d	0.46483126
197	0xbe605616	-0.21907839
198	0x3ed28453	0.4111658
199	0xbd9a7dfd	-0.075435616
200	0x3db0fa9c	0.0864155
201	0x3f13fd75	0.5780862
202	0x3ebec31b	0.3725823
203	0xbde9978c	-0.114058584
204	0x3dc3fc01	0.0956955
205	0xbe815928	-0.25263333
206	0x3e69acc0	0.22819805
207	0xbe3716dc	-0.17879814
208	0xbc895e80	-0.016768694
209	0xbe849910	-0.25898027
210	0xbec46bdd	-0.38363543
211	0xbee48129	-0.4462979
212	0xbe85892a	-0.2608121
213	0xbead76c9	-0.33879688
214	0x3e86ab4d	0.26302567
215	0xbea8a86f	-0.32941005
216	0x3e4fc8c6	0.20291433
217	0x3ededcb1	0.4352775
218	0x3de1b0a9	0.110200234
219	0xbe9fb95e	-0.3119611
220	0x3e9bb7b5	0.30413595
221	0xbeba1fa8	-0.36352277
222	0x3e457459	0.19282664
223	0xbe8d0b57	-0.27547714
224	0x3c767409	0.015042313
225	0x3e884697	0.26616356
226	0x3f147d7b	0.5800397
227	0xbe94f200	-0.2909088
228	0xbe417d9c	-0.18895572
229	0x3ec75fbc	0.38940227
230	0x3e8af8f4	0.2714306
231	0xbe83b82d	-0.25726452
232	0x3e447e58	0.19188821
233	0x3e5ca377	0.21546732
234	0xbc64a11f	-0.01395443
235	0xbe44f8ac	-0.19235486
236	0xbef959d5	-0.4870135
237	0xbce9dd71	-0.028547974
238	0x3e896c41	0.26840404
239	0x3d048ac1	0.03235889
240	0xbeacc4f2	-0.33744007
241	0xbefb48bd	-0.49078932
242	0x3da70233	0.08154716
243	0xbe1eab18	-0.15494955
244	0x3d568892	0.052376337
245	0x3e40a6eb	0.18813674
246	0x3ea1e8b2	0.31622845
247	0xbe951d04	-0.291237
248	0xbea39bdf	-0.31954858
249	0x3edccbc4	0.4312421
250	0x3ef4ea62	0.4783507
251	0xbe278838	-0.16360557
252	0x3abe3009	0.0014510165
253	0x3ea94bcf	0.3306565
254	0xbe439e8f	-0.19103454
255	0x3d928734	0.07154694

bias f4 [64]
0	0xbdb23363	-0.087012075
1	0xbea6623e	-0.32496828
2	0x3ebf2f4b	0.3734077
3	0x3e8a441f	0.27005097
4	0xbeb6059b	-0.35551152
5	0x3e748fea	0.23883024
6	0x3e854316	0.26027745
7	0xbe88be3c	-0.26707637
8	0xbe9e03b3	-0.30862197
9	0x3e58f3c8	0.21186745
10	0xbdab1d27	-0.0835517
11	0xbeb13cba	-0.34616643
12	0xbc9bc5b3	-0.019015169
13	0xbe424e94	-0.18975288
14	0x3eacac9d	0.33725443
15	0x3e5602b1	0.20899464
16	0xbddc2570	-0.10749328
17	0xbe1256e4	-0.14290959
18	0xbd9b31e2	-0.07577874
19	0xbea5f9f8	-0.32417274
20	0x3d9f0946	0.07765441
21	0x3d94b5f3	0.072612666
22	0xbebbc0b8	-0.3667047
23	0x3e8928f8	0.2678907
24	0x3daee148	0.08539063
25	0x3e78f2a0	0.24311304
26	0xbd66f745	-0.05638816
27	0x3ef0aeca	0.47008353
28	0xbe138ba9	-0.14408745
29	0xbf0bbff6	-0.54589784
30	0xbe31f309	-0.17377867
31	0xbe334852	-0.17508057
32	0x3ee5eda5	0.4490787
33	0x3e988dac	0.29795587
34	0xbe119276	-0.14216027
35	0x3e871010	0.26379442
36	0xbeb43abe	-0.35201067
37	0xbe9f094b	-0.31061777
38	0x3da3d97b	0.080004655
39	0x3e8dffd1	0.27734235
40	0x3de3cd41	0.111231335
41	0xbe7d2bc6	-0.2472373
42	0x3eaf70c7	0.3426573
43	0xbe707125	-0.23480661
44	0x3d71ab1d	0.059001077
45	0x3e443b4d	0.19163246
46	0xbf000758	-0.50011206
47	0x3eacd7d1	0.33758405
48	0x3d14e31f	0.036349412
49	0x3c93cc77	0.018041832
50	0xbe92effb	-0.28698716
51	0x3eeae278	0.45875907
52	0x3effa3f0	0.49929762
53	0xbeb5ac07	-0.3548281
54	0xbd20eeb8	-0.03929016
55	0x3edfbb2a	0.43697482
56	0xbe50cc2f	-0.2039039
57	0xbc7ffdd2	-0.01562448
58	0x3cc1c5fb	0.023653975
59	0x3cbc568f	0.022990493
60	0xbed91037	-0.42395183
61	0x3e6a5472	0.22883776
62	0xbe8ee1b0	-0.2790656
63	0xbe13d81f	-0.14437912

weight f4 [64, 64]
0	0xbe02c6fd	-0.1277122
1	0x3d16c6c4	0.03681065
2	0xbc60bde0	-0.013717145
3	0x3e028bdc	0.12748665
4	0x3dbf3d7b	0.09337898
5	0x3e1d4a03	0.15360264
6	0x3d8fbe9b	0.07018777
7	0xbd931f76	-0.07183735
8	0xbd775f30	-0.060393512
9	0x3d9a2754	0.075270325
10	0x3d7eeee7	0.062239554
11	0xbbc8fc93	-0.006133625
12	0xbd07a6f6	-0.03311821
13	0x3dac7ee9	0.08422644
14	0xbdcf58fd	-0.10124395
15	0x3dfe0441	0.12403155
16	0x3cae4b5c	0.021276169
17	0x3d8279c8	0.06370884
18	0x3dc810b1	0.09768809
19	0x3d3c835e	0.04602372
20	0x3d2c47c5	0.042060632
21	0x3e0217f5	0.12704451
22	0x3d24cb04	0.040232673
23	0xbe01a8a9	-0.12661995
24	0x3cc9c968	0.02463217
25	0xba8f44ef	-0.0010930578
26	0xbdb9768f	-0.090558164
27	0x3d402e1b	0.04691897
28	0x3d90cbe3	0.07070138
29	0xbe0afa0e	-0.13571951
30	0x3e26a99e	0.16275641
31	0xbc004f4d	-0.007831407
32	0x3e28dc94	0.16490394
33	0xbc2856f0	-0.010274634
34	0x3dcca38c	0.099921316
35	0xbd93fd5b	-0.07226058
36	0xbdd12020	-0.102112055
37	0xbd5060f6	-0.05087372
38	0xbdeac892	-0.11464037
39	0x3e5bb85f	0.2145705
40	0x3d1caf46	0.03825309
41	0x3c8a1b60	0.016858757
42	0xbab68e24	-0.0013927859
43	0x3d44c062	0.048035033
44	0x3be26231	0.006908678
45	0xbd0b0f5d	-0.0339502
46	0x3cc479e5	0.023983905
47	0x3bd84862	0.0066004256
48	0x3e3a5862	0.18197778
49	0x3c35718c	0.011074435
50	0x3e165083	0.1467915
51	0x3e555428	0.20832884
52	0x3e268051	0.16259886
53	0x3d600ba4	0.0546986
54	0x3ba54f21	0.0050448333
55	0x3d502005	0.050811786
56	0xbccf84a0	-0.025331795
57	0xbdf5f46c	-0.120095104
58	0x3e3ad68c	0.18245906
59	0x3d1f8428	0.038944393
60	0x3d8a5869	0.06755144
61	0x3df6822d	0.12036548
62	0x3a2d60cb	0.00066138495
63	0x3d8ff036	0.070282385
64	0x3d034973	0.03205247
65	0xbd5f1dd0	-0.05447179
66	0x3de1eb12	0.11031164
67	0xbdd6caf9	-0.10487933
68	0xbd65bee9	-0.05609027
69	0x3c39a996	0.011331936
70	0xbd83b696	-0.0643131
71	0xbc7c9b0e	-0.015417827
72	0xbe3e8f71	-0.18609406
73	0x3e0b9ea2	0.13634732
74	0xbd8fc9fc	-0.07020947
75	0x3d55e1b4	0.0522172
76	0x3c05d959	0.0081694955
77	0xbde9ae53	-0.11410203
78	0xbca4c7e0	-0.02011484
79	0xbd085c66	-0.033291243
80	0x3d63ed1f	0.05564606
81	0xbdcf60de	-0.10125898
82	0xbd354138	-0.04425165
83	0x3d26d220	0.040727735
84	0xbd7ce44c	-0.06174116
85	0x3d8d3f69	0.0689686
86	0xbd7ac1b0	-0.06121987
87	0xbde505ca	-0.11182745
88	0xbd8364f2	-0.06415738
89	0x3d92042e	0.071297035
90	0xbd0d1105	-0.03444006
91	0x3d75b996	0.05999144
92	0x3e47bde2	0.19506028
93	0x3c19611d	0.0093615325
94	0x3c975aaf	0.018475858
95	0x3d263681	0.040579323
96	0x3e4a2547	0.19740783
97	0xbca771d8	-0.020440027
98	0xbdc652ca	-0.096837595
99	0xbc68a2f9	-0.014199012
100	0x3d592db4	0.0530221
101	0xbdeb5702	-0.11491205
102	0xbc071dcc	-0.00824685
103	0x3d0acc77	0.0338864
104	0x3dd21794	0.102584034
105	0x3df693ea	0.12039931
106	0xbdb430a1	-0.08798338
107	0xbd2b9bc5	-0.0418966
108	0xbdb7aeda	-0.08968897
109	0x3e1184be	0.14210793
110	0xbe02f434	-0.12788469
111	0x3d4e4a37	0.050363746
112	0x3d0f8df7	0.035047498
113	0x3d63470c	0.055487677
114	0x3d464839	0.04840872
115	0x3e15f8c7	0.14645682
116	0x3df7a09e	0.12091182
117	0x3dab08f4	0.08351317
118	0xbd13d19f	-0.036088582
119	0xbe15f2ca	-0.14643398
120	0xbd6f56c4	-0.058432356
121	0xbe0d62f0	-0.13807273
122	0x3e5073ac	0.20356625
123	0x3bec38e1	0.007208929
124	0x3d9866f6	0.07441513
125	0x3e52a3a0	0.2057023
126	0xbccb4467	-0.02481289
127	0xbd9c3e37	-0.07629054
128	0xbcf6bfdf	-0.030120788
129	0x3d77de6c	0.060514852
130	0xbdb3f7fa	-0.08787532
131	0xbcfc9b18	-0.030835673
132	0xbc34faae	-0.011046095
133	0x3dbc141a	0.091835216
134	0xbdf7ea0c	-0.12105188
135	0x3b7e4837	0.0038800368
136	0x3b544140	0.0032387525
137	0xbd8e38c0	-0.06944418
138	0xbd5b6f38	-0.053572863
139	0xbcca018c	-0.02465894
140	0xbdf54a7b	-0.11977097
141	0xbcca0e48	-0.024665013
142	0x3debff4b	0.11523303
143	0xbdd57602	-0.10422899
144	0xbdc3a6bc	-0.095532864
145	0xbdbf08e2	-0.09327866
146	0x3de6d810	0.112716794
147	0xbcf058d8	-0.029339239
148	0x3d8b0a8e	0.067891225
149	0xbdb9dbe6	-0.090751454
150	0xbd4e863c	-0.050420985
151	0x3d9ffa18	0.078113735
152	0xbd2432f0	-0.04008764
153	0xbd591ffd	-0.053009022
154	0x3d62d291	0.055376593
155	0x3da619cb	0.08110388
156	0xbd481261	-0.048845652
157	0xbdb1e8a4	-0.08686951
158	0x3db942a0	0.09045911
159	0x3d84c484	0.06482795
160	0x3d9d5088	0.07681376
161	0x3c87ffa0	0.016601384
162	0xbdec7cda	-0.11547251
163	0x3db0fbe6	0.08641796
164	0xbc09c5a0	-0.008408934
165	0xbcb45ae0	-0.022015989
166	0xbda81d7d	-0.082087494
167	0x3dd8367c	0.10557267
168	0x3c024615	0.007951279
169	0xbdc8391c	-0.09776518
170	0xbca556e0	-0.020183027
171	0xbd774298	-0.060366243
172	0x3d8de66c	0.06928715
173	0xbda600e9	-0.08105642
174	0x3d8a20bc	0.06744525
175	0x3dd30f3a	0.103056386
176	0x3a0bb100	0.0005328804
177	0xbdc11ffe	-0.0942993
178	0xbc342b66	-0.010996675
179	0xbcb2a3ba	-0.021806587
180	0x3da6f581	0.08152295
181	0x3d64a89c	0.05582486
182	0xbd85501c	-0.0650942
183	0x3bfd0d07	0.0077225002
184	0x3dfcc1f2	0.1234168
185	0xbdda0706	-0.10645871
186	0xbdb23ba7	-0.08702784
187	0x3ddd88a2	0.10817076
188	0xbdd47263	-0.1037338
189	0x3b51bbcb	0.0032002802
190	0x3ceaf0fd	0.028679365
191	0xbd95b4ba	-0.073098615
192	0xbd77cf49	-0.060500417
193	0x3dc12140	0.0943017
194	0xbda76da5	-0.0817521
195	0xbd9807c1	-0.07423354
196	0xbdd12ed6	-0.10214011
197	0xbd82816c	-0.063723415
198	0xbdc9ef3f	-0.09860086
199	0x3b46f58b	0.0030358757
200	0x3e0e2d21	0.13884403
201	0xbdf66fa4	-0.120330125
202	0x3bdfaba9	0.0068258834
203	0x3db66d4d	0.08907566
204	0xbd89f991	-0.06737054
205	0x3daa22cb	0.083074175
206	0xbd9ee28e	-0.077580556
207	0x3d396efe	0.045271866
208	0x3dc9519d	0.098300196
209	0x3dbae438	0.091255605
210	0xbd77d77a	-0.06050823
211	0x3ddf1f07	0.1089459
212	0xbd57c267	-0.05267563
213	0xbe0e874b	-0.13918798
214	0xbd925580	-0.07145214
215	0x3be0324f	0.0068419348
216	0xbdf68482	-0.120369926
217	0xbdde5b7f	-0.10857295
218	0xbc6b6230	-0.014366671
219	0x3da60d65	0.081080236
220	0x3e03b774	0.1286295
221	0xbc2e6fb3	-0.010646748
222	0xbd5f80c3	-0.054566156
223	0xbcd737b8	-0.026271686
224	0xbd08c334	-0.033389285
225	0x3dc64956	0.096819565
226	0xbddb25d8	-0.107005775
227	0x3dd69906	0.10478406
228	0xbdc988a3	-0.098405145
229	0x3d737ef0	0.05944723
230	0xbd8a5ac3	-0.06755593
231	0xbdaa55a6	-0.083171174
232	0x3adc3794	0.0016801232
233	0xbd83cfae	-0.06436096
234	0x3c83cbc7	0.01608838
235	0x3dc1c88e	0.09462081
236	0x3baadd42	0.0052143643
237	0x3d11ce18	0.035596937
238	0x3dabf96a	0.08397181
239	0x3d198e1c	0.03748904
240	0xbe285fd8	-0.16442811
241	0x3d34f648	0.044180185
242	0xbd4fb4a4	-0.05070938
243	0xbceb73d5	-0.028741756
244	0xbdc08570	-0.09400451
245	0x3d040b10	0.032237113
246	0xbd065944	-0.032799974
247	0xbd9b9448	-0.07596642
248	0x3cf175c8	0.029475108
249	0x3c9eac90	0.019369394
250	0x3d870366	0.06592445
251	0xbcd74d6a	-0.026282031
252	0xbd84e5d5	-0.064891495
253	0xbdec5d1e	-0.11541198
254	0x3dc7058f	0.09717857
255	0x3da80b3d	0.082052685

bias f4 [64]
0	0x3de0eb05	0.109823264
1	0x3dbc3c10	0.091911435
2	0xbcb62d0b	-0.022238275
3	0xbe204e47	-0.1565486
4	0x3e02ae1b	0.12761728
5	0x3dc5deb4	0.09661618
6	0xbd977e4d	-0.07397137
7	0x3da337aa	0.079696015
8	0xbcfedcbb	-0.031111112
9	0xbd3beb07	-0.045878436
10	0xbc8043c8	-0.01565732
11	0xbd3afdf8	-0.04565236
12	0xbdb44563	-0.08802297
13	0x3e0350b4	0.12823755
14	0xbd012ef0	-0.031538904
15	0x3d3bca38	0.045847148
16	0x3dafc10a	0.08581741
17	0x3cf14fed	0.029457057
18	0xbd98a971	-0.074541934
19	0x3c528080	0.01284802
20	0x3d9f7687	0.07786279
21	0xbe2b9045	-0.16754253
22	0xbe029ed3	-0.12755899
23	0xbd09b9a3	-0.033624303
24	0x3dbd805c	0.09252998
25	0xbdd5f044	-0.10446218
26	0x3decf550	0.11570227
27	0x3d3dcccf	0.0463379
28	0xbbcca35a	-0.006245059
29	0xbc198d90	-0.00937213
30	0x3b756768	0.0037445668
31	0x3c49d691	0.012319223
32	0x3df9f353	0.122046135
33	0x3e547585	0.20747955
34	0x3d32577a	0.043540455
35	0x3be24b9b	0.0069059855
36	0xbd0239a0	-0.031793237
37	0x3dd33287	0.10312372
38	0x3d1f6836	0.038917743
39	0x3d905ca0	0.07048917
40	0x3afc8407	0.0019265421
41	0xbdb362b3	-0.0875906
42	0xbcc26fe0	-0.023734987
43	0x3e2cdf6b	0.16882102
44	0xbddf613f	-0.1090722
45	0xbe0ca6e5	-0.1373554
46	0x3dd67c2d	0.104729034
47	0xbe09c61b	-0.13454477
48	0x3c1f4fd2	0.0097236205
49	0x3e85a739	0.26104143
50	0xbdd88519	-0.10572261
51	0xbddb4184	-0.107058555
52	0xbd929a2a	-0.07158311
53	0x3dec0819	0.11524982
54	0x3dc044e6	0.09388141
55	0x3d8caad8	0.06868523
56	0xbd47d94f	-0.048791226
57	0xbbb848e1	-0.005623922
58	0x3e48adde	0.19597575
59	0x3dff6812	0.12471022
60	0xbdb09f84	-0.08624175
61	0x3e2b0716	0.16701922
62	0x3d98d1cd	0.07461891
63	0xbd03f647	-0.03221729

weight f4 [1, 64]
0	0x3e0bd318	0.13654745
1	0x3da07355	0.07834498
2	0xbd691a18	-0.05690965
3	0xbcf35211	-0.029702218
4	0xbd89a66a	-0.06721194
5	0xbc88d657	-0.016703768
6	0xbdac42ce	-0.084111795
7	0x3d77f56a	0.06053678
8	0xbcc38d24	-0.023871012
9	0x3d4d2388	0.050082713
10	0xbdca073e	-0.098646626
11	0x3dcd3f4a	0.10021837
12	0xbd8cb4f2	-0.0687045
13	0x3dc4a33f	0.09601449
14	0xbdcb9418	-0.09940356
15	0xbdc7ac5e	-0.09749673
16	0x3c98a9a0	0.018635571
17	0x3e4235d5	0.18965848
18	0xba96423a	-0.0011463829
19	0x3dda013a	0.10644765
20	0x3dd4ac65	0.10384444
21	0xbd7cf864	-0.06176032
22	0xbd27a3ec	-0.040927812
23	0xbc29bb4c	-0.010359596
24	0x3e41224d	0.18860741
25	0xbda22f2a	-0.07919152
26	0x3df49121	0.11941744
27	0x3d9d2fe2	0.076751485
28	0x3d989261	0.074497946
29	0xbde980d0	-0.11401522
30	0x3bed2173	0.0072366535
31	0x3d7adbcd	0.061244775
32	0x3e2350e0	0.1594882
33	0x3e0a9cb9	0.13536347
34	0x3dc5b3ec	0.09653458
35	0xbe4e79a1	-0.20163585
36	0xbcc56748	-0.0240971
37	0x3dac2298	0.08405036
38	0xbd2d72af	-0.0423457
39	0xbd9fa17c	-0.077944726
40	0xbd03f43a	-0.032215334
41	0xbdb4c378	-0.08826345
42	0x3d001e69	0.031279
43	0x3e21eda2	0.15813306
44	0xbd5c30c5	-0.053757448
45	0xbdff2ba2	-0.12459494
46	0x3e242def	0.16033147
47	0xbdd84f4b	-0.10561999
48	0xbd9d9bb6	-0.07695715
49	0x3da6a2d9	0.081365295
50	0xbd6e291c	-0.058144674
51	0xbda5df18	-0.080991924
52	0x3cb887f0	0.022525758
53	0xbdd7c060	-0.105347395
54	0xbb5fee80	-0.0034169257
55	0x3dafe65c	0.085888594
56	0xbe3cb2d0	-0.18427587
57	0xbe0a14c0	-0.13484478
58	0x3e13c563	0.14430766
59	0x3d69312c	0.05693166
60	0x3d394d60	0.045239806
61	0x3df980ce	0.12182771
62	0xbb8d181a	-0.0043058516
63	0xbe456b4d	-0.19279213
