logs/main_run/mel064_nblock2_lr0.0001_ks3/checkpoints/best.ckpt (torch, 273598 bytes, 89 tensors)

conv1.weight f4 [8, 1, 3, 3]
-0.068097 0.11953542 -0.30695227 -0.072632976 -0.19828771 -0.05550051 0.036983795 0.22171994
0.26573545 -0.051230356 0.039235305 0.2717341 0.05451166 0.048492845 -0.30493492 -0.044356246
0.060608946 -0.31895292 0.161898 0.026483752 -0.08513879 -0.25627378 -0.3439628 -0.13297138
0.21117564 0.012241979 -0.20015779 -0.18393679 0.16021624 -0.1363789 -0.05481307 0.16455345
0.13983558 -0.025608778 0.17734274 -0.1166685 -0.08516511 -0.18470076 -0.16873297 -0.08340872
0.3105729 0.016810324 -0.047278482 0.32132602 -0.26096374 -0.0624827 0.28800586 -0.09558852
0.29788223 -0.21958728 -0.16706955 0.2047702 0.20852223 -0.09299836 0.050769806 0.14479421
-0.02662444 0.16297407 0.10508861 0.30925304 -0.23458701 -0.32967743 0.23703834 0.29865032
0.23326372 -0.18062888 -0.33504486 -0.032892082 -0.21661836 -0.07887589 -0.11055762 -0.19932608
00000000: 7176 8bbd fcce f43d d928 9dbe 99c0 94bd
00000010: ef0b 4bbe 8154 63bd 527c 173d 8d0a 633e
00000020: 7a0e 883e ecd6 51bd 33b5 203d bb20 8b3e
00000030: 9e47 5f3d 6fa0 463d 6e20 9cbe e5ae 35bd
00000040: 1641 783d cc4d a3be 97c8 253e 74f4 d83c
00000050: 3f5d aebd 5136 83be e41b b0be a629 08be
00000060: 6d3e 583e 9592 483c 2af6 4cbe ed59 3cbe
00000070: ba0f 243e e9a6 0bbe ab83 60bd b380 283e
00000080: 0f31 0f3e 80c9 d1bc 5699 353e e5ef eebd
00000090: 0c6b aebd 3222 3dbe 56c8 2cbe 31d2 aabd
000000a0: 6903 9f3e ceb5 893c 15a7 41bd d884 a43e
000000b0: 0a9d 85be dced 7fbd 8175 933e eac3 c3bd
000000c0: 0584 983e 7ddb 60be 4814 2bbe 48af 513e
000000d0: da86 553e ed75 bebd 00f4 4f3d ef44 143e
000000e0: 7f1b dabc ade2 263e b238 d73d 6a56 9e3e
000000f0: 9437 70be 7bcb a8be 2eba 723e b2e8 983e
00000100: afdc 6e3e c7f6 38be 008b abbe d9b9 06bd
00000110: 34d1 5dbe af89 a1bd 096c e2bd 231c 4cbe

conv1.bias f4 [8]
-0.13437252 0.22101693 -0.30972406 0.33607793 -0.044480894 -0.30430675 -0.26853892 0.03897473
00000000: f398 09be 4352 623e 2794 9ebe 6812 ac3e
00000010: 9931 36bd 18ce 9bbe ef7d 89be f7a3 1f3d

batchnorm1.weight f4 [8]
1.0624113 0.97975934 0.9874713 1.0291116 0.98017424 0.98812515 1.0528624 0.9023826
00000000: 18fd 873f 82d1 7a3f ebca 7c3f eeb9 833f
00000010: b3ec 7a3f c5f5 7c3f 32c4 863f 8c02 673f

batchnorm1.bias f4 [8]
-0.060768653 0.027537823 -0.010552138 0.0034842864 0.022524513 -0.028657347 -0.07008641 -0.065939225
00000000: 8de8 78bd 0097 e13c e0e2 2cbc a058 643b
00000010: 5485 b83c d0c2 eabc 7789 8fbd 250b 87bd

batchnorm1.running_mean f4 [8]
-0.15113404 0.1635745 -0.45528606 0.3656746 -0.087584324 -0.21971606 -0.16660997 -0.107376546
00000000: e2c2 1abe 1380 273e 411b e9be b339 bb3e
00000010: 695f b3bd 3ffd 60be ce9b 2abe 3ce8 dbbd

batchnorm1.running_var f4 [8]
0.0014322078 0.0071159825 0.03831853 0.001960485 0.0041690227 0.013391248 0.01864487 0.041308634
00000000: ebb8 bb3a 302d e93b e4f3 1c3d 7b7b 003b
00000010: 4c9c 883b f766 5b3c 20bd 983c 3e33 293d

res_blocks.0.conv1.weight f4 [16, 8, 3, 3]
-0.021673739 0.090697855 0.094483025 0.0038575842 -0.08306066 -0.096740276 -0.024640301 0.13127103
0.016193943 0.018039664 0.10471152 0.07694603 0.06626571 0.011431211 -0.11668189 -0.09841569
-0.06495277 -0.08464494 -0.06346013 -0.082346566 -0.022564102 -0.06530097 -0.010138285 0.07714391
-0.054939907 0.12724416 0.084471166 -0.067527026 -0.13923094 0.11372824 0.03964569 -0.123544164
0.10709198 -0.023152463 -0.084075056 0.07200005 0.034116644 0.0017232316 -0.06033032 0.0420212
-0.046326607 0.11136488 -0.05090919 0.008665622 0.0055740816 -0.06739577 0.03903126 0.047950532
0.030393476 0.08045321 -0.074597344 0.027661791 -0.03912154 0.040937126 -0.11012539 -0.091311984
0.01048821 0.01612908 0.12662621 -0.054410826 -0.0819222 -0.00958022 0.05477557 0.10500021
0.09654369 -0.07369451 0.05823649 0.0022375188 -0.049062453 0.007443321 0.013033168 -0.06575599
-0.09996067 -0.10341201 -0.028108606 -0.11558016 -0.13896362 -0.10627137 0.026480058 0.081346236
0.03007529 -0.04909871 -0.09970409 -0.101421 0.069783755 0.10567276 -0.029526386 0.036014136
0.024565902 -0.010256158 -0.012634687 -0.024171557 0.014642815 -0.08799815 -0.050303373 -0.085666016
0.09330925 0.04661223 0.015316063 -0.015293372 0.0677791 0.110509284 0.074102834 -0.0854138
-0.019077227 -0.023642275 0.07045091 0.10063229 -0.06561272 -0.07126853 0.075602904 0.052626844
0.018229121 -0.05952748 -0.030179108 0.067225225 -0.019181842 -0.06930863 0.031613495 -0.09962817
-0.11211969 0.112327494 0.09061184 0.13253635 0.007027687 -0.063804686 0.011806521 0.013181021
0.012200931 -0.100663625 -0.08254502 0.010210126 0.047189537 0.011914108 -0.10653487 0.017621025
0.13942306 -0.041642386 0.08931363 -0.059828456 0.059438147 -0.06347059 -0.024448836 0.030322872
-0.030260056 0.045172326 0.07714103 -0.018756991 -0.15949048 0.045303926 -0.03171496 0.13595861
-0.009926874 -0.04971949 0.017575135 0.04739891 -0.023624232 0.05822939 0.09653312 0.058947813
0.06844867 -0.101915814 -0.023248177 -0.06580429 -0.052483276 0.057822306 0.062132247 0.0040932824
0.117666684 0.008107865 -0.10250345 -0.05034744 0.04046982 0.09210646 0.05889529 0.026205111
0.09496921 -0.032380708 0.01991789 -0.047193106 -0.06845168 -0.0034484211 0.05688964 0.050819438
-0.1521622 -0.102600254 0.13282092 -0.037362713 0.10111461 0.015144637 -0.07928625 0.035217427
0.043931965 -0.018665766 -0.04038821 -0.052665394 0.04601824 -0.11384357 0.08641435 -0.002375398
-0.08371242 0.031761102 0.12146165 0.0036544458 0.04031314 -0.053390034 -0.07351138 0.054515816
0.046698026 0.09712687 0.09529041 0.09548245 -0.08859275 0.03702614 0.047049493 0.09373605
0.13628818 0.08966107 0.009035106 -0.06072485 0.16380613 0.11006405 -0.0093304515 -0.05414711
0.026776796 -0.037788212 -0.014826563 0.0335597 -0.067113966 0.112515144 -0.018507265 0.051734254
0.09951474 0.089707896 -0.06623664 -0.0070399945 -0.08178929 0.049419455 0.07124844 -0.0092162285
0.06891743 0.013851037 0.029437916 -0.06378794 0.017174685 0.04759482 -0.012691009 -0.026005898
-0.09937639 0.01720745 0.040348142 -0.07981475 0.02346911 -0.014508875 -0.04203336 -0.037659414
00000000: 208d b1bc ccbf b93d 5180 c13d 86cf 7c3b
00000010: b51b aabd c41f c6bd 75da c9bc ea6b 063e
00000020: 29a9 843c ebc7 933c fe72 d63d e195 9d3d
00000030: 51b6 873d f949 3b3c eaf6 eebd 2a8e c9bd
00000040: f505 85bd 545a adbd 62f7 81bd 51a5 a8bd
00000050: 5ad8 b8bc 84bc 85bd 0d1b 26bc a0fd 9d3d
00000060: ab08 61bd 4b4c 023e 38ff ac3d 9c4b 8abd
00000070: 8e92 0ebe 5aea e83d 8563 223d b904 fdbd
00000080: 0a53 db3d 3caa bdbc 8b2f acbd c374 933d
00000090: e5bd 0b3d 0fde e13a ed1c 77bd 6c1e 2c3d
000000a0: f8c0 3dbd 4513 e43d 2886 50bd 41fa 0d3c
000000b0: c9a6 b63b cb06 8abd 3edf 1f3d c767 443d
000000c0: bdfb f83c a7c4 a43d 7ec6 98bd fb9a e23c
000000d0: e83d 20bd b0ad 273d 6c89 e1bd c701 bbbd
000000e0: bed6 2b3c 2221 843c 4daa 013e e3dd 5ebd
000000f0: d4c6 a7bd 5bf6 1cbc 595c 603d 5a0a d73d
00000100: b3b8 c53d 26ed 96bd 6389 6e3d 56a3 123b
00000110: b6f5 48bd 1ae7 f33b 1289 553c 14ab 86bd
00000120: 2eb8 ccbd adc9 d3bd 0544 e6bc 4ab5 ecbd
00000130: 7b4c 0ebe cea4 d9bd b5ec d83c db98 a63d
00000140: 7460 f63c bb1b 49bd a831 ccbd d0b5 cfbd
00000150: c9ea 8e3d f66a d83d 52e1 f1bc 8f83 133d
00000160: 6e3e c93c 7209 28bc b801 4fbc 6e03 c6bc
00000170: 6be8 6f3c 6038 b4bd e90a 4ebd aa71 afbd
00000180: ec18 bf3d 77ec 3e3d 39f0 7a3c 0d91 7abc
00000190: c5cf 8a3d b152 e23d 3ac3 973d 6eed aebd
000001a0: d847 9cbc 72ad c1bc 9148 903d 4d18 ce3d
000001b0: f65f 86bd 3cf5 91bd b2d5 9a3d 3f8f 573d
000001c0: 3d55 953c 16d3 73bd 2d3a f7bc 61ad 893d
000001d0: 3d23 9dbc aff1 8dbd 277d 013d db09 ccbd
000001e0: 029f e5bd f50b e63d b392 b93d 9cb7 073e
000001f0: 8348 e63b 08ac 82bd 2370 413c 36f5 573c
00000200: 6ae6 473c bb28 cebd 5d0d a9bd 5f48 273c
00000210: d149 413d 6433 433c f42e dabd f859 903c
00000220: ebc4 0e3e 3591 2abd 10ea b63d af0e 75bd
00000230: 6a75 733d defc 81bd ed48 c8bc ac67 f83c
00000240: f0e3 f7bc 9e06 393d 1efc 9d3d 43a8 99bc
00000250: 7951 23be 9c90 393d 8ce7 01bd bc38 0b3e
00000260: 54a4 22bc aaa6 4bbd bbf9 8f3c 5c25 423d
00000270: 9b87 c1bc f181 6e3d 28b3 c53d 4373 713d
00000280: d12e 8c3d 3db9 d0bd f672 bebc 66c4 86bd
00000290: b4f8 56bd 15d7 6c3d 627e 7e3d f120 863b
000002a0: 3bfb f03d dad6 043c 54ed d1bd 1e39 4ebd
000002b0: afc3 253d 50a2 bc3d 303c 713d 1aac d63c
000002c0: 387f c23d a2a1 04bd d82a a33c 8f4d 41bd
000002d0: 6530 8cbd e8fe 61bb 1c05 693d 0b28 503d
000002e0: 68d0 1bbe 1520 d2bd 3502 083e a509 19bd
000002f0: 2d15 cf3d 3621 783c d460 a2bd 2640 103d
00000300: 01f2 333d f3e8 98bc 1c6e 25bd abb7 57bd
00000310: 9f7d 3c3d d126 e9bd 02fa b03d 91ac 1bbb
00000320: 6b71 abbd ee17 023d e3c0 f83d 6d7f 6f3b
00000330: 641f 253d 82af 5abd 228d 96bd fa4b 5f3d
00000340: 6e46 3f3d 74ea c63d 9e27 c33d 4e8c c33d
00000350: 1e70 b5bd b9a8 173d f8b6 403d b0f8 bf3d
00000360: 218f 0b3e 39a0 b73d fb07 143c 9fba 78bd
00000370: cbbc 273e 4369 e13d c0de 18bc 5cc9 5dbd
00000380: 035b db3c d0c7 1abd 1deb 72bc e575 093d
00000390: 0c73 89bd 576e e63d 8c9c 97bc 4ce7 533d
000003a0: 62ce cb3d c6b8 b73d 13a7 87bd c1af e6bb
000003b0: 2581 a7bd 0e6c 4a3d b4ea 913d aaff 16bc
000003c0: 9524 8d3d 76ef 623c c927 f13c 40a3 82bd
000003d0: edb1 8c3c c9f2 423d f3ed 4fbc 520a d5bc
000003e0: d985 cbbd a3f6 8c3c 1844 253d ea75 a3bd
000003f0: 4a42 c03c a2b6 6dbc 2c2b 2cbd c240 1abd

res_blocks.0.conv1.bias f4 [16]
0.007849859 0.039333604 0.07376921 0.09494349 0.024185555 -0.06551543 -0.080097616 0.0032008868
-0.027391104 -0.038304448 0.04418436 0.09357015 0.06868464 -0.09066166 0.060847584 0.09424949
00000000: b29c 003c 461c 213d 5014 973d bc71 c23d
00000010: c920 c63c f42c 86bd 380a a4bd f8c5 513b
00000020: 4f63 e0bc 20e5 1cbd a9fa 343d b5a1 bf3d
00000030: 88aa 8c3d d2ac b9bd 513b 793d e005 c13d

res_blocks.0.batchnorm1.weight f4 [16]
1.0032014 0.98169273 0.97519636 0.97709817 1.0458283 1.0169953 0.99686277 0.9731919
0.99349624 1.0174115 0.98836017 1.0793965 1.0119512 0.96499145 0.9886406 0.98121583
00000000: e768 803f 3750 7b3f 78a6 793f 1b23 7a3f
00000010: b4dd 853f e72c 823f 6632 7f3f 1b23 793f
00000020: c555 7e3f 8a3a 823f 2c05 7d3f aa29 8a3f
00000030: 9e87 813f ae09 773f 8d17 7d3f f630 7b3f

res_blocks.0.batchnorm1.bias f4 [16]
0.019339794 -0.0018604951 -0.027852092 -0.0338849 -0.016856905 -0.024651095 0.0010869099 -0.018278
-0.056965128 -0.0021235214 -0.05002123 0.013288174 -0.037146255 -0.0442483 -0.02252206 -0.015173775
00000000: 7d6e 9e3c dbdb f3ba 122a e4bc e5ca 0abd
00000010: 7e17 8abc 18f1 c9bc a576 8e3a bfbb 95bc
00000020: 4454 69bd c72a 0bbb 10e3 4cbd a4b6 593c
00000030: ac26 18bd b53d 35bd 2f80 b8bc 6d9b 78bc

res_blocks.0.batchnorm1.running_mean f4 [16]
-0.024630107 -0.07052767 0.37979454 0.22832358 0.09136793 0.3020913 -0.14332728 -0.03782624
0.17557289 -0.61441904 0.06582197 0.05838628 0.1311843 -0.072914355 -0.03044394 0.14340656
00000000: 14c5 c9bc d070 90bd 6e74 c23e a8cd 693e
00000010: 1c1f bb3d b6ab 9a3e 63c4 12be b0ef 1abd
00000020: 61c9 333e 914a 1dbf abcd 863d 7426 6f3d
00000030: 2d55 063e 1f54 95bd 9265 f9bc 2bd9 123e

res_blocks.0.batchnorm1.running_var f4 [16]
0.037243966 0.04347378 0.036184672 0.03273901 0.018144635 0.069996975 0.036245108 0.11735123
0.02627021 0.102939546 0.013445987 0.009444096 0.013159837 0.07068184 0.11591739 0.06779061
00000000: 218d 183d 9011 323d 6136 143d 5719 063d
00000010: 0fa4 943c 935a 8f3d c075 143d d755 f03d
00000020: a034 d73c f8d1 d23d 8f4c 5c3c 69bb 1a3c
00000030: 5b9c 573c a4c1 903d 1966 ed3d ced5 8a3d

res_blocks.0.conv2.weight f4 [16, 16, 3, 3]
-0.02870768 -0.034997918 0.033786993 0.008846722 -0.013178453 -0.02080758 0.036790766 -0.028174404
0.041958272 -0.047770552 -0.022075988 0.03933505 -0.09406949 -0.069629245 0.009830923 -0.05143337
0.062575094 -0.025926022 0.015081385 0.049907874 -0.011382414 0.015638227 -0.02732948 -0.058468673
-0.011149905 0.028805025 -0.031222172 -0.026941739 -0.047342848 -0.08329818 -0.024873277 0.027925776
-0.019783353 -0.023206463 0.06039229 0.039994344 0.047628753 0.035588857 0.11368838 -0.033145968
0.10694041 0.13171558 0.043169286 0.15470642 -0.034697216 -0.016125156 -0.064377025 -0.06153411
-0.028015975 0.036769833 -0.09190835 0.043349784 -0.031443737 -0.051486384 0.09248127 0.02542605
0.089705184 0.117032655 0.027918981 0.03866615 0.03820302 -0.075560294 0.0031869176 -0.048763353
0.0033288656 0.063507125 0.03229821 -0.006106967 -0.051899847 -0.040138744 0.0029496658 -0.03676637
-0.03571611 -0.015589645 0.0695246 -0.0450258 -0.018459074 -0.07310391 0.06161723 0.0345355
0.03753925 0.055546645 -0.008667103 -0.055321995 -0.00890716 0.052774947 -0.045241736 0.08082979
0.06268827 -0.020318594 -0.047661662 0.059766434 0.04149528 -0.00374968 -0.006250396 -0.022061026
0.031984806 0.06684202 -0.036913615 -0.052558713 0.0111582065 0.07244727 0.03610902 0.0446738
0.060472447 0.020372216 0.0299265 -0.08405246 -0.0065252343 -0.009388098 -0.024968835 0.07985046
-0.004130624 -0.046745032 0.019907374 -0.031043032 0.036682338 0.011984911 -0.07003591 -0.004749046
-0.10450623 -0.025391605 -0.024380792 -0.0231235 0.019436665 -0.011309667 -0.08424763 -0.024480773
-0.037469294 0.036125686 0.06696509 -0.082461886 -0.09024236 0.03167276 0.057570737 -0.05927982
0.081680976 0.042813808 0.05838017 -0.05277592 0.036894467 0.0063390206 0.021983493 0.02091017
-0.0001904317 -0.028770346 0.041469354 0.023914607 -0.0021923818 -0.0024736256 0.04036958 -0.03706623
-0.013437084 -0.06213257 0.0949567 0.020863695 0.020279152 0.03756847 -0.0015938756 -0.044671293
-0.058914308 0.0720023 -0.007064363 -0.12708238 -0.08131168 0.051591698 0.047270227 0.06143881
0.0010983557 -0.040680416 -0.06313015 -0.059794836 -0.022175161 0.07597472 0.020474067 -0.095476724
0.03780909 -0.061238866 0.08466694 0.01446158 0.094892144 -0.01154954 0.090011865 -0.022863615
0.100511506 0.012128928 0.059868403 -0.052020878 -0.10983728 0.011229323 -0.038517706 0.027976792
0.008118952 -0.077141844 -0.002695108 0.041175496 0.06527256 -0.05076535 0.057586014 0.039254654
0.07998879 -0.07240458 0.055380292 0.051395558 -0.0664178 0.073337145 0.036612656 -0.05662548
0.020437818 -0.024763087 -0.06161557 0.06309847 0.07886826 -0.04297627 -0.0120667 0.034277953
-0.035411112 0.026896937 -0.030169683 -0.025505302 -0.016037451 0.014050834 0.0014276745 -0.07547753
0.0358054 0.025552584 0.014485998 0.022217805 -0.0088386005 0.06594092 0.033042442 -0.02995254
0.0031432728 -0.028601523 -0.06715987 0.0012496854 0.101941906 -0.10143812 -0.026565678 0.07457628
0.024942074 0.061067406 -0.092831716 -0.019416858 0.06999215 0.093287244 0.02334099 -0.020471824
-0.047732323 -0.009928986 -0.06319185 -0.002636503 0.043971855 0.021315983 0.0076059927 0.0066127353
00000000: 5e2c ebbc fa59 0fbd 3b64 0a3d d7f1 103c
00000010: 70ea 57bc a874 aabc eab1 163d 02ce e6bc
00000020: 70dc 2b3d 0eab 43bd b4d8 b4bc ca1d 213d
00000030: 81a7 c0bd c799 8ebd e111 213c ccab 52bd
00000040: 5f27 803d cf62 d4bc ea17 773c 336c 4c3d
00000050: 4e7d 3abc bd1b 803c 13e2 dfbc d97c 6fbd
00000060: 17ae 36bc 84f8 eb3c a4c5 ffbc ecb4 dcbc
00000070: 93ea 41bd 3c98 aabd 0bc3 cbbc 99c4 e43c
00000080: b310 a2bc 7b1b bebc e85d 773d 1cd1 233d
00000090: 5e16 433d 9fc5 113d 74d5 e83d 11c4 07bd
000000a0: 9303 db3d 73e0 063e 47d2 303d 5c6b 1e3e
000000b0: ab1e 0ebd e718 84bc 1ad8 83bd 310b 7cbd
000000c0: c281 e5bc f79b 163d 723a bcbd 8b8f 313d
000000d0: 26cb 00bd 63e3 52bd d266 bd3d 4b4a d03c
000000e0: 5ab7 b73d d1ae ef3d 59b6 e43c 6660 1e3d
000000f0: c57a 1c3d 5bbf 9abd 9bdb 503b 15bc 47bd
00000100: 1929 5a3b 0610 823d 214b 043d f41c c8bb
00000110: ef94 54bd 8668 24bd 2e4f 413b 5598 16bd
00000120: 0e4b 12bd b66b 7fbc ea62 8e3d f96c 38bd
00000130: 7c37 97bc 81b7 95bd 5962 7c3d 1975 0d3d
00000140: c2c2 193d e184 633d 7700 0ebc 5199 62bd
00000150: 56ef 11bc 8b2a 583d 664f 39bd 178a a53d
00000160: b562 803d 2e73 a6bc e038 43bd a6cd 743d
00000170: f4f6 293d 31bd 75bb 1fd0 ccbb 53b9 b4bc
00000180: 8002 033d 78e4 883d bb32 17bd ce47 57bd
00000190: e9d0 363c 3c5f 943d 0de7 133d e0fb 363d
000001a0: f5b1 773d a2e3 a63c 6b28 f53c b223 acbd
000001b0: a2d1 d5bb 89d0 19bc 718b ccbc a388 a33d
000001c0: 2f5a 87bb b877 3fbd ca14 a33c f54d febc
000001d0: 3840 163d 5c5c 443c fd6e 8fbd e39d 9bbb
000001e0: 5d07 d6bd 0e02 d0bc 3aba c7bc 7f6d bdbc
000001f0: a439 9f3c 2e4c 39bc 058a acbd e78b c8bc
00000200: 6779 19bd 87f8 133d fe24 893d c7e1 a8bd
00000210: fdd0 b8bd 4cbb 013d 4bcf 6b3d 66cf 72bd
00000220: 5b48 a73d 885d 2f3d 0c20 6f3d 902b 58bd
00000230: a71e 173d 8fb7 cf3b ba16 b43c ce4b ab3c
00000240: 9fae 47b9 caaf ebbc c5db 293d 91e8 c33c
00000250: 10ae 0fbb 8d1c 22bb 935a 253d c2d2 17bd
00000260: 3727 5cbc b97e 7ebd a978 c23d 57ea aa3c
00000270: 7720 a63c 65e1 193d 97e9 d0ba 3ff9 36bd
00000280: 2150 71bd f175 933d 2c7c e7bb e221 02be
00000290: bd86 a6bd d151 533d 6d9e 413d 43a7 7b3d
000002a0: b4f6 8f3a 82a0 26bd 614a 81bd 6eeb 74bd
000002b0: afa8 b5bc a298 9b3d 3bb9 a73c 4d89 c3bd
000002c0: b4dd 1a3d 9bd5 7abd dc65 ad3d 43f0 6c3c
000002d0: d056 c23d 483a 3dbc 2458 b83d 7a4c bbbc
000002e0: fad8 cd3d 69b8 463c 9238 753d d813 55bd
000002f0: 5ef2 e0bd 32fb 373c bec4 1dbd 962f e53c
00000300: 5a05 053c 8bfc 9dbd 69a0 30bb a3a7 283d
00000310: 9fad 853d 54ef 4fbd 50df 6b3d 7dc9 203d
00000320: 2ad1 a33d da48 94bd 72d6 623d 2684 523d
00000330: 0e06 88bd c931 963d 27f7 153d 1ff0 67bd
00000340: 366d a73c f5db cabc 9c60 7cbd c539 813d
00000350: af85 a13d e307 30bd 68b3 45bc 0a67 0c3d
00000360: 3e0b 11bd f756 dc3c 6926 f7bc 7ff0 d0bc
00000370: f960 83bc 7835 663c cf20 bb3a f793 9abd
00000380: afa8 123d a753 d13c ae56 6d3c 1d02 b63c
00000390: c7cf 10bc 080c 873d 8357 073d 075f f5bc
000003a0: 5eff 4d3b be4d eabc 1d8b 89bd 7ccc a33a
000003b0: ebc6 d03d cabe cfbd 44a0 d9bc 73bb 983d
000003c0: 5253 cc3c d121 7a3d 8e1e bebd 1a10 9fbc
000003d0: 0b58 8f3d 620d bf3d 9b35 bf3c 87b4 a7bc
000003e0: f882 43bd 30ad 22bc bb6a 81bd 2ec9 2cbb
000003f0: d51b 343d db9e ae3c b13b f93b a5af d83b

res_blocks.0.conv2.bias f4 [16]
-0.07116168 -0.013647053 -0.023018997 -0.0312781 0.028583981 -0.054014802 -0.039570004 -0.016818618
0.079699434 -0.042033948 -0.07000962 0.08048115 0.049474433 0.063748375 -0.07118713 0.0682347
00000000: 37bd 91bd e497 5fbc 5692 bcbc 771d 00bd
00000010: f428 ea3c a03e 5dbd 2814 22bd 33c7 89bc
00000020: 7539 a33d ca2b 2cbd 3461 8fbd 4dd3 a43d
00000030: b4a5 4a3d 828e 823d 8fca 91bd a2be 8b3d

res_blocks.0.batchnorm2.weight f4 [16]
1.2809343 1.1620642 1.1112704 1.1370779 1.14605 1.051722 1.166097 1.3618511
1.0763844 1.0954568 1.2687716 1.1830362 1.1193656 1.058739 1.0883212 1.1408634
00000000: a8f5 a33f 85be 943f 1c3e 8e3f c58b 913f
00000010: c4b1 923f d49e 863f ab42 953f 2351 ae3f
00000020: f7c6 893f ee37 8c3f 1c67 a23f bb6d 973f
00000030: 5f47 8f3f c284 873f 1c4e 8b3f d007 923f

res_blocks.0.batchnorm2.bias f4 [16]
-0.15352839 -0.0028485402 0.03954834 0.009079146 0.13423964 0.03441451 0.025994712 0.13306311
0.057622027 0.0037813801 0.07955272 0.08971205 -0.0639449 0.056560624 0.009763875 -0.022534179
00000000: 8c36 1dbe 93ae 3abb 71fd 213d b3c0 143c
00000010: 1e76 093e 3bf6 0c3d ddf2 d43c b241 083e
00000020: 1305 6c3d 08d1 773b 89ec a23d f4ba b73d
00000030: 8bf5 82bd 1dac 673d a9f8 1f3c 9999 b8bc

res_blocks.0.batchnorm2.running_mean f4 [16]
0.04110177 0.11234918 -0.066702105 -0.118457355 -0.04147342 -0.0979667 0.21558015 -0.27829555
-0.27380377 -0.21205679 -0.09706987 0.0948413 0.002393377 0.09694466 -0.29916745 0.01988049
00000000: 545a 283d 5417 e63d 1d9b 88bd c599 f2bd
00000010: 08e0 29bd c4a2 c8bd 0bc1 5c3e c17c 8ebe
00000020: 0230 8cbe 6a25 59be 91cc c6bd 283c c23d
00000030: 34da 1c3b ec8a c63d 7a2c 99be 69dc a23c

res_blocks.0.batchnorm2.running_var f4 [16]
0.109976426 0.056205083 0.09104084 0.10405759 0.07542331 0.10600271 0.104823515 0.08058563
0.07619464 0.06493526 0.049186956 0.09657782 0.054711223 0.21861447 0.07085322 0.098415546
00000000: 523b e13d 4d37 663d 9f73 ba3d 251c d53d
00000010: 8977 9a3d f317 d93d b6ad d63d 140a a53d
00000020: ef0b 9c3d c7fc 843d 4378 493d 98ca c53d
00000030: e018 603d 79dc 5f3e 7e1b 913d 178e c93d

res_blocks.0.residual_conv.weight f4 [16, 8, 1, 1]
0.19248542 0.3067646 -0.08584762 -0.5215329 -0.23522882 -0.12801138 -0.37093878 0.17628947
-0.20064738 -0.0842804 0.26056045 -0.1923372 -0.060039535 0.122912064 0.07417534 -0.3427478
0.23804389 0.24547608 0.14372514 0.06191701 0.1983986 -0.13997124 0.35539743 -0.3185177
0.3550788 0.24672085 -0.08747819 -0.0045753564 -0.110110305 -0.11096988 0.1056634 0.0026473668
0.20424846 0.43385977 -0.08052387 -0.2305075 0.065462336 -0.24335782 0.33925775 0.11765743
0.25489548 0.12863326 0.17743276 -0.26842752 -0.103297204 0.2082513 0.16598047 0.33597252
0.29917225 0.29726252 0.16409773 -0.31776455 0.15191309 -0.11223892 -0.009138266 -0.30449095
-0.036089536 -0.095376015 -0.026722884 0.043878723 -0.20942508 -0.115208425 0.04792843 -0.01868874
0.29339677 0.2399418 0.18634465 -0.05203042 -0.35573536 -0.014428745 -0.17129208 -0.25062302
-0.017298877 -0.27025744 -0.08147162 0.34931898 0.027788034 0.31315035 0.022172926 0.102795556
-0.084550686 0.33467358 -0.09969558 0.15918459 0.38461953 -0.2970081 -0.3391071 -0.25742757
-0.2639609 -0.32941395 -0.04430604 -0.24896176 -0.3670889 -0.12117106 -0.09214968 0.018056436
-0.12906818 0.15786529 0.0636527 -0.24821419 0.21610247 -0.09449476 -0.06706374 0.25325796
0.3560195 -0.18435104 0.2555198 -0.22074354 0.015261204 0.05324791 -0.1956975 0.17655145
0.114627264 0.02108842 -0.08647561 0.1907909 0.094199546 0.18336189 0.38959676 0.28588843
0.27126226 0.055562332 -0.15395257 0.032761373 0.029859541 -0.013530468 -0.14082916 -0.064126804
00000000: e61a 453e 4010 9d3e e1d0 afbd 2e83 05bf
00000010: d3df 70be 6a15 03be b0eb bdbe 3a85 343e
00000020: 8276 4dbe 349b acbd 2e68 853e 0bf4 44be
00000030: 04ec 75bd 52b9 fb3d 3ee9 973d a47c afbe
00000040: c7c1 733e 155e 7b3e af2c 133e b19c 7d3d
00000050: 0129 4b3e 9f54 0fbe a7f6 b53e c114 a3be
00000060: e3cc b53e 64a4 7c3e c427 b3bd dfec 95bb
00000070: 8381 e1bd 2d44 e3bd 0d66 d83d 727f 2d3b
00000080: 8226 513e de22 de3e b3e9 a4bd 280a 6cbe
00000090: 1e11 863d cb32 79be 31b3 ad3e 61f6 f03d
000000a0: a981 823e 70b8 033e efb0 353e 556f 89be
000000b0: 7c8d d3bd d43f 553e c9f6 293e 9704 ac3e
000000c0: 1b2d 993e cb32 983e 3c09 283e 09b2 a2be
000000d0: 1b8f 1b3e 85dd e5bd aab8 15bc 3de6 9bbe
000000e0: 9fd2 13bd 8054 c3bd f3e9 dabc 2dba 333d
000000f0: 8773 56be 65f2 ebbd 9a50 443d 2119 99bc
00000100: 1a38 963e 4eb3 753e 22d1 3e3e da1d 55bd
00000110: f222 b6be 8b66 6cbc 3167 2fbe a951 80be
00000120: 60b6 8dbc 2f5f 8abe 98da a6bd f0d9 b23e
00000130: bba3 e33c 3e55 a03e ffa3 b53c 7a86 d23d
00000140: e928 adbd 565a ab3e 322d ccbd 4901 233e
00000150: daec c43e 7211 98be 729f adbe 8ccd 83be
00000160: e225 87be f2a8 a8be 407a 35bd d5ef 7ebe
00000170: 14f3 bbbe 8828 f8bd f9b8 bcbd 17eb 933c
00000180: 732a 04be 70a7 213e 595c 823d dc2b 7ebe
00000190: f749 5d3e 7886 c1bd b758 89bd 07ab 813e
000001a0: 3048 b63e 85c6 3cbe 7ed3 823e 980a 62be
000001b0: 210a 7a3c 7b1a 5a3d ed64 48be e7c9 343e
000001c0: b3c1 ea3d 9fc1 ac3c 201a b1bd b15e 433e
000001d0: b1eb c03d 38c3 3b3e 3a79 c73e f85f 923e
000001e0: e3e2 8a3e 5495 633d bea5 1dbe ca30 063d
000001f0: ff9b f43c e5ae 5dbc 8535 10be ea54 83bd

res_blocks.0.residual_conv.bias f4 [16]
-0.32036343 0.21254537 -0.20982586 0.115497924 0.20717965 -0.25154254 0.24950589 -0.2215794
0.36459136 -0.14807591 -0.09293107 0.27156687 0.30672148 0.28801993 0.3966447 0.30824584
00000000: ad06 a4be 7ea5 593e 97dc 56be 2d8a ec3d
00000010: e726 543e 2fca 80be 797e 7f3e b6e5 62be
00000020: b8ab ba3e 36a1 17be a552 bebd d00a 8b3e
00000030: 990a 9d3e 5977 933e 0415 cb3e 66d2 9d3e

res_blocks.1.conv1.weight f4 [32, 16, 3, 3]
0.045637593 -0.06778164 -0.02019106 0.025154443 0.054766998 -0.061030336 0.060812667 0.027985636
0.039120276 -0.0034590673 -0.093610555 -0.0001518282 -0.028863741 -0.09343513 -0.002514342 -0.0649742
-0.075152464 -0.06744887 -0.09454915 -0.036971193 -0.002802775 0.012298042 0.018627414 -0.015055079
-0.11131633 -0.08762683 -0.08582189 0.024736643 0.08202573 0.1298827 0.010262813 -0.013197173
0.013140739 -0.046469457 -0.06499677 0.04087919 -0.014663641 0.008942879 -0.080350675 0.0057583353
-0.035326686 0.07454345 -0.014207644 -0.011853624 -0.000182093 -0.059452478 -0.08243447 -0.073685
-0.0063736816 0.0036017243 -0.072052255 -0.046177287 0.046814296 -0.011413785 -0.008253757 0.010109239
-0.00213014 -0.06690431 0.078613296 -0.03126316 0.034744754 -0.04923011 0.012336583 -0.06746988
0.036156993 -0.07871242 -0.003000735 -0.054105274 0.03220085 0.011299167 -0.046195757 0.034545925
0.062332515 -0.04328487 0.061536714 -0.05710011 -0.03490603 0.05332906 0.08961632 0.022112178
0.046659462 -0.055123776 0.008352716 -0.05528361 -0.057652548 -0.05209231 -0.015580241 -0.063743904
-0.08060995 -0.044289008 -0.05197691 -0.020086687 0.03657905 -0.0023711463 -0.073486835 0.0082326615
0.011442391 -0.014256119 -0.034003403 -0.026699912 0.0009035936 0.043882225 0.04327055 0.06545388
-0.014691196 -0.035258614 0.0010770626 -0.05815744 0.036742326 0.123081364 0.0919378 0.08683293
0.07368599 0.05341951 0.016753407 0.06229965 0.05940718 -0.006575533 0.022543898 -0.0837047
0.04980421 0.012055549 -0.009672151 0.013477224 -0.051240403 -0.07724376 0.037898354 0.11140703
0.07858476 0.07383214 0.010191461 0.021624194 0.10035339 0.03617746 0.15460892 0.06531899
0.05870335 -0.010753451 0.035137206 -0.0027443664 -0.03238387 -0.009657957 -0.01841917 0.017264014
0.024495106 0.003426549 0.080508634 -0.032727886 0.052002646 0.06909205 -0.01974119 -0.0003011668
0.014841788 -0.060288694 -0.0009668833 0.008349936 -0.029424148 -0.012018759 -0.073133335 0.008763779
-0.06681469 -0.112502664 -0.072965026 -0.03870479 0.017377863 -0.04836988 0.042309094 -0.021769587
0.022566127 -0.037632857 0.09620819 -0.01851802 0.013839284 -0.029067537 -0.018636983 -0.0051253824
0.05956041 0.07565132 0.008952082 0.0057650744 0.10214447 0.035148013 0.04188932 -0.029047426
0.031508528 0.041162442 0.086649016 0.017127832 0.10686064 -0.039576426 0.065721326 0.085658856
-0.007508479 0.017568208 0.00084971084 0.00038409146 0.09856353 0.1021822 0.06420275 0.032739863
-0.028918287 -0.010911464 0.05346729 -0.02826478 0.057662804 0.016467407 0.08814788 0.0003512579
-0.033758033 -0.07600341 -0.066450484 0.00923394 0.04971314 0.029043132 0.08151781 -0.023051867
0.0008454984 -0.0027415904 -0.007140939 0.004090304 -0.029835233 -0.009243059 0.023128344 0.056918163
0.022005912 0.0016135785 0.0503527 -0.031347096 0.04592945 -0.042969164 -0.0015578473 0.031792827
-0.09375627 -0.073025614 0.055468548 0.06646036 0.051095616 0.04836582 0.013530952 -0.028962592
-0.025767785 0.013128583 0.071229555 -0.015625827 -0.019370792 -0.044517905 0.021352008 0.0791008
0.10942623 0.08419718 0.09489376 0.046760466 -0.026055308 -0.06486725 0.017971573 0.08040851
00000000: 7cee 3a3d 1ad1 8abd b967 a5bc b110 ce3c
00000010: 5c53 603d f2fa 79bd b416 793d 2242 e53c
00000020: 953c 203d 85b1 62bb e4b6 bfbd 1234 1fb9
00000030: a773 ecbc eb5a bfbd a9c7 24bb 3211 85bd
00000040: 89e9 99bd a222 8abd fca2 c1bd 1b6f 17bd
00000050: c3ae 37bb ba7d 493c 8598 983c 94a9 76bc
00000060: d1f9 e3bd b275 b3bd 63c3 afbd 80a4 ca3c
00000070: 1bfd a73d f8ff 043e 5c25 283c f538 58bc
00000080: 414c 573c c256 3ebd 071d 85bd f070 273d
00000090: c53f 70bc 2785 123c e58e a4bd 6bb0 bc3b
000000a0: b7b2 10bd 3caa 983d 2ec7 68bc b435 42bc
000000b0: 38f0 3eb9 7184 73bd 67d3 a8bd 29e8 96bd
000000c0: 51da d0bb e80a 6c3b 2290 93bd 6524 3dbd
000000d0: 59c0 3f3d e200 3bbc c43a 07bc 39a1 253c
000000e0: d299 0bbb 2005 89bd 0200 a13d cd0d 00bd
000000f0: 8450 0e3d 83a5 49bd 611f 4a3c a62d 8abd
00000100: 5b19 143d fa33 a1bd fba7 44bb 7e9d 5dbd
00000110: 0ae5 033d 2420 393c c337 3dbd 0780 0d3d
00000120: 6150 7f3d 7a4b 31bd ec0d 7c3d cee1 69bd
00000130: a0f9 0ebd 936f 5a3d c388 b73d 9924 b53c
00000140: fe1d 3f3d 78c9 61bd d5d9 083c 1171 62bd
00000150: 1425 6cbd bf5e 55bd 4444 7fbc 2a8c 82bd
00000160: d416 a5bd 6468 35bd bee5 54bd d68c a4bc
00000170: ead3 153d 3c65 1bbb 4480 96bd 49e2 063c
00000180: de78 3b3c 7f92 69bc 2747 0bbd c6b9 dabc
00000190: 24df 6c3a d9bd 333d 763c 313d af0c 863d
000001a0: 58b3 70bc 566b 10bd 392c 8d3a 7f36 6ebd
000001b0: 1f7f 163d 1512 fc3d e349 bc3d 77d5 b13d
000001c0: aee8 963d 6bce 5a3d 713e 893c eb2d 7f3d
000001d0: f154 733d 9277 d7bb fbad b83c 5f6d abbd
000001e0: 80ff 4b3d a384 453c f177 1ebc 93cf 5c3c
000001f0: 75e1 51bd fa31 9ebd 4e3b 1b3d 5e29 e43d
00000200: 0cf1 a03d 4e35 973d 16fa 263c 3925 b13c
00000210: 1486 cd3d d12e 143d cd51 1e3e f6c5 853d
00000220: ed72 703d 3e2f 30bc 08ec 0f3d d4da 33bb
00000230: f3a4 04bd 683c 1ebc cde3 96bc 436d 8d3c
00000240: f6a9 c83c f48f 603b b6e1 a43d ad0d 06bd
00000250: ba00 553d 2280 8d3d 47b8 a1bc ece5 9db9
00000260: f92a 733c 47f1 76bd 7176 7dba 2cce 083c
00000270: e90a f1bc 54ea 44bc eec6 95bd f495 0f3c
00000280: 24d6 88bd cc67 e6bd b06e 95bd ea88 1ebd
00000290: 055c 8e3c 7f1f 46bd 4d4c 2d3d 2256 b2bc
000002a0: 99dc b83c e924 1abd cd08 c53d 1ab3 97bc
000002b0: 2abe 623c 0b1f eebc 96ac 98bc d3f2 a7bb
000002c0: 9ef5 733d 14ef 9a3d c1ab 123c f3e8 bc3b
000002d0: 1f31 d13d 5df7 0f3d 2394 2b3d def4 edbc
000002e0: 160f 013d f399 283d 0a75 b13d ab4f 8c3c
000002f0: c0d9 da3d e41a 22bd e798 863d e96d af3d
00000300: b009 f6bb 34eb 8f3c 21bf 5e3a e25f c939
00000310: addb c93d e744 d13d bb7c 833d 3c1a 063d
00000320: 0be6 ecbc ffc5 32bc 8400 5b3d 8a8b e7bc
00000330: d52f 6c3d a8e6 863c e086 b43d 0a29 b839
00000340: dd45 0abd ada7 9bbd 3117 88bd f449 173c
00000350: 01a0 4b3d ddeb ed3c cff2 a63d 45d7 bcbc
00000360: 70a4 5d3a 41ac 33bb 8afe e9bb f507 863b
00000370: 0569 f4bc 3370 17bc a777 bd3c 0523 693d
00000380: be45 b43c b67e d33a a23e 4e3d d065 00bd
00000390: 8520 3c3d 6f00 30bd ae30 ccba 3239 023d
000003a0: 4a03 c0bd 748e 95bd fd32 633d 5f1c 883d
000003b0: a349 513d 3d1b 463d edb0 5d3c f542 edbc
000003c0: f616 d3bc 4519 573c cde0 913d bc01 80bc
000003d0: 7faf 9ebc 6858 36bd 68ea ae3c 9aff a13d
000003e0: dc1a e03d 926f ac3d a957 c23d e787 3f3d
000003f0: f171 d5bc 1fd9 84bd 1f39 933c 38ad a43d

res_blocks.1.conv1.bias f4 [32]
0.08121102 -0.004279541 0.077209614 0.032317255 -0.068283945 -0.05260835 -0.05034638 -0.031398732
-0.068680525 -0.00474653 0.0061475653 0.06660555 -0.04728706 0.04310748 0.02510696 -0.00906633
0.033804704 -0.07135557 -0.0402373 -0.01870686 0.069546066 0.05308959 0.059972357 -0.021768436
0.029044827 0.045383118 -0.006557512 0.07664796 0.04901675 -0.036017954 0.029818673 -0.08061886
00000000: f751 a63d 643b 8cbb 1320 9e3d 195f 043d
00000010: 74d8 8bbd da7b 57bd 0138 4ebd f59b 00bd
00000020: 60a8 8cbd c888 9bbb 8471 c93b 7e68 883d
00000030: 14b0 41bd 7891 303d 1dad cd3c f28a 14bc
00000040: cd76 0a3d de22 92bd decf 24bd 213f 99bc
00000050: 2b6e 8e3d 7874 593d 93a5 753d b853 b2bc
00000060: 6bef ed3c a6e3 393d 66e0 d6bb 9bf9 9c3d
00000070: cac5 483d 9087 13bd 4a46 f43c 801b a5bd

res_blocks.1.batchnorm1.weight f4 [32]
0.9750565 0.93416476 0.92678714 1.0005338 1.0707635 0.96085984 1.0529155 0.99730635
1.0004661 1.0099332 1.0600522 0.99952585 0.90035623 1.0035726 0.9804874 1.03643
0.976666 1.0161566 1.0536221 1.0039115 1.0150397 1.1037741 0.98100513 1.0657955
0.9711391 0.9629958 1.001554 0.9295614 1.0094259 1.0050817 0.9530947 0.9537357
00000000: 4e9d 793f 6c25 6f3f ec41 6d3f 7e11 803f
00000010: c70e 893f e9fa 753f efc5 863f 784f 7f3f
00000020: 460f 803f 7e45 813f caaf 873f ede0 7f3f
00000030: bf7d 663f 1175 803f 3901 7b3f bda9 843f
00000040: c806 7a3f 6b11 823f 17dd 863f 2c80 803f
00000050: d2ec 813f 7848 8d3f 2723 7b3f fd6b 883f
00000060: 929c 783f e586 763f ec32 803f bcf7 6d3f
00000070: de34 813f 84a6 803f 04fe 733f 0628 743f

res_blocks.1.batchnorm1.bias f4 [32]
-0.08705201 -0.09679556 -0.015918273 -0.00084313087 0.060220797 -0.0042210575 -0.049974836 0.00862527
-0.10408124 -0.07420973 0.0161874 -0.097127885 -0.05154924 -0.17507815 0.0051054903 -0.008958908
-0.006243699 -0.076331295 -0.12416789 -0.08175929 -0.040983144 -0.10129561 -0.03224289 0.027494935
0.03503465 -0.070775755 -0.12870005 -0.10978505 -0.012449511 -0.02669909 -0.026864823 -0.0771421
00000000: 5348 b2bd c03c c6bd 0a67 82bc 8e05 5dba
00000010: 15aa 763d cc50 8abb 6ab2 4cbd 0151 0d3c
00000020: 8c28 d5bd 45fb 97bd 709b 843c fcea c6bd
00000030: 4c25 53bd b047 33be f54b a73b 62c8 12bc
00000040: f297 ccbb 9553 9cbd bc4b febd 6a71 a7bd
00000050: f1dd 27bd 1374 cfbd 1f11 04bd 0f3d e13c
00000060: 7e80 0f3d e1f2 90bd f2c9 03be fcd6 e0bd
00000070: 09f9 4bbc 0db8 dabc 9e13 dcbc adfc 9dbd

res_blocks.1.batchnorm1.running_mean f4 [32]
0.35801497 0.5564391 0.47507712 -0.44757953 -1.4726126 0.4182314 -0.78214574 -1.5473298
-0.48724324 -1.0885276 -0.72355425 -0.73062354 0.7407661 -0.9839626 -1.6407007 -1.702147
-0.9363184 -0.76092356 -1.1473308 0.24999127 0.5521925 -0.5694164 -0.5719057 -1.3686414
0.5327025 0.8877783 0.122318454 1.2680727 -0.022674376 -0.35795757 -0.042196307 -0.58168703
00000000: bd4d b73e cb72 0e3f 4f3d f33e 2529 e5be
00000010: 927e bcbf 6d22 d63e b43a 48bf e70e c6bf
00000020: f277 f9be df54 8bbf da3a 39bf 250a 3bbf
00000030: d9a2 3d3f f9e4 7bbf 7b02 d2bf f4df d9bf
00000040: 90b2 6fbf e3cb 42bf bcdb 92bf b6fd 7f3e
00000050: 7d5c 0d3f 46c5 11bf 6968 12bf a42f afbf
00000060: 315f 083f 7045 633f 1982 fa3d 3550 a23f
00000070: 9dbf b9bc 3746 b7be 09d6 2cbd 71e9 14bf

res_blocks.1.batchnorm1.running_var f4 [32]
0.87447655 1.1914153 0.8322845 0.8479747 2.5578249 1.0133295 0.98909336 1.1862949
1.178791 0.35476926 0.646491 0.4772541 1.7679626 1.3782427 1.2278686 1.9388778
0.8084711 0.6087836 1.0138899 0.529042 0.7608883 0.5756938 1.0294417 1.2708493
1.4221141 0.40087563 0.60382485 1.1609308 1.076906 1.0167699 0.39099285 0.6165135
00000000: b2dd 5f3f 4c80 983f 9910 553f df14 593f
00000010: 67b3 2340 c8b4 813f 3935 7d3f 83d8 973f
00000020: a0e2 963f 51a4 b53e 6f80 253f a65a f43e
00000030: 994c e23f 426a b03f cc2a 9d3f 262d f83f
00000040: f6f7 4e3f 3ed9 1b3f 25c7 813f 4c6f 073f
00000050: 93c9 423f ab60 133f bfc4 833f 31ab a23f
00000060: d607 b63f 923f cd3e 4494 1a3f 6199 943f
00000070: 0ed8 893f 8425 823f 3730 c83e d4d3 1d3f

res_blocks.1.conv2.weight f4 [32, 32, 3, 3]
-0.024488851 -0.018864442 -0.01729162 -0.012007291 0.003724669 -0.053304583 -0.06963374 -0.023021312
-0.014523298 -0.0012920676 -0.0416166 -0.052801505 -0.0055243257 -0.002891249 -0.013271503 -0.038881082
-0.0056795473 0.004708393 -0.02257233 0.054350432 -0.0002461886 0.011893053 -0.028495533 0.03953141
0.03889644 0.034226354 -0.006584085 -0.011913031 -0.04223481 0.006910269 -0.0061273747 -0.037835315
-0.039869923 -0.07158393 -0.023362348 -0.018249674 0.0015199869 -0.02606914 -0.046472523 -0.0018243219
0.026065677 -0.056067217 -0.028967468 -0.010888493 0.03566286 -0.0003130061 0.0035193192 0.02254083
-0.004137967 -0.014988053 -0.0064871837 -0.00247338 0.012474941 -0.044285774 -0.083481774 -0.078521855
-0.070104256 -0.069132365 -0.042932656 -0.048989363 -0.11079799 -0.03867747 -0.03624009 -0.029340606
-0.06119436 -0.002447769 -0.019548418 -0.07638687 -0.089956306 -0.013765469 -0.04879213 -0.045013826
0.026556434 0.03946428 -0.04292355 -0.032501243 0.019661605 -0.01035739 -0.021443868 -0.03558896
-0.017599603 0.07512528 0.06971236 0.047360353 0.03748483 0.06963319 0.043737847 0.08362094
0.0620543 0.1031431 -0.03067182 0.017304353 0.0020839882 0.013941415 -0.040881585 0.046339024
0.00963047 0.031807326 0.0054808236 0.018292774 0.04176452 -0.02334307 0.009735012 0.018160338
0.045066733 0.07119218 0.018726047 0.002961743 0.037038878 -0.026112037 0.00057130127 0.027218157
-0.018501263 0.026316324 -0.02816172 -0.021100163 0.042798895 -0.037123796 -0.025787363 -0.00050915446
-0.010770278 -0.057363085 0.00088167697 -0.037129845 -0.021201551 -0.03469175 -0.044138193 -0.078276284
-0.06449918 -0.039077733 -0.086132966 -0.05365584 -0.09254623 -0.023578815 -0.071058914 0.02870329
-0.021519685 0.028410489 0.06752399 0.018906865 0.020722339 0.08107612 0.044792484 0.061450887
0.047764763 0.09910825 0.02982342 0.036634497 -0.010323571 0.05730156 0.01749567 0.016770093
0.044692222 0.043610714 0.031522416 0.026839111 0.013929913 0.0061051967 -0.0048973593 0.034094863
0.036535364 -0.010779781 -0.06429964 -0.034912053 -0.03499944 -0.01756045 -0.06572482 -0.05909929
-0.00090178626 -0.034413468 0.00457717 0.0478909 0.085708685 0.0090204775 0.026841355 0.0011143786
-0.01244415 -0.006263216 0.029651199 0.022674607 0.011572031 -0.039590415 -2.1346936e-05 0.033165976
-0.013456624 0.018152937 0.0026196875 0.010808012 0.009078324 -0.053627912 0.012949426 -0.0015948799
0.0067599574 -0.014985535 -0.018244399 -0.03842518 0.026280053 -0.04852778 -0.046815794 -0.027926784
-0.07842413 -0.05490124 -0.047880214 -0.040526275 -0.060803577 -0.071226835 -0.025274755 -0.044016838
-0.02438998 0.028746514 -0.056543164 -0.007862636 -0.006998012 0.012735587 0.057526138 0.03589
-0.014097313 -0.010896194 0.051276118 -0.0091093285 0.011013559 0.013554736 0.04713897 0.026777864
-0.015145374 -0.07572644 0.011470634 0.0011053135 0.01211748 -0.031887043 -0.05573645 -0.025989275
0.04944883 -0.038082026 -0.030651156 0.0072490647 -0.01000732 0.022661977 -0.012144937 -0.0042571034
0.024228953 -0.0052096564 -0.013569505 -0.021587718 0.030537106 -0.044179864 0.013978507 0.014169446
-0.033279136 0.018795049 -0.03895585 0.043594908 -0.032946113 -0.06159299 -0.03439512 -0.040596887
00000000: d89c c8bc 9a89 9abc 28a7 8dbc 3bba 44bc
00000010: 9419 743b e855 5abd 229c 8ebd 3197 bcbc
00000020: 20f3 6dbc 985a a9ba 2b76 2abd 6446 58bd
00000030: 6705 b5bb 1c7b 3dbb b870 59bc c541 1fbd
00000040: 7f1b babb dd48 9a3b 9be9 b8bc 8f9e 5e3d
00000050: e012 81b9 14db 423c 776f e9bc b0eb 213d
00000060: e051 1f3d ef30 0c3d 4fbf d7bb e02e 43bc
00000070: 68fe 2cbd 8a6f e23b 25c8 c8bb 34f9 1abd
00000080: a54e 23bd 989a 92bd 6562 bfbc 5780 95bc
00000090: 4c3a c73a f38e d5bc f959 3ebd 161e efba
000000a0: b087 d53c bda6 65bd 2f4d edbc a665 32bc
000000b0: 3813 123d f81a a4b9 61a4 663b 8ca7 b83c
000000c0: c897 87bb 7390 75bc 7192 d4bb 6e18 22bb
000000d0: b263 4c3c 0065 35bd 7ef8 aabd 11d0 a0bd
000000e0: d292 8fbd 4595 8dbd 27da 2fbd 12a9 48bd
000000f0: 0eea e2bd 446c 1ebd 7d70 14bd b65b f0bc
00000100: f0a6 7abd c06a 20bb 0124 a0bc b870 9cbd
00000110: 033b b8bd 9088 61bc 42da 47bd 6b60 38bd
00000120: e18c d93c 4ca5 213d 9bd0 2fbd 0620 05bd
00000130: 6011 a13c 0bb2 29bc 0dab afbc bbc5 11bd
00000140: 0b2d 90bc 48db 993d 5bc5 8e3d eefc 413d
00000150: b189 193d d99b 8e3d 7526 333d 7541 ab3d
00000160: a62c 7e3d b13c d33d 7843 fbbc dcc1 8d3c
00000170: 8593 083b 886a 643c 7373 27bd fdcd 3d3d
00000180: 1ec9 1d3c 6648 023d 7b98 b33b bada 953c
00000190: 4611 2b3d f739 bfbc 9a7f 1f3c fdc4 943c
000001a0: e597 383d 35cd 913d 5e67 993c cd19 423b
000001b0: 14b6 173d e9e8 d5bc 61c3 153a 9df8 de3c
000001c0: f68f 97bc 5595 d73c 68b3 e6bc 40da acbc
000001d0: e54d 2f3d 1f0f 18bd 0540 d3bc c778 05ba
000001e0: d275 30bc 8ef5 6abd 5720 673a 7715 18bd
000001f0: e0ae adbc f018 0ebd 40ca 34bd 514f a0bd
00000200: 2518 84bd f90f 20bd 7b66 b0bd 3ac6 5bbd
00000210: e188 bdbd 5c28 c1bc 5687 91bd 2923 eb3c
00000220: 0d4a b0bc 1dbd e83c 054a 8a3d 92e2 9a3c
00000230: e5c1 a93c 3d0b a63d 5378 373d edb3 7b3d
00000240: fca4 433d 44f9 ca3d 3f50 f43c 0e0e 163d
00000250: 3224 29bc 0ab5 6a3d 1453 8f3c 6f61 893c
00000260: 310f 373d 26a1 323d a61d 013d b2dd db3c
00000270: 4a3a 643c 1a0e c83b 077a a0bb 0ea7 0b3d
00000280: 1ba6 153d ae9d 30bc 88af 83bd f1ff 0ebd
00000290: 935b 0fbd efda 8fbc bc9a 86bd 1912 72bd
000002a0: da65 6cba 23f5 0cbd 16fc 953b 4029 443d
000002b0: 0988 af3d a0ca 133c 67e2 db3c 5710 923a
000002c0: 8ce2 4bbc aa3b cdbb 12e7 f23c 19c0 b93c
000002d0: 9e98 3d3c 8f29 22bd 3212 b3b7 0cd9 073d
000002e0: 2c79 5cbc 78b5 943c 10af 2b3b 1714 313c
000002f0: 40bd 143c f1a8 5bbd d429 543c 4a0b d1ba
00000300: a282 dd3b e485 75bc 4775 95bc b963 1dbd
00000310: 4449 d73c 11c5 46bd ebc1 3fbd b6c6 e4bc
00000320: d59c a0bd 1fe0 60bd 0b1e 44bd e1fe 25bd
00000330: 2c0d 79bd 60df 91bd 010d cfbc 004b 34bd
00000340: 7fcd c7bc cf7d eb3c ce99 67bd 49d2 00bc
00000350: 944f e5bb eca8 503c 87a0 6b3d 6501 133d
00000360: 6bf8 66bc f385 32bc e806 523d 4b3f 15bc
00000370: 3772 343c af14 5e3c cb14 413d 405d db3c
00000380: 4e24 78bc 7716 9bbd 53ef 3b3c 2be0 903a
00000390: 6588 463c fd9b 02bd e74b 64bd 76e7 d4bc
000003a0: db8a 4a3d e6fb 1bbd 2218 fbbc 9089 ed3b
000003b0: bef5 23bc 9ca5 b93c 8ffb 46bc 2c7f 8bbb
000003c0: cc7b c63c c4b5 aabb a152 5ebc bad8 b0bc
000003d0: f428 fa3c f2f5 34bd 1c06 653c f726 683c
000003e0: b44f 08bd 13f8 993c 2b90 1fbd 9390 323d
000003f0: 81f2 06bd ee48 7cbd e6e1 0cbd ec48 26bd

res_blocks.1.conv2.bias f4 [32]
-0.048887257 0.040408477 0.045229264 -0.030459562 0.0432224 0.052040208 0.017157016 0.051829778
-0.034926485 -0.0337528 0.025781978 -0.032993514 -0.020276874 -0.025525987 -0.05039531 -0.020530587
0.052377474 -0.003148078 0.032972388 0.019922467 -0.0006883045 0.026239429 -0.030431578 -0.019096583
-0.05655664 -0.033702396 0.04450223 0.040536255 0.038238082 -0.048976418 0.022255896 -0.005013215
00000000: 013e 48bd 5c83 253d 5242 393d 5586 f9bc
00000010: f909 313d 1d28 553d df8c 8c3c 764b 543d
00000020: 130f 0fbd 6040 0abd ba34 d33c 3524 07bd
00000030: b01b a6bc e01b d1bc 506b 4ebd c32f a8bc
00000040: c389 563d fc4f 4ebb 0e0e 073d 7134 a33c
00000050: 556f 34ba 12f4 d63c a54b f9bc 7070 9cbc
00000060: efa7 67bd 860b 0abd f847 363d 5809 263d
00000070: 899f 1c3d 7f9b 48bd ff51 b63c e545 a4bb

res_blocks.1.batchnorm2.weight f4 [32]
2.056303 2.0316885 1.9899509 1.6935784 1.8438959 2.0917962 2.2265034 1.7048603
1.9610883 2.316513 2.0105484 1.6345344 2.3805366 1.9889666 2.0606244 2.2535348
1.6620396 1.9818901 2.0218186 2.0915403 1.7656624 2.1555018 2.1174188 2.010953
1.7923335 1.9427333 2.0902703 2.0186028 1.9888521 2.1390936 2.105452 2.0208023
00000000: 789a 0340 2f07 0240 b6b6 fe3f 2dc7 d83f
00000010: c804 ec3f fddf 0540 087f 0e40 dd38 da3f
00000020: f104 fb3f c041 1440 d3ac 0040 6c38 d13f
00000030: b65a 1840 7596 fe3f 45e1 0340 ea39 1040
00000040: b7bd d43f 93ae fd3f 7a65 0140 ccdb 0540
00000050: 3a01 e23f bef3 0940 ca83 0740 74b3 0040
00000060: 2f6b e53f 7cab f83f fdc6 0540 ca30 0140
00000070: b592 fe3f e9e6 0840 babf 0640 d354 0140

res_blocks.1.batchnorm2.bias f4 [32]
0.40802863 0.38594535 0.41397047 0.1677488 0.41206232 0.3780663 0.5168314 0.24887742
0.36211473 0.44104618 0.39433095 0.14451185 0.39651954 0.2668693 0.36568856 0.43509415
0.11991473 0.31523114 0.255874 0.2836132 0.20075162 0.43449962 0.4334565 0.44377026
0.12114246 0.30227247 0.3952011 0.38192338 0.28741625 0.34241542 0.3808054 0.17267476
00000000: 21e9 d03e a19a c53e f0f3 d33e 57c6 2b3e
00000010: d5f9 d23e e891 c13e 104f 043f b9d9 7e3e
00000020: 1a67 b93e ced0 e13e bfe5 c93e eafa 133e
00000030: 9c04 cb3e 18a3 883e 883b bb3e a9c4 de3e
00000040: db95 f53d fa65 a13e eb01 833e c035 913e
00000050: d591 4d3e bc76 de3e 03ee dd3e db35 e33e
00000060: 8a19 f83d 75c3 9a3e cc57 ca3e 768b c33e
00000070: 3928 933e 1351 af3e edf8 c23e a7d1 303e

res_blocks.1.batchnorm2.running_mean f4 [32]
-0.40025568 -0.23385052 -0.003660657 0.2865106 0.15812685 0.17178947 0.1623362 0.11120562
-0.23359667 0.117508516 0.28641847 0.3879862 0.24883297 0.012928008 -0.24244075 0.16457441
0.034139328 -0.18087894 0.12798706 0.15891126 0.175318 -0.008269467 -0.2427798 0.13891828
0.18430848 -0.030554162 -0.05627849 0.00894697 0.0021887124 -0.073847085 0.16876616 -0.05035658
00000000: 50ee ccbe 8376 6fbe a2e7 6fbb 84b1 923e
00000010: 01ec 213e 94e9 2f3e 763b 263e c6bf e33d
00000020: f733 6fbe 4ea8 f03d 71a5 923e 21a6 c63e
00000030: 12ce 7e3e ffcf 533c 6342 78be 3286 283e
00000040: aed5 0b3d 5438 39be 0a0f 033e a2b9 223e
00000050: 9086 333e a97c 07bc 459b 78be 9840 0e3e
00000060: 5dbb 3c3e b94c fabc 4684 66bd 5096 123c
00000070: 8070 0f3b 243d 97bd 09d1 2c3e b442 4ebd

res_blocks.1.batchnorm2.running_var f4 [32]
0.09409113 0.08174405 0.09027487 0.10635664 0.09135487 0.08981225 0.12649544 0.066666335
0.100480035 0.15288465 0.08212472 0.10475114 0.10380796 0.10897035 0.110262595 0.10694928
0.07168599 0.08819781 0.14653726 0.13557412 0.11400677 0.11144577 0.08072479 0.09667642
0.086478226 0.096660465 0.057002228 0.11405461 0.08184662 0.06540475 0.08789093 0.08727615
00000000: dab2 c03d 6d69 a73d 08e2 b83d 83d1 d93d
00000010: 4318 bb3d 7cef b73d 0588 013e 5c88 883d
00000020: 7ac8 cd3d cb8d 1c3e 0131 a83d c487 d63d
00000030: 4599 d43d d92b df3d 5bd1 e13d 3908 db3d
00000040: 1bd0 923d 0ea1 b43d dd0d 163e f1d3 0a3e
00000050: 627c e93d ae3d e43d 0a53 a53d 49fe c53d
00000060: 7f1b b13d ecf5 c53d 2b7b 693d 7795 e93d
00000070: 339f a73d edf2 853d 2900 b43d d7bd b23d

res_blocks.1.residual_conv.weight f4 [32, 16, 1, 1]
0.16216363 0.19443013 0.17566557 -0.034291346 -0.14560795 0.007286642 -0.13769618 0.5389624
-0.2931844 -0.15341367 0.2323951 -0.46158865 0.0031735473 -0.11592899 0.05784613 -0.010399283
0.072048336 -0.20089881 -0.16278535 0.23800431 0.10876812 -0.08970757 -0.0471154 0.034644984
-0.13625824 0.25108826 0.37493014 0.24765764 0.06918348 -0.22470513 -0.061939184 0.10529648
0.22459108 0.30198878 -0.23776433 -0.06830297 0.13293305 -0.057954412 0.087436534 -0.203548
-0.21270414 -0.21925904 -0.06468957 -0.06041856 0.08882836 -0.12685424 0.015762376 0.03282611
0.09736528 0.14946352 0.20202763 0.3568257 0.13088961 -0.2618598 0.22110227 -0.39805737
-0.18398917 0.15706524 -0.56656283 -0.1287697 0.01090188 0.06500697 0.18702953 0.3063702
-0.20960689 0.23076 -0.19697277 0.24513155 0.32793155 0.16412391 -0.15144666 0.074015506
0.088004515 0.10998413 0.26958513 0.18155862 0.11443775 0.23925012 0.12837508 0.2773628
-0.8339961 -0.31206924 0.059453722 -0.047890026 0.19133289 -0.14388879 -0.17378199 0.27447584
0.26041153 0.16663586 0.48287335 -0.099818446 0.16664253 -0.11999267 0.18680768 -0.3463851
-0.83629835 -0.26253742 -0.17243548 0.100793205 0.011822789 0.30174643 -0.2895375 0.21099882
0.17743067 -0.12366024 -0.44052887 0.5381014 0.27612966 -0.19179536 0.16726449 -0.23487113
-0.002187284 0.011376778 -0.28015435 0.020080531 -0.2749823 -0.22530758 0.14327294 -0.06195208
-0.21631326 -0.2514374 0.116007045 0.07055846 0.057281785 0.094341256 -0.14886786 0.19427477
0.44675574 0.25376016 -0.14706658 -0.132043 0.20094225 0.029358191 0.3241755 0.32763287
-0.21703485 -0.391941 0.5859165 -0.37105468 0.1347764 0.055699814 -0.093897656 -0.2891309
-0.06219849 -0.13881193 0.08389616 -0.14184554 -0.24388403 -0.10699722 -0.17805323 0.1483513
0.012718474 -0.050999075 -0.36557522 -0.0862127 0.031854317 -0.065239295 -0.072508805 -0.14214174
0.5218075 0.07845362 0.17769904 0.29971 0.14468995 0.10051235 0.033467263 -0.20077679
0.083999746 -0.055137403 -0.5750522 0.33802432 0.2235472 0.291392 0.015358168 0.3706346
-0.11656647 0.08138656 -0.15052174 -0.020140627 0.08814144 0.15381736 -0.114962384 -0.7054959
-0.2924156 -0.13515215 -0.30659136 0.068714395 0.14441812 -0.2429598 -0.29247296 -0.013072268
0.19185624 -0.28780755 0.25129333 0.33795494 -0.12621927 -0.32387078 0.31744233 -0.34246752
-0.11303276 -0.17176756 0.16095687 0.41988045 -0.0078081195 0.0003838401 0.018022768 -0.070361465
1.1156728 0.2095525 0.07995126 0.023997385 -0.111497745 0.14947921 0.17970201 -0.40878898
-0.3796208 -0.13698156 -0.2277728 0.04232103 0.2778709 0.21664356 0.009912364 -0.08671816
0.051954716 0.008722143 -0.114490695 -0.040737677 0.20047034 -0.19912249 0.29980725 0.19117458
-0.2722404 -0.12577423 0.24826047 -0.3686556 -0.23771527 0.08729588 0.06996375 -0.036169227
-0.672022 -0.40002626 0.1469421 -0.07502677 0.18269719 -0.07213042 -0.0011632581 0.19020088
-0.14993809 -0.1248292 0.20544773 0.22303773 0.24392541 0.16781153 -0.1928345 -0.343803
00000000: 390e 263e b118 473e ade1 333e 1575 0cbd
00000010: 401a 15be c9c4 ee3b 3a00 0dbe 71f9 093f
00000020: 441c 96be 7918 1dbe fbf8 6d3e 5955 ecbe
00000030: 4afb 4f3b 2e6c edbd 10f0 6c3d c161 2abc
00000040: 148e 933d 6bb8 4dbe 34b1 26be 67b7 733e
00000050: d2c1 de3d 9ab8 b7bd 14fc 40bd e6e7 0d3d
00000060: 4887 0bbe a48e 803e d8f6 bf3e f799 7d3e
00000070: 12b0 8d3d 1a19 66be f1b3 7dbd aea5 d73d
00000080: 34fb 653e 469e 9a3e 7e78 73be 6de2 8bbd
00000090: 9a1f 083e 9b61 6dbd ed11 b33d e36e 50be
000000a0: 1dcf 59be 7185 60be f77b 84bd 7479 77bd
000000b0: a5eb b53d 14e6 01be 1920 813c ac74 063d
000000c0: 7367 c73d f70c 193e 55e0 4e3e dcb1 b63e
000000d0: ed07 063e 7d12 86be a268 623e 2dce cbbe
000000e0: a867 3cbe b6d5 203e 430a 11bf 34dc 03be
000000f0: cd9d 323c 6022 853d ab84 3f3e 8edc 9c3e
00000100: 30a3 56be 594c 6c3e 3bb3 49be c403 7b3e
00000110: a5e6 a73e 1910 283e d514 1bbe 7195 973d
00000120: b63b b43d 5c3f e13d 1007 8a3e 81ea 393e
00000130: 575e ea3d fcfd 743e c274 033e 7f02 8e3e
00000140: c580 55bf 8ac7 9fbe bf85 733d 5528 44bd
00000150: c5ec 433e 9557 13be e8f3 31be 1988 8c3e
00000160: a954 853e 97a2 2a3e 2d3b f73e 9d6d ccbd
00000170: 57a4 2a3e b8be f5bd 834a 3f3e 6359 b1be
00000180: a617 56bf 4e6b 86be ed92 30be ab6c ce3d
00000190: 5fb4 413c 827e 9a3e 423e 94be 1310 583e
000001a0: 63b0 353e 9441 fdbd 008d e1be 03c1 093f
000001b0: de60 8d3e 0166 44be 6247 2b3e 0f82 70be
000001c0: 8958 0fbb aa65 3a3c 6470 8fbe ed7f a43c
000001d0: 7bca 8cbe 08b7 66be 24b6 123e 77c1 7dbd
000001e0: 3981 5dbe 67bc 80be 1a95 ed3d f480 903d
000001f0: 4ea0 6a3d fd35 c13d d170 18be f7ef 463e
00000200: 2bbd e43e daec 813e 9f98 16be 4836 07be
00000210: cec3 4d3e 9780 f03c 55fa a53e 7fbf a73e
00000220: 623e 5ebe 7eac c8be a0fe 153f e1fa bdbe
00000230: d302 0a3e 7d25 643d 6a4d c0bd f708 94be
00000240: d8c3 7ebd b724 0ebe c0d1 ab3d f53f 11be
00000250: bcbc 79be 5c21 dbbd 9653 36be 67e9 173e
00000260: 2561 503c 68e4 50bd ad2c bbbe 4990 b0bd
00000270: ac79 023d 2e9c 85bd 7f7f 94bd 9b8d 11be
00000280: 2d95 053f 4bac a03d bdf6 353e 9773 993e
00000290: 9a29 143e 6bd9 cd3d f814 093d 6e98 4dbe
000002a0: 0f08 ac3d c2d7 61bd 9f36 13bf 8611 ad3e
000002b0: 8fe9 643e 5531 953e d3a0 7b3c d1c3 bd3e
000002c0: 67ba eebd ffad a63d 5f22 1abe f5fd a4bc
000002d0: 8083 b43d 4c82 1d3e 6671 ebbd 619b 34bf
000002e0: 7fb7 95be 5365 0abe 8bf9 9cbe 22ba 8c3d
000002f0: 58e2 133e 74ca 78be 04bf 95be 112d 56bc
00000300: f675 443e 835b 93be 85a9 803e 6e08 ad3e
00000310: a03f 01be 64d2 a5be cd87 a23e e757 afbe
00000320: b87d e7bd d6e3 2fbe e1d1 243e 92fa d63e
00000330: 41db ffbb 253e c939 7ca4 933c ac19 90bd
00000340: 5ece 8e3f ee94 563e 7cbd a33d 2a96 c43c
00000350: ee58 e4bd 1411 193e ce03 383e ca4c d1be
00000360: a85d c2be e544 0cbe 463d 69be d158 2d3d
00000370: 1845 8e3e cfd7 5d3e 7867 223c 4a99 b1bd
00000380: 78ce 543d 52e7 0e3c 197a eabd 8ddc 26bd
00000390: 1948 4d3e c4e6 4bbe 5680 993e 45c3 433e
000003a0: 1863 8bbe f6ca 00be fe37 7e3e 6dc0 bcbe
000003b0: a26b 73be 2fc8 b23d 2849 8f3d 2f26 14bd
000003c0: a209 2cbf 3ed0 ccbe fd77 163e a3a7 99bd
000003d0: f914 3b3e 1db9 93bd 7778 98ba 05c4 423e
000003e0: 5f89 19be 74a6 ffbd e460 523e 0164 643e
000003f0: 95c7 793e c9d6 2b3e 6876 45be f206 b0be

res_blocks.1.residual_conv.bias f4 [32]
-0.033351813 0.014867548 0.18337421 -0.24290943 0.043998633 0.24714312 -0.0848006 -0.08404307
-0.09271438 0.2276074 0.027159339 0.108867206 -0.1349858 -0.29001713 0.2308741 0.16122203
-0.20290081 -0.011809058 0.024500655 0.16357161 -0.18692568 0.23557507 -0.17463504 0.21980663
-0.28212577 0.07160274 0.13691989 0.16734211 -0.11804556 -0.10420195 0.024094881 -0.2840131
00000000: e99b 08bd 0497 733c 73c6 3b3e 40bd 78be
00000010: e937 343d 1613 7d3e f0ab adbd c61e acbd
00000020: 09e1 bdbd ea11 693e 437d de3c c5f5 de3d
00000030: b839 0abe 207d 94be 436a 6c3e 6317 253e
00000040: 3bc5 4fbe c77a 41bc 99b5 c83c 517f 273e
00000050: 7269 3fbe 973a 713e 87d3 32be fd14 613e
00000060: ca72 90be 75a4 923d ba34 0c3e bb5b 2b3e
00000070: dfc1 f1bd d567 d5bd a162 c53c 2a6a 91be
