logs/main_run/spec_nblock2_lr0.001_ks5/checkpoints/best.ckpt (torch, 643774 bytes, 89 tensors)

conv1.weight f4 [8, 1, 5, 5]
00000000: 3c71 96bd 3ee1 ae3d 0b9f 7cbe 624b 5bbd
00000010: 2042 16be bcdc f5bc cfe3 7c3d 3c56 043e
00000020: 1b26 1c3e 747b 85bd 1687 703c b73c 473e
00000030: 7307 0b3d f48b fe3c 21be 61be ea36 cbba
00000040: 95ce a13d dd4a 6bbe 0eff 8c3d e6f8 dfbb
00000050: 8548 81bd f63f 22be 7b22 8bbe 0df1 fcbd
00000060: 3b1c 5c3d 7730 b3bd 41fd acbe 445f 1fbe
00000070: 4692 f23d 7778 49be 6572 693d 7363 f23c
00000080: a01a a73d c24f af3d 79a4 6c3d 8011 743d
00000090: dfb6 8ebd 6f86 c9bd 4829 843b 6577 c0bd
000000a0: f2bb 823e e677 a3ba ca21 bcba 75aa 9a3e
000000b0: f529 34be 34ea e03d 4153 783e 3335 8f3d
000000c0: 9bc1 953e 216e 0ebe 4b93 e1bd c57b 2c3d
000000d0: a2d6 733e 2102 afbd 36fc 583e 723a 013d
000000e0: c5aa 8bbd 67d0 833e 78c5 bf3a d422 8a3e
000000f0: 9a8d 39be 68cc 71be 03c1 ae3e d6c1 ac3d
00000100: 3dcf 393e 2c1a 3cbe fdfb 6bbe b408 683e
00000110: 01ed 35be 964b 263c ab68 ddbd 7e5d 19be
00000120: 1fd4 363e cddc 3f3d 422b 11be 34aa 4f3e
00000130: f5a8 2ebd 068a 63be 95f6 21be 9d43 a43d
00000140: b9bd 53bd 0622 ae3d e6be 4e3e a32c fb3d
00000150: 46f0 1dbd 029a 73bd 22d0 b6bd 3764 133e
00000160: 0505 cd3c 9291 8d3d d3ad ec3d 4ad4 ba3d
00000170: 8177 ef3d 3b1e 00bb 28b8 55be 5a96 86be
00000180: 9828 76be 34a3 7cbe 8b10 28be a2cb 41be
00000190: 3b79 03be afca 13bd ef44 bcbd 5814 8e3d
000001a0: a619 76bd 4504 083e 1a45 3e3e a140 6bbe
000001b0: 6731 8ebe 724e 713e b1c1 92bc 4e16 91bd
000001c0: ff3e d63d 843d 10be db24 01bc a686 af3d
000001d0: 2f92 d13d ffe1 09be 4677 55be 0363 e63d
000001e0: 376b 0fbe 0805 933e 5661 47be f35f b5bd
000001f0: 408b 673d 0bfd 60be 5155 07bd e3d2 efbc
00000200: e29e e83d 6632 ec3b b31e 7bbe d7ad f739
00000210: 6c52 8fbd 9982 c63d 4d64 44be ba29 86be
00000220: cfac 133e 275f 553d 5f43 003e 531f 38bd
00000230: d5d8 55be 9a45 243e e720 603e faf9 b83d
00000240: c510 3e3e 854b 29be 9992 ae3e 78ff c73d
00000250: d824 14be 9452 173e 6c95 0dbd 9113 3fbe
00000260: 9f3f 97be 346a e4bd 4603 63bc 67eb e9bd
00000270: 87a1 43be 6b11 8cbe d483 d63d de3f 0cbc
00000280: 0fdf 173e 2118 5fbd 692f 93be 1210 03be
00000290: a685 313e 3b7c 9b3e 73e7 5b3d ad20 173c
000002a0: 094e af3d 1476 2c3d 2ad8 de3d fb8c 813d
000002b0: dbfc 6f3d 5f75 50bc 0faa 303d 95df 41be
000002c0: 48ea 553e 56d0 d53d 1baa b6bb 8252 fcbd
000002d0: 9194 dd3c 86db 973e 5437 973d 9893 56be
000002e0: 5394 e3bd df3e e9bd bd94 9a3e 3a0a c83d
000002f0: 798f 5abe 6890 d4bd a61c 423e fa0e 823e
00000300: d2de 4d3c 1b4f 12be 3df0 dabc 51fe 673e
00000310: 54fa f63d ad7d 41be 254c 03bd 4bb0 b3bd
-0.073458165 0.08539055 -0.24670045 -0.053538688 -0.14673662 -0.03001248 0.061740693 0.12923521
0.15248911 -0.065176874 0.0146806445 0.19456755 0.03394265 0.031072594 -0.22045185 -0.0015504037
0.079007305 -0.22977777 0.06884585 -0.006835091 -0.0631266 -0.15844712 -0.27174744 -0.12350664
0.05373786 -0.08749478 -0.33786967 -0.15563685 0.11844306 -0.1967486 0.05699386 0.029588437
0.08159375 0.085601345 0.05777404 0.059587 -0.06968474 -0.09840094 0.0040332414 -0.09397773
0.25534016 -0.0012471646 -0.0014353332 0.30208173 -0.1759413 0.10982171 0.24250509 0.06992569
0.29249272 -0.13909198 -0.11014422 0.042110223 0.23812345 -0.08545328 0.21189961 0.03154988
-0.06819681 0.25744936 0.0014630994 0.26979697 -0.18120423 -0.23613131 0.3413163 0.08435409
0.18145461 -0.18369359 -0.23045345 0.2265957 -0.17766191 0.010149857 -0.108109795 -0.1497707
0.17854355 0.04684143 -0.14176658 0.20279771 -0.0426416 -0.2222062 -0.1581672 0.08020709
-0.051694605 0.08502583 0.2019001 0.12264373 -0.03855922 -0.059473045 -0.08926417 0.14393698
0.025026808 0.06912531 0.11556592 0.09122522 0.116927154 -0.0019549269 -0.20871031 -0.26286584
-0.24038923 -0.24671632 -0.1641256 -0.18925336 -0.12839215 -0.036081966 -0.091928355 0.06937474
-0.060083054 0.13282879 0.18581048 -0.22973873 -0.27772066 0.23565081 -0.017914625 -0.070843324
0.10461234 -0.14085966 -0.007882322 0.08570604 0.102329604 -0.13465117 -0.2084628 0.11249354
-0.14005743 0.28714776 -0.19470724 -0.088561915 0.056529284 -0.21971528 -0.03304035 -0.029275363
0.113584295 0.0072081564 -0.2452343 0.00047241032 -0.069981426 0.09692878 -0.19178887 -0.2620371
0.1442139 0.052092697 0.125257 -0.044951748 -0.20883496 0.16042176 0.21887551 0.09032054
0.18561085 -0.16532715 0.3409622 0.09765524 -0.1446718 0.14777595 -0.034566328 -0.18659808
-0.29540727 -0.11153069 -0.013855761 -0.114218526 -0.19104587 -0.2735704 0.10474363 -0.008560149
0.14831184 -0.05446637 -0.2874711 -0.12799099 0.17336139 0.30368218 0.053687524 0.009224099
0.08559806 0.042104796 0.10881074 0.06325718 0.05859075 -0.012723296 0.04313093 -0.18932946
0.20890152 0.104401276 -0.0055744774 -0.123204246 0.027048381 0.2965967 0.073836 -0.2095474
-0.11112275 -0.11388945 0.30191603 0.097675756 -0.21343793 -0.10379106 0.18956241 0.2540205
0.0125653315 -0.14287989 -0.026725883 0.22655608 0.12059465 -0.18895598 -0.03205504 -0.087738596

conv1.bias f4 [8]
00000000: 12be 33be 0f63 743e 0c38 a43d 0de4 e83c
00000010: 1eba 1abe 2c34 69be 1c10 a53d 38da c0bb
-0.17552975 0.23865913 0.080185026 0.028429056 -0.1511006 -0.22773808 0.08059713 -0.0058853887

batchnorm1.weight f4 [8]
00000000: 3733 213f e7d8 263f c24c 933f f150 2b3f
00000010: 1042 2b3f 4251 de3f 2d68 3f3f bb28 b63f
0.6296877 0.65174717 1.15078 0.6692038 0.6689768 1.7368548 0.74768335 1.423118

batchnorm1.bias f4 [8]
00000000: 9e5f febd 8b9f f6be 82f7 c5bd 46fd 93bd
00000010: afc9 efbe 2f68 5e3e 77c3 e83d fc00 02be
-0.12420581 -0.48168597 -0.09666349 -0.072260424 -0.4683356 0.2171943 0.11365407 -0.12695688

batchnorm1.running_mean f4 [8]
00000000: e895 cbbe 5ffc b03e 5740 4e3e 65ed 31be
00000010: 0780 8ebe 8096 3dbe 4666 80bd 50e0 bc3d
-0.39762807 0.34567544 0.20141731 -0.17375715 -0.27832052 -0.18514442 -0.06269507 0.09222472

batchnorm1.running_var f4 [8]
00000000: 0279 5d3d 5691 743c ea0f a03c b3c6 3b3d
00000010: 4733 993c 4811 a53b 4601 cd3c 43ef 6c3c
0.05407048 0.014927229 0.019538838 0.04584379 0.018701209 0.0050374605 0.025025021 0.014461341

res_blocks.0.conv1.weight f4 [16, 8, 5, 5]
00000000: e5dc 4dbd 4faa 00be 41c1 ffbd b61a 74bd
00000010: db7a febc ce1c 4ebd f9cd e3bd aea1 96bd
00000020: 4063 293c 4c48 d1bd cad6 3cbb 09f7 b3bd
00000030: e9ac 12bc b6d3 a7bd 5ce9 94bd 137e f2bc
00000040: a59e bfbd d9fd 92bc d43b a1bb a5a7 72bd
00000050: f551 febd 79e1 aebc 9814 ccbd 974a 003c
00000060: 3a73 b3bd 69f6 bebe 920f 9dbe f1a8 97be
00000070: 2f88 a6be 203a 9ebe 5016 8abe e662 87be
00000080: b6cd 84be 865f b4be 313d b3be 3ed1 b5be
00000090: bfe9 a1be 6a53 8dbe 1c0c 84be 1bfc aebe
000000a0: ed2b 87be d59d 95be 5f9b b9be 019e a3be
000000b0: 5075 99be 60b2 60be 7d41 5ebe 5cf8 71be
000000c0: 2504 5ebe 8331 9dbe 4c70 fb3c 9d40 17bd
000000d0: 47f9 82bd 98d0 83bc 4b88 983c 47e9 42bc
000000e0: 7074 b7bd d6e5 a3bd 50ac c4bb e876 bcbd
000000f0: b171 a8bd 767b a8bd 1af3 11be e404 e4bd
00000100: 3fb5 99bd bded 20be ada2 ffbd 0d88 12be
00000110: d55f fbbd 171f 40be 3670 e6bd dec3 ffbd
00000120: 1273 43be 85f8 24be 9650 93bd 61e8 b3bd
00000130: bf8a d4bc ade0 c1bd 8aeb ddbd eafc 33bd
00000140: 06d7 18bd 9776 49bb 2181 94b9 5534 92b9
00000150: 5cb7 e9bd af03 7bbd 16c5 debc 1ee9 f03b
00000160: 779c fbba f253 bcbc 8ab9 dcbd 6aea ffbd
00000170: 1b39 45bc 9612 1dbd 902d a8bd 4cc7 01be
00000180: 34a9 8bbd e7f7 d5bd a623 bbbd 1bc8 8abd
00000190: 6fd9 16be a151 06bd ad60 f0bd b2d4 a0bd
000001a0: 1acd 58bd c921 1fbd db48 0cbe 3518 cabd
000001b0: 13e9 1abe c170 98bd 2160 3fbd 09cc cbbd
000001c0: 7b26 d6bc 78eb 8cbd 2912 94bd d02c 08be
000001d0: 341f 90bd b395 4fbd 9d3e d1bd b54a d6bd
000001e0: 29c9 1ebe b0de aebd b748 5bbd 7845 25be
000001f0: 75da e6bd 7215 14be c2ed e5bd 398e 97bd
00000200: 5e6d 16be 3bbf b9bd 4715 0fbe 7729 21be
00000210: 16d1 cabd 4a0d 9cbd 589c eabd 571f 1bbe
00000220: f3de 1cbd 222e 82bd 8e30 c3bd 3b2d f5bd
00000230: 6388 06be 34e7 11bd 4c2f aabd 6c7b 9cbd
00000240: 12c6 00be 8f9f 96bd 11ce c3bd bcd0 c8bd
00000250: 01c4 11be 1c8c 84bd 39f7 4ebd 57f6 b0bc
00000260: 9d07 6fbd dd62 11be 850c 80bc f741 d9b9
00000270: 0c0a b0bd 89c7 16bd 5741 8fbd faf4 cbbc
00000280: 8404 6a3c f3b0 1fbc 972e 32bc f6cb f43b
00000290: d7bd 02be e4e1 4cbd 5e37 acbd 3575 4fbd
000002a0: d4a1 1bbc 97bc f9bd b7fd 4fbd a789 1dbd
000002b0: 049d c5bc 08eb c9bd 515f 29bd 8c7c 4dbe
000002c0: b377 8dbe 8927 6dbe f272 13be 3614 2dbe
000002d0: 5f3e 1bbe 9b80 38be 5c4c 3bbe 6298 0bbe
000002e0: 137f 12be 822f 56be be30 9bbe bc0c 4bbe
000002f0: 90a3 47be 2289 87be 4631 66be 4845 9ebe
00000300: 560c 73be 5b09 76be c526 85be eae8 05be
00000310: 46e2 98be fc2a 69be a7bb 34be 50c5 76be
00000320: 53a2 08bd 12eb a0bd f9b9 2c3d 65be 543d
00000330: 7b39 e93c 5114 7c3d 0865 9cbd f9aa 8bbd
00000340: cdfd f43b ba93 5b3d 63a0 303d c5c5 0a3d
00000350: 9417 da3c 5826 acbb 919e ea3c 82ca 98bc
00000360: f91c 643d 10a2 5e3d 81d1 d43b 9305 45bc
00000370: 98a9 8fbc bac0 1e3d 7975 d33d 1d9d 933d
00000380: 8289 c83c 98c1 86bd e01a 0f3e 2167 153d
00000390: 8821 a63c ba38 0ebe d93b d4bb ecea c23d
000003a0: 6b54 a33d 0d86 503d c27c 85bd 26fb b13d
000003b0: 3cf7 183e 1c4c 0cbd 5327 1e3b 4cb8 9fbd
000003c0: ce04 09bd c295 f93d 3e03 dbbd 0eac 27bd
000003d0: a154 333d d76f b1bd 69d6 bb3d 7075 48be
000003e0: 2444 803b fc98 873c 43f4 61bd 88d9 00be
000003f0: 0284 853d 3c3f 26be d975 13be b5f9 00be
-0.05025949 -0.12564968 -0.12488032 -0.059595786 -0.031064441 -0.05032044 -0.111232705 -0.07355057
0.010338604 -0.10218868 -0.0028814548 -0.087873526 -0.008952358 -0.081946775 -0.07271072 -0.029601132
-0.09356431 -0.01794331 -0.004920462 -0.05924191 -0.12417976 -0.021347748 -0.099648654 0.007830284
-0.08762212 -0.3729737 -0.30675942 -0.2962108 -0.32525775 -0.3090372 -0.26970148 -0.2644264
-0.25938195 -0.3522913 -0.35007623 -0.35511202 -0.31623647 -0.27602702 -0.2579049 -0.34176716
-0.264007 -0.2922198 -0.3625135 -0.31956485 -0.29972315 -0.21943045 -0.2170467 -0.23629898
-0.21681269 -0.30701837 0.030693196 -0.036926854 -0.06395202 -0.016090676 0.018619677 -0.011896438
-0.089577556 -0.08002822 -0.0060019866 -0.09202367 -0.0822481 -0.08226673 -0.14252892 -0.11133745
-0.07505273 -0.1571569 -0.124822 -0.14309712 -0.12274138 -0.1876186 -0.11251871 -0.124885306
-0.19086865 -0.16110428 -0.07193105 -0.08784557 -0.025945066 -0.09466682 -0.10835941 -0.04394237
-0.037314437 -0.003074085 -0.00028324968 -0.0002788628 -0.11411926 -0.06128281 -0.027193587 0.0073520085
-0.001919641 -0.022989247 -0.10777576 -0.12495883 -0.012037541 -0.038347803 -0.08211815 -0.12673682
-0.06819382 -0.10447674 -0.09137659 -0.06776448 -0.14731382 -0.03279269 -0.117371894 -0.078530684
-0.052929975 -0.03885058 -0.13699667 -0.098678984 -0.15127973 -0.07443381 -0.046722535 -0.09951026
-0.026141396 -0.068808496 -0.07230026 -0.13298345 -0.070372015 -0.050679874 -0.10217021 -0.10463468
-0.15506424 -0.08538568 -0.053536143 -0.16139781 -0.11272136 -0.14461306 -0.11226989 -0.07400174
-0.14690158 -0.090696774 -0.1397296 -0.15738474 -0.09903161 -0.07619722 -0.114556015 -0.15148674
-0.03829856 -0.063564554 -0.095307454 -0.11971518 -0.13137965 -0.035620883 -0.083098024 -0.07640728
-0.12575558 -0.07354652 -0.095607884 -0.09805438 -0.14234926 -0.06472036 -0.05052874 -0.021601839
-0.05835687 -0.1419787 -0.01563097 -0.00041438613 -0.08595666 -0.036811385 -0.069948845 -0.024897087
0.014283303 -0.009746778 -0.010875366 0.007470603 -0.1276773 -0.050020114 -0.08408998 -0.050648887
-0.009499032 -0.12194174 -0.05077907 -0.038461354 -0.024122722 -0.09859282 -0.041350666 -0.20067042
-0.27630386 -0.23159613 -0.14399317 -0.16902241 -0.15160511 -0.18017809 -0.18290848 -0.13632348
-0.14306287 -0.2091656 -0.30310625 -0.19829077 -0.19495988 -0.26471812 -0.22479734 -0.30912232
-0.23735175 -0.24027006 -0.2600614 -0.13077131 -0.29860133 -0.22770303 -0.17649709 -0.24098706
-0.03335793 -0.07857336 0.042169545 0.051939387 0.028469792 0.061542813 -0.07636458 -0.0681972
0.0074765445 0.05360768 0.043121707 0.033880014 0.026622571 -0.0052535944 0.028640063 -0.01865125
0.055691693 0.054353774 0.0064947014 -0.012025255 -0.017536923 0.038758017 0.103251405 0.07207701
0.024479631 -0.06579894 0.13975096 0.036475305 0.02027966 -0.13888827 -0.006476861 0.09517464
0.07975086 0.05090909 -0.06517936 0.08690481 0.14938062 -0.03425227 0.0024132326 -0.07798824
-0.033451848 0.12186767 -0.10693978 -0.04093557 0.04378188 -0.0866391 0.09171755 -0.19576049
0.003914373 0.01655244 -0.055164587 -0.12582982 0.06519319 -0.1623506 -0.14400424 -0.12595256

res_blocks.0.conv1.bias f4 [16]
00000000: 2c37 8e3c 2318 763c b5b3 303e fcc7 76bc
00000010: 8b69 1a3d 1b34 133d e1be dc3c e2d8 2b3d
00000020: 1271 64bd 1141 7ebd c7a1 8abd d562 133d
00000030: cebf 62bd 8eff 133d b8de 4cbc 80ab 9b3d
0.017360292 0.015020403 0.17256053 -0.015062328 0.03769831 0.035938364 0.026946487 0.041954882
-0.055771895 -0.06207377 -0.06769138 0.035982925 -0.0553587 0.036132388 -0.012504272 0.076010704

res_blocks.0.batchnorm1.weight f4 [16]
00000000: 3cd8 253f d8d6 943f 4f9e 413f 88cb 8b3f
00000010: 4f2d 793f 7e25 963f 39b7 843f 5689 4d3f
00000020: 5fad 843f b560 5e3f 1dc9 313f 6027 843f
00000030: 38d3 693f b495 263f e6f0 583f 90a5 543f
0.6478307 1.1628065 0.75632185 1.0921488 0.9733476 1.1730192 1.0368415 0.80287683
1.0365409 0.86866313 0.694475 1.0324516 0.9133792 0.6507218 0.8474258 0.8306513

res_blocks.0.batchnorm1.bias f4 [16]
00000000: b4a4 d4be 2781 e1be f1bd c3be 1bfb 01bf
00000010: b4ce ecbe 6676 6cbe f19c 45be b79f 00bf
00000020: 9717 98be 4b2d a7be 684e 07bf 8bac 5abe
00000030: 5e3e b0be f430 d9be 88af 0abf 1028 b3be
-0.4153191 -0.44043848 -0.3823085 -0.5077378 -0.46251452 -0.2309204 -0.1929815 -0.50243706
-0.29705498 -0.32651743 -0.52854013 -0.21354882 -0.34422582 -0.4242016 -0.5417409 -0.34991503

res_blocks.0.batchnorm1.running_mean f4 [16]
00000000: 0586 fec0 9763 043f 6200 9ebf f69b 823f
00000010: d4f0 453f 770b c13e a4c0 82c0 9ae4 5b40
00000020: c4cb ca3e 8a2a 9f3f af81 ac3e 73e6 c2be
00000030: 2700 52c0 c64d 61bf 95a9 893f 2748 84c0
-7.95386 0.5171446 -1.2343867 1.0203846 0.773206 0.3770406 -4.0860157 3.4358277
0.39608586 1.2434857 0.3369269 -0.38066444 -3.2812593 -0.880093 1.0754877 -4.1338077

res_blocks.0.batchnorm1.running_var f4 [16]
00000000: 7fab 5142 ef40 b840 b068 d340 aa8c e840
00000010: 14dc e73f d2a6 8040 ef5d 8041 d24c cf40
00000020: 3f6f 1c40 312d 0b41 48ba bb40 22a8 3940
00000030: 1629 f540 ce62 7c41 3538 4840 d994 c040
52.417477 5.7579265 6.606529 7.267171 1.8114038 4.020364 16.045866 6.4781275
2.44429 8.698533 5.8664894 2.900887 7.6612654 15.774122 3.1284306 6.01817

res_blocks.0.conv2.weight f4 [16, 16, 5, 5]
00000000: 133d 953e 1159 733e b06b 743e a379 883e
00000010: b923 473e d6d0 953e 9353 653e 231c 983e
00000020: ea01 653e 5c64 513e e53c 7f3e f6dc 643e
00000030: 19ad 963e 670c 743e 8989 923e bd9b 593e
00000040: 0b4f 843e 06c6 803e fc08 453e d274 8d3e
00000050: 29d2 6c3e 057f 7e3e 7a3e 693e 7ab6 7d3e
00000060: a384 983e 0bb4 1d3e 6c51 1f3d b755 803e
00000070: a434 0abe c26e 5ebd 13cd a53c 156b 623e
00000080: d4ab 513e 8cf9 17be ca5a 043e abf2 9abd
00000090: 9fe4 a43e 651c 593d 527e 123c 0d47 593e
000000a0: fd3f 893e 7acf a73e 3c56 66bc 7195 a53d
000000b0: f915 933d 22fc b03e fc92 213e 0f7d be3d
000000c0: efce ec3d a8eb 26be ee4e 94bc fb48 12be
000000d0: ebc8 c1bd 9433 6d3d 457d b7bd 0809 8e3c
000000e0: add6 fcbd a0b9 f7bc 0603 973d 81d3 9dbd
000000f0: f5cc a7bc 2c1d 49be bc64 86bc 572d d93d
00000100: c990 7c3c 6b3b 02bd 43b6 4cbe 17fe a5bd
00000110: 4233 ed3d fa4b cbbb 1a85 e6bc b536 27be
00000120: c279 88bd 9e98 f23d 8195 d23c b1cb 42bd
00000130: 1668 903d cc8a 72bd 7463 f2bc 41d3 1ebe
00000140: 5acc 6b3d 8b70 74bd a95c b13b 26e5 10bb
00000150: 39e5 b5bd 7840 dc3d 9a6e 4dbe 82ee c03d
00000160: c670 69be 3eed b53c d80a da3c 4179 65bd
00000170: aadb 533d 3269 69be a0d6 2fbd 8482 c2bd
00000180: 9b45 aa3d 53b1 51bd de5d 26be 0c0e 10be
00000190: ef6b 1bbc 8f34 323e 06c4 f43c cdef c53d
000001a0: 73d1 ea3d 667c 0d3c 3b43 aa3d df69 5aba
000001b0: 94ef 163d fc5b d13d e463 343d ff3f ab3c
000001c0: 7264 3cbd a92f 4c3d 91f4 193e a12d ab3d
000001d0: 3a90 8c3c 5638 91bc eedd bcbb 490a 413e
000001e0: 4ec8 f0bc dfe5 313d fe60 563c 0c91 bf3c
000001f0: 31cf bf3d 28d0 c53c f267 523d 8b61 b0bd
00000200: 1f03 70bc e3f8 a13c f334 933d ed88 183d
00000210: 0828 c7bd 3af0 0c3d 8304 64bd 2cc0 b83d
00000220: 7b11 133d 3ee5 b3bd c063 d836 939d 353b
00000230: 21b1 e53d a780 8dbd adcb 8bbd fbd8 5e3c
00000240: 0cd3 163d e071 793d 9f22 0abe e11d c5bd
00000250: 524a a8bd c57b 963d 8dc6 16be 86dd bc3c
00000260: b65a 913e 8340 213e 63e2 9fbd 5fbf 43be
00000270: d2c6 103e 8500 903e cc46 3e3d 8d49 11be
00000280: 97be 8abd 6bdf 8c3e 16e9 563e ca95 78bd
00000290: 00d7 a7bc ca3a 6c3d 6fbc 993e 5cf6 82bc
000002a0: 4201 31bd aadd 2a3d 1dcd 523e d315 423e
000002b0: 4c1e 0dbe 7111 debd 6e76 c73d 5afb e0bd
000002c0: c692 7d3c 6492 c1bc 72bf fcbd 3dd7 02be
000002d0: 2511 82bd 96b5 8bbd 8b0d 53bc 094f dabd
000002e0: 0e13 85bd da00 6cbd 36fe a5bd 2c03 ebbd
000002f0: f871 21be d1ab ccbd 4f46 4ebd b9e0 79bd
00000300: f637 20bd 9789 a1bd 0e6a e1bd 71b0 d6bd
00000310: 9de3 90bd 4634 c2bd b035 b6bd 4086 4fbe
00000320: 6588 34bd 0e0d 2e3e 184b 213e e209 5dbc
00000330: 373c 903d 1834 1ebc aef3 593e ca76 e83d
00000340: 2795 013d e324 413e 4a84 bc3d f8c1 583d
00000350: 3361 6c3d ad0e 293d a8a2 cd3d aca9 d83d
00000360: 2ef1 093d eb4c a23d d9a3 203e 12ac ce3d
00000370: edbb f23d 11e5 ca3d 47a2 d63d 35ed 323e
00000380: 4cd7 27be ba74 7a3d a166 48be 3c93 25be
00000390: a4f8 f2bd 5732 7ebd 25e6 94bc 5291 36be
000003a0: bb79 4dbe 096f 3fbe 6748 273d 68bb 05bd
000003b0: cc35 16be 46e5 47be 04c3 1abe 0d88 8b3d
000003c0: 28ce 2ebd cbd5 4fbd 62b6 1fbe ec48 e0bd
000003d0: f677 2a3d 57a8 9fbd f0b2 8ebd e8ef 15be
000003e0: 06d5 94bc aaf9 d6bd b3dc 953d 976e 61bc
000003f0: f8fc 9fbd 9719 a4bc d7ab 6dbd accd 6c3c
0.29148158 0.23764445 0.23869205 0.266553 0.19447221 0.29260892 0.22395162 0.29708967
0.22364011 0.2044844 0.24925573 0.22349915 0.29428938 0.23832856 0.28620556 0.21250816
0.25841555 0.2515108 0.19241709 0.2762819 0.23127045 0.24853142 0.22777739 0.2477664
0.29788694 0.15400712 0.03889601 0.25065395 -0.13496643 -0.054304846 0.020239389 0.22111161
0.20475703 -0.14841288 0.12925258 -0.075658165 0.32205674 0.053005595 0.00894125 0.2121851
0.26806632 0.3277548 -0.014058646 0.08085144 0.07181925 0.34567362 0.15778726 0.09301197
0.11562907 -0.16300833 -0.018104043 -0.14285652 -0.0946215 0.057910517 -0.0895944 0.01733829
-0.12345634 -0.03023988 0.073736235 -0.07706357 -0.020483473 -0.19640034 -0.016405456 0.10604351
0.015415379 -0.031794947 -0.19991402 -0.081051044 0.11582042 -0.0062041255 -0.02813964 -0.16329463
-0.066638485 0.11845516 0.025706055 -0.047557537 0.07051103 -0.0592144 -0.029588439 -0.15510274
0.05756793 -0.05967764 0.0054126573 -0.002210924 -0.088816114 0.10754484 -0.20061722 0.09420492
-0.22796926 0.022207852 0.026616499 -0.05602384 0.05172316 -0.22794035 -0.04292929 -0.0949755
0.083140574 -0.0511945 -0.16246745 -0.14067858 -0.009486183 0.17402862 0.029878628 0.09664879
0.114657305 0.008635616 0.083136044 -0.0008331816 0.036849573 0.10222623 0.044040576 0.02090454
-0.04599423 0.04985014 0.15034701 0.083583124 0.017158616 -0.017727058 -0.005763761 0.1885158
-0.029392388 0.043432113 0.013084648 0.023384593 0.093656905 0.024147108 0.05136866 -0.08612355
-0.014649182 0.019771999 0.07187834 0.037239958 -0.09724432 0.034408785 -0.055668365 0.09021029
0.035905343 -0.08783959 6.448914e-06 0.002771233 0.11215425 -0.06909304 -0.068259574 0.013601537
0.036822364 0.060899615 -0.1348977 -0.096248396 -0.082173005 0.07347826 -0.14724179 0.02305485
0.2838952 0.15747266 -0.07806852 -0.19115971 0.14138344 0.28125396 0.046454236 -0.14188214
-0.067746334 0.27514204 0.20987353 -0.060689725 -0.020488262 0.057673253 0.30026576 -0.015986614
-0.04321409 0.0417153 0.20586057 0.18953638 -0.13781089 -0.108431704 0.097393855 -0.109854415
0.015476888 -0.023629375 -0.12341203 -0.1277742 -0.06350926 -0.06821744 -0.012881647 -0.10659606
-0.06497775 -0.057618 -0.081051275 -0.11475214 -0.15766132 -0.09993709 -0.05036002 -0.061005328
-0.03911587 -0.07887571 -0.110065565 -0.10482872 -0.07074664 -0.094826266 -0.08896959 -0.20266056
-0.04407539 0.16997167 0.15751302 -0.013491126 0.07042735 -0.009655975 0.21284363 0.11350782
0.031636383 0.18861727 0.0920492 0.052919358 0.057709884 0.04127376 0.1004079 0.10579237
0.033677272 0.07924827 0.15687503 0.100914136 0.1185225 0.09906972 0.10480171 0.174733
-0.16390723 0.061146475 -0.195704 -0.16169447 -0.11863831 -0.062059727 -0.018176148 -0.17828873
-0.20065968 -0.186947 0.040840533 -0.032649428 -0.1466896 -0.19521055 -0.15113455 0.06813059
-0.042677075 -0.050741 -0.15596917 -0.10951409 0.04161831 -0.0779578 -0.06967723 -0.14642298
-0.018167984 -0.104968384 0.07317486 -0.013759277 -0.07811922 -0.020031733 -0.058025207 0.014453333

res_blocks.0.conv2.bias f4 [16]
00000000: 8d87 133d c2c0 7dbd a81a 243d 8464 d93b
00000010: a9f8 233d cf8c 06bd 8162 fcbc ebcb 16bc
00000020: f24f 123d 3179 62bd d5d6 1d3d c880 6fbd
00000030: acf9 573d 1aaa 7b3d fee4 48bc c954 623c
0.036017943 -0.061951406 0.040064484 0.006634297 0.040032063 -0.03284913 -0.03080869 -0.009203891
0.035720773 -0.05529136 0.038534958 -0.058472425 0.05272834 0.06144152 -0.012261627 0.01381416

res_blocks.0.batchnorm2.weight f4 [16]
00000000: bd21 be3f 8c56 a13f 9455 973f 24ab be3f
00000010: 38f7 d03f 0cb1 a93f 31a6 b43f 6fb4 983f
00000020: 6a88 783f 76be db3f 2384 c13f be25 8a3f
00000030: df42 e03f e531 c73f 0d53 bc3f ee02 d73f
1.4854046 1.2604537 1.1822991 1.4895978 1.6325445 1.3257155 1.4113218 1.1930064
0.9708315 1.7167499 1.511845 1.0792768 1.7520407 1.5562102 1.4712845 1.6797769

res_blocks.0.batchnorm2.bias f4 [16]
00000000: 0567 d33d 11a9 603d 8266 383c 38cc 363e
00000010: 4372 30be 24d4 453e 1330 813c 981a 55be
00000020: 6ae5 443d 415a b6bd ce2b 2bbd a956 be3d
00000030: 2bd2 fa3d 05e5 013e 17a3 68be 2fe1 b7bd
0.10322384 0.054848734 0.0112549085 0.17851341 -0.17231087 0.19319206 0.015769994 -0.20810926
0.04807035 -0.08903933 -0.041789822 0.09293873 0.122471176 0.1268502 -0.22718464 -0.08978497

res_blocks.0.batchnorm2.running_mean f4 [16]
00000000: b7b4 c13f a454 a0bf 6fbb 9f3f e860 d73f
00000010: d943 443f 51ad 57bf 3d91 3a3e 8d80 cb3f
00000020: 6c86 59c0 9b71 6dbe 3809 793f 2eea f5bf
00000030: 2cbb 253f dba8 e4bd 9a2b 5f3c 4c81 d9bc
1.5133275 -1.252583 1.2479075 1.6826448 0.7666603 -0.84248835 0.18219467 1.5898606
-3.3988295 -0.23187868 0.9727969 -1.9212091 0.64738727 -0.11165019 0.013621235 -0.026550911

res_blocks.0.batchnorm2.running_var f4 [16]
00000000: 9c81 9240 ad98 de40 f96e f040 a00d c040
00000010: a582 3141 21a8 db40 2638 9e40 d08d 5241
00000020: 4b2a 2a42 5d1c 7540 c0a1 fd40 1fc3 c841
00000030: bffe f340 7e9d 6b40 4e69 ac40 b4fc 4640
4.5783215 6.956137 7.5135465 6.001663 11.094396 6.8642735 4.944354 13.159622
42.5413 3.8298562 7.925995 25.095274 7.624847 3.6814876 5.3878546 3.1091738

res_blocks.0.residual_conv.weight f4 [16, 8, 1, 1]
00000000: 2e58 7f3e e157 4c3e 35eb 06bf e1e7 ac3d
00000010: c036 27be 5e87 9dbe 63da 8dbe a37c 27bf
00000020: 1aa1 7d3e 7dbe 8b3e 100f 21bf e4b1 c63e
00000030: bc7c 983e 2342 ab3d 6a0a bbbd edfe 1b3e
00000040: 6b41 833e 4cdc 23be 1204 9fbe f7f3 3abe
00000050: 8ab1 683b 0fa9 533d 31c3 8b3d b374 02bd
00000060: 51f6 be3c d3fe 50be 0fb4 0dbf 7256 093e
00000070: cee6 3dbe 52de 8dbb 8500 283e aecf 18bf
00000080: 95a3 0fbd c5d3 813e 47ef f5be e3d3 823e
00000090: 44c3 a1be df43 32bf cbff 913a 6f48 cf3d
000000a0: 33bf 813e 32c8 f0bd 2abb 8dbb 813b 8d3e
000000b0: 5238 eebe d6d1 17bf eb80 b73d 2dbd 33bf
000000c0: d928 6abe 2215 e9be 536e bcbc 6716 073e
000000d0: 9536 9cbe ac3e 2dbf 8f76 a23e 2f51 19bf
000000e0: 1fb4 5d3e 3b8c 513d d75b 843e b440 51be
000000f0: f989 863e 845b d7be bcf8 97be 6f5b b3bb
00000100: 4f64 2cbe 8d7a b6be dda6 3f3e 9e3d 3c3e
00000110: e84c d0be 6f71 93be 5b71 abba 926a 28be
00000120: 33e6 65be c9cf 343e e350 f93d 09ae 3fbe
00000130: 2622 923c e6e6 c53d 6e6c 47be 20f3 5b3e
00000140: f3df ecbc 9834 b83d 70c3 59be 4329 423c
00000150: 4205 a7be 8781 99bd 91a4 47be 1904 16bf
00000160: 5a2b a2bc ba13 8ebe c773 31be 605f 093e
00000170: 8c59 7a3e 3a48 973e 8f69 723e 78c0 8a3d
00000180: 529f e73d f86a 04be 10d3 01be 0522 b53c
00000190: 9587 f2bd 100c 81be 7aab debd b249 90bd
000001a0: c3fa 4ebd ad7a 10be c33a 01be c2e2 523d
000001b0: ef05 cbbd 0741 323e 5f68 853e cdb5 423c
000001c0: a5c2 bb3d 4ccc e23d 0080 0abe 3606 3abe
000001d0: 95d7 bc3d 1955 b4be 3b8c 923e baae 9f3e
000001e0: 9a71 b8bd 3079 d6bd e081 853e a3df 363e
000001f0: e046 743d 6267 c1ba fca9 c33e ac27 c6bc
0.24935982 0.19955398 -0.5270265 0.08442665 -0.16329479 -0.3076734 -0.27705678 -0.65424556
0.24768487 0.2729377 -0.6291361 0.38807595 0.29782665 0.08362224 -0.09132846 0.15233965
0.25635847 -0.16002005 -0.31057793 -0.18257128 0.0035506212 0.0516749 0.06824339 -0.031849574
0.023310812 -0.20409708 -0.5535287 0.13411883 -0.18545076 -0.004329481 0.16406448 -0.59691894
-0.035068113 0.2535688 -0.48034117 0.25552282 -0.31594288 -0.69634813 0.0011138854 0.101212375
0.25341186 -0.11756934 -0.00432529 0.2758446 -0.46527344 -0.5930456 0.08960136 -0.70210534
-0.22867145 -0.45523936 -0.023001825 0.1319214 -0.30510393 -0.67673755 0.31731078 -0.598895
0.21650742 0.051159125 0.25851318 -0.20434839 0.2627714 -0.42062008 -0.29681957 -0.005473546
-0.1683514 -0.35640374 0.18715997 0.1838288 -0.40683675 -0.2879748 -0.0013080047 -0.16446903
-0.22451095 0.17657389 0.12173631 -0.18718733 0.017838549 0.09663181 -0.19474956 0.21479464
-0.028915381 0.089944065 -0.2126596 0.011850658 -0.326212 -0.074954085 -0.19496371 -0.586
-0.019796062 -0.27749425 -0.17329322 0.13415289 0.24448222 0.29547292 0.2367308 0.06774992
0.11309685 -0.1293143 -0.1267817 0.022110948 -0.118422665 -0.25204515 -0.1087255 -0.07045306
-0.050532114 -0.14109297 -0.12620072 0.051485784 -0.09913241 0.17407618 0.2605619 0.011884165
0.09167985 0.11074123 -0.1352539 -0.18166432 0.092208065 -0.35221174 0.28622612 0.31187993
-0.09006043 -0.104723334 0.2607565 0.17858748 0.059637904 -0.0014755542 0.38215625 -0.024188839

res_blocks.0.residual_conv.bias f4 [16]
00000000: ceda 9abe 7098 5bbe 922e 963d 6b3f 3f3e
00000010: f90b 27be 44c8 4bbe 6de2 14bd f26e a13d
00000020: f2a7 51bd 279c da3c bd4b 033e ea8a 00bf
00000030: 9849 043e be38 b1bc 86d8 b2be 1bd5 773c
-0.3024506 -0.21444869 0.07333101 0.18676536 -0.16313161 -0.19900614 -0.03634875 0.07882489
-0.051185556 0.026685787 0.1282186 -0.50211966 0.12918699 -0.021633502 -0.3493082 0.015126492

res_blocks.1.conv1.weight f4 [32, 16, 5, 5]
00000000: 5bb9 9cbc 952a 823b 781e 7dbd 5df7 b8bc
00000010: d1ed a2bd 028e a4bc 42e7 723b ed76 143d
00000020: b321 49bd ea3a dc3c cb82 d1bb 3beb 933c
00000030: ce3e 02bd 1cbd a438 2247 db3c 9325 593d
00000040: 4160 7a3d 4863 b7bc 0696 e83b 7823 26bd
00000050: b783 dd3b 1cbc 673d f6e4 c63c 8cad 31bc
00000060: b46a f4bc 406b 80be 580b 84be 7a12 90be
00000070: 19ef 67be a958 a4be 1072 8abe a1e0 86be
00000080: 61f1 84be 46e4 9fbe 14ec a2be b951 89be
00000090: e784 97be b22d 94be f37d 85be e86d 89be
000000a0: f409 acbe 092b 70be f8c4 8abe 438e a3be
000000b0: 7bd6 99be b5af 99be 21bf 9abe 763f 82be
000000c0: e031 97be 5517 84be ac2e 3fbd f0a5 72bd
000000d0: 06df 80bd fb23 55bd 291d 9bbd b536 273b
000000e0: 95e9 e23c d06c fabc 6e83 abbd d697 b2bd
000000f0: 67b7 77bd 20ce e2bc 1564 01bd 23fa d1bc
00000100: 02fe 00be 7b61 4bbd 4849 ddbc cf46 82bd
00000110: b8fe 3b3c a0d3 b8bd db84 9bbc a48c 11bd
00000120: 9e70 3c39 117f 403a 6b37 11bd 3ec2 cf3d
00000130: e6de 803d e6e1 c53c 6d63 3b3d 4fbf 1cbb
00000140: 12c0 cd3d 26de a33d c215 433d e01c f53c
00000150: 23ab b73c 6563 db3d f669 323d 43a6 953d
00000160: 056c b53d 72aa d93b c2da 7e3d b8d9 b43d
00000170: 5cba 473d 74d2 ef3d 8426 9a3d cfec 8a3d
00000180: 3681 993d e0d6 a93d 4fd8 eb3d 8135 a93d
00000190: 1c0b 913d 332c b93d 3022 6b3d d384 3d3d
000001a0: abd6 b73c 4a42 a23c 4992 6c3d 7a91 da3d
000001b0: 55bc ea3b 24b2 8a3b 52ed 4f3d 44e6 a13d
000001c0: 15c4 623d e706 4b3c 653b 13bb c12d e43c
000001d0: d797 943d d649 e93c aca2 823d 032f ed3b
000001e0: b238 3f3d c9b2 c23d 2e01 8d3d 8b61 af3d
000001f0: 232b 05bd b221 b4be c008 aebe 7c2c 80be
00000200: 7efd a1be af51 babe 7165 a6be 5c22 7cbe
00000210: 9ef3 76be b6e6 5fbe 5b4b 9abe 7667 c1be
00000220: b7db 8cbe 3150 7cbe 452b 5cbe 7b94 9ebe
00000230: f234 b3be 3013 65be 9228 8abe 1107 58be
00000240: a745 93be 8be2 c2be 2cd9 b4be 12e0 9fbe
00000250: f323 a7be 96bf c2be 8e0c e9bd 5e66 04be
00000260: 440a a1bd 51b8 c8bd 1337 36be 3c0e b2bd
00000270: 5317 b1bd 0a95 c0bd 2dfa e4bc 9b78 24be
00000280: 6967 7dbd 7557 a0bd 8e5b 83bd 7a09 19bd
00000290: 9c94 23be 52b9 1dbe c0f6 b0bd 3940 28bd
000002a0: 5e0e abbd 084a bdbd eac5 37be 9361 0ebe
000002b0: b198 18be 6597 bcbd b36a 43be d948 9a3d
000002c0: 5115 983d 52da cd3d d0bb e03d eb76 b93d
000002d0: 0e99 073e 9b6f c63d 7d30 9e3d f64e d53d
000002e0: aa72 b33d c84e e83d 0225 ac3d 27cf a83d
000002f0: 715b 013e 4a84 a83d cfa9 153e 8b2a 033e
00000300: 12fc 933d 172c d63d cb42 613d 5fcc 333e
00000310: 792d 233e e667 163e 0bba cb3d b862 ed3d
00000320: 4f26 c7bd db6e e1bd 6c39 0ebe 391f 9fbd
00000330: f4da 70bd 01bf fcbd bdfa fdbd 1f72 1dbe
00000340: 6158 a0bd 6151 19be 00f0 62bd 6736 12be
00000350: b365 b0bd f247 d7bd 84ad ffbd b908 61bd
00000360: e390 b3bd 6b88 16be 0b13 92bd dbc5 09be
00000370: fb3b 11bd ade3 98bd 2931 0abe f1f8 6bbd
00000380: e4c5 e9bd 2f4b 3abe dc47 13be 5070 34be
00000390: b4be 07be e636 0fbe 00bd dbbd 0141 00be
000003a0: 70c7 16be 1da8 00be 85b9 13be 0377 d0bd
000003b0: 5933 3fbe d679 1bbe 783f e3bd 1371 dbbd
000003c0: 2750 1abe 177b 3dbe 8b57 22be 0afd e2bd
000003d0: 6a26 15be 8fc9 0cbe e2a5 21be 11c9 18be
000003e0: fa8b 2fbe 3817 dbbd 4734 9abc 6fe8 9dbc
000003f0: 0385 033d da9d 16bd 09d9 97bd 6c55 1c3d
-0.019131353 0.0039723613 -0.061796635 -0.02257889 -0.07955516 -0.020087246 0.003706411 0.03624623
-0.049104404 0.026883561 -0.0063937656 0.018056503 -0.031798176 7.855354e-05 0.026767317 0.05301435
0.06112695 -0.022386208 0.0070979623 -0.04056117 0.0067600864 0.05657588 0.024279099 -0.010844599
-0.029836036 -0.25081825 -0.25789905 -0.28139096 -0.22649802 -0.32098892 -0.27040148 -0.26343253
-0.25965407 -0.31228846 -0.31820738 -0.26820162 -0.29593584 -0.28941113 -0.26072654 -0.26841664
-0.33601344 -0.23453917 -0.271034 -0.31944475 -0.30046448 -0.30016866 -0.30223945 -0.25439042
-0.2953024 -0.2579905 -0.04667537 -0.05924028 -0.06292538 -0.052036267 -0.07573921 0.0025514786
0.027699271 -0.030569464 -0.083746776 -0.08720367 -0.06047764 -0.027686179 -0.031589586 -0.02563197
-0.12596896 -0.04965351 -0.027012482 -0.06361162 0.011474304 -0.09024739 -0.018984249 -0.035534516
0.0001797103 0.0007343153 -0.03545324 0.10144471 0.062925145 0.024155568 0.045749117 -0.002391774
0.100464 0.08001356 0.04762817 0.029920995 0.022420472 0.107123174 0.043558083 0.073071025
0.08858494 0.006642633 0.062220342 0.08830589 0.04876171 0.117100626 0.075268775 0.06783449
0.07495348 0.08292937 0.11515867 0.08262158 0.07082197 0.090416335 0.05740565 0.04626925
0.022441229 0.019807 0.057756696 0.10672279 0.007163564 0.004232662 0.050763436 0.07905248
0.05536278 0.012391782 -0.0022465822 0.027853848 0.07255524 0.02847759 0.063786834 0.0072382702
0.04668493 0.09506757 0.06884991 0.08563527 -0.03251184 -0.35181957 -0.3399105 -0.2503394
-0.31638712 -0.36390445 -0.3249927 -0.24622482 -0.2411637 -0.21865353 -0.30135617 -0.37774247
-0.2751138 -0.24639966 -0.21500881 -0.30972657 -0.35001332 -0.223706 -0.26984078 -0.21096446
-0.28764078 -0.38063464 -0.3532194 -0.3122564 -0.32644615 -0.38036793 -0.11379348 -0.12929675
-0.07863286 -0.098007806 -0.17794447 -0.08694121 -0.08647027 -0.09403427 -0.027951324 -0.16061632
-0.061866198 -0.07829181 -0.06413947 -0.037362553 -0.15974659 -0.15402725 -0.08640814 -0.041076872
-0.0835235 -0.09242636 -0.17946592 -0.13904409 -0.14901997 -0.09208564 -0.19083671 0.07533426
0.07425941 0.10051407 0.109733224 0.09055885 0.1324198 0.09689256 0.07724092 0.10415451
0.08762105 0.11343151 0.08405496 0.08242636 0.12632538 0.08228357 0.14615558 0.12809198
0.07225813 0.10457628 0.05499534 0.1755843 0.15935315 0.14688072 0.09947594 0.11591095
-0.09724104 -0.11007472 -0.13889092 -0.07769627 -0.05880256 -0.123411186 -0.1240134 -0.15375565
-0.07829357 -0.1497245 -0.055404663 -0.14278565 -0.086131476 -0.10511769 -0.12484267 -0.05493996
-0.08767869 -0.14700477 -0.071325384 -0.13454382 -0.035457592 -0.07465301 -0.13495316 -0.057610456
-0.11414698 -0.18192743 -0.14382881 -0.17620969 -0.13256341 -0.13985786 -0.10729408 -0.12524797
-0.14724517 -0.1256413 -0.14426239 -0.1017895 -0.18671931 -0.15183195 -0.1109609 -0.107149266
-0.15069638 -0.18503986 -0.15853707 -0.110834196 -0.14565435 -0.13748764 -0.15785936 -0.14920451
-0.1714324 -0.10697788 -0.018823756 -0.019275872 0.03210927 -0.036771633 -0.07414443 0.038167402

res_blocks.1.conv1.bias f4 [32]
00000000: 6e2f 523b 2683 1d3c 92cb e73c 54bd 9e3c
00000010: a5df 1b3d f5a1 413d 11dd 193d b570 09bd
00000020: 39dd b73c 9f7d e1bc 8e3b 8dbc 1daa dcbb
00000030: 949e 9cbc 61ab a9bc 2c1c a03c 89b0 213c
00000040: a4a7 843c 1798 243d 2d4b c73c 584b ef3c
00000050: 851d 6d3c 20d4 9f3b 25ff 573d 7efb 363d
00000060: 868b 78bb df98 18bd c0cf 0b3d 1460 3fbd
00000070: b360 bb3c 8feb 263c 113b babc 2ff0 3c3d
0.0032071727 0.009613788 0.028295312 0.019377388 0.03805508 0.047273595 0.03756434 -0.03355475
0.022444354 -0.027525721 -0.017240312 -0.0067341463 -0.019118585 -0.020711603 0.019544683 0.009868749
0.016193219 0.040184107 0.024327839 0.029210731 0.01447237 0.004877582 0.05273356 0.044673435
-0.003792496 -0.037255164 0.034133673 -0.046722487 0.022873258 0.0101879975 -0.022733243 0.046127494

res_blocks.1.batchnorm1.weight f4 [32]
00000000: 98f5 833f f1d1 4c3f 97a7 643f 3232 743f
00000010: 7f08 4d3f 23ca 743f 7635 823f 4a07 493f
00000020: 9172 6c3f 05f1 563f e225 793f 046f 863f
00000030: 008e 833f 5e19 8c3f 4f85 7c3f 533d 403f
00000040: c58f 703f e4af 713f 3ced 4e3f 2f77 813f
00000050: ace7 7b3f 4c22 733f 9e77 6a3f 3b49 403f
00000060: 8c72 483f 6f48 8b3f 0b48 673f 3c3c 543f
00000070: 7e11 2c3f a4f5 633f 9606 233f b550 693f
1.0309324 0.80007845 0.8931822 0.9538909 0.8009109 0.95620936 1.0172565 0.7852675
0.92362314 0.83961517 0.9732343 1.0502629 1.027771 1.0945241 0.9864091 0.75093573
0.93969375 0.9440901 0.8083074 1.0114497 0.9840038 0.9497421 0.9158877 0.7511174
0.78299785 1.088148 0.90344304 0.8290441 0.6721419 0.8904669 0.63681924 0.91138774

res_blocks.1.batchnorm1.bias f4 [32]
00000000: 81b4 eebe f036 bfbe 3d29 25be 3399 0fbf
00000010: 746b 2abe c14d e8be 8b68 2abe 984e 37be
00000020: fe1f 03bf e9a3 efbe a4e8 9cbe 421c f9be
00000030: 5059 edbe d34d d5be 8d58 c4be 859a 34bf
00000040: 24f3 2fbe 5cd9 d1bc 48e2 d2be 7014 f4be
00000050: a21c e7be a74c e7be 339c c8be c76d e4be
00000060: 1c18 c8be 8554 b5be 59d0 31be df1a 16be
00000070: b22c bebe 8516 aebe d427 abbe 67c0 6fbe
-0.4662209 -0.373466 -0.16129012 -0.5609314 -0.16642553 -0.45371822 -0.16641442 -0.17901075
-0.5122069 -0.4680474 -0.3064624 -0.48654372 -0.46357203 -0.41660938 -0.3834881 -0.7054828
-0.17182595 -0.02561634 -0.41188264 -0.47671843 -0.45139033 -0.4517567 -0.3918167 -0.44615003
-0.39080894 -0.35416046 -0.17364635 -0.14658688 -0.37143475 -0.34001556 -0.33428824 -0.2341324

res_blocks.1.batchnorm1.running_mean f4 [32]
00000000: 673e 77c1 22bf 2fc1 df38 e5bf ad50 d0c0
00000010: 4fd3 2241 51fe 3ac1 d3d5 82c1 50b9 78c1
00000020: d084 d3c0 3d2a 3541 af6f 19c1 a93f 00c1
00000030: 4e90 0dc1 4d7e 3bc1 09fc 19c1 d7b3 a041
00000040: 2cbb 04c1 f384 83c1 c4be 11c1 d9ed 9cc1
00000050: 7d00 56c1 1f49 d2c0 e67c e83f d470 6fc0
00000060: 1596 47c0 f474 a5c0 1ac0 cfc1 c062 41c1
00000070: 1d34 26c1 b068 19c1 c423 37c1 e5c4 d040
-15.452735 -10.984163 -1.7907981 -6.509848 10.176589 -11.687089 -16.354406 -15.545242
-6.6099625 11.322812 -9.5897665 -8.015542 -8.847731 -11.718335 -9.624032 20.087812
-8.295696 -16.439917 -9.109074 -19.616137 -13.375119 -6.571426 1.8163116 -3.7412615
-3.1185353 -5.1705265 -25.9688 -12.086609 -10.387723 -9.588058 -11.446232 6.524035

res_blocks.1.batchnorm1.running_var f4 [32]
00000000: 6b55 8243 2b95 6343 b360 2143 62ca 0a42
00000010: 3fc6 5343 7799 d242 a435 8144 ec70 8d43
00000020: 98fa 8242 3a71 8642 86f4 2a43 c121 6942
00000030: e677 9043 83e8 d942 d9a0 ea42 9de0 4143
00000040: 2ea6 7542 e04c 8344 629c a943 3354 d542
00000050: a7da 8842 76ad 4942 2d96 e142 883b 0243
00000060: 90dd 8d43 daea 8a43 f7a7 a244 b667 9144
00000070: 8051 8243 1547 9b42 516a b743 ad17 7843
260.66733 227.58269 161.37773 34.69764 211.7744 105.299736 1033.6763 282.8822
65.48944 67.221146 170.95517 58.282963 288.9367 108.954124 117.314156 193.8774
61.412285 1050.4023 339.22174 106.66445 68.427055 50.419395 112.79331 130.23254
283.73096 277.83478 1301.2489 1163.241 260.63672 77.63883 366.8306 248.09248

res_blocks.1.conv2.weight f4 [32, 32, 5, 5]
00000000: 2651 9c3e e155 693e 36a0 5b3e 5993 733e
00000010: e810 c33e d4c0 693e 963d 2d3e fac4 6c3e
00000020: e719 703e 9586 b13e 7019 8b3e f8d5 4e3e
00000030: c674 4c3e febc 633e 3320 ab3e 7c84 773e
00000040: 13ad 493e e7d6 7d3e 8879 703e 4606 b13e
00000050: 5fdf a93e 467f 853e 0f80 9e3e eec1 a23e
00000060: 3813 d53e 0f08 dbbd 5d0c 2abe 9610 1dbe
00000070: b232 3bbe ac52 39be ed7d 09be e35e 51be
00000080: 431e 6dbe e390 60be bf82 24be 97be 46be
00000090: 4e75 2ebe f5da 43be 9b95 3cbe 1c9e 37be
000000a0: f841 28be 62ab 41be 8020 59be 2b4d 63be
000000b0: a9c7 45be 61f3 48be aae3 48be 421f 42be
000000c0: c963 55be 5569 6bbe d942 3d3e 3231 163e
000000d0: bd24 303e 47a2 3c3e 3607 273e de8f 1b3e
000000e0: 4fb3 263e e206 273e 5731 f73d 14ee 333e
000000f0: b07e 313e 63d3 db3d 3c89 ff3d e2ec 203e
00000100: 4978 343e a7e7 eb3d f215 143e cf60 cf3d
00000110: 0d66 db3d 9922 013e 044a 333e a7e1 ea3d
00000120: ed32 da3d 0ea4 d63d 03cb 253e 8ae0 db3d
00000130: b869 cb3d 3f83 023e 113f de3d f233 973d
00000140: ac20 c43d 43a7 cd3d 28b1 e63d 8940 b63d
00000150: 2d8f e93d 1405 da3d 0c82 503d 9516 e53d
00000160: 40d4 ac3d 37be bb3d 33ce f63d acec 4e3d
00000170: 316d 803d 9f29 b33d 7190 913d c845 933d
00000180: 488d c83d 3bd3 603d 2650 8b3d 3ed3 af3d
00000190: 2a9d f6bd 7dc6 70bc d028 5bbd 91a0 20bd
000001a0: 4f61 06be f436 abbd 039b 3e3c dc4b c8ba
000001b0: 8481 7cbb 363b d0bd 9875 ffbc de65 053d
000001c0: 69e1 953b b686 3dbc 14c3 65bd 1933 7bbc
000001d0: 82d0 d23c 0131 f53c c396 21bb 7e39 d2bd
000001e0: 9d58 87bd 569a c0bc dc9e 263c 1fd9 febc
000001f0: 9eb0 cabd a91a 133e a707 193e bf69 c53d
00000200: cd46 c13d c356 b03d 6a53 073e 9876 bf3d
00000210: 10a9 a93d 8062 123d cbc8 843d 6fc9 6d3d
00000220: bb59 3a3d 32ef 2c3d ff68 afbb 1250 e13c
00000230: 93d0 c33d dd3c b63c 6263 c63c 60a0 063d
00000240: b3f9 1c3d 4ce8 ca3d 7d04 983d e575 733d
00000250: a73f 0d3d 5178 5c3c 2e81 883d 32df 3b3d
00000260: a31b 943d 3623 b43d 01c5 803d 0fca 403d
00000270: 427e 9c3d f7a1 b23c cedc 7e3c e115 e53c
00000280: b629 f53c 4482 c03c 4d8f 293d a0da 88b9
00000290: 2364 0d3d 902e 8e3d a31e 0e3d f390 213d
000002a0: a3f3 293d 1e3a 243d 97e6 993d 84e7 723d
000002b0: b891 9e3b 6ada 063d 81bf 4f3d b44d 8b3d
000002c0: c5eb fd3c 7a6c 44bd 04e3 d3bc c40f abbd
000002d0: 24d7 99bc 5fbc 3cbc 0d42 d8bc b1dd b7bd
000002e0: f128 c5bd c2e2 443c d1e3 66bd 6c5c 9fbd
000002f0: effe c2bd 1369 fbbd 8f90 823b d9bd b9bd
00000300: 7872 9fbd 11d4 bcbd 2b0d 19be 57ee 193c
00000310: 1f92 35bd 19a1 b1bd d237 04be 95dc 2fbe
00000320: 18bd c43d c016 b53c 898d 873d f5f4 c03d
00000330: 183e 9a3d 01b8 ae3d c9e2 263c 41c9 383d
00000340: e543 7d3c 572d 693d cc75 ff3c 662a 3d3d
00000350: 6df4 4b3d e0f5 d83b 1124 a73d 4051 fc3c
00000360: b6c0 e83c 80c1 f83c f60a 043c 998e 1e3d
00000370: 0d72 4b3d 5ca4 1d3d 668a 183d 6afd ea3c
00000380: fc17 b23c d214 be3d 35c2 f43c 40b4 9cbc
00000390: f650 e33c 7d3e 6e3c 41de 843d e36a 053c
000003a0: dcdc 89bc 7736 a8bc 96f8 1cbd ec73 bd3c
000003b0: 4a1e 0dbd ce37 cdbc c6c0 a2bd b94d 94bd
000003c0: 40f9 e63b 014a 82b9 6111 97bc 4bee e5bc
000003d0: b489 a8bd d69b e03c 6917 f1bc 9394 95bd
000003e0: 23ef 2ebd 8b47 10bd ec30 273e 016f 193e
000003f0: 084f 1e3e 528b 033e 2b55 623e 663d 193e
0.3053066 0.22786666 0.21447834 0.23786677 0.38098836 0.22827464 0.16918024 0.23122016
0.23447381 0.3467299 0.27167845 0.2019881 0.1996642 0.22240064 0.33423004 0.24171633
0.19694929 0.2478901 0.2348386 0.345751 0.3317823 0.26073664 0.30957076 0.31788582
0.41616225 -0.106948964 -0.16606279 -0.15338358 -0.18281057 -0.18097943 -0.13426943 -0.20446353
-0.23156075 -0.2193027 -0.160655 -0.19408642 -0.17036936 -0.19126494 -0.18416445 -0.17931408
-0.16431415 -0.18913034 -0.21203804 -0.22197406 -0.19314446 -0.19624092 -0.19618097 -0.18957236
-0.20838846 -0.229894 0.18482532 0.14667204 0.17201515 0.18421279 0.16311345 0.151916
0.16279338 0.1631122 0.12069958 0.17571288 0.17333484 0.10733678 0.12477347 0.15715364
0.1762401 0.115187936 0.14461496 0.10125887 0.10712824 0.12610854 0.17508703 0.11468821
0.106542446 0.1048051 0.16190724 0.10736187 0.099322736 0.12745379 0.10851873 0.07382955
0.09576544 0.10041668 0.112642586 0.08899028 0.11404262 0.106455 0.050905272 0.11185948
0.08438921 0.0916714 0.12051048 0.050518677 0.062708266 0.08748173 0.07107628 0.07191044
0.09792572 0.054888945 0.068023965 0.08585213 -0.120416954 -0.014695761 -0.05350572 -0.039215628
-0.13123058 -0.08360091 0.011633637 -0.0015281397 -0.0038529346 -0.101675436 -0.031184003 0.03256785
0.00457399 -0.011567762 -0.056094244 -0.015332007 0.02573419 0.029930593 -0.0024656511 -0.10264872
-0.066086985 -0.023511093 0.010169711 -0.03110939 -0.09896968 0.14365639 0.14944325 0.0963931
0.09437332 0.086102985 0.13215414 0.09348792 0.08284199 0.03573847 0.06483611 0.05805343
0.04549573 0.042220302 -0.0053530927 0.027504 0.09561267 0.022245819 0.024217311 0.03286779
0.03832407 0.09907588 0.07422731 0.059438605 0.03448453 0.01345642 0.06665264 0.045867153
0.07231834 0.087957785 0.062875755 0.047067698 0.07641269 0.021805746 0.015555574 0.027964534
0.029927116 0.023499615 0.041396428 -0.0002610283 0.034519326 0.06942475 0.034697186 0.039444875
0.041492116 0.040094487 0.07514685 0.05930282 0.0048391484 0.03292314 0.05071974 0.0680193
0.030996213 -0.047955014 -0.025865085 -0.083526164 -0.018779345 -0.011519521 -0.026398683 -0.08977831
-0.096269496 0.012016954 -0.056369606 -0.077813 -0.09521281 -0.12275901 0.003984518 -0.09069414
-0.07785505 -0.09220136 -0.1494643 0.009395204 -0.044328805 -0.08673305 -0.12911919 -0.17173989
0.09606379 0.022105575 0.066187926 0.09421722 0.07531375 0.0853119 0.010185906 0.045113806
0.015458082 0.056928005 0.0311841 0.046183012 0.04979365 0.0066211075 0.08161176 0.030800462
0.028412204 0.030365705 0.008059254 0.03871021 0.049669314 0.038486823 0.037241362 0.02868529
0.021739952 0.09281315 0.029877761 -0.019128919 0.027748566 0.014541266 0.06487704 0.00814316
-0.016828947 -0.020533783 -0.038323008 0.023126565 -0.034452714 -0.025051024 -0.07946925 -0.07241387
0.007048756 -0.0002485067 -0.018440904 -0.028067729 -0.0822939 0.027418058 -0.029430108 -0.07303729
-0.042708527 -0.03522448 0.16327256 0.14983751 0.15459836 0.12846115 0.22102802 0.14964828

res_blocks.1.conv2.bias f4 [32]
00000000: 73eb c2bc 3018 f4bc 64da 54bc 788e 90bc
00000010: eb33 9dbc 6b49 fa3c 1c2d 98bb f8ab c33c
00000020: f590 cd3c 88b6 c5bc 9531 723d 46dc 703c
00000030: 0f87 9dbc f758 c93c 7120 ac3b d807 663c
00000040: 6a93 d0bc a68b 01bd e856 613b bdd1 f2bb
00000050: 364e b0bc 4261 04bd e201 1abd 2c3a 0b3d
00000060: b5fb 28bd ebec fdbc 052b b6bb 4fdb 73bb
00000070: 638b 783b df33 a73c 7245 20bc 70cb dc3c
-0.023793912 -0.02979669 -0.0129915215 -0.01764606 -0.019189795 0.030552587 -0.0046440493 0.023885712
0.025093535 -0.02413489 0.059129316 0.014700955 -0.01922944 0.024578555 0.0052528908 0.014039956
-0.025460918 -0.03162732 0.0034384076 -0.0074102567 -0.021521669 -0.032319315 -0.03759945 0.033991024
-0.04125567 -0.03099676 -0.0055593275 -0.0037209576 0.0037924878 0.020410476 -0.009782182 0.026952475

res_blocks.1.batchnorm2.weight f4 [32]
00000000: 2aef 0340 1fe8 4440 565f 2d40 8b14 7140
00000010: ed84 4340 e8f6 3e40 bb7f 1040 f96e 2f40
00000020: 8f26 fe3f 559f 2e40 0c27 5440 6211 2940
00000030: dbbc 3e40 e4e4 4240 3122 5740 ac76 8440
00000040: afef 1540 a7ba 2340 d665 3c40 7ddd 2a40
00000050: bcd7 6240 5509 5140 635f 4c40 1a51 4540
00000060: b550 5040 5c5c 4540 cf4e 5640 a695 2440
00000070: ba16 5440 d040 3540 8d34 2840 5569 4240
2.0614724 3.0766675 2.7089438 3.7668788 3.0549881 2.98382 2.257796 2.7411482
1.9855517 2.7284749 3.3148832 2.641686 2.9802768 3.0452204 3.3614619 4.1394863
2.3427541 2.5582674 2.9437156 2.6697686 3.5444174 3.2661946 3.193322 3.083075
3.254926 3.0837622 3.34856 2.5716338 3.3138871 2.8320808 2.6282074 3.037679

res_blocks.1.batchnorm2.bias f4 [32]
00000000: 86fc b43e de44 fa3e 8866 b93e 1229 4b3f
00000010: de2e d93e 2b74 c53e fc47 d83e 1131 333f
00000020: 3dd7 e03e cbda f43e cbc1 283f 166d d93e
00000030: dfb7 173f 2ab4 093f 451a 8e3e 1562 d13e
00000040: 1ade a53e 4b7c e63e 2fad a73e 9b73 ea3e
00000050: 7677 113f f875 be3e d460 d33e 3694 7e3e
00000060: 9622 cf3e d79e 3c3f 8560 ca3e 7731 203f
00000070: bd6d d33e 2cd1 e13e 6e82 2f3f 3e72 683e
0.3534891 0.48880666 0.36211038 0.79359543 0.4241857 0.38565192 0.4224242 0.69996744
0.43914214 0.47823176 0.65920705 0.42466038 0.5926494 0.53790534 0.27754417 0.40895143
0.32396013 0.45016703 0.32749316 0.45791325 0.5682291 0.37199378 0.41284811 0.24861225
0.40456074 0.7367987 0.39526764 0.6257548 0.4129466 0.44104898 0.68558395 0.2269983

res_blocks.1.batchnorm2.running_mean f4 [32]
00000000: 4560 8040 f304 863f 413e a440 9467 7c40
00000010: d943 4f3f d7f5 17bf 3067 b6bb d61f 4240
00000020: 976e 1140 c7cc cbbf 16a3 b83f 5fcd 453f
00000030: 21ef 7e3f 33e2 4f40 ef62 a03f 3a7a 7b3f
00000040: 5144 533f cc6c b0bf 3798 0240 cf2f a73f
00000050: d09a 5640 ea71 c93f dd21 0ac0 d538 8140
00000060: 096a 0e40 c3a5 873f 0a4f 0540 7f84 5340
00000070: af13 3cc0 2dc1 813f 1c39 a13f 3602 8dbf
4.0117517 1.047026 5.1325994 3.943822 0.809629 -0.59359497 -0.0055665 3.033193
2.2723749 -1.5921868 1.442477 0.77266496 0.9958363 3.248181 1.2530192 0.9823338
0.8252612 -1.3783202 2.0405405 1.3061465 3.353199 1.5737889 -2.1583169 4.0381875
2.2252219 1.0597461 2.0829492 3.304962 -2.9387014 1.0137078 1.2595553 -1.10163

res_blocks.1.batchnorm2.running_var f4 [32]
00000000: c0a0 b941 7823 a441 fd54 9941 3a2f dd41
00000010: c62c 8141 8d9f a941 3c3b d441 ed01 f441
00000020: dc0f 0742 6469 7041 c148 8641 d270 7e41
00000030: e8dd e841 3966 e441 420d af41 3164 b841
00000040: fceb 7541 1c17 8941 cad0 a841 7f77 3a41
00000050: d96f a541 7043 9e41 715c 9f41 fe84 9641
00000060: 15fe 9041 8b23 1242 21ba b041 2ceb bb41
00000070: 3f5c 9141 a3db 5141 66f5 9441 bdd3 a441
23.203491 20.517319 19.166498 27.64806 16.146862 21.202906 26.528923 30.50094
33.765488 15.02573 16.785524 15.902544 29.108353 28.549913 21.881474 23.048922
15.370113 17.136284 21.101948 11.654174 20.679613 19.782928 19.920137 18.814938
18.124063 36.53471 22.090883 23.48983 18.170042 13.116122 18.619823 20.603388
