Code/lightning_logs/version_2/checkpoints/epoch=47-step=1008.ckpt (torch, 734678 bytes, 104 tensors)

conv1.weight f4 [32, 1, 3, 3]
000000 ae 57 42 3e 17 97 e6 be b3 3d a4 bd ac b7 ef 3d
       0.1897876 -0.45037147 -0.08019581 0.117049545
000010 17 85 67 3d 84 dd 45 be b3 9f 16 3e 0d 76 f8 bd
       0.05652341 -0.19322783 0.14709358 -0.121318914
000020 42 f6 b3 3d 09 57 e8 bd 08 71 72 3d 9e 3f a0 bd
       0.08787204 -0.11344726 0.059189826 -0.07824634
000030 b5 a6 0b bc 52 9c f1 3b cb ba ac be e4 a5 1a 3d
       -0.008523633 0.007373371 -0.33736262 0.037755862
000040 4e 38 5a 3d 61 73 69 be 58 ad 81 be 21 22 79 be
       0.053276353 -0.2279792 -0.25327563 -0.24329425
000050 e8 b1 fd bd 19 d4 14 3e c2 3b d3 bc 09 ce 9a 3e
       -0.123874485 0.14534034 -0.02578533 0.30235317
000060 4b a4 95 be ca e8 f0 bd d3 74 aa 3d 44 c3 7b 3e
       -0.29226908 -0.11763151 0.08323064 0.24586207
000070 1d ca 11 bd 7d db fb bc 0b 70 b7 3c d3 79 45 3e
       -0.03559314 -0.030744309 0.022392293 0.19284754
000080 e3 3c 15 bd 34 19 b8 be c5 d7 01 3e 93 aa 92 be
       -0.03643502 -0.35956728 0.12679966 -0.28645763
000090 1c 68 15 3e 56 8f 70 3e 42 45 2e be 74 33 e5 bd
       0.14590496 0.23492178 -0.17018607 -0.111914545
0000a0 53 a3 76 3e b9 2a 8d bd a8 1f 9e 3e 0e a7 b5 3e
       0.24085741 -0.06892914 0.30883527 0.35479015
0000b0 91 50 a0 3e c1 34 99 be ab 7f 31 3e 9b 88 8d be
       0.31311467 -0.2992306 0.17333858 -0.27643284
0000c0 aa 28 97 be 44 78 42 3e d6 a6 a5 bd 55 05 b4 bd
       -0.29523212 0.1899119 -0.08088462 -0.087900795
0000d0 94 dc 24 be 8f 00 94 3e f1 0e 90 3e 3a 10 a9 3e
       -0.16099769 0.28906676 0.281364 0.33020192
0000e0 03 98 48 3e 8c 64 68 bd 9d d0 1f be ab 7c 42 3e
       0.19589238 -0.056736514 -0.15606923 0.1899287
0000f0 70 38 8b bd 76 db eb 3d fa 0a 15 be 80 da 40 3e
       -0.06797874 0.11516468 -0.14554968 0.18833351
000100 e4 a0 d4 bd 00 e7 5b be 7e 8b 77 be de 09 46 be
       -0.1038225 -0.21474838 -0.24174306 -0.19339702
000110 94 f0 76 bd 85 5c 99 3e ce 36 2d be 9b 62 9a be
       -0.060288027 0.299534 -0.16915438 -0.30153355
000120 e3 3a 22 3e 74 e3 8f be fc 0a 27 3e 33 7c 03 bf
       0.15842776 -0.2810322 0.16312784 -0.5136139
000130 e5 1c 21 3e c1 ee 74 3d ce 1a a3 be 98 f5 18 3c
       0.15733679 0.059798006 -0.31856388 0.009335898
000140 d0 ee 17 3e cf bf b3 3c a3 74 bc 3d 46 14 a6 3e
       0.14837193 0.021942047 0.09201934 0.32437342
000150 80 7f 00 3c 1b 57 41 3e 38 13 9b 3d 25 00 b2 3d
       0.007842898 0.18880884 0.07572025 0.08691434
000160 05 d9 00 3e 3a 98 0b 3e 9a d5 92 3e 98 94 0c 3d
       0.12582786 0.13632289 0.2867859 0.034321398
000170 f0 6a 17 be fd 30 9f bd 59 d8 b7 be 13 d5 31 be
       -0.14786887 -0.07773016 -0.35907248 -0.17366438
000180 0a 52 13 3e a6 2c 6e 3d e5 ef d0 be e4 77 8a bd
       0.14386764 0.05814805 -0.40808025 -0.067611486
000190 73 7b e3 bd a3 dc 2d be 9f 3b 58 3e ab 46 f1 3d
       -0.111075304 -0.16978697 0.21116494 0.11781057
0001a0 af e2 b5 be e0 33 76 bc 0c 80 81 3e fc 9b 61 be
       -0.35524508 -0.015027016 0.25293005 -0.2203216
0001b0 16 5e ea 3c ee c9 bd be 48 db 6b 3e dc 40 1f 3d
       0.028609317 -0.37068123 0.23032868 0.038880214
0001c0 fa 97 1a be 50 94 7d be 81 77 b2 be 1b ec 4e be
       -0.15097037 -0.24763608 -0.348568 -0.20207255
0001d0 23 46 85 3e 66 76 83 bb 0f 24 46 be e3 98 f6 3d
       0.26030073 -0.004011917 -0.19349693 0.120408796
0001e0 35 ad 30 3e 39 6a ec bd 1d 42 0e be c9 fd a8 be
       0.17253573 -0.11543698 -0.13892408 -0.33006123
0001f0 0a ca 49 3e cf 40 18 be 9c 8e 70 be 16 d1 0e be
       0.19705978 -0.14868473 -0.23491901 -0.13946947
000200 5f 95 c5 bd 65 3c a2 bd 05 b2 9b 3e c4 ac b2 bd
       -0.09647631 -0.079216756 0.30409256 -0.08724359
000210 15 87 b2 be eb 00 a6 bd c4 47 df 3d ba 43 97 be
       -0.34868684 -0.08105644 0.1090236 -0.2954386
000220 f9 0e 89 3e a3 93 1a 3c e6 00 9d 3d ba 27 4b 3e
       0.26769236 0.009434613 0.07666187 0.19839373
000230 e1 42 7d 3e 66 f0 aa 3e e6 f5 b0 bd aa a4 05 bc
       0.24732544 0.33386534 -0.086406514 -0.008156935
000240 c4 e2 c2 3b 34 b3 61 3e 6c 96 c2 3d 39 7c b0 be
       0.0059474427 0.22041017 0.09501347 -0.34469774
000250 99 07 a6 3d d6 80 72 3e a9 71 63 be 7f e4 af be
       0.08106918 0.2368196 -0.22211327 -0.34354016
000260 d7 67 71 be 14 b2 30 3e 57 cd 26 be 6a 8f 5b be
       -0.23574768 0.17255431 -0.16289268 -0.21441427
000270 d8 89 05 3e 09 28 97 be e1 02 b3 3d 20 ce a2 3d
       0.13040864 -0.29522732 0.087407835 0.079494715
000280 3c ef 41 bd b1 17 05 3d f6 94 a6 3e 99 8f 3a 3e
       -0.047347292 0.032493297 0.32535523 0.1821884
000290 16 09 d7 3d 4a 7f 6d be 29 6d 0a 3e 13 9d cf be
       0.1049978 -0.23193088 0.13518204 -0.40549526
0002a0 db 6d 12 bd fc 4e 9b bd 87 5a de 3d 80 1a 8a 3e
       -0.035749298 -0.075834244 0.108571105 0.26973343
0002b0 46 5f b7 bc 8a 02 84 be 31 6e 52 be fd 87 b5 3c
       -0.022384297 -0.25783187 -0.20549847 0.02215957
0002c0 99 73 0a 3d ae 3c 85 3e 3c 77 99 bd 18 03 a6 3e
       0.03380165 0.26022857 -0.07493445 0.32424235
0002d0 f3 8f 50 bd 97 ba a2 be 2f ac 0e 3c d7 ee d1 bd
       -0.05091853 -0.31782982 0.008708044 -0.10250633
0002e0 28 79 c8 3d 0f af ae 3c 1b 2c 4a bd 1d 18 a9 3d
       0.09788734 0.021323709 -0.04935847 0.08256552
0002f0 68 df 05 3e 0c e7 ea 3c b7 a4 2e 3d aa b5 c2 bd
       0.13073504 0.028674625 0.042637553 -0.09507306
000300 68 8d 3a be c1 30 da bc e0 aa 86 be 99 50 7a be
       -0.18218005 -0.026634576 -0.26302242 -0.24444808
000310 54 cf 94 3e 85 fb e2 be f6 06 15 be 5a 18 89 be
       0.2906443 -0.4433252 -0.14553437 -0.2677639
000320 ad 10 6e 3e c9 bb 38 be 13 eb 51 bc ea 89 89 3e
       0.23248549 -0.18040384 -0.012812394 0.26863033
000330 98 7d 9d 3e 1c c7 43 3d 9c 73 ce bd 81 a4 21 3e
       0.30759883 0.047797307 -0.100806445 0.1578541
000340 8e bf ba be 45 ea 04 3e be 40 5d bd 98 4c f5 bd
       -0.3647427 0.12979992 -0.05401682 -0.119775
000350 3f da 6a 3d d8 7a 3d 3e 6a d0 1f be f4 d1 7c be
       0.057337042 0.18503892 -0.15606847 -0.24689466
000360 88 2b fc bc 5a c6 bb 3e c4 8d 1e be 0c 51 77 3e
       -0.030782476 0.36674768 -0.15483767 0.2415201
000370 f4 c1 84 3e b6 a9 bb bd 61 cb db 3d 91 81 a6 be
       0.25929224 -0.09163229 0.10732151 -0.32520726
000380 4a 97 9c 3d 5d eb 3e 3e 53 a0 f4 3c 71 85 04 be
       0.076460436 0.18644471 0.029861605 -0.12941529
000390 b7 87 1b be 74 bf ea 3d cf 83 78 3e a2 a1 6f be
       -0.1518849 0.11462298 0.24269031 -0.23401502
0003a0 3d d1 e0 bd d7 13 1b be 26 c3 da 3d 6f f7 97 be
       -0.10977409 -0.15144287 0.10681753 -0.29680964
0003b0 53 6d 30 3e 35 b6 14 3e 64 98 69 be ba 5b 22 be
       0.17229204 0.14522631 -0.22812039 -0.15855303
0003c0 b5 70 0a 3e d2 65 9d bd f0 0b db bd 21 a1 6a bd
       0.13519557 -0.07685436 -0.10695636 -0.05728257
0003d0 ba da 68 3d be 21 5c be 0f 4f 9b 3d 6b a9 5d be
       0.05684922 -0.21497247 0.075834386 -0.21646659
0003e0 31 e4 90 be 9c 25 1d bd 48 37 de 3d 8a 18 c9 be
       -0.28299096 -0.038365945 0.10850388 -0.39276534
0003f0 f9 c9 ad 3c f9 89 ab 3d 2d 96 6e be c3 4f d4 be
       0.021214472 0.083759256 -0.23299475 -0.41467103

conv1.bias f4 [32]
000000 e0 d2 fb bb 5a b2 b9 bd 0b de ae 3c 02 db 85 3d
       -0.0076850504 -0.09067221 0.021346113 0.06535913
000010 84 c7 0a bd 6d c6 20 3e 7a b5 9b be 71 b3 56 be
       -0.03388168 0.15700693 -0.30411893 -0.20966889
000020 ec fc fd 3d 38 7a e6 3d 6b 7e 31 be ba 60 5b be
       0.12401757 0.1125378 -0.17333381 -0.21423617
000030 ed 85 90 3c 97 f5 8b 3e 73 db 8c 3e b6 31 92 bc
       0.017641986 0.27335808 0.27511176 -0.01784597
000040 e3 76 0b 3e 94 b9 85 be b3 8c 5b 3d bb ac a7 3e
       0.1361957 -0.26118147 0.053600978 0.3274897
000050 9a 43 32 bd de ab d1 3d 70 65 fa bd 40 39 92 be
       -0.0435215 0.10237859 -0.12226379 -0.28559303
000060 1e c1 0f bd 63 b4 eb 3d 05 40 dd bc 7f 2c 59 be
       -0.03509628 0.115090154 -0.027008066 -0.2120838
000070 1f 10 82 be 6b cb 67 3e 41 17 29 be f4 35 5f be
       -0.25402924 0.22636192 -0.16512777 -0.21797925

batchnorm1.weight f4 [32]
000000 ca c6 75 3f 0e ad 9d 3f 7b 7b 87 3f 9b ee 75 3f
       0.96006453 1.2318437 1.0584558 0.9606721
000010 3a 9e 60 3f 19 7e 87 3f e9 53 66 3f 25 61 94 3f
       0.87741435 1.0585357 0.89971787 1.1592146
000020 ad 12 6e 3f 8b 27 66 3f 57 98 84 3f 54 6a 80 3f
       0.92997247 0.8990409 1.035899 1.0032449
000030 b3 af 91 3f 73 5a 8a 3f 8d 09 8a 3f 7d 1f 66 3f
       1.1381744 1.0808853 1.0784165 0.898918
000040 df 0a 80 3f c5 bb 78 3f 7f a8 71 3f 5f 8e 61 3f
       1.0003318 0.97161514 0.9439773 0.88107866
000050 46 75 77 3f 76 3d 9d 3f 02 9a 6f 3f 0b 43 7e 3f
       0.9666332 1.2284381 0.9359437 0.9932105
000060 7e ec 59 3f 56 f5 69 3f ce c7 77 3f ed e5 97 3f
       0.85126483 0.9138998 0.9678925 1.1867043
000070 5e db 6f 3f 39 3e 87 3f f6 8f 81 3f 31 2f 80 3f
       0.936941 1.0565864 1.0122058 1.0014402

batchnorm1.bias f4 [32]
000000 03 28 07 3e 3c 21 5e 3d fd 00 11 3e 3c 2c d9 3d
       0.13198857 0.054230914 0.14160533 0.1060414
000010 98 a1 89 3d 05 aa fc 3d 97 39 34 3d fe 64 65 3d
       0.06720275 0.12337116 0.044000234 0.056004517
000020 37 26 7f 3c 47 1f 9b bd a2 3d be 3d 8f 8d 0f 3d
       0.015573076 -0.07574325 0.09289099 0.03504711
000030 49 78 34 3e d5 5b 0c 3d 47 9a 25 3d c5 38 84 3b
       0.1762401 0.034267265 0.040430333 0.004035088
000040 77 8f 52 3e d7 07 5f 3d 12 d7 10 3e 28 62 b1 3d
       0.2056254 0.054450836 0.14144543 0.086613
000050 20 82 e9 3d 55 b1 5d 3d 3d b2 ab 3d 4d 8b aa bb
       0.114017725 0.054124195 0.08383606 -0.005204594
000060 cf 23 bd 3d 10 82 63 bd 8a 0e 9a bc 80 73 19 3d
       0.092353456 -0.05554396 -0.01880576 0.037463665
000070 17 0d 8c 3d ea 8e 1d 3e 21 bf 23 3e 8b cc c2 3c
       0.06838434 0.15386549 0.15990879 0.023779174

batchnorm1.running_mean f4 [32]
000000 cf 60 ff be c3 49 b3 bf 87 dc 8b bf d9 6a 77 be
       -0.49878547 -1.4006885 -1.0926675 -0.24161853
000010 76 56 23 40 2a 3d 81 bf 12 fd 91 3f 54 bf f1 bf
       2.5521522 -1.0096791 1.1405356 -1.8886514
000020 2a 08 40 bf 85 7b 14 40 c6 c2 c3 bf f2 07 6f bf
       -0.7501246 2.320039 -1.5293815 -0.933715
000030 00 1d cc bf d4 5d 27 bf cd 89 8d bf 18 6d c4 3f
       -1.594635 -0.65377545 -1.1057678 1.5345793
000040 7a 05 75 bf 42 25 32 bf 5c 99 8d 3e e8 4d 85 3f
       -0.9571148 -0.695881 0.27656066 1.04144
000050 40 b4 c4 be d5 16 e7 bf 33 40 35 3e 01 50 91 bf
       -0.3841877 -1.8053843 0.17700271 -1.135254
000060 a5 8a 63 3f 4b e0 98 be 6a 90 33 bf 52 f1 0f c0
       0.8888343 -0.29858622 -0.70142233 -2.249104
000070 c6 bd 36 bf 21 06 72 bf c6 4a 03 c0 f8 13 10 3f
       -0.7138332 -0.945406 -2.0514388 0.5628047

batchnorm1.running_var f4 [32]
000000 0e 29 4f 44 39 ce 8f 44 f1 70 d1 44 6c 2d 83 44
       828.6415 1150.4445 1675.5294 1049.4194
000010 7f 94 94 45 39 92 ac 44 ef 6d 1a 45 a3 13 16 45
       4754.562 1380.5695 2470.8708 2401.2273
000020 b8 ad d3 44 2e 65 31 45 f0 4d 2b 45 eb fe 60 44
       1693.4287 2838.3237 2740.871 899.9831
000030 20 ca 1b 45 06 c1 1d 44 61 19 a8 44 1c f5 23 45
       2492.6328 631.016 1344.7931 2623.3193
000040 01 b7 2e 45 7c 80 27 44 4f 61 d6 44 05 cc 9c 44
       2795.4377 670.00757 1715.0409 1254.3756
000050 de 88 62 44 2c 8d 0c 45 7f 67 c0 44 ef 89 39 44
       906.13855 2248.8232 1539.2343 742.1552
000060 36 ed d0 44 51 e8 4a 44 43 47 19 44 50 22 29 45
       1671.4128 811.62994 613.11346 2706.1445
000070 bb 6a b4 44 17 59 b4 44 f5 37 80 45 49 50 03 45
       1443.3353 1442.784 4102.9946 2101.0178

res_blocks.0.conv1.weight f4 [32, 32, 3, 3]
000000 81 31 6c 3d 0e 03 7b bc a6 93 0d bd b8 9a 2c 3d
       0.057664398 -0.0153205525 -0.034564637 0.04213974
000010 fa 44 30 bd 92 82 73 3d 71 aa 99 3a d3 e9 59 bd
       -0.04303453 0.059450693 0.0011723769 -0.053201508
000020 42 ba 99 3c aa fb bf bd 37 0e c6 bd eb b4 82 3d
       0.018765572 -0.09374173 -0.0967068 0.063821636
000030 23 03 ca bd d2 d3 fa bd 86 09 a0 3d 05 eb ec bd
       -0.098638795 -0.12247433 0.078143165 -0.11568264
000040 8a f1 fb bd 95 44 b0 3d 6f 34 6a 3d 19 ee db bc
       -0.12301929 0.08606831 0.05717891 -0.026846932
000050 1b d4 2c bd 4b 70 43 bd 68 b8 5a 3d f9 59 46 bd
       -0.042194467 -0.047714513 0.05339852 -0.04842565
000060 9e 5d 79 bc a8 bf 69 3d d2 31 ae bd 79 d0 ad 3c
       -0.015220074 0.057067543 -0.08505596 0.021217572
000070 b7 db ae 3c 57 33 2a bd 78 1f 2e bd 5b 0a 2b 3c
       0.021345003 -0.041552868 -0.04251048 0.010439481
000080 f5 d9 a4 3d b1 3f 82 bd 18 b8 17 bd d9 10 14 bc
       0.080493845 -0.063598044 -0.0370408 -0.00903722
000090 a8 90 3d bd db be f5 3c 5d 01 2c bd 75 84 56 bd
       -0.046280533 0.029998234 -0.041993488 -0.052372415
0000a0 98 cf 84 bd 69 a3 92 bd 22 c4 ab bc 23 37 8e bc
       -0.06484908 -0.07160074 -0.020967547 -0.017360276
0000b0 67 d0 59 bd 6b 72 5d 3d 7f d4 e4 3c 43 2d c6 bc
       -0.053177264 0.054064196 0.027933357 -0.024191504
0000c0 fe 80 b4 bd d2 f1 39 3d b3 14 9a 3c 40 ec 83 3c
       -0.08813666 0.045396633 0.018808698 0.016103864
0000d0 ac dc e4 ba b0 eb a8 b7 9d a4 e4 bb 22 7f 42 bd
       -0.0017460785 -2.0136911e-05 -0.0069776312 -0.047484525
0000e0 18 59 1f 3c a0 a4 05 3d 59 59 bc 3c 99 ee 18 bd
       0.009725831 0.0326277 0.022991823 -0.03733692
0000f0 a6 aa ba bc c1 01 97 bc bf a7 d9 3c 83 03 fa 3c
       -0.02278645 -0.018433454 0.026569245 0.030519253
000100 73 dd b6 bd 8c 47 5a bd 5e 58 c8 3c 84 6d eb bd
       -0.08928957 -0.05329089 0.0244562 -0.11495498
000110 22 9c ab bd ee 67 37 3d 19 29 c7 bd 55 32 83 3d
       -0.08379389 0.04477685 -0.09724636 0.064060844
000120 5e d3 cd bc 02 b7 ab 3d 61 b5 a2 3c 79 c2 9c 3c
       -0.025125202 0.08384515 0.019861879 0.0191357
000130 64 18 ac bc 29 7f 06 bb af b7 7e 3c 08 76 0d bd
       -0.021007724 -0.002052257 0.015546723 -0.03453639
000140 91 3e 84 3c 7d 7b 61 bd dc 81 a0 bc 0d a5 82 bd
       0.016143115 -0.05504941 -0.019593172 -0.06379137
000150 42 db 0f 3d ec 94 16 bd 3a e4 f6 bc be 20 24 3d
       0.03512121 -0.036763117 -0.030138124 0.040070288
000160 5e 20 ad 3c f6 a6 34 bc 43 aa d5 bc f6 f5 a6 bd
       0.021133598 -0.011026135 -0.026082164 -0.08152382
000170 f7 11 b4 3c 88 db 9e bc fc 50 b0 bd e7 0e cb 3c
       0.021981223 -0.01939179 -0.086091965 0.02478738
000180 40 d6 9f 3d 01 31 17 3d a1 a7 a6 3d 90 13 31 38
       0.07804537 0.03691197 0.081374414 4.2218307e-05
000190 36 69 fe 3c 69 06 81 3d c0 34 39 bd 91 2f 23 bd
       0.031056028 0.06300051 -0.045216322 -0.039840285
0001a0 79 8e 9e 3d 2f 3a 2c 3c 64 55 4c 3c 8b 9e 8b 3d
       0.07742018 0.010511919 0.012471531 0.06817349
0001b0 25 b4 86 bb fb 07 98 3d 5c 59 64 bd 09 c1 84 3d
       -0.0041108304 0.07423397 -0.055749282 0.06482131
0001c0 1c 4b c2 bc bc cd 3c bd 05 cf 0b 3e 70 bc 31 3d
       -0.023717456 -0.04609464 0.1365319 0.0433926
0001d0 58 75 fb bd 03 f2 25 be 66 5f 87 3d 0e f2 8a 3d
       -0.12278241 -0.16205601 0.06609993 0.067844495
0001e0 b0 74 88 bd d1 b4 e4 bd 46 8a 48 3e 36 09 c0 bc
       -0.066628814 -0.111673005 0.19583997 -0.023441892
0001f0 bc a7 69 bd e4 0e 09 3d 60 db 51 bc 30 53 a1 3d
       -0.05704473 0.033461466 -0.012808651 0.07877195
000200 8a 3a eb bd f9 e5 a7 bd 36 c9 29 3c 6a 48 5d 3b
       -0.11485775 -0.08198161 0.010362914 0.0033765086
000210 90 c9 a3 bd c3 e4 83 bd 1e 51 88 3c 5e 06 4f bd
       -0.07997429 -0.06440117 0.016640242 -0.05054318
000220 5f c9 45 bd 91 9c 08 3d e0 bd ce ba 30 fd 71 bd
       -0.048287746 0.03335244 -0.001577314 -0.05907935
000230 40 85 e4 3b 98 e2 b8 3a 11 7d 05 bd 0a 20 94 bd
       0.0069738925 0.0014105616 -0.032589976 -0.072326735
000240 2d 31 fe bc 6d 26 c8 bd a6 df e4 bc 6c 3f 54 bb
       -0.031029308 -0.09772954 -0.027938675 -0.0032386435
000250 de 87 82 3d b6 f9 86 bd 6c 6b 68 bd f1 0f 67 3d
       0.06373571 -0.06590597 -0.05674307 0.056411687
000260 3e 71 e7 bb c5 85 7b 3d cd 1d 01 bd 90 58 4d bd
       -0.00706306 0.06140687 -0.03152256 -0.050133288
000270 14 c1 b6 bc 37 6b 73 3d 09 8d 5c bc 97 4f b0 3c
       -0.022308864 0.05942842 -0.01346136 0.021522326
000280 5f 31 54 bd 7e 13 7f bb f3 a0 08 3d 26 55 09 ba
       -0.051804896 -0.003892153 0.033356618 -0.00052388234
000290 c0 c0 30 3d ee f8 17 bd a8 cd ba bc 1e 9d cb 3c
       0.04315257 -0.037102632 -0.022803143 0.024855193
0002a0 5d 5a 1b 3d 48 07 1f bc 07 7d b2 3c 80 33 aa bc
       0.037927974 -0.009706326 0.021788133 -0.02077651
0002b0 b1 4a b1 3b 84 66 89 3c 8e f5 07 bd fe b5 6a 3d
       0.0054105152 0.016772516 -0.033193164 0.057302468
0002c0 42 69 aa 3c 18 e5 1d 3d 4f bb 98 3c 04 c1 71 bd
       0.020802144 0.03854856 0.018644003 -0.059021965
0002d0 c0 ea 44 3d a1 58 91 bc 9b 70 b6 3c 61 38 08 bd
       0.048075438 -0.017742457 0.022270491 -0.033256892
0002e0 ae 82 92 bc 2f 17 43 bc e3 9d 1b bd d3 8a 10 bd
       -0.017884579 -0.011907383 -0.03799237 -0.035288643
0002f0 cc 8a f2 bd 2c 3a c0 bd 1b 53 69 bd fc 73 ba 3d
       -0.1184288 -0.093860954 -0.05696402 0.091041535
000300 e5 91 20 be 52 f5 14 be 7d 11 1c 3e dc 3d 2f be
       -0.15680654 -0.14546707 0.15241046 -0.17113441
000310 fc f9 31 be db 7b ee 3d 15 00 1e bd 01 e0 fd 3c
       -0.17380518 0.11644717 -0.038574297 0.030990602
000320 a6 91 24 3d 5d 6f 66 bc fb 64 9e bc 4b 79 87 b9
       0.040177964 -0.014064637 -0.01933526 -0.00025839577
000330 b3 94 f0 bc cc 13 49 bb 3c 1c a7 bd 6a 60 d1 bc
       -0.02936778 -0.0030681966 -0.08159682 -0.02555867
000340 f3 36 22 3b 4b ea a0 3c a7 ca 12 3d a6 33 5e 3d
       0.002475199 0.01964297 0.035837796 0.054248475
000350 d8 3b a1 ba 90 5d 15 bd 38 82 a4 3b 05 8c 8c 3c
       -0.001230116 -0.03646618 0.005020406 0.01715661
000360 5b ca bf bc ba 93 e9 3c 1b 4a 0b bd 08 36 d9 3c
       -0.02341192 0.028512824 -0.03400622 0.026515022
000370 5e 34 28 3d 5c 15 a7 3c 03 31 15 bd ea a6 1f 3c
       0.041065566 0.020395927 -0.036423694 0.009744385
000380 de 58 12 3d f5 ea 84 3b 72 c5 24 bd 63 8b 17 bd
       0.03572928 0.0040563294 -0.04022736 -0.036998164
000390 69 c3 36 bd 8d 08 52 bd dc cd c4 bc ac 82 62 bd
       -0.04461995 -0.051277686 -0.024023943 -0.0553004
0003a0 eb e3 73 bc 8c be 82 3c 62 28 ba bc 4e ac 1f bd
       -0.014885883 0.01596 -0.022724334 -0.038982682
0003b0 b1 fb a2 3d 66 7c 80 3d 44 67 0b 3d c5 4d 52 3d
       0.079581626 0.06273727 0.03403403 0.051343698
0003c0 a9 c7 31 3c 95 66 a8 bc 8f f5 21 3d ec 0d 09 be
       0.010850825 -0.020556727 0.039540824 -0.13384217
0003d0 3f f7 16 be 72 12 05 bd de 9f b1 bd 1f 12 3c be
       -0.14742754 -0.032488294 -0.0867307 -0.18366288
0003e0 76 52 06 bd 02 55 e1 bd 27 00 55 be 9a a7 7d 3c
       -0.032793485 -0.11002542 -0.2080084 0.015481854
0003f0 79 d7 5b 3d 16 28 47 3d 23 16 8b bd 73 66 5d 3d
       0.053672288 0.048622213 -0.067913316 0.05405278

res_blocks.0.conv1.bias f4 [32]
000000 65 bf 3b bd bf 81 f3 bc 75 db 81 3d 03 a5 81 bd
       -0.045836825 -0.029724954 0.06340686 -0.063303016
000010 90 7d e7 3c 7d 77 9b 3c 9a a3 4d 3c 41 c0 89 bd
       0.028258115 0.018977875 0.012551213 -0.06726123
000020 1b 74 92 3c 96 70 34 bd 7d 69 56 bd 90 eb b7 bc
       0.017877629 -0.044052683 -0.052346695 -0.022451192
000030 8d ad 1f 3d 22 0d 03 bd fb d5 50 3d dc c7 ab 3c
       0.03898387 -0.031994946 0.050985318 0.020969324
000040 00 12 08 3c ef 8b 10 bd f8 4b 3c bd 43 5f d5 bc
       0.008305073 -0.0352897 -0.045970887 -0.0260464
000050 21 d3 ce 3c b8 f1 2a bd d9 b4 1b 3d 2b b2 45 bd
       0.025247158 -0.041734427 0.038014267 -0.048265617
000060 ae 86 c9 3c a3 17 66 3d 69 01 06 3d 94 3f 3f bd
       0.024600353 0.056174885 0.03271619 -0.046691492
000070 fc e1 f4 bb 8f 6a 2e 3d ae 74 03 bd 97 42 b7 3c
       -0.0074732285 0.04258209 -0.032093696 0.02237062

res_blocks.0.batchnorm1.weight f4 [32]
000000 b9 42 98 3f 3b 1d 87 3f d2 8c 87 3f 5d 02 96 3f
       1.1895362 1.0555795 1.058985 1.1719471
000010 04 e1 82 3f 10 cb 8d 3f 00 a1 49 3f 81 75 91 3f
       1.0224919 1.1077595 0.7876129 1.1363984
000020 43 15 7e 3f e2 c6 66 3f cf 96 69 3f 83 87 62 3f
       0.9925119 0.9014722 0.9124574 0.88488024
000030 54 8e 91 3f 72 fd 80 3f fe 6d 87 3f 58 97 78 3f
       1.137156 1.0077345 1.0580442 0.9710593
000040 02 79 81 3f a0 be a4 3f a5 a8 84 3f 23 2b 84 3f
       1.0115054 1.2870674 1.0363966 1.0325664
000050 32 b9 82 3f 70 d6 95 3f 63 e1 4f 3f 72 16 65 3f
       1.0212767 1.1706066 0.8120329 0.89487374
000060 34 4d 8e 3f dc 3a 94 3f 5d 33 81 3f 18 8c 88 3f
       1.111731 1.1580462 1.00938 1.0667753
000070 63 6c 80 3f c7 46 8e 3f 53 fb 69 3f db 86 94 3f
       1.0033077 1.111535 0.91399115 1.1603655

res_blocks.0.batchnorm1.bias f4 [32]
000000 76 9a 54 3e 89 20 d4 3d 7e 0e a4 3d ba 31 1b 3e
       0.20762047 0.10357768 0.08010577 0.15155688
000010 6a a3 fd 3c 41 97 f3 3d f3 b5 50 3d db ab 1d 3e
       0.030961711 0.11894084 0.05095477 0.15397589
000020 db af e5 3a 62 de 88 b9 5d b2 01 3e 3b 1c d8 3d
       0.0017523722 -0.0002610563 0.12665696 0.105522595
000030 37 bc d2 3d 89 66 9c 3d 6d 8c 04 3e 49 c7 0a 3e
       0.102898054 0.076367445 0.12944193 0.13552584
000040 7c 2b ad 3d a8 73 60 3e b4 45 b4 3d 9b 52 89 3d
       0.084555596 0.2191912 0.08802357 0.06705209
000050 1c ab a2 3d d6 7d 0c 3e 92 cc 1f 3d 10 fb 8d bc
       0.07942793 0.13719878 0.039013453 -0.01733163
000060 45 8f e0 3d 69 5a e5 3d 88 91 31 3d 64 e9 86 3d
       0.109648265 0.11198885 0.04335168 0.065874845
000070 b3 c1 68 3d 22 8f ef 3d 9f a6 c0 3d a7 31 d8 3d
       0.05682535 0.11697222 0.094067805 0.105563454

res_blocks.0.batchnorm1.running_mean f4 [32]
000000 17 fa 09 bf b9 37 68 be df f2 8b bf 5c 8d 4c bf
       -0.5389723 -0.22677507 -1.0933493 -0.799032
000010 a4 ed 58 bf b2 50 99 3d d0 92 36 3f b1 51 fe be
       -0.8473761 0.074860945 0.7131777 -0.496717
000020 47 aa 37 3d 39 7e b8 3e e0 e3 34 bf 21 21 28 be
       0.044840124 0.360338 -0.7066021 -0.16418888
000030 9c 4c 2e 3e 7c 93 40 bf b7 ef ed be 46 f9 8a be
       0.17021412 -0.75225043 -0.4647195 -0.27143306
000040 61 4e 4d bf 9a a3 2a be 97 cf 99 bf 0e 74 86 bf
       -0.8019772 -0.16663972 -1.2016476 -1.0504167
000050 b8 f6 78 bf b9 26 d6 be ed d5 4a bf 6f 2f 21 bf
       -0.9725146 -0.41826418 -0.79232675 -0.62963
000060 da 5b a0 be f2 d0 5a be 5f f0 b6 be 27 18 23 3e
       -0.31320077 -0.21368769 -0.35730264 0.15927182
000070 1d 66 14 bf 8c 7c 47 be 27 40 50 bf 79 14 53 3e
       -0.5796831 -0.19481105 -0.8134789 0.20613278

res_blocks.0.batchnorm1.running_var f4 [32]
000000 1b 15 ea 3e 71 d8 cd 3f 60 df c6 3e c3 25 94 3f
       0.45719227 1.6081678 0.38842297 1.1574024
000010 3e 62 b8 3f 22 2a 43 3f bb 8b 2c 3f 0b 64 a6 3f
       1.4404981 0.76236165 0.6740071 1.2999281
000020 32 5b bb 3e af 62 21 3f 4b ba 43 3f ce 49 96 3f
       0.36593014 0.63041204 0.76456136 1.1741273
000030 58 0b 4b 3f 3e 5d 08 3f 47 73 12 3f 62 17 c5 3e
       0.79314184 0.53267276 0.5720715 0.38494402
000040 96 f7 12 3f bf c3 60 3f cc 98 da 3f 37 6e c9 3e
       0.57409036 0.87798685 1.707788 0.393419
000050 28 6d 06 3f cd 60 31 3f 74 a4 c3 3f 54 75 d3 3f
       0.5251031 0.6928833 1.5284562 1.6520181
000060 03 87 20 3f f7 72 16 3f 82 a6 3b 3f dd 04 8b 3f
       0.6270601 0.5876917 0.73300946 1.0860859
000070 b5 3a 48 3f 44 c1 77 3f f6 2d 28 3f 42 4a 14 3f
       0.7821458 0.96779275 0.6569513 0.5792581

res_blocks.0.conv2.weight f4 [32, 32, 3, 3]
000000 c3 b7 14 bd a3 0f 2b 3d 08 62 2b bd bf fe 58 3d
       -0.03630806 0.04176296 -0.041841537 0.05297732
000010 fe b4 54 bd 37 f0 df bc 37 50 58 3d a9 3d 6b bb
       -0.05193042 -0.027336223 0.052810874 -0.0035894907
000020 91 38 17 3d b1 ca 68 bb ec 1f 7f bc 21 f2 55 3c
       0.03691918 -0.0035521204 -0.015571576 0.013058216
000030 b5 b4 44 bc 4a 86 0a 3d 9c 58 00 bd e2 ca 5f bd
       -0.012005975 0.033819474 -0.031334504 -0.054636844
000040 3e 94 29 bd 93 bc 8d bd 65 dd 5e 3d 9b 6b 8a 3d
       -0.04140114 -0.06920733 0.054410357 0.06758805
000050 33 a1 b1 3d 0c 87 11 3d a5 7c 04 bd f5 21 69 bc
       0.086733244 0.03552918 -0.032345433 -0.014229287
000060 5f bc 9f 3c 5f c6 0c 3e d8 04 00 3e 5b f4 33 bd
       0.019499002 0.13747548 0.12501848 -0.043934207
000070 54 7e c6 bc a6 6b aa 3d 10 30 93 bd 15 7a 96 bd
       -0.02423016 0.083213136 -0.071869016 -0.07347504
000080 3d 25 5b bd fe 60 65 bd cd 25 74 bc 01 42 3f 3d
       -0.05350231 -0.056000702 -0.0149015905 0.046693806
000090 02 06 ce bc 30 57 2d 3c 13 e1 c2 3a 7a c4 00 bd
       -0.02514935 0.010579869 0.0014868103 -0.031437375
0000a0 c2 cb 0d 3d 0d 64 3a 3d 34 1d 54 3d 78 03 a5 bc
       0.034618147 0.045505572 0.051785663 -0.020143256
0000b0 d1 43 12 bd 85 fb 7e 3c 62 2a 49 3d 39 7f e2 bb
       -0.035709206 0.015562897 0.049112685 -0.006912139
0000c0 33 85 40 bd 53 25 14 bd 92 38 07 be 27 cc db bc
       -0.04700203 -0.036168408 -0.13205174 -0.026830746
0000d0 4a 7c f9 bd 4d 68 49 bd fa c0 89 bc dc fa 8c 3c
       -0.121819094 -0.049171735 -0.016815651 0.017209463
0000e0 18 d6 e2 3b 9e b6 a7 bd fe 7b 39 bd c1 47 b8 bd
       0.0069224946 -0.08189128 -0.045284264 -0.08998061
0000f0 d9 99 88 bd 50 6e 8a 3d 33 e6 18 bc 70 b9 07 3d
       -0.06669969 0.06759322 -0.0093322275 0.03313583
000100 a1 b7 fc 3c db 15 43 bd 41 9f 07 3d 73 cd 9d bc
       0.03084928 -0.047628265 0.03311086 -0.019263005
000110 28 0d c7 bd 65 a9 b8 bd cb 51 e5 bd 25 83 42 bd
       -0.09719306 -0.090166844 -0.111972414 -0.04748835
000120 53 bf 3a ba 99 ad 56 b9 86 cf 5b bd 5a 3c 56 3c
       -0.00071238464 -0.000204733 -0.053664707 0.013075912
000130 2e ce cb 3c da a4 ca bc 90 4b 44 3d 99 ee b4 bc
       0.024878588 -0.02473681 0.047923625 -0.022086428
000140 bb d2 65 bd 5d f5 f1 3b e1 95 9f bd 41 58 81 bd
       -0.05610917 0.007383986 -0.07792259 -0.06315661
000150 2d d8 59 bd 4e a2 72 bd 34 ab 46 bd 33 22 6d bd
       -0.053184677 -0.059236817 -0.048503116 -0.057893943
000160 aa 7e f6 bc 7a 38 cb 3c 95 01 3a 3c aa 1e 19 bd
       -0.030089695 0.024807204 0.011352916 -0.03738276
000170 d4 fb 16 3c da ca 78 bd 30 fa 9f 3c dd 3b 32 3c
       0.009215314 -0.06074033 0.019528478 0.01087853
000180 ae 07 27 bc 54 27 1e bd 51 08 43 bd 8f 75 34 3d
       -0.010194702 -0.038611725 -0.047615353 0.044057425
000190 c4 ce f9 bc 7d b2 0a 3d ee c0 db 3d 8a 31 75 bc
       -0.030494101 0.033861626 0.10730158 -0.014965424
0001a0 b3 86 8b 3d 31 65 c2 3d b3 3d 42 bd 40 d2 2a bc
       0.06812801 0.09491957 -0.047422122 -0.010426104
0001b0 5a fe 5c 3d cb b5 fb 3c c7 6c 5a 3d 6a c3 b4 bc
       0.053953506 0.030726334 0.053326394 -0.022065837
0001c0 a9 10 82 bd 30 a6 4a bc 01 65 a0 bd 8a 68 42 bd
       -0.06350834 -0.012368724 -0.07831765 -0.047462977
0001d0 5d c5 96 bd 75 b3 19 3c e4 05 4a bd 1b c6 3e 3d
       -0.07361863 0.009381165 -0.049322024 0.046575647
0001e0 83 1a 9e bb 45 54 42 bc c7 d8 b4 3d bc 97 a2 3c
       -0.004824938 -0.011860912 0.088304095 0.019847743
0001f0 45 d4 70 3c 8d cd 1e 3c 3c 05 0b bd 48 78 42 bd
       0.0146990465 0.009692562 -0.03394054 -0.04747799
000200 4a 9a a4 bb a9 50 83 3c 16 21 50 bc 45 ae cc bc
       -0.0050232755 0.016029673 -0.012703201 -0.024985442
000210 62 83 66 bd b2 2c 52 3d 98 2b fb 3c 6e 92 e5 3c
       -0.05627764 0.051312156 0.030660436 0.028023925
000220 1b 4d b6 3c d7 66 54 3d ca a0 85 3d eb 50 0d 3d
       0.022253564 0.05185589 0.06524809 0.034500998
000230 37 8b 9b 3c ac a7 60 bd 70 b0 4a 3b e4 48 31 3d
       0.018987281 -0.054847404 0.003092792 0.043282405
000240 06 62 c5 3b 0b c1 c2 bc ba 1e 20 3c 83 9f 74 bc
       0.006023648 -0.02377369 0.009772951 -0.014930609
000250 1f c9 41 bd 4d e7 2f bd 86 32 b3 bc 3c 1b 92 3d
       -0.047310945 -0.042945195 -0.021874677 0.07134101
000260 ee 0e 32 3d eb 7e 97 bb 06 d9 37 bd 5d 3c 51 3d
       0.04347127 -0.004623284 -0.044884704 0.051082958
000270 a1 b4 ec 3c db 83 c5 3c 3f 1e 11 bd a6 4c 1a bd
       0.028894724 0.024110725 -0.035429236 -0.037670754
000280 06 ec 4f bd d0 07 35 bd 04 b2 5c bc d8 44 58 3d
       -0.0507622 -0.044196904 -0.013470177 0.05280003
000290 92 8f 63 3d e0 4e 07 bd 8d b7 65 3d 8b b6 8b 3d
       0.05555684 -0.033034205 0.05608325 0.06821927
0002a0 70 72 62 bc 43 ca 77 3d 2e 02 18 3d 4d 42 48 3c
       -0.013821229 0.060495626 0.037111454 0.012222839
0002b0 06 7d a3 3c 5b b5 e4 3d 2c 6a 60 3d 0b d7 a3 3d
       0.019957077 0.11167403 0.054788753 0.080000006
0002c0 1f 6b 0f bc c1 b7 e9 3d 33 36 94 3d f0 3d d4 3d
       -0.008753567 0.114120014 0.072369 0.10363376
0002d0 4b 87 a1 3c ef 11 fd bb 4c 87 26 3d 2c d0 93 3d
       0.019717833 -0.007723085 0.040656373 0.0721744
0002e0 75 61 ba 3d 5c 02 1c 3d 9c 88 1f bd 11 f3 0b bc
       0.0910062 0.038088188 -0.03894864 -0.008541838
0002f0 0e 67 63 3d aa 1d 65 bd ce 15 a1 3d 64 d9 52 bc
       0.055518202 -0.055936493 0.07865487 -0.012869213
000300 37 b6 7e bd 3c 47 52 bd 33 99 72 bc 99 30 56 3d
       -0.062185492 -0.051337466 -0.014807033 0.05229244
000310 f2 76 97 ba 05 69 35 3a 33 1a 37 bd de 66 15 3d
       -0.0011555834 0.0006920251 -0.04470272 0.036475055
000320 8c 56 48 bc 87 e6 3a bc f0 a2 d5 bc d3 b7 32 3b
       -0.012227666 -0.011407501 -0.026078671 0.0027270212
000330 99 af bd 3c 1f 87 8d 3d 8e 4f 9a 3c f8 33 83 3c
       0.02315502 0.06910538 0.018836763 0.016015992
000340 5d 3e c7 3c 9d e3 02 3d 20 82 31 3b fa 63 96 bd
       0.02432173 0.03195535 0.0027085617 -0.07343288
000350 e8 f8 2f bd 3c e5 00 bd b5 c2 7f bd 02 cf a7 bc
       -0.042961985 -0.031468615 -0.062441546 -0.020484451
000360 7e 8e d8 ba f1 91 34 3c cf a7 f1 3c 28 eb ca bc
       -0.0016521958 0.011021123 0.029498963 -0.024770334
000370 46 5b 12 3d 52 c4 b0 bc 9a e6 ad bc aa a6 18 3c
       0.035731576 -0.021577988 -0.021228123 0.00931708
000380 6a 82 2d 3d 2c ff 83 bd bf 03 d1 bd 4f 1b 98 bd
       0.0423607 -0.064451545 -0.10205793 -0.07427084
000390 d1 25 19 bc 4b 81 2a be 56 ef 42 be bb d9 8a bd
       -0.009347395 -0.16650884 -0.19036612 -0.0677981
0003a0 c5 25 8f bd d4 ce 0e bd 2e fd 2a bd a9 1d 1d 3d
       -0.06989626 -0.034865215 -0.041745357 0.038358364
0003b0 98 5b 8b 3c f9 5a 77 bc 78 71 e9 3c 89 23 fa bb
       0.017011449 -0.015097373 0.028496489 -0.0076336307
0003c0 9a bb 3c bc d3 c1 48 bd 8e 7c 2d bd 91 b6 28 3c
       -0.011519337 -0.04901297 -0.042355113 0.0102974335
0003d0 51 51 0d 3d 9f c3 67 bd 33 b5 81 bc 44 af 95 bc
       0.034501377 -0.056583043 -0.015833473 -0.01827205
0003e0 a9 d9 8a bc 02 8e 28 3c b8 1a 9e bd e3 c6 54 bd
       -0.016949492 0.010287764 -0.0771994 -0.051947486
0003f0 16 ea 56 bd e5 89 89 3b ea 45 f9 bc 3f 41 9a 3d
       -0.052469335 0.0041973465 -0.030428845 0.07531976

res_blocks.0.conv2.bias f4 [32]
000000 55 c2 52 bd 7a 50 01 3d 95 35 0f bc 48 db 4d 3c
       -0.05145486 0.03157089 -0.008740802 0.012564488
000010 1c 94 35 3d 3e 00 a1 bc 81 2d 33 3d 4f d9 f3 3c
       0.0443307 -0.019653436 0.043744568 0.029766707
000020 cc 77 72 bd 32 8d a4 bc 9b 44 e9 ba 3a 55 aa 3c
       -0.05919628 -0.020086858 -0.0017796935 0.020792592
000030 5e ed 91 3c 21 fa b2 3c 87 17 f2 bb 91 8d df bc
       0.01781338 0.021847786 -0.0073880586 -0.027289184
000040 1e 28 ab 3c 52 2e 27 3d 07 ff 79 3d 1f 04 f3 bb
       0.020893153 0.04081566 0.06103423 -0.0074162628
000050 ed f0 8b bc f2 18 f8 3b cb 5c f9 3c b7 9c 1f bc
       -0.017082656 0.007571333 0.030439755 -0.009741954
000060 6c f3 37 bd 26 7d 72 3d d2 8c ac bb 8a e6 31 3d
       -0.04490988 0.059201382 -0.0052658105 0.04343275
000070 98 a5 a9 bb d6 f9 65 3d 2e f8 36 3d 03 d8 fe 3b
       -0.005177211 0.056146465 0.044670276 0.0077772154

res_blocks.0.batchnorm2.weight f4 [32]
000000 17 7c 8a 3f 41 6b 8f 3f 85 5a 84 3f 0b 55 6a 3f
       1.0819119 1.1204606 1.0340124 0.91536015
000010 50 e1 7f 3f b0 88 a0 3f 35 0f 8b 3f d9 f0 92 3f
       0.99953175 1.2541714 1.0864016 1.1479751
000020 3e 55 93 3f 60 83 86 3f a8 da 80 3f 18 73 72 3f
       1.1510389 1.0508842 1.0066729 0.9470687
000030 51 05 91 3f 0a 3b 89 3f 86 e1 84 3f 68 a5 7f 3f
       1.1329747 1.0721142 1.0381324 0.99861765
000040 01 e6 8c 3f d7 bf 83 3f 20 39 8a 3f 24 53 85 3f
       1.1007692 1.029292 1.0798683 1.0415998
000050 c8 ff 8e 3f a2 aa 90 3f 89 1c 8d 3f 66 db 83 3f
       1.1171808 1.1302073 1.1024333 1.030133
000060 dc ed 88 3f c7 c3 80 3f 06 db 77 3f 93 5f 75 3f
       1.0697589 1.0059747 0.9681858 0.9584896
000070 00 90 88 3f 7b df 96 3f d1 78 89 3f 19 06 88 3f
       1.0668945 1.1786951 1.0739995 1.0626861

res_blocks.0.batchnorm2.bias f4 [32]
000000 21 8e 2a 3d 2d 80 ec 3d 3d 48 b0 3c c3 a5 a7 bd
       0.04163945 0.11547885 0.02151882 -0.081859134
000010 de 98 50 bd 65 d4 af 3d e3 ef 45 3d cf d8 22 3e
       -0.050927036 0.08585433 0.048324477 0.15903018
000020 87 04 87 3d fb 0d b7 3c b7 45 92 3d a7 15 21 bd
       0.065926604 0.022345534 0.07142203 -0.03932729
000030 1f 3d 0d 3e a7 40 d3 3d a2 5f d7 3b c8 3c 2c bd
       0.13792847 0.10315066 0.0065726796 -0.042050153
000040 5e a4 08 3e 1d 81 01 3d 07 1a 45 3d f5 64 b7 bc
       0.13343951 0.031617273 0.048120525 -0.022387007
000050 12 3d ba 3d 3c 53 f8 3d df f6 a9 3d 4c 25 12 3d
       0.090936795 0.12125251 0.0829904 0.0356801
000060 ea 18 0b 3d 0b 24 0b bc c3 6d e7 ba c7 46 d6 bd
       0.033959307 -0.00849248 -0.0017656613 -0.104627185
000070 44 2c ed 3d eb b5 09 3e 24 86 ed 3d 31 ed 11 3d
       0.115807086 0.13448302 0.11597851 0.035626594

res_blocks.0.batchnorm2.running_mean f4 [32]
000000 f0 68 bc be 03 ef 3a bf 23 a6 19 3e 67 3e eb bd
       -0.3679881 -0.7302095 0.15004782 -0.11486512
000010 79 aa c2 bf b0 eb 94 bf 4f 2c 90 bf 2d 3a 82 3d
       -1.5208274 -1.1634426 -1.1263522 0.063587524
000020 3e e9 99 bf fe 9c 46 bf 22 e3 ca be ad 0c 8e bf
       -1.2024305 -0.775833 -0.39626414 -1.1097618
000030 f5 e5 5e bf 37 ca 0e be 3f 60 db be 2a cd a7 bf
       -0.87069637 -0.13944326 -0.42846867 -1.3109486
000040 5a c1 d5 be 1c 74 53 bf 4b 4e 98 be 28 a1 02 c0
       -0.41749078 -0.82599044 -0.29747233 -2.0410862
000050 26 80 0e be 86 22 8d bf 1f 7f ac bd a8 35 03 bf
       -0.13916072 -1.1026161 -0.08422684 -0.5125375
000060 b8 bd d1 bd 5a 8c 4f bf a4 ea 4e bf 51 08 9a 3d
       -0.10241264 -0.81073534 -0.80826783 0.075211175
000070 1f 2c d0 3f fe 62 31 bd ce ee 69 3f f5 2a 10 bf
       1.6263465 -0.043307297 0.9138001 -0.5631555

res_blocks.0.batchnorm2.running_var f4 [32]
000000 d8 ca bf 3e 4b f9 f2 3e a8 50 9d 3d f5 84 31 3f
       0.37459445 0.4745582 0.076813996 0.693435
000010 7e fa 1f 3e 9d ea d5 3d f0 ca 27 3e a0 f6 0b 3e
       0.15622899 0.104451396 0.16386008 0.13668299
000020 2b 18 be 3d 2a 07 43 3e 87 96 5e 3f f7 ba b7 3f
       0.092819534 0.19045702 0.86948436 1.4353932
000030 50 df 32 3e 41 72 29 3e 3a 5a fd 3d d2 f3 99 3d
       0.17468 0.1654749 0.12370725 0.07517208
000040 b2 90 bf 3d b7 19 2c 3e 38 2b 1e 3e 29 b5 87 3e
       0.0935377 0.16806684 0.15446174 0.26505402
000050 1c a5 3a 3e 4d d2 f4 3e 65 05 a9 3f e4 e2 1f 3e
       0.18227047 0.47816697 1.3204771 0.15613896
000060 d3 fd 49 3e 31 07 a9 3d f6 ac 10 3e 45 ba a0 3e
       0.19725733 0.08253325 0.1412848 0.31392112
000070 63 d3 5c 3e b1 93 fb 3d 37 93 51 3e 75 de 3b 3e
       0.21565013 0.12284029 0.20466314 0.1834658

res_blocks.1.conv1.weight f4 [32, 32, 3, 3]
000000 f7 8e c1 3c 83 97 81 3c 14 19 b3 bc f5 75 e2 3c
       0.023627741 0.015819317 -0.021862544 0.027644137
000010 6e d4 8c 3d c8 9a 95 3c 1c 62 18 bd fe 2e d8 bc
       0.06876455 0.018262282 -0.03720294 -0.026389595
000020 73 83 82 bc a7 92 a8 3c 24 7c 78 3d a0 7d 0b 3d
       -0.01593182 0.020577742 0.060665265 0.034055352
000030 00 f4 58 bc 28 9a 87 3c 62 eb 98 3c 99 72 8a bd
       -0.013241768 0.016553 0.018666927 -0.06760139
000040 44 4d a3 bc fa d3 26 bd 4b 0d 76 bb e0 49 9f bd
       -0.019934304 -0.0407295 -0.0037544544 -0.077777624
000050 b6 46 89 bd ec da 9f bd da 81 7a bd 50 6a 74 bd
       -0.0670294 -0.07805428 -0.061158992 -0.0596717
000060 f9 00 0a bd bc a4 fb 3b 3e 07 80 bb f5 61 73 bd
       -0.033692334 0.00767955 -0.0039071133 -0.05941959
000070 83 33 dc bc 4b 0b 83 bc ae 88 b1 bb 47 d9 3a bd
       -0.026880031 -0.015996596 -0.005417905 -0.045617368
000080 67 3e af bd 52 2e e2 bb 31 55 9e bd 49 6e 9d bd
       -0.08556824 -0.0069024945 -0.07731093 -0.07687051
000090 0c 13 49 3d db 60 71 bd d6 1b 00 3d ac ac 1e bc
       0.04909043 -0.05893026 0.031276546 -0.009684723
0000a0 f5 e8 c8 bc b0 3a 08 bc a2 d9 cf bd d8 7a 35 bc
       -0.024525145 -0.008314773 -0.10148932 -0.0110766515
0000b0 35 bd 86 bc 7d ce fa 3c fb a7 27 3d 58 4a bd bd
       -0.016447643 0.03061604 0.040931683 -0.092426956
0000c0 d5 e8 60 3b 7f f8 2e bd 5f 0b 43 bd 63 5b 1f 3d
       0.0034318466 -0.042717453 -0.047618266 0.038905513
0000d0 e4 73 c9 bc e0 dd 32 bd d4 29 12 3d b9 ef e5 3c
       -0.024591394 -0.043668628 0.03568442 0.02806841
0000e0 09 42 19 3d eb b8 a0 3d f2 b8 b0 3d d2 ed 88 3d
       0.03741649 0.0784777 0.086290255 0.066859856
0000f0 86 80 84 3c 39 9e ce 3c a4 2a 05 3d cc 5a aa bd
       0.016174566 0.02522193 0.03251137 -0.083180994
000100 6c 1b e3 bd 6f 8e 06 be 42 f9 1f be 08 60 fc bd
       -0.11089215 -0.13140272 -0.15622428 -0.12323004
000110 92 f9 c8 bd 8e d3 96 bd 40 9f 92 bd a3 8a 97 bd
       -0.09813227 -0.073645696 -0.07159281 -0.0739949
000120 8c b6 79 bd d8 aa 61 3c c5 18 ca bc 3c cc 2f bc
       -0.060965106 0.0137736425 -0.024670014 -0.010729846
000130 47 4a 0d 3b 68 9b 0e bd d6 0d 8d bd 7b 41 84 3b
       0.0021559165 -0.034816176 -0.068874046 0.004036126
000140 76 e6 1a bd 38 ab 1a 3d 81 f5 58 3c 76 82 9b bb
       -0.03781744 0.037760943 0.013242126 -0.0047457768
000150 08 c5 4f bc a1 24 c2 38 42 83 f9 3c 1a 81 ab bd
       -0.012681253 9.2574635e-05 0.030458096 -0.083742335
000160 75 f4 1b 3c f8 a3 96 bd 9b 42 a6 bd 92 1f be bd
       0.009518732 -0.07355493 -0.08118173 -0.09283365
000170 0b 15 03 bd db 2c b6 bc 9a de 6b bc f8 1d cb bd
       -0.03200249 -0.022238186 -0.014396334 -0.099178255
000180 18 b2 87 bd 75 0b 97 bc 5f e8 b4 bd 03 db 44 bd
       -0.066257656 -0.01843808 -0.08833384 -0.04806043
000190 07 78 8f bb 3b e8 25 bd 9d 72 08 bc 50 0e 55 bd
       -0.004378322 -0.040504675 -0.008328107 -0.052015603
0001a0 7d 67 89 3b d7 57 d1 bd 64 f7 ae bd 96 6a b5 bc
       0.004193245 -0.10221832 -0.0854328 -0.02214555
0001b0 1c 2d 21 bc 9b 6a 5b 3b 4e d7 f0 bc cf a4 01 bd
       -0.009837415 0.003348029 -0.02939954 -0.031651314
0001c0 08 b5 08 bd a9 d9 08 be 00 29 0f bd d9 c0 de bd
       -0.03337577 -0.13364281 -0.03495121 -0.108766265
0001d0 11 b3 e6 bd 61 eb c7 bc 31 60 1b 3d ba 8f 25 bd
       -0.11264623 -0.02440423 0.037933532 -0.04042027
0001e0 1e db 95 3d 51 93 53 3d a3 7f 11 3d cb a5 00 bd
       0.07317184 0.051654164 0.035522114 -0.031408112
0001f0 85 58 2c 3d 2c c0 3c 3d 73 64 1f bd d6 95 ac 3b
       0.042076606 0.046081707 -0.038914155 0.0052668853
000200 06 eb 3f bd 4f 32 05 3d 0b e7 33 bd b9 9e 31 3d
       -0.046854995 0.03251868 -0.04392151 0.04336426
000210 41 64 bc bd 7f cc 18 bd 82 3b a2 bd 8d aa b8 bc
       -0.091988094 -0.037304398 -0.079215065 -0.022542262
000220 42 c4 81 bd 4c 0d 55 3c a4 bf e8 bc 2d 03 d4 bd
       -0.06336261 0.0130036585 -0.028411694 -0.10352168
000230 46 2c 8a bc a5 f8 d8 bd 6a 85 cb bd e0 c3 9e bc
       -0.016866814 -0.105943 -0.09937556 -0.01938051
000240 ab 9c 68 bd cb e2 a9 bd bc 56 d2 3a 59 f1 8d bd
       -0.056790035 -0.082952105 0.0016047577 -0.06930799
000250 9b e6 85 bb 16 ab 36 bd e1 26 42 bb ee d3 60 ba
       -0.004086328 -0.044596754 -0.0029625224 -0.0008576502
000260 61 ca 80 bb c5 5f a6 bd 88 e8 a1 bd 0e 1e 42 bc
       -0.0039303754 -0.08123735 -0.0790568 -0.011847986
000270 b9 ad b4 3c 39 9c ee bb bb 85 cc bd 42 63 1e bc
       0.022055494 -0.007281807 -0.099864446 -0.00966722
000280 72 fd 72 3c ae 87 9d bb 46 f2 55 3d f0 53 13 3c
       0.014830934 -0.004807434 0.052233003 0.00899218
000290 c2 02 b0 bb 46 65 4c 3d 14 d4 23 3d 57 5a 3b 3d
       -0.0053714225 0.04990127 0.039997175 0.04574045
0002a0 f8 38 6c bd 86 f9 b8 bd d4 67 85 bd f7 67 62 bc
       -0.057671517 -0.09031968 -0.06513944 -0.013818732
0002b0 da 63 37 3d 65 d2 7c bd 54 61 92 3c 9e e3 a0 bd
       0.04477296 -0.061724085 0.017868675 -0.078559145
0002c0 cb d4 5d bd 5e c3 e4 bc ae 88 ee bd ba 7d 77 bd
       -0.054158013 -0.02792519 -0.11647163 -0.060422637
0002d0 ea cc 6d bb b8 3f 0c 39 e0 cb 05 bd 6b a2 50 bd
       -0.0036285468 0.00013375178 -0.032665133 -0.050936144
0002e0 a5 0f 30 bc 7b 3d 25 3d b3 85 3e bd 07 08 eb 3a
       -0.010745917 0.040341835 -0.046514224 0.001793147
0002f0 3d 84 13 bd 37 54 62 bd f3 3e 46 3c 16 ae 8b bc
       -0.036014784 -0.055256095 0.012099969 -0.017050784
000300 3b f5 8e bc a5 2e 54 3d 69 6b 24 3c 69 12 dd 3a
       -0.01745092 0.051802296 0.010035374 0.0016866449
000310 ca 96 67 bd dd 2a a2 bb 0f 8e 99 bd f8 ee 0a bd
       -0.056540288 -0.0049489574 -0.07497799 -0.033919305
000320 20 80 63 bd bd d1 14 bd 06 af dc bc 02 7d f9 bc
       -0.05554211 -0.036332835 -0.026938926 -0.030455116
000330 44 94 01 bd 14 ba 88 bd 2e fc 61 bd 08 84 0d 3d
       -0.031635538 -0.066761166 -0.055172138 0.034549743
000340 d4 00 fe bc cd af a3 bd 8a 9f 93 3b 29 59 78 3b
       -0.031006254 -0.07992516 0.0045051025 0.003789494
000350 77 e8 5f bd 07 b6 71 bd 1b cb e8 bc 51 15 40 bb
       -0.054665055 -0.059011485 -0.02841716 -0.002930958
000360 90 f9 2e bd a5 81 fc 3b f9 22 81 bc f1 07 af bc
       -0.04271847 0.0077058845 -0.015763747 -0.021366091
000370 cb f4 99 3d 51 fe e0 3c 70 10 92 3c 0a 59 70 bc
       0.07517394 0.027465018 0.017830104 -0.014669666
000380 b3 be 75 3c df a2 b1 bd 81 85 f9 3a 37 ad 16 bd
       0.0149990795 -0.08673643 0.001903698 -0.036786284
000390 36 fa 57 bd 00 01 ce 3c 58 b6 16 bd 21 a7 9f 3b
       -0.052728854 0.025146961 -0.03679499 0.0048722182
0003a0 89 1a 53 bd d0 4d 31 bd 3d 45 35 3d 73 cf 4a 3d
       -0.051538978 -0.0432871 0.044255484 0.049514245
0003b0 fb 98 0a 3b 73 2d 86 bd b6 9f f8 3c 96 71 bc bd
       0.0021148312 -0.065516375 0.030349594 -0.09201352
0003c0 4f c6 9b bd 50 24 55 bd 67 3b 95 bd 4a 53 97 bd
       -0.07606184 -0.052036583 -0.07286721 -0.07388933
0003d0 8f 76 9e ba 3d 66 cd 3b d6 dd 8f bc 5b a9 a3 bd
       -0.0012089777 0.0062682913 -0.017561834 -0.07991286
0003e0 b7 0f 33 bd 4e 5d 01 3d f9 08 55 bd d6 d8 18 3d
       -0.04371616 0.031583123 -0.05201051 0.037316166
0003f0 c1 bf e8 bc 69 5a bb 3c 3d 68 ba 3c 6a ca e1 bd
       -0.028411748 0.02287026 0.022754783 -0.110249355

res_blocks.1.conv1.bias f4 [32]
000000 1e a6 cd 3c cf b9 0e bd 42 e9 96 3c b6 ec f0 3b
       0.025103625 -0.03484517 0.018421773 0.007352437
000010 21 59 3b bd f2 fe 69 3d 93 98 47 3d 14 3c fd bc
       -0.045739297 0.0571279 0.04872949 -0.030912437
000020 e6 37 a6 bc 5d 5b 25 bd d2 9d f1 bc 2c ac 08 bd
       -0.020290326 -0.040370334 -0.0294942 -0.03336732
000030 04 9a 0a bd c7 7f 39 3c ca 9d 67 bc 7b 50 29 bd
       -0.033838287 0.011321968 -0.014136741 -0.041336518
000040 0f 6d 09 3d 5b 27 c4 3b e8 65 13 3d 65 a1 26 3c
       0.033551272 0.005986137 0.035985857 0.010170315
000050 32 9e b6 3c 69 c2 f5 3c 79 17 62 3d ef 37 ab bc
       0.02229223 0.029999929 0.055198167 -0.020900695
000060 28 fc 7d bc 70 93 d0 bc 8f ed 56 bd d2 a7 c8 3c
       -0.015502013 -0.025460929 -0.052472647 0.024494085
000070 6e 2e 28 3b d1 8a 06 3c 34 84 1a bd 8b 9a 09 3c
       0.002566244 0.008211807 -0.037723735 0.008398662

res_blocks.1.batchnorm1.weight f4 [32]
000000 f9 3b 80 3f 30 60 8f 3f bf 83 82 3f 50 83 83 3f
       1.0018302 1.1201229 1.0196456 1.0274448
000010 09 f4 74 3f 5d 85 83 3f 74 cc 85 3f 3a 06 5b 3f
       0.9568487 1.0275074 1.0453019 0.85556376
000020 92 b6 7e 3f 42 0f 85 3f 00 f9 86 3f 56 97 8d 3f
       0.9949733 1.0395281 1.0544739 1.1061809
000030 da 58 82 3f e7 9e 5e 3f b0 23 6f 3f e2 ef 8a 3f
       1.0183365 0.86961216 0.9341383 1.0854456
000040 f5 57 89 3f 87 b3 83 3f 25 33 86 3f 19 bb 80 3f
       1.0729967 1.0289162 1.0484358 1.0057098
000050 ca 49 87 3f 27 6e 88 3f f1 cc 6a 3f 9b 8e 77 3f
       1.0569394 1.0658616 0.91718966 0.96701974
000060 f5 2a 88 3f f8 99 8e 3f f9 89 6f 3f be 28 87 3f
       1.063811 1.1140738 0.93569905 1.0559309
000070 19 d2 92 3f 13 e7 84 3f 2d 2f 83 3f c7 98 89 3f
       1.1470367 1.0383018 1.0248772 1.0749749

res_blocks.1.batchnorm1.bias f4 [32]
000000 57 05 d6 3d d3 7e 47 3d 26 ed b9 3d e8 91 93 3d
       0.10450237 0.048704933 0.090784356 0.07205564
000010 dc 70 00 3c c2 85 05 3e 94 e4 71 3d c0 ed 6e 3d
       0.007839408 0.13039306 0.05905588 0.058332205
000020 93 ce c1 3c 42 39 ec ba 83 e9 a2 3c 56 13 68 3d
       0.023658073 -0.0018022435 0.019886738 0.056659065
000030 c7 03 0a 3e cd 31 8a bd ff c3 9e bc df b6 e9 3d
       0.13478003 -0.0674778 -0.019380568 0.11411833
000040 a8 b6 04 3d 44 37 6b 3d b9 5f 89 3d b9 35 5e 3d
       0.032400757 0.057425752 0.06707711 0.054250453
000050 7e 6b b0 3d cd f8 ca 3d 30 d9 63 3d 4d b5 19 bd
       0.086142525 0.09910736 0.055627048 -0.037526418
000060 45 18 06 3e df 12 2a 3d b8 c5 8e 39 96 e3 ab 3d
       0.13095196 0.041521903 0.00027231663 0.08393018
000070 f9 a6 bc 3d d1 0e b8 3d 9d 53 4f 3d 5b d4 ea 3c
       0.09211535 0.08987201 0.05061685 0.028665712

res_blocks.1.batchnorm1.running_mean f4 [32]
000000 5a 54 5d c0 dc f0 e9 bf bd 3b f4 bf 75 a0 ed be
       -3.4582734 -1.827663 -1.9080731 -0.46411481
000010 9c 5c 59 be 38 c1 21 c0 fb a6 93 3c 0f 10 ab 3f
       -0.21226734 -2.5274181 0.018023958 1.3364276
000020 f9 ee 9a 3d a4 2d 2e bf 16 84 80 be cc 08 50 bf
       0.07565112 -0.6803839 -0.25100774 -0.8126342
000030 90 13 5f bf d1 99 cf 3f dd 10 19 be 21 16 2f c0
       -0.87139225 1.6218816 -0.14947839 -2.7357256
000040 2c 7c 5c bf 01 33 8b be 3f f5 8f bf 69 62 2c c0
       -0.8612697 -0.2718735 -1.1246718 -2.6935065
000050 23 ee ff bf 59 26 0c c0 5e ea 4a bf bb 58 c7 3f
       -1.9994549 -2.1898406 -0.79263866 1.5573953
000060 a1 0f 51 c0 59 c1 5c bf 40 5e 08 c0 46 de fb bf
       -3.266579 -0.86232525 -2.1307526 -1.9677207
000070 eb da e0 bf 95 f9 d4 bf 37 0f 2d c0 ba 3d bc be
       -1.7566808 -1.6638666 -2.7040536 -0.36765844

res_blocks.1.batchnorm1.running_var f4 [32]
000000 03 f1 15 42 68 d6 90 41 eb 53 a4 41 d5 39 f7 40
       37.485363 18.10469 20.540976 7.7258096
000010 81 99 7a 41 99 fd 04 42 b1 88 dc 40 db bc 7a 41
       15.662477 33.247654 6.891686 15.671107
000020 12 dd 86 40 2c 0d 20 41 ae 89 21 41 c3 94 31 41
       4.214486 10.003216 10.096113 11.098819
000030 79 3f 27 41 0a 04 9c 41 9e d9 23 41 75 a4 19 42
       10.452996 19.501972 10.240629 38.410603
000040 15 07 7f 41 39 a1 63 41 21 82 3f 41 b0 ae 1d 42
       15.939229 14.226861 11.96927 39.420593
000050 6f ed 82 41 87 b9 e1 41 33 1a 2c 41 09 46 d1 40
       16.365934 28.21559 10.756396 6.539799
000060 bd 8e 6a 42 04 6d c3 40 17 40 8e 41 ea a0 94 41
       58.639393 6.1070576 17.781294 18.578571
000070 11 28 d5 41 19 71 55 41 9e 83 b9 41 1f 7c 29 41
       26.644564 13.340112 23.189266 10.592803
