logs/main_run/spec_nblock2_lr0.0001_ks5/checkpoints/best.ckpt (torch, 643774 bytes, 89 tensors)

conv1.weight f4 [8, 1, 5, 5]
00000000: ecf1 94bd a639 333d a7e3 63be c94e 2cbd
00000010: 18a4 bfbd 7724 f5bc 2180 bf3c 2db9 0d3e
00000020: c05b 293e 453e 66bb 779f f83c 8bb3 303e
00000030: 8e92 9a3d 4953 853d 1b2a 01be cfb2 2c3c
00000040: b643 8f3d b7d6 18be e592 da3d e171 803d
00000050: 0200 42bd 8e6b 16be bf53 2cbe e04c 9ebd
00000060: e0da dc3d 3d06 1abd 0343 36be 8a14 82bd
00000070: dc6c 093e f2c6 c4bd 6995 e53c e937 d93d
00000080: 0d6c dd3d a696 963c 99ee c23d 2a1d 80bc
00000090: 8c6b 3dbd 966a dcbd 6bd5 ebbd 2c24 afbd
000000a0: 5cb9 253e 85a4 8fbc 82c5 48bd d65a 333e
000000b0: fe54 3abe fd87 e43b c8df 3b3e 6cc8 4f3c
000000c0: 992b 3d3e f38e 20be 519e 31bd 864a 1d3e
000000d0: 10cf 023e 4ebd 3e3d a300 a33c 7305 2d3e
000000e0: f2a3 663d 6393 ed3d 4778 0e3e 365b 2e3e
000000f0: 6185 cbbd 1b0d 31be 3253 1f3e 8bae 2d3e
00000100: e6cd ff3d fe18 fabd b294 4ebe 647d 063d
00000110: 21b5 12be 79d6 b0bc e67e 30bd 05e0 05be
00000120: d320 ddbc 97d1 d53d 1d43 40be cfa7 493e
00000130: 32b6 f6bc e5bf 4cbe cd83 2dbe 2a93 ac3c
00000140: 09d3 0cbd c6a4 d33d e62f 4b3e df56 d63d
00000150: a7d7 9dbd 41f8 66bc 3d7f 1dbd ebb3 1f3e
00000160: 876d 083d 3e8a 6b3d 2d23 323e 5a9d 1f3e
00000170: 7c2a 1c3e cd59 f23c 482b 3bbe 3e51 2ebe
00000180: 8f93 0dbe 9cfa 26be 923a dfbd 03ed 1fbe
00000190: 996b 7fbd 7358 bcbd 05b0 fdbc b699 f83d
000001a0: 556e cbbd 3abc 3b3e 019b e93d 1efb 2abe
000001b0: aec5 43be e372 3c3e 8177 bd3c 8cd0 18be
000001c0: 23a4 2d3e 325c 58bd 8f2a 82bd 6a04 f43d
000001d0: c685 a43c 092a 56bd acad 02be 37ee 553d
000001e0: ea56 dfbd 57ab 4d3e 7905 01be 866b 21bd
000001f0: a4e2 a3bc 5297 12be 07f0 663d 3792 963d
00000200: 8461 ed3c d21c 0f3e 324c 14be 57d4 f63c
00000210: 60c7 37bd c9de 723d 4f5f 30be a3fa 2abe
00000220: e093 2f3d 594e 0fbc 310f 213e 03d4 bebd
00000230: f8fe 18be 9ac7 2fbd 56e7 003e 1619 363e
00000240: f750 0f3e 83a5 17be 0735 f73d 5eec 87ba
00000250: f20b a8bd b1a2 333b 0ed3 da3b 069c 1dbe
00000260: be38 3bbe 9039 87bd 9b75 d8bc e589 6abd
00000270: 9a30 fbbd 1edc 60bd 692f 243e 2338 25bc
00000280: 4612 d43d 0532 98bd fe38 33be f06b 01be
00000290: ffa2 e63d 6892 633e 4b90 68bc 5781 063d
000002a0: c4d9 663d 29e6 22bd 649f ab3a 93be beb9
000002b0: 8772 0abb 0df8 5cbd 5ce6 90bd 4f5f f4bd
000002c0: 21de 1c3e ea8b ce3d 985a fe3c 94c0 22bd
000002d0: a835 cb3d 8cdc 463e 47d8 933d ef16 1fbe
000002e0: e060 73bd b17d cfbd 2eac 153e d9b0 123e
000002f0: 3635 1cbe a0cd c4bd 65d5 043e 11b3 d23d
00000300: cf00 7a3d 7f21 aabd 0c26 76bd 0f72 013e
00000310: 30bb f7bb 0d72 20be d19a 0d3c 7109 34be
-0.072727054 0.04375615 -0.22254811 -0.042067323 -0.0935747 -0.029924614 0.023376526 0.1384017
0.16538906 -0.003513233 0.030349476 0.1725599 0.07547484 0.06510026 -0.12613718 0.010540678
0.06995337 -0.14925657 0.10672549 0.06271721 -0.04736329 -0.14689466 -0.16828822 -0.077295065
0.107839346 -0.037603606 -0.17799 -0.06351574 0.13420433 -0.09608258 0.028025346 0.10606367
0.10811625 0.018382382 0.09518165 -0.015638907 -0.046245143 -0.10762517 -0.115153156 -0.08551821
0.1618399 -0.017534504 -0.049016483 0.1751512 -0.18196484 0.006974219 0.18347085 0.012682062
0.18473662 -0.15679531 -0.043363873 0.1536046 0.127743 0.046567254 0.019897765 0.1689661
0.056308694 0.116003774 0.1391307 0.17026982 -0.099375494 -0.17290156 0.1555908 0.16961114
0.12490444 -0.12211798 -0.2017391 0.032834426 -0.14326908 -0.021586644 -0.04308977 -0.13073738
-0.02699319 0.10440367 -0.18775602 0.1969292 -0.030116174 -0.19995077 -0.1694481 0.021066267
-0.034380946 0.103341624 0.1984249 0.10465788 -0.07707148 -0.014097274 -0.038451422 0.15595977
0.03330758 0.057504885 0.17396231 0.15587369 0.15250582 0.029583836 -0.18278229 -0.17023179
-0.1382582 -0.16306537 -0.10899843 -0.15617757 -0.062358472 -0.09196558 -0.030967722 0.12138693
-0.099331535 0.18333521 0.11406518 -0.16697356 -0.19118378 0.18403201 0.023128273 -0.14923304
0.16957144 -0.0528223 -0.06355774 0.119149044 0.02008332 -0.05228618 -0.12761563 0.052229133
-0.109052494 0.20084892 -0.12599744 -0.039409183 -0.020005532 -0.14315537 0.05638125 0.07352107
0.028977163 0.13975838 -0.14482191 0.030130548 -0.044867873 0.059294496 -0.17223857 -0.16697173
0.042865634 -0.008746707 0.15728451 -0.09317782 -0.14941013 -0.042914964 0.12588248 0.17783007
0.1399573 -0.14809231 0.12070661 -0.0010370126 -0.082054034 0.0027410204 0.0066779917 -0.1539155
-0.18283364 -0.06602776 -0.026423266 -0.057260413 -0.122651294 -0.05489742 0.1603371 -0.010084185
0.10355048 -0.074314155 -0.1750221 -0.12638831 0.11261558 0.22223818 -0.014194558 0.03283819
0.05636002 -0.03977028 0.0013093767 -0.00036381613 -0.0021125393 -0.053947497 -0.070751876 -0.11932241
0.1531911 0.1008528 0.031049058 -0.039734438 0.099223435 0.1942007 0.07218986 -0.15536092
-0.05941856 -0.101313956 0.14616463 0.14325275 -0.15254673 -0.09609532 0.12972029 0.102880605
0.061035927 -0.0830717 -0.060094878 0.12641166 -0.0075601563 -0.15668507 0.008642868 -0.17581727

conv1.bias f4 [8]
00000000: 5ad6 35be 21dd 443e 422c 363e c7e8 483e
00000010: 9e29 8a3a b1dd d3bd 8d04 8f3c 54b9 7f3d
-0.1775755 0.19224979 0.1779032 0.19620048 0.0010540967 -0.10345019 0.017458225 0.062432602

batchnorm1.weight f4 [8]
00000000: 0fc5 753f 961b 7f3f 0c5c 813f b37f 7c3f
00000010: 407a 7b3f fec9 7b3f 3dca 7e3f 61dc 883f
0.9600381 0.9965147 1.0106215 0.98632354 0.98233414 0.9835509 0.9952734 1.0692254

batchnorm1.bias f4 [8]
00000000: 162a 04bc 3159 dc3c 23f5 4cbc ef8a bcba
00000010: 157d 1839 d3b3 b73d 7fca 7f3c fee6 023d
-0.008066675 0.026897999 -0.012509617 -0.0014384667 0.00014542446 0.089698456 0.015612244 0.031958573

batchnorm1.running_mean f4 [8]
00000000: aa00 54be 3b46 563e ce57 953e 0617 2c3e
00000010: dd00 5fbd d259 e7bd 649b 0abe 5dfa dd3d
-0.20703378 0.20925228 0.29168552 0.16805658 -0.054444183 -0.11296429 -0.1353584 0.10838769

batchnorm1.running_var f4 [8]
00000000: 399f c23a fe8e 873a 7ef8 753c 692d fa3a
00000010: 194b 6c3b 0050 ad3a addb c83c 6254 863b
0.0014848477 0.0010342298 0.015012858 0.001908702 0.0036055504 0.0013222694 0.024518812 0.0040994147

res_blocks.0.conv1.weight f4 [16, 8, 5, 5]
00000000: 053b ea3b 84e4 90bd f80b 8dbd 1c4b 3abb
00000010: 5153 d73c 663a 803b ef3b 6fbd abf1 a7bc
00000020: 4ced 713d 67d9 39bd 1dc2 593d 4552 08bd
00000030: 2c62 3f3d 97a1 1abd a933 8abc 3e74 d83c
00000040: a3cf 1dbd eb75 143d 5cda 283d bb7f abbb
00000050: 5b49 96bd e54b 023d aec4 58bd c470 573d
00000060: 20f4 11bd e358 c1bc 8387 39ba c9c1 063c
00000070: f247 2fbd 45d2 1c3d 1c76 953d c803 803b
00000080: 9a3b 8f3d 327e 7abd 270d c6bc 86db 45bc
00000090: d629 1fbb 7942 fe3c b27a fc3c 8c81 2abc
000000a0: 7941 563d 6754 b83c 2d37 58bd 3bc2 17bd
000000b0: 8bf9 4b3d d6e7 6f3d 3bd2 cb3c 835e 493d
000000c0: 96e9 5c3d bb24 e9bc fc69 113d 2699 76bd
000000d0: 6486 8dbd 7bf2 bbbc 3c53 8b3c 5459 ec3c
000000e0: 874f a1bd de61 6bbd d66b 093d f885 62bd
000000f0: 73ee b93c 8e2c f0bb 9670 85bd d193 dd3a
00000100: c772 983c f4ad 9cbc 47f3 9ebc 0ecc 1fbd
00000110: 3f56 b63c 002e 8dbd 0182 293d 0af7 80bc
00000120: 0d87 a0bd e0db e1bb dacb 4e3d 0370 f0bc
00000130: 5956 d93c dcdf 2dbd c671 75bd bfcf d33b
00000140: c71f 4f3c 75a8 1f3d 0024 343d e666 1d3d
00000150: 681a 94bd 563d e4bb 980e a73c 4468 633d
00000160: 3583 233d 68c2 b23c 5931 41bd e399 8bbd
00000170: c95f 2d3d 4fb9 883c b319 f4bc 04e0 89bd
00000180: f376 25bc 8563 4dbd 32f3 14bd 1a31 4cbc
00000190: 84f1 71bd d725 6d3d c9ee 04bd bc97 633c
000001a0: db97 4f3d 1f29 423d 5941 40bd e9c9 73bc
000001b0: 8376 81bd 21d7 dd3c 1c1c 1c3d 0594 88bc
000001c0: 9093 663d f80f b43c 9af5 c93c 781f 43bd
000001d0: 6ef9 8a3c 896b ea3c 3a5b 6abc 1103 17bc
000001e0: 20d9 89bd 010a 9f3b a8d9 0a3d 7d10 92bd
000001f0: 94b5 3bbc 5cc3 09bd e75c 1fbd efcc e8bc
00000200: 446f 13bc 4281 003c dd95 5bbd 4529 81bd
00000210: 48ce 90bc 3099 6a3d 73fb 193c e4c4 9cbd
00000220: 1863 493d 6949 113d a105 dfba 8b91 0a3c
00000230: 10ea 59bd 1eef 003d d31a 9bbc 8d15 55bc
00000240: 5da9 44bc 3a5f d63b 1f8b b0bc 9ef0 71bd
00000250: d998 b3bd ac6f 4b3d ddcf 853b fda9 0b3d
00000260: 343c 893b 76c6 9bbd a506 733d d4d9 363d
00000270: 8ae9 22bd a9a0 863c 7fe2 36bc 539a 293d
00000280: 18e1 573d 26c8 fe3c 488e 183d 23f3 7f3d
00000290: 9faa 89bd 8347 a6bc 987a 51bd ab7d 0fbc
000002a0: 7835 183d abd2 8ebd 6903 d7bc 499f 1cbc
000002b0: 38c1 7c3c b48d 6bbd 21dc ce3b dae0 3cbd
000002c0: 20ab d0bd cc9e 87bd d2ca e23a 12ca a5bc
000002d0: ca5f c63c ff0d 833b 0c21 dabb 378b 1d3d
000002e0: ce9f c63c ee80 f5bc 6f2f b3bd 753a a0bb
000002f0: e2b9 dd3b f359 90bd 9374 73bd 2f73 9bbd
00000300: 094c f7bc 2e87 2dbd bc7c 3bbd d523 aa3c
00000310: 6730 88bd 6b28 91bc c186 103a 1457 6ebc
00000320: bdfa 6bbd 4e1b 82bd e40a 443d 60f7 d33c
00000330: 86e9 4abc 8982 0c3d 0435 84bd f023 8cbd
00000340: 40f3 bfbc 1751 0a3c 4518 ac3c 6308 3e3d
00000350: 7b89 a63c 1edb 48bd 8f0a 81bc a50d 02bd
00000360: 18e4 843d 21e5 d83c cea1 37bd 7291 36bd
00000370: eed2 b0bc a278 1f3d 60ef 893d 393f e23c
00000380: 1118 813c eab2 89bc cb5a fcbb d5f4 02bc
00000390: 78b4 12bb bfdf 91bc a70d 8fbc 3552 eebc
000003a0: 16c3 093d 9c94 223d b787 533c bb9f 723d
000003b0: 4e67 373d e9b4 31bd 9549 443c 9ad1 1ebd
000003c0: 4bce 4bbd 937a d33c 93d1 5fbd 43a7 24bd
000003d0: 0151 343d e8ef 2a3c fb9b 0cbd edeb 09bd
000003e0: b839 a9bb 52e4 ff3c f418 4e3d 7b72 43bc
000003f0: aaad ddbc 7487 933a 68f7 9bbb ebad e0bc
0.007148149 -0.07074836 -0.068870485 -0.0028426116 0.026284846 0.0039132116 -0.058406767 -0.020500978
0.059064195 -0.045373347 0.053163636 -0.033281583 0.046724483 -0.03775176 -0.016870337 0.026422616
-0.038528096 0.036245268 0.04122387 -0.0052337325 -0.0733821 0.03181066 -0.052921943 0.052597776
-0.035633206 -0.023601955 -0.0007077383 0.008224913 -0.04279322 0.038286466 0.07297918 0.0039067008
0.0699379 -0.061155505 -0.024176193 -0.012076264 -0.002428641 0.031037556 0.030820224 -0.010406863
0.052308533 0.022501184 -0.052786995 -0.037050467 0.04979853 0.058570705 0.02488052 0.0491624
0.053933702 -0.028459897 0.035501465 -0.060204647 -0.069103986 -0.022942772 0.017007463 0.028851189
-0.07876497 -0.05746638 0.033550106 -0.055303544 0.02269671 -0.00732953 -0.06515615 0.0016905015
0.018609418 -0.019125916 -0.019403113 -0.03901296 0.022257922 -0.068935394 0.041383747 -0.015742797
-0.07838259 -0.006892666 0.050487377 -0.029350286 0.026530432 -0.042449817 -0.059922956 0.0064639742
0.012641854 0.038979013 0.043979645 0.03842821 -0.07231599 -0.0069653196 0.020392701 0.055519357
0.03992005 0.021821216 -0.047166202 -0.06816461 0.042327676 0.016689925 -0.02979741 -0.06732181
-0.0100991605 -0.050143737 -0.03636474 -0.012462879 -0.059068218 0.057897415 -0.032454286 0.013891157
0.05068193 0.047402497 -0.04693732 -0.014879682 -0.063214324 0.02708012 0.038112745 -0.016672144
0.05629307 0.02198027 0.024653245 -0.047637433 0.01696464 0.02861573 -0.014303977 -0.00921704
-0.067308664 0.0048534875 0.03389898 -0.07132051 -0.011456866 -0.033633575 -0.038906958 -0.028418032
-0.008998696 0.007843317 -0.053609718 -0.063067 -0.017676488 0.057274997 0.009398329 -0.076547414
0.04916677 0.0354704 -0.0017015227 0.008457552 -0.053201735 0.03147804 -0.01893369 -0.013005626
-0.01200327 0.0065421136 -0.021550713 -0.05906736 -0.08769388 0.049667045 0.004083617 0.03409766
0.004188085 -0.07606213 0.05933251 0.04464133 -0.0397735 0.01643403 -0.011162399 0.04140694
0.0527049 0.031101298 0.037245065 0.062487733 -0.067219965 -0.020297771 -0.051142305 -0.008757989
0.037160367 -0.069737755 -0.026246743 -0.009559461 0.015426926 -0.057508186 0.0063128625 -0.046112873
-0.101888895 -0.06622085 0.0017302877 -0.020237956 0.024215598 0.003999471 -0.0066567715 0.038462844
0.024246123 -0.029968705 -0.087492816 -0.004889781 0.0067665437 -0.070484065 -0.059437346 -0.07590329
-0.030187624 -0.042365246 -0.045773253 0.02076904 -0.06649857 -0.017719468 0.0005513244 -0.014547128
-0.05761217 -0.06352864 0.04786195 0.025874794 -0.012384778 0.034304176 -0.064554244 -0.06842792
-0.02343142 0.008442185 0.021007666 0.046394717 0.020329228 -0.04903709 -0.015752105 -0.031751294
0.06488818 0.026476445 -0.044832043 -0.0445723 -0.021584954 0.038933404 0.0673511 0.027618038
0.015758546 -0.016808946 -0.007701253 -0.007992943 -0.00223854 -0.017806886 -0.017462565 -0.029091934
0.033633314 0.039692506 0.012910775 0.059234362 0.044776253 -0.04338542 0.011980434 -0.03877411
-0.049757283 0.025815284 -0.054643225 -0.040198576 0.044022564 0.010433175 -0.034328442 -0.033672262
-0.0051643513 0.031236801 0.050316766 -0.01192915 -0.027060349 0.0011255578 -0.0047597177 -0.02742668

res_blocks.0.conv1.bias f4 [16]
00000000: 9f0d e93c f9d6 9fbc be47 6a3d fde2 cfbc
00000010: b291 9d3c 8410 b23c 3a64 873c 2c16 3c3d
00000020: 3904 85bd e982 85bd fe09 95bd 7cac c33c
00000030: 62d0 4bbd d0fd 57bd 5298 223d a839 6e3d
0.028448878 -0.019511687 0.057197325 -0.025376791 0.019234512 0.02173639 0.016527284 0.045919582
-0.06494946 -0.0651911 -0.072772965 0.023885958 -0.049759276 -0.05273229 0.039696045 0.058160454

res_blocks.0.batchnorm1.weight f4 [16]
00000000: 62f7 7a3f ed26 813f 4b0d 863f 1b99 843f
00000010: 8638 7e3f a9a3 843f 7856 7d3f c8fc 7a3f
00000020: bc3b 7a3f cb08 793f 6fd8 813f e199 7b3f
00000030: 995d 803f 353d 803f 1bf7 7c3f e92a 7a3f
0.98033726 1.0090004 1.0472807 1.0359224 0.99305 1.0362445 0.98960066 0.98041964
0.977474 0.9727904 1.0144175 0.98281676 1.0028564 1.0018679 0.98814553 0.97721726

res_blocks.0.batchnorm1.bias f4 [16]
00000000: 246e bf3b 94e1 faba a6bc 133c 1e6e fb3b
00000010: 82fd 9cbc 90e5 643c 4240 e8bc cb63 15bd
00000020: e10e 88bc bfe4 66bc 4f61 64bd 327c 31bc
00000030: f939 493b ad2d 70bc 1c7a 49bc 5b8b 69bd
0.005841987 -0.0019140714 0.009017145 0.007673039 -0.01916385 0.013970748 -0.028350953 -0.036472123
-0.016608657 -0.014092623 -0.055756863 -0.010832833 0.003070472 -0.014659327 -0.01229718 -0.057017665

res_blocks.0.batchnorm1.running_mean f4 [16]
00000000: eefd 16bf 0a73 2dbf db15 66ba 1188 d43c
00000010: bb8b a23d 0fe4 e2be 99a1 38bf 41fe bc3d
00000020: 8a61 fb3e 5c13 c63e 2100 86be 7924 be3d
00000030: b023 a93e c169 1cbd f0f0 103c c06f 69bf
-0.58981216 -0.6775366 -0.00087770604 0.025943788 0.07936808 -0.4431462 -0.7212158 0.092281826
0.49097854 0.38686645 -0.26171973 0.092843 0.3303504 -0.038186792 0.0088465065 -0.9118614

res_blocks.0.batchnorm1.running_var f4 [16]
00000000: 504f 583e 589e 523e 7e97 e33d 5908 b53d
00000010: 6b93 bc3d 864a e23d 762b 503e 14e9 103e
00000020: ab2c 973e d7d7 983d c963 b73d 9f82 0e3e
00000030: 226c 0c3e bd69 c23d df90 5a3e 9fa9 0c3e
0.21124005 0.20568216 0.11112879 0.08839483 0.09207805 0.110493705 0.20329079 0.14151412
0.29526266 0.07463043 0.089545794 0.13917015 0.13713124 0.09492824 0.21344326 0.1373658

res_blocks.0.conv2.weight f4 [16, 16, 5, 5]
00000000: ffd9 5d3d db9b 923c a353 0abc 97c1 0a3d
00000010: f0e2 5bbc d17c 753d d0e7 b9bc 179c 0d3d
00000020: 5a5c 74bc 335a 74bc 1791 0abb b864 4fbd
00000030: cf47 903c caa4 22bc fb2f 253d fdde fcbc
00000040: bdd8 b5bb 6c7c 83bb 9241 0cbd 3a57 033d
00000050: 95b0 6fbb 286e ccb9 47b3 08bc 4523 fd3c
00000060: 0bb4 543d 1e66 d93c 9cbe 073d 86f3 673b
00000070: 0e41 61bd bbba c9bc 9d56 003c fc73 d93c
00000080: 23f7 003c 160e 2bbc 100a a73b 7a25 1fbd
00000090: 0543 023c 0364 49bd 1143 eb3c bc75 c9bb
000000a0: 471d 503d 2865 523d 8cb6 a2bc fd1c 0d3d
000000b0: 2db0 cf3c bd85 11bd 0fd5 023c f7cc a33c
000000c0: 7f72 133d c5fd 663c 5652 52bd 7341 86bb
000000d0: f98d 88bd df6a 83bc de19 023b 6613 7dbc
000000e0: ff23 0abc 39ad 76bc 5eb1 c8bc 6224 10bd
000000f0: a434 c6bc f841 77bd 28e8 37bb a4bc 15bc
00000100: c457 153d cd7c ccbc e65d 2abd e3fb 80bd
00000110: d656 9cbc ddc1 803b a1fe b2bc 170e 453c
00000120: 7d28 4ebd 36a6 e4bc a1c2 173d 5f6f 6d3d
00000130: 4aa1 5d3d 57d4 9e3d a860 50bb e5c5 3d3d
00000140: 915f 9a3c 82c5 983c 56de ca3c dd6b 983d
00000150: f669 4f3d 1b82 a93c f013 62bc e5a7 603d
00000160: 8d4c 0dbc d7ef 5f3d 78c4 5bbc 97f4 bf38
00000170: 35d8 0e3d 8a67 443d d61b 9cbc a624 27bb
00000180: d171 563d 8d75 323d 3bde a43d 37de 64ba
00000190: 0766 01bd bb63 083c edfd 27bd 709f e53c
000001a0: 12be cc3c 4588 e4bb 26ca e53c aaf6 67bb
000001b0: f86f a1bc 2552 bfbc 20ad 48bc c382 a0bc
000001c0: d2fa 6fbd ee7e 4bbc 3ba5 01bd 4e8e 9c3b
000001d0: 97b8 e4bc de01 03bd 3689 80bd 9277 5f3c
000001e0: b9fa debc 2545 63bb 2895 df3c f5b6 c33b
000001f0: 706d 0c3d 07f7 113d 243f 77bb f5ca 78bb
00000200: d993 42bd bd65 a6bc 38b2 ab39 1b51 d8bb
00000210: 4739 a0bc d000 a1bc 37de c4bc 5d8d c13c
00000220: 2276 2d3d 2fc9 67bc a819 07bc 71f6 373d
00000230: 9110 853d 9e69 033d bc35 23bd 5898 573d
00000240: 6fe9 c43c 5c1b 563d 6946 e2bc 6ff1 85bd
00000250: 38ac c2bc fd24 2e3c c22a da3b 9fd6 be3c
00000260: 7599 4bbc 4261 143b fdb4 913d 077d a7bc
00000270: 2ab2 86bc b553 933b 45a9 ba3c 0074 82bc
00000280: 15b8 293d 5498 893c 02cb 0b3d 0b3c ef3b
00000290: 9ebd 223d ce0e 4fb9 3c2a 033d 1a5e a3bc
000002a0: 9d49 443d 66c2 a03c f823 85bc d172 e7bc
000002b0: 2537 6abc 5735 5abc 1a59 ffbc 68ad 03bc
000002c0: d295 843c 686c 203d da4e d8bc 94d0 1fbd
000002d0: 37d7 67bc c006 28bd f50c 0b3d dcd0 82bb
000002e0: d744 be3c 94e4 c63b 8891 c93b ab32 3dbd
000002f0: bd31 afbc 2adb b53b 1b41 9f3c 0ad3 0f3d
00000300: 5dfd 113d f294 0d3d 5f07 f63b 2016 0dbd
00000310: bd80 a93c 0dbc 31bc c058 383c 5c18 5dbd
00000320: 3d40 293c 0a7f ab3a 8f3f 673a 65bc 0a3d
00000330: f1cc a4bc 316d 2abb 27d7 b53c 68da 943a
00000340: ba1e 763d 6eee 313d 79ee 123d 0dc4 cebb
00000350: 6a18 21bd 9fed 19ba 5d94 f9bc 63f3 dabc
00000360: bb43 3eba f2a7 0abd a414 0bbc 0374 533d
00000370: 0e22 393c 15ea 7a3d 13ac aa3c 7daf 9e3c
00000380: 9acb 8cbc 7328 4e3d 469d b7bb 7176 be3c
00000390: 8159 b53c 22fb ffbc c78a 09bd e5c9 1fbd
000003a0: 1190 f2bc f291 53bd e5af 35bc 74f8 0cbd
000003b0: cda5 19bd 573c 39bd 4c69 32bd 35d4 e6bb
000003c0: e3a0 a8bc b398 ea3c d023 2fbc 33e3 36bd
000003d0: c90d 853c 1817 b1bc 6c30 13bc 6c93 4a3c
000003e0: 4250 703b 6b50 49bd e770 8e3d 31d7 54bc
000003f0: c5c2 3f3b 74ec 9cb8 6704 ac3c 1062 743d
0.054162975 0.017896583 -0.008442792 0.033876028 -0.013420805 0.059933487 -0.022693545 0.034572687
-0.014914596 -0.014914083 -0.002114361 -0.050633162 0.017612366 -0.009926984 0.04032896 -0.030868048
-0.005549519 -0.004012635 -0.03424222 0.032065608 -0.0036573757 -0.00038991985 -0.008343524 0.030900607
0.051929515 0.026537951 0.033140764 0.0035392954 -0.05499368 -0.024625173 0.00783315 0.026544563
0.007871422 -0.01044037 0.005097635 -0.0388541 0.007950549 -0.049167644 0.028718503 -0.0061480682
0.05080917 0.051366 -0.019862436 0.034451474 0.025352562 -0.035527933 0.007985367 0.019995196
0.035997864 0.014098589 -0.051348053 -0.0040971576 -0.06667704 -0.016042171 0.0019851844 -0.0154465195
-0.008431434 -0.015055948 -0.024498638 -0.035190947 -0.024195023 -0.060365647 -0.002806196 -0.009139214
0.036460653 -0.024961853 -0.041593455 -0.062980436 -0.019084375 0.0039293603 -0.021849932 0.012027285
-0.05033158 -0.027911287 0.037050847 0.05796754 0.054108895 0.07755344 -0.0031795893 0.046331305
0.018844398 0.018648867 0.024764221 0.07442448 0.05063816 0.020691922 -0.013798699 0.054847617
-0.008624208 0.05467209 -0.013413541 9.153148e-05 0.03487416 0.047950305 -0.019056242 -0.0025504022
0.052354638 0.043569136 0.080501996 -0.00087306224 -0.03159144 0.008324559 -0.041013647 0.028030127
0.024992976 -0.0069742524 0.028050493 -0.0035394826 -0.019706711 -0.0233546 -0.0122483075 -0.019593602
-0.05858881 -0.012420399 -0.031651717 0.004777706 -0.02792005 -0.031984203 -0.06276171 0.013639348
-0.027219163 -0.0034678665 0.027292803 0.005972738 0.034284055 0.035635974 -0.0037726844 -0.0037962769
-0.04750428 -0.020312184 0.00032748445 -0.0066014654 -0.019558562 -0.019653708 -0.024031742 0.023626978
0.04234899 -0.014147087 -0.008245863 0.04491276 0.064973004 0.032083146 -0.039846167 0.05263552
0.024037091 0.052272186 -0.027621465 -0.065401904 -0.02376376 0.010628936 0.006657929 0.023295699
-0.012426724 0.0022640978 0.07114599 -0.02044536 -0.016442377 0.0044960626 0.022785792 -0.015924454
0.04143532 0.016796269 0.03412915 0.007300859 0.039731614 -0.00019746574 0.0320227 -0.019942332
0.047921766 0.019623946 -0.016252503 -0.02825299 -0.014295374 -0.013318381 -0.031170417 -0.008036949
0.016184721 0.039165884 -0.026404787 -0.039017275 -0.014150432 -0.041022062 0.033947904 -0.003992183
0.023226185 0.006069729 0.006151382 -0.0461909 -0.021386022 0.005549808 0.019440224 0.035113372
0.035642017 0.034565873 0.007508203 -0.03444493 0.02069127 -0.010848057 0.011251628 -0.05397831
0.010330257 0.0013084125 0.00088214217 0.033871073 -0.020117255 -0.0026005025 0.02219732 0.0011356594
0.060087897 0.043440275 0.035871956 -0.006309992 -0.039329924 -0.0005871895 -0.030466253 -0.026727384
-0.00072580174 -0.03385157 -0.008488808 0.05162431 0.011299623 0.061258394 0.020834005 0.019370789
-0.017186929 0.050331544 -0.0056034653 0.023249837 0.022137405 -0.03124768 -0.033579614 -0.0390109
-0.029609712 -0.051652856 -0.0110893 -0.03441663 -0.037511636 -0.04522356 -0.04355745 -0.00704434
-0.02058453 0.028637266 -0.010689691 -0.044650268 0.016241925 -0.021617457 -0.008983713 0.01236425
0.003666893 -0.04914896 0.06955128 -0.012990759 0.0029260379 -7.4827025e-05 0.020998193 0.059663832

res_blocks.0.conv2.bias f4 [16]
00000000: 3a66 f93c b579 1cbd 277c 213d 3b1d 9e3c
00000010: 4027 0f3d da2b 23bd 3f6f c2bc 0d55 8bbc
00000020: 1340 1a3d ecbd 1cbd 834a 233d 5b9a 5cbd
00000030: b260 043d 8347 b23c edab 5abc cbba 403d
0.030444253 -0.038202006 0.03942504 0.019301048 0.03494954 -0.039836742 -0.023734687 -0.017008329
0.037658762 -0.03826706 0.03986598 -0.053858142 0.03231878 0.021762615 -0.013346654 0.04705314

res_blocks.0.batchnorm2.weight f4 [16]
00000000: 5607 8f3f 989a 883f 0821 913f ff9a 913f
00000010: 2331 863f d6e7 893f 5b59 8d3f 0c11 8a3f
00000020: b46e 8a3f 5853 8e3f 3398 923f a9ac 893f
00000030: b760 8b3f 420c 8c3f 1b08 9c3f 7cea 8b3f
1.1174114 1.0672178 1.1338205 1.1375426 1.0483745 1.0773876 1.1042894 1.0786452
1.0815034 1.1119184 1.1452698 1.0755817 1.088889 1.0941241 1.2189974 1.0930934

res_blocks.0.batchnorm2.bias f4 [16]
00000000: ad12 b03c a79a 1b3d 722b 123d 5583 513d
00000010: e2f1 d9bc 5a7a bf3c 5037 4d3d 254f 083c
00000020: 8a9c 803d f8f0 133d 5af9 473d 55a1 873d
00000030: 19d4 faba 7e6b 843d d016 5a3d 9240 183d
0.02149328 0.037989285 0.035685964 0.05115064 -0.026604597 0.023373771 0.05010158 0.008319651
0.062798575 0.036118478 0.048821785 0.066225685 -0.0019136696 0.06465815 0.053244412 0.037170954

res_blocks.0.batchnorm2.running_mean f4 [16]
00000000: 78f5 263f b6a5 d23d 2d8a 66be 1dc6 28ba
00000010: 7d7e 94be 57a6 913d 6d51 dd3e 7c00 363d
00000020: 2eac 01bd 876f ccbe 9b1e 043f 4834 b8be
00000030: 6e99 aa3d 4e16 5a3e e7a7 c83e 213c 6dbc
0.65218306 0.10285513 -0.22513647 -0.00064382126 -0.29002753 0.07111805 0.43226185 0.044434056
-0.031658344 -0.3992884 0.516092 -0.35977387 0.08330046 0.21297571 0.391906 -0.014479668

res_blocks.0.batchnorm2.running_var f4 [16]
00000000: 5762 083e c0d0 d63d 01f9 f53d d828 ee3d
00000010: ed3a eb3d 66cc bf3d 851f bf3d 0c52 e43d
00000020: 80ab b73d fe37 ab3d 805f 2f3e 74ab 143e
00000030: 5537 c43d 375e e03d 362f 263e 5365 ce3d
0.13318764 0.10489035 0.12010384 0.11628884 0.114858486 0.09365158 0.09332184 0.11148462
0.08968258 0.08360289 0.17126274 0.14518529 0.09580866 0.1095547 0.16228947 0.1007792

res_blocks.0.residual_conv.weight f4 [16, 8, 1, 1]
00000000: 9666 933e d135 343e c2b0 b1be 3776 af3d
00000010: 4530 77bc c453 ebba 24b7 b0be 5853 b0be
00000020: 56cb 7d3e 9b2c a33e 6bb6 93be f708 c23e
00000030: b660 aa3e bf54 273e 0739 bb3b c5c2 933e
00000040: 64d5 a63e 3efc 59be 2123 9ebd 963e e9bd
00000050: ae67 8a3d 7097 2d3e 850a ac3d e50d 953d
00000060: 661b de3d 3b20 24be 7724 a8be 5ede 3f3e
00000070: f25b 3bbd 8862 4b3e 92e7 213e cd38 bbbe
00000080: e848 a3bc 3d46 4e3e 5a4e aabe 2db1 863e
00000090: a883 86be de74 92be d6f4 af3c 4aef a83e
000000a0: 6714 b03e 3f1c 25bd 5241 573e 359a 933e
000000b0: 26f3 77be 86c1 74bd def1 de3d 8ee5 cdbe
000000c0: 8da1 7bbe 6a28 9dbe bf57 5d3e 13bf cd3d
000000d0: fbe9 00be 80c3 53bd 748d 8c3e 2e79 4dbe
000000e0: b868 513e 0952 ff3d 8e2a a73e f0aa 55be
000000f0: b7ab 443e 5d17 4fbe 92e0 b6be d8d1 ac3d
00000100: 6566 1cbd bf37 abbe 2a20 333e 9067 843e
00000110: a5e3 67be 51ef 20bd cd61 033e e4f9 773d
00000120: 9509 86be a597 a73e f72c 9d3d bd94 61be
00000130: 5a67 1fbe 2222 253e a78c 46be f9b6 8b3e
00000140: d62a d93d 37c3 1bbc 5105 2bbe 109e a63d
00000150: b432 48bd 5115 8d3e 894b 21be 08d2 0dbe
00000160: 5a5a e3bd a53c 35be ac29 813d 5602 5d3d
00000170: 98fb 573e 7d6b 853e 8e39 643e 3a4d 383e
00000180: aaa5 4d3e 02bb 72bc 6c1d 283e 6089 5f3d
00000190: ca79 7abd 6e1d 77bd ca72 85bd 9f57 71bd
000001a0: f46c b23c 9683 d2bb d556 313e aae8 ac3d
000001b0: 4eb0 2c3d c480 9d3e 0d74 8b3e 72c0 9e3e
000001c0: 95b5 3d3e d032 da3d 0982 1c3e 2716 eabd
000001d0: 7a5a 943e a66a af3d cd8f 9e3e 26de a03e
000001e0: 51c0 4abe 12cc 8fbd 17da ca3e 0b71 db3d
000001f0: d5fb d1bd a57c ec3c d6c8 a93e a383 0b3c
0.28789204 0.17598654 -0.34705168 0.085674696 -0.015087192 -0.0017954041 -0.34514725 -0.34438586
0.24784598 0.3186997 -0.2885011 0.37897465 0.3327691 0.16340922 0.0057135853 0.28859535
0.3258468 -0.21287629 -0.07721544 -0.113888904 0.067580566 0.169523 0.08400444 0.07278041
0.108450696 -0.1602792 -0.3284032 0.1873717 -0.045741983 0.19861805 0.15810993 -0.36566773
-0.019932225 0.20143981 -0.33262902 0.2630705 -0.2627232 -0.28604788 0.021479052 0.32995063
0.34390566 -0.04031014 0.21021011 0.28828588 -0.24213848 -0.05975487 0.10885976 -0.402142
-0.24573345 -0.30694896 0.21615504 0.1004621 -0.12589256 -0.051700115 0.2745167 -0.20065758
0.20450103 0.12466819 0.32649654 -0.20865989 0.19206129 -0.20223756 -0.3571821 0.08438462
-0.03818359 -0.33440968 0.17492738 0.25860262 -0.22645433 -0.03929073 0.12830277 0.06054105
-0.26179186 0.32732883 0.07674592 -0.22029395 -0.15566769 0.16126302 -0.19389592 0.27288035
0.106038734 -0.009506992 -0.16701247 0.08135617 -0.04887648 0.27555326 -0.1575147 -0.13849652
-0.111012176 -0.17698915 0.063067764 0.053957306 0.21092069 0.2605857 0.2228758 0.1799821
0.20082727 -0.014815094 0.16417474 0.05457437 -0.061151303 -0.0603308 -0.06516035 -0.058921453
0.021780469 -0.0064243777 0.1731828 0.08442815 0.042160325 0.30762303 0.27236977 0.310062
0.185263 0.10654223 0.1528398 -0.114300065 0.28975278 0.085652635 0.30969086 0.31419486
-0.19799925 -0.07021345 0.39619514 0.107149206 -0.10253111 0.028868029 0.33161038 0.008515271

res_blocks.0.residual_conv.bias f4 [16]
00000000: 6db8 b4be eb7b d93d e458 853e 2a94 373e
00000010: 64a3 c5bd 72a1 70bd fe89 503d 7136 793e
00000020: d715 893e bc17 0f3e d16a 603e 1afa 0fbe
00000030: 9f20 113e bbfc 713d a0d7 24be 21dc f93d
-0.35296956 0.106193386 0.2604438 0.17927614 -0.09650305 -0.058747716 0.05091285 0.24337174
0.26774475 0.13973898 0.21915747 -0.1406025 0.141726 0.059078913 -0.1609788 0.122001894

res_blocks.1.conv1.weight f4 [32, 16, 5, 5]
00000000: df72 a23c 8893 9d3c 877b 01bd 0b1a 2e3b
00000010: 8581 37bd cf8e 13bc 9ef6 3cbc 40c7 0c3d
00000020: 2abf 5abd 341d 033d 54bc 0fbc 1c75 4ebc
00000030: 6edf 38bd a3de 8bbc 5ab5 b83c cfbe 313d
00000040: cb57 da3c 1579 20bd 9b62 47bc 0723 3fbd
00000050: 13f1 543c 78a8 263d d848 de3c 8c93 3ebc
00000060: 9e5e 94bc eefa ce3a e499 08bc 8889 e4bb
00000070: b4a1 d03c aafb 0ebd 7605 debc 1e71 9dbc
00000080: e885 3b3a 4aed 6cbd 3cda 29bd 345d e1bb
00000090: 5f24 06bd fcbd 1abc 34b1 a33b b167 bf3c
000000a0: 0500 a1bd 50a3 6b3c 0132 3b3b 58ed 62bd
000000b0: a474 2cbc 11aa 50bd 7230 4ebd 5578 893c
000000c0: d191 00bd 56be dc3c 1029 d4bc 2589 e7bc
000000d0: 5b18 16bc 9d83 e73b 7e37 7e3c 1cee c03c
000000e0: 964b 5e3d ff03 b13c 30d1 ddbc 7685 0f3b
000000f0: 81af f2bc 894c 093c b6dc ef3c 7636 033d
00000100: 304c e8bc cc1c 19bd f6da a0bb 1e75 aebc
00000110: 7745 423d be63 83bc e4d5 9cbc d59b ccbc
00000120: ed93 ef3c 19b6 cf3c 04d1 b53c 1871 3e3d
00000130: 9c73 983c 5199 cebb 0dcc b73c 00df a038
00000140: 3a96 043d bca1 a33c f668 dcb8 1dea 11bc
00000150: 0cdd 013c 94b9 0b3d d3f6 ccbc 8ac1 783c
00000160: 3801 1e3d b34b 94bc d5e0 c7bc 9cc4 b83b
00000170: 36e3 c8bc 22c3 4b3d 624d 043d b724 cebc
00000180: 5519 44bc 9203 b03b 4113 283d 17c8 053d
00000190: 5aef 403d 2f4f f63c 1b2d 923c cc45 fb3c
000001a0: 9449 853d 3744 a0bc 36fe 9bbc 445a 4a3d
000001b0: 8e50 a9bc e85f 033d 04ee d73b d3d9 50bb
000001c0: 928b 4dbb ac30 99bc c795 c83c d6ce 83bc
000001d0: b476 15bc 1e7e ddbc 73ec ff3c 79d2 0d3d
000001e0: b580 003a 6481 513c 7a6d 4a3c 9888 613d
000001f0: 7baa acbb d0ef 4c3b 0f32 68bd e4a0 7fbc
00000200: c8ed 99bd 19fb 94bd 3803 0cbb 81b7 0ebb
00000210: 78e3 1dbd 4d9c 73bc a633 29bd 1e0c 79bd
00000220: 06a1 17bd 7cb7 3fbd e94b 3dbc 1b95 35bd
00000230: 93ae 03bd a785 983c 4a8b 86bd 3e63 a4ba
00000240: 7811 90bc 5edc 9dbc d061 7bbd 8075 63bd
00000250: 1d7f 88bd 4ea1 80bd a104 303d 82b8 88bc
00000260: d288 193d d139 b73c 24cd 27bc 10e7 0e3d
00000270: 4b51 86bc e0aa a8bc 0834 453d c5fe 02bd
00000280: e418 453d cb00 b6bc bc90 3fbb 2507 f33c
00000290: 5133 1dbd 16ba 13bd 42eb b4bc 6564 f83c
000002a0: d5c6 16bb e440 2a3d 0c0c 19bc 77ce 6bbc
000002b0: 93b2 64bc 2c70 4c3d b000 773b ecc7 7bbc
000002c0: 22d6 ffbc ebd9 003d 998c 9d3c cde4 7a3d
000002d0: 5739 383d 10de 1dbb e814 543c 19de 8c3c
000002e0: 8f86 6d3d ecbb ce3c 3045 6fbc b45b 9d3c
000002f0: 2729 1c3d 8d73 4d3d 51c9 073d 24f0 9d3b
00000300: a1e9 92bc 4bdd cabb 4541 9aba 56e2 153d
00000310: 7261 2f3c 82b6 fe3c 88e9 09bd b26f 0d3d
00000320: 3378 b9bc 8e11 cdbc 0c03 03bd 8e88 9f3c
00000330: 21a3 253d a142 dabc a798 95bc 3988 e9bc
00000340: 36f1 093d eb69 e1bc 8077 4b3d a59a d4bc
00000350: 8c52 3f3d deff af3c 850e b33b 2be5 113d
00000360: 6a4e 1b3c a8eb d6bc a1c3 1a3d aa1b 83bc
00000370: 4de8 213d 6de4 8e3b 0c7d f3bc 679a 123d
00000380: 724a 35bc b63e 16bd 26ce 803c 263c fdbc
00000390: 592f 98bb 2c44 d2bc 601d c73c d23c bc3c
000003a0: e309 44bc f174 73bb cf4d 0fbd 26c8 993c
000003b0: 75a3 3abd c1d9 bbbc 065f 8b3b 90b3 3cbb
000003c0: 17ec febc 366f 35bd 5b8f ebbc 53fd ae3b
000003d0: f68d 1ebd 11c0 c1bc 14d8 9fbc 6e6b b8bc
000003e0: 0869 57bd 0e84 69b8 619e 71bc 4a56 c5bc
000003f0: 0765 f03c baa7 a3bc bcb3 fdbc 720b 9c3b
0.019830165 0.019235387 -0.031611945 0.0026565816 -0.044801254 -0.009006216 -0.0115334075 0.034369707
-0.053404965 0.032010272 -0.008772928 -0.012601163 -0.045134954 -0.017073935 0.022547413 0.04339486
0.026653191 -0.039177973 -0.0121695055 -0.046664264 0.01299693 0.040688008 0.027134344 -0.011631858
-0.018111523 0.0015791336 -0.008337472 -0.006974403 0.025467731 -0.034907974 -0.027102213 -0.019218978
0.00071534375 -0.057843484 -0.04146789 -0.0068775658 -0.03274953 -0.00944471 0.0049954895 0.023364874
-0.07861332 0.014382198 0.002856374 -0.05540213 -0.010525856 -0.050943438 -0.05033917 0.016781012
-0.03138906 0.026946228 -0.025898486 -0.028263638 -0.00916108 0.00706525 0.01551616 0.02355104
0.054271303 0.02160835 -0.027077287 0.0021899617 -0.029624702 0.008380064 0.029280048 0.03203436
-0.028356642 -0.03738098 -0.0049089147 -0.02129608 0.047429528 -0.016038772 -0.01914496 -0.02497665
0.029245341 0.025355386 0.022194393 0.046494573 0.018609814 -0.006304898 0.022436166 7.6709315e-05
0.03236983 0.019974582 -0.00010509968 -0.008905915 0.007926237 0.034112528 -0.025020039 0.015182862
0.03857538 -0.018102502 -0.0243992 0.005638672 -0.024522405 0.04974664 0.03230036 -0.025163991
-0.01196893 0.0053715194 0.041033987 0.032661524 0.047103263 0.030067055 0.017843774 0.03067293
0.065081745 -0.019563777 -0.019042116 0.04940249 -0.020668294 0.032073885 0.006589653 -0.0031868115
-0.0031363708 -0.018699966 0.024485482 -0.016089838 -0.009122539 -0.027037676 0.031240677 0.03462455
0.00049019913 0.012787197 0.012355203 0.055061907 -0.0052693463 0.003127087 -0.056688365 -0.015602324
-0.07516056 -0.072744556 -0.0021364223 -0.0021776857 -0.03854701 -0.014868808 -0.04130902 -0.06080257
-0.0370188 -0.046805844 -0.011553743 -0.04433165 -0.03214891 0.018618418 -0.06569536 -0.0012541784
-0.017586455 -0.019270118 -0.06137258 -0.05553198 -0.0666487 -0.062807664 0.042973164 -0.016689543
0.037483998 0.022366436 -0.01024178 0.034888327 -0.016396185 -0.020589292 0.048145324 -0.03198125
0.04811944 -0.022217175 -0.0029230556 0.029666493 -0.038379017 -0.036066137 -0.022084836 0.03032131
-0.0023006697 0.04156579 -0.009341251 -0.014392487 -0.013958591 0.049911663 0.0037689619 -0.015367489
-0.031230036 0.031457823 0.019232081 0.061253358 0.04497656 -0.0024088658 0.012944438 0.017195748
0.057989653 0.025236093 -0.014603898 0.019208767 0.038125183 0.050159026 0.033150975 0.0048198868
-0.017933669 -0.006190931 -0.0011768719 0.036592804 0.010704385 0.031092886 -0.03366998 0.03453035
-0.022640323 -0.025032785 -0.031985328 0.019474294 0.040438775 -0.0266431 -0.018261267 -0.028507339
0.033677302 -0.027516326 0.04967451 -0.025952647 0.046709582 0.021484312 0.0054643773 0.035618942
0.009479145 -0.026235417 0.037784223 -0.016004402 0.03952818 0.0043607266 -0.029722713 0.03579178
-0.011065112 -0.0366809 0.0157233 -0.03091247 -0.004644316 -0.025667273 0.024306 0.02297822
-0.011965248 -0.003714856 -0.034986313 0.018772196 -0.04556604 -0.022930982 0.004253271 -0.002879355
-0.031118436 -0.044295512 -0.02875488 0.005340257 -0.038709603 -0.023651155 -0.019512214 -0.022512164
-0.0525904 -5.5674514e-05 -0.014747233 -0.024088997 0.029345049 -0.01997744 -0.030969493 0.0047621066

res_blocks.1.conv1.bias f4 [32]
00000000: b2ed 233b ba14 003c ca70 ec3c e02d 813c
00000010: 9c9d 263d 3220 473d b1b8 1d3d cd14 00bd
00000020: 4829 c13c f593 eabc 707c 8abc 577a f1bb
00000030: 243b 9cbc b61c 99bc 3b96 b13c 02a8 143c
00000040: 319f 433c 894d 333d 5b10 bb3c 56ce e53c
00000050: 6177 b43c 74a7 123c 1f3c 423d ca97 3b3d
00000060: 66af f3bb a39e 0cbd bd46 013d 1cce 3dbd
00000070: 410a bd3c 9487 043c 17b7 b7bc 7a15 3a3d
0.0025013504 0.007817442 0.028862376 0.015768945 0.04067765 0.04861469 0.038506214 -0.031269837
0.023579255 -0.028635005 -0.01690504 -0.0073693204 -0.01907117 -0.018690448 0.02167808 0.009073259
0.01193981 0.043775115 0.022834947 0.02805249 0.02202958 0.008951057 0.047420617 0.045799054
-0.0074366806 -0.034330975 0.031561602 -0.04633914 0.023076179 0.008088965 -0.022426171 0.045430638

res_blocks.1.batchnorm1.weight f4 [32]
00000000: 61ab 833f 0be8 793f f197 803f 93bc 813f
00000010: 4624 7c3f 3a35 823f 98fa 7f3f 2443 7a3f
00000020: 83b0 7e3f ed61 783f b04b 7c3f 0f65 803f
00000030: 0fea 803f 6e49 7e3f 0a60 7e3f aa46 813f
00000040: 6c70 7d3f 24a3 803f 0778 803f 953c 813f
00000050: ff10 803f 7572 7b3f 8ec1 853f 2ba0 7a3f
00000060: 96ec 783f 590f 7f3f cc37 803f 515f 823f
00000070: 8471 7e3f 0279 823f 6714 773f f57e 7d3f
1.0286676 0.97619694 1.0046369 1.0135673 0.9849285 1.0172493 0.9999175 0.977587
0.99488086 0.9702442 0.9855299 1.0030841 1.0071429 0.99330795 0.99365294 1.009969
0.9899967 1.0049787 1.003663 1.0096613 1.0005187 0.9822152 1.0449693 0.97900647
0.97236 0.99632794 1.0017028 1.0185338 0.9939196 1.0193179 0.96515507 0.99021846

res_blocks.1.batchnorm1.bias f4 [32]
00000000: 31f5 36bc d21f 24bd d19e 543b 674d 98bd
00000010: d276 e9bc bbf9 4fbd 4744 80bc afe1 2dbc
00000020: 7652 01be de1c 2cbc 67b4 e3bc 7bad b43b
00000030: 93a4 c4bd c93c 70bb 8bf1 e3bc b8ed 5ebd
00000040: 2d42 3a39 965c d2bc 8453 2abd 638c dcbc
00000050: 5cc9 b0bc 7197 6cbd c2ec 8dbb 230e 23bd
00000060: 80db 30bd ebfd 59bb aec5 8c3a 7eab 87bb
00000070: 1b93 c5bc 0031 1bbc 8128 11bd 3df1 30bd
-0.011166857 -0.04006941 0.0032443295 -0.07436638 -0.02849904 -0.05077527 -0.015657557 -0.010612889
-0.12629113 -0.010504929 -0.027795983 0.0055138445 -0.096017025 -0.0036657325 -0.027825138 -0.054425925
0.00017762995 -0.025678914 -0.041583553 -0.02692241 -0.02158039 -0.057761613 -0.0043312022 -0.039808404
-0.04317808 -0.003326292 0.0010740065 -0.0041403165 -0.024117997 -0.009472132 -0.03543902 -0.043198813

res_blocks.1.batchnorm1.running_mean f4 [32]
00000000: 805e abbf 0c1f 5b40 808b eebf f356 50bf
00000010: 971b 5d40 c4d6 23c0 fe27 7d3f ffe4 eeb7
00000020: 66de 42bf f78a 973f 2364 e5bf 6886 91be
00000030: c2b6 95be 03b7 073a bafe 20bf eb2e dfbf
00000040: 85d4 9d3f 5f91 dbbf fe0a 0cc0 e8b3 d3bf
00000050: c6eb e0bf 683c 3d3f fa53 d5bf f81f 4a40
00000060: 35e0 b73f 9977 fbbf a0fc 20c0 a41e 14c0
00000070: 0d03 e7be b1b0 ccbf 7767 8e40 67c5 b93e
-1.3388214 3.42377 -1.8636322 -0.81382674 3.454809 -2.5599833 0.9888915 -2.8478446e-05
-0.76120603 1.1839284 -1.7921184 -0.28422856 -0.29240996 0.0005177112 -0.6288868 -1.7436193
1.2330481 -1.7153739 -2.188171 -1.6539278 -1.7571952 0.739203 -1.6666253 3.1582012
1.4365298 -1.9645873 -2.515419 -2.3143702 -0.45119515 -1.5991422 4.45013 0.3628342

res_blocks.1.batchnorm1.running_var f4 [32]
00000000: 4ad0 4f3f 340c 8d40 8550 3940 7e46 713f
00000010: b554 3a40 edc8 0640 8eb9 1e40 9595 973f
00000020: 5f9f 023f 7ccd 0040 9a70 6640 40d0 3c40
00000030: f251 2a3f d49d dc3f bdf1 3d3f 27f9 cb3f
00000040: c2c6 5b40 dc98 443f b993 4e3f 9a93 953f
00000050: 76aa 2b40 f5cd df3f 1980 dc3f e27c a140
00000060: d66c 1640 1f97 2940 4066 6b40 e881 ad3f
00000070: 90b3 b940 efe1 6b40 6b70 e640 5e6f a23f
0.811772 4.4077396 2.8955395 0.9424819 2.91142 2.1060135 2.4800754 1.1842524
0.5102443 2.0125418 3.6006227 2.9502106 0.6653129 1.7235665 0.7419699 1.593541
3.4340062 0.76795745 0.80694157 1.168567 2.682279 1.7484728 1.7226592 5.0464945
2.3503928 2.6498487 3.6781158 1.3555269 5.8031693 3.685665 7.201223 1.2690237

res_blocks.1.conv2.weight f4 [32, 32, 5, 5]
00000000: e175 763d f339 1e3d c380 833c 71b4 6e3c
00000010: ca0b 8f3d 1f84 e13b 07b3 fc3b e0a4 6b3d
00000020: 94ee 1d3d 8528 723d a317 4a3d 76a7 243d
00000030: ec2b f23c 8d1a ed3c aebd 453d 4645 693b
00000040: 3216 7d3c 6af6 593d 6a99 963c 7a57 293d
00000050: bee2 2b3d 947a b63c 85b0 623d f08b 303d
00000060: 63d8 6c3d 367b 243d 19a8 403c f47a fb3c
00000070: 7df5 01bb 5abc 47bc 3566 023d f80e ecbb
00000080: 1f93 d1bc 93af 8ebc 5940 f63c f5db 7fbc
00000090: de39 193d 48e8 cd3c 7d52 ef3c 7db8 cb3c
000000a0: ffb8 8c3c eeba ad3c 5b84 a33b b51f 8fbb
000000b0: 2ab7 8c3c 8c2e 2abc 14af 863c 0cb1 f33c
000000c0: 15a1 3a3c d26c 70bc 0931 603c 4816 c3bb
000000d0: 12d9 b63c 9f6d ff3c 1396 46bc 00ae c2ba
000000e0: 0116 e43c ea69 f73c ebcb 80bc 307a 753c
000000f0: fa35 003d 2744 86bc c0e9 1c3b 04ba f93c
00000100: 3245 cc3c 8669 b0bc c4a1 c93c 9a39 8dbc
00000110: 2371 81bc bb64 a4bc 4ae2 063d 8c72 48bc
00000120: c513 9cbc 9c49 c9bc 77e6 2c3c 15fa bebc
00000130: abe1 95bc c485 8b3b 555c eebb 3d41 18bd
00000140: daf1 b5bc 0737 76bb a769 f93a 708a 6bbc
00000150: 112d 053c 4e9c 1bbc c39f 31bd 9943 2d3c
00000160: 6919 6ebc 699d 07bc a420 2d3c d4aa 1cbd
00000170: 68ea eabc e0ba ccbb e948 9abc 87c8 1ebd
00000180: ab51 05bb da2a 2cbd c924 f2bc 5114 fdbb
00000190: f7b1 d6bc 0957 d93c 00e8 7ebc c3e3 843c
000001a0: 983a 4cbc e3f5 dfbc 6b24 803c 6f3b 053b
000001b0: e43b 8f3c 956d 88bc c852 333b 260a 8b3c
000001c0: 8b09 42bc 6baf dabb 89ee 223c c157 473c
000001d0: 6025 973b c97c f93b 2c0a e5b9 95dd 18bd
000001e0: 618b 6dbc 3db9 86bc 1bea 6c3c 3291 f13a
000001f0: 37d0 b5bb a981 44bc 1c96 c73c df28 10bc
00000200: 8485 033c fce5 10bc 868b 663c 236c 1b3c
00000210: e586 813c 2225 20bc f997 053c 1f28 e2bc
00000220: fcb9 13bc 2a61 0e3b b16c cdbc 007a d1ba
00000230: d61c 8a3c 722d d2bc a0b1 d8bb 9ac2 853c
00000240: c2e5 663c 7bc5 2e3c 2417 623c 7ed1 6d3c
00000250: bf3d f43b fcf6 84bc 3954 06bd a9f8 1bbd
00000260: 478d 16bc 90cf dc3b 60e3 d3bc 2978 dabc
00000270: 9ce9 8c3c eff6 f5bc cbbb 0ebd 8eff 00bd
00000280: ed7d edbc a490 90bc 3a17 723a 8433 17bd
00000290: a45a 46bc 436e 463c 30a1 d8bb be06 ddb9
000002a0: f873 7a3b 524e 8abb 961e 5f3b ae8d 513b
000002b0: 673c 3abd da94 90bc fd89 a8bb 8a03 d33c
000002c0: 44ac d73c 6579 82bc c864 dc3c d76d 97bc
000002d0: 58fa ccbc 7b8a 9c3c 5b8c 1f3d 39bd 6fba
000002e0: 3af8 c33a 49c1 bd3c 11e9 28bb 978f 0c3c
000002f0: c58f 733c a585 a3ba 783b f43c 4862 b0bc
00000300: 6922 c63c f72a 0d3d 6749 0fbc c66d 133d
00000310: 576f c53c 40a5 9b3c c0a5 093b 232c d2bc
00000320: ec7a f63c 6579 5dbc 605a 773c cb26 153d
00000330: 131c 4b3c d5fa 143d 5c24 16bc 0da2 403c
00000340: 8593 6fbc 6783 d13b 98c6 91bb 4518 dc3c
00000350: b0fb 803c 6250 93bc 2447 0c3d fa09 0d3c
00000360: c96b be3c 878b 373c 3da3 6bbb 313c 6e3c
00000370: b423 bb3c 67df ce3c 15df 523c e4ff 2c3c
00000380: 9ef3 f5ba 100c 893c 0389 823b ca39 abbc
00000390: 8f02 de3c 9ae7 053c 8be0 be3c 81fc 633c
000003a0: 5c98 ec3b ab48 133c 8577 84bc 9d64 5b3b
000003b0: 9b47 19bc 5b1b 673c 8ae7 00bd 457c f5bc
000003c0: 3bee d5bb 94bc e23c 02b3 dc3c b039 b93c
000003d0: 4a39 fdbc 7410 183c 7ed6 66bb f88c ddbc
000003e0: bd43 d53b ceeb 623c 9e1d c3bc 0b51 c43c
000003f0: f86c 013d 2b6f 44bc 5bf9 813c 2f94 2bbc
0.06017101 0.038629483 0.01605261 0.014569388 0.069846705 0.006882205 0.0077117714 0.057530284
0.038557604 0.059120674 0.049338948 0.040198766 0.02956196 0.028943324 0.048276596 0.0035594269
0.015447186 0.053213514 0.0183837 0.04134319 0.041964285 0.022275247 0.055344123 0.043102205
0.05782355 0.040156566 0.011758828 0.030698277 -0.001983016 -0.012190903 0.031835753 -0.007203933
-0.025582848 -0.017417705 0.03005998 -0.015616407 0.037408702 0.025135174 0.029214138 0.024868244
0.017178057 0.0212073 0.0049901432 -0.0043677934 0.017177183 -0.010387074 0.016440906 0.029747508
0.011390944 -0.014674382 0.013683566 -0.005953584 0.022320304 0.031180201 -0.012120741 -0.0014852881
0.027842524 0.030201871 -0.015722236 0.014982745 0.031301476 -0.01638992 0.0023943037 0.030484207
0.024935339 -0.021534692 0.024613269 -0.01723938 -0.015801018 -0.020067563 0.03293065 -0.012234341
-0.019052396 -0.024571232 0.010552994 -0.023312608 -0.018296083 0.0042578895 -0.0072741904 -0.03717159
-0.02221005 -0.003756942 0.0019028679 -0.014376268 0.00812842 -0.009497715 -0.04336525 0.010575199
-0.014532425 -0.008277276 0.010566864 -0.038248852 -0.028676227 -0.006247863 -0.018833594 -0.038765457
-0.0020342867 -0.042033054 -0.029558556 -0.007723369 -0.026207907 0.02653076 -0.015558243 0.016221887
-0.012465142 -0.027338928 0.015642365 0.0020329615 0.017484613 -0.016653815 0.0027362574 0.016972613
-0.0118430955 -0.0066737435 0.0099445665 0.012166918 0.0046126097 0.0076137525 -0.00043685862 -0.037320692
-0.014498563 -0.01644575 0.014460112 0.0018430112 -0.005548503 -0.011993804 0.02436357 -0.008798807
0.008027438 -0.008843895 0.014071351 0.009486231 0.015811393 -0.009774478 0.008153909 -0.027607022
-0.00901651 0.0021725395 -0.025076242 -0.0015981793 0.016859453 -0.025656436 -0.0066129714 0.016328145
0.0140928645 0.0106672 0.0137994625 0.014515279 0.00745365 -0.016231053 -0.032795165 -0.038078938
-0.009188957 0.0067386106 -0.025865257 -0.026668625 0.017201237 -0.030024974 -0.034847062 -0.031493716
-0.02899071 -0.017647095 0.00092350284 -0.036914364 -0.012106571 0.012111249 -0.006611012 -0.00042157428
0.0038216095 -0.0042207623 0.003404533 0.0031975317 -0.04546776 -0.017649103 -0.0051434026 0.025758523
0.02632726 -0.015927026 0.026903525 -0.018484993 -0.025021717 0.019109001 0.038952213 -0.0009145323
0.0014951297 0.023163455 -0.0025773684 0.008579156 0.01486582 -0.0012475742 0.029813513 -0.02153124
0.02418633 0.034464803 -0.008745528 0.03599336 0.024100943 0.018999696 0.0021003336 -0.025655812
0.03008791 -0.013517712 0.015097231 0.03641395 0.01239683 0.036372025 -0.009163942 0.011757386
-0.014622574 0.006393838 -0.004448723 0.026867041 0.015745014 -0.017982665 0.034247532 0.008608336
0.023244755 0.0112026995 -0.0035955452 0.014540718 0.022844173 0.02525301 0.01287057 0.010559056
-0.001876462 0.016729385 0.003983618 -0.02090158 0.02710083 0.008172894 0.02330043 0.013915182
0.007220311 0.008989493 -0.016170273 0.0033476718 -0.009355451 0.014105643 -0.031470813 -0.029966483
-0.0065286434 0.027677812 0.026940826 0.022610515 -0.030911107 0.0092812665 -0.0035223062 -0.027044758
0.006508319 0.0138501655 -0.023817834 0.023964426 0.03159806 -0.011989395 0.015865972 -0.010472341

res_blocks.1.conv2.bias f4 [32]
00000000: 67f3 9dbc b22a d0bc a3a9 cfbc 97ed 9dbc
00000010: 241f dbbc 9b42 f1bc 8496 f6bb 4d34 fd3c
00000020: 2670 083d 4d8b 46bc 83e7 f53c 51ba b03c
00000030: 4814 f13b 7b10 743c 3ae4 87ba b03d 8d3a
00000040: 9866 bebc de0e d5bc 6e2a a23b 38f7 07bd
00000050: b14e c3bc 95fd cabc 8b48 95bc f58c 073d
00000060: 949d 13bd 0957 d7bc 9290 29bb 0856 99bc
00000070: 7251 923c 6118 913c 4aa3 b33c 71e5 7d3c
-0.019281102 -0.025410984 -0.025349444 -0.01927833 -0.026748247 -0.029450705 -0.007525267 0.030908728
0.033310078 -0.012118173 0.03001762 0.021573218 0.007357154 0.014896507 -0.00103677 0.0010775831
-0.02324228 -0.026008066 0.0049489057 -0.03319475 -0.023841234 -0.02477912 -0.018223068 0.03309341
-0.03603895 -0.026286619 -0.0025873524 -0.01871778 0.017861102 0.01771182 0.021928448 0.015496598

res_blocks.1.batchnorm2.weight f4 [32]
00000000: 8fb3 b03f 9a1c ab3f 5a27 a33f 4633 ab3f
00000010: bcae a93f 0fbc a63f 8f97 a33f 8a74 b73f
00000020: 6461 a43f 003a a83f ca78 aa3f 26ac af3f
00000030: 90fe b53f 4470 b63f b265 b43f 67e1 b63f
00000040: 4beb b43f 6c45 b33f 8165 b33f 13ca a43f
00000050: 30c2 b73f f626 a93f 6c06 b53f d205 a83f
00000060: c04e b63f c883 b43f 28a8 b13f 8af1 a03f
00000070: ec6c b43f c7a3 a63f a2a7 ad3f 00f0 ad3f
1.3804797 1.3368104 1.2746384 1.3375022 1.325645 1.3026141 1.2780627 1.433244
1.2842221 1.31427 1.3318112 1.372441 1.4218311 1.4253011 1.4093535 1.4287537
1.4134306 1.4005561 1.4015352 1.2874168 1.4356136 1.3215015 1.4142585 1.3126776
1.4242783 1.4102716 1.3879442 1.2573712 1.409574 1.3018731 1.3566782 1.3588867

res_blocks.1.batchnorm2.bias f4 [32]
00000000: 3f74 1e3e 0ccf 433e 39ea 033e f529 543e
00000010: cc14 133e 0642 0a3e f8d2 203e 42bf 583e
00000020: 0414 0d3e dc0e 2c3e 5665 f23d ed63 3e3e
00000030: 37c7 253e 7979 2d3e 9181 643e 274d 403e
00000040: 217c 853e 1947 583e a37a 133e d315 193e
00000050: 3c22 1c3e bfd1 2d3e 19da 3a3e 0416 c93d
00000060: 6356 1a3e 1592 3c3e 951c 463e 4332 013e
00000070: 2dfb 553e 7659 0d3e da44 413e d603 453e
0.15474032 0.19121951 0.12882318 0.2071913 0.14363402 0.13501748 0.15705478 0.21166709
0.13777167 0.16802543 0.118357345 0.18592806 0.16189276 0.1694087 0.2231505 0.18779431
0.26071265 0.21120872 0.14402251 0.14949732 0.15247434 0.16974543 0.1824726 0.09818652
0.15072016 0.18415101 0.1934684 0.1261683 0.20896597 0.13803658 0.18873921 0.19239745

res_blocks.1.batchnorm2.running_mean f4 [32]
00000000: c31a 133f 830a 843f 0059 293f ee93 6e3e
00000010: 5159 883e f66f 093f 5154 c8bc 051b 573f
00000020: e867 503f a186 b93e 025d 0d3f eda2 133e
00000030: 1da7 af3e 6980 1e3e a47f 243f d67d 273f
00000040: 1c07 933f 9548 023f 4cb1 df3e f5a9 cabe
00000050: 1be1 073f 86be 323f 652c c93e 4215 f13e
00000060: e464 eb3e 37da a63e 0e59 983e bf1f 453e
00000070: 3f0b 32bd 0ef5 51be 219b 393f afc3 503f
0.5746271 1.0315708 0.6615143 0.23298618 0.26630643 0.53686464 -0.024454268 0.84025604
0.8140855 0.36235526 0.55220044 0.1441762 0.34307185 0.15478672 0.64257264 0.65426385
1.1486545 0.50892 0.43689954 -0.39582792 0.5307786 0.69821966 0.39291683 0.4708653
0.4597541 0.3258836 0.29755443 0.19250391 -0.043467756 -0.20503637 0.7250233 0.8154859

res_blocks.1.batchnorm2.running_var f4 [32]
00000000: ab57 b93e 8c4e 3a3f df75 5b3f 2a22 0b3f
00000010: 5731 1d3f 158b f13e db25 cf3e 1caa 553f
00000020: 772e 0c3f 7504 293f 4cb5 073f 54dc f53e
00000030: 9bdc f13e bf66 ee3e 0d95 173f a520 343f
00000040: 9a76 6a3f 803a 323f 87e2 083f 7570 f33e
00000050: e057 6a3f 16e0 1b3f cca2 5c3f d86b e83e
00000060: 4311 223f 86ea 373f 1bc3 1b3f efb0 de3e
00000070: 0228 2b3f 025e 5a3e fb73 173f cffb 303f
0.36199698 0.72776103 0.8572673 0.54349005 0.6140341 0.47176424 0.4045857 0.8346269
0.547584 0.66022426 0.5301101 0.4801966 0.4723862 0.46562764 0.5921181 0.7036231
0.9158722 0.69620514 0.53470653 0.47546735 0.91540337 0.60888803 0.8618591 0.45394778
0.6330759 0.7184223 0.6084458 0.43494365 0.6685792 0.21324924 0.5916135 0.6913423
