logs/main_run/mel064_nblock3_lr0.001_ks3/checkpoints/best.ckpt (torch, 994210 bytes, 123 tensors)

conv1.weight f4 [8, 1, 3, 3]
-0.025049824 0.11856739 -0.31935793 -0.09356418 -0.21230955 -0.044557802 0.038716797 0.29341015
0.34654132 -0.007075372 0.08549275 0.3239303 0.083449654 0.07071197 -0.3092963 -0.077697046
0.024702784 -0.37397128 0.17384844 0.04356618 -0.04406344 -0.09180725 -0.14548743 0.014226513
-0.22805798 -0.4001452 -0.6161307 -0.1590231 0.30251452 -0.10109717 -0.13130388 0.17338139
0.12910715 -0.16027942 0.245899 -0.0777671 -0.15623249 -0.2833014 -0.33770952 -0.055929728
0.33503413 0.018580383 -0.009118906 0.35390663 -0.24011318 -0.05139754 0.3629413 0.029622968
0.27239284 -0.2740533 -0.25960517 0.27267182 0.12705238 -0.15967917 -0.00964947 0.09179332
-0.030420158 0.2928032 0.1421883 0.33547425 -0.23176186 -0.4004892 0.1967726 0.27101848
0.19737181 -0.25905243 -0.4266798 -0.11991 -0.363985 0.16032305 0.12922575 -0.0146493465
00000000: 4a35 cdbc 76d3 f23d e282 a3be 949e bfbd
00000010: ad67 59be 3e82 36bd 8195 1e3d db39 963e
00000020: dd6d b13e 86d8 e7bb d316 af3d 31da a53e
00000030: a7e7 aa3d 70d1 903d 165c 9ebe a11f 9fbd
00000040: 7e5d ca3c 2a79 bfbe 5305 323e 7372 323d
00000050: de7b 34bd 7105 bcbd a8fa 14be 5216 693c
00000060: 0888 69be d5df ccbe beba 1dbf f4d6 22be
00000070: 2fe3 9a3e 080c cfbd 8674 06be e48a 313e
00000080: aa34 043e 4a20 24be f3cc 7b3e 5b44 9fbd
00000090: 69fb 1fbe e20c 91be 43e8 acbe 9216 65bd
000000a0: 9889 ab3e e335 983c 7767 15bc 4033 b53e
000000b0: 3be0 75be 3a86 52bd 71d3 b93e deab f23c
000000c0: 1377 8b3e b750 8cbe f8ea 84be a49b 8b3e
000000d0: 051a 023e f082 23be d018 1ebc 23fe bb3d
000000e0: b233 f9bc 4dea 953e cf99 113e 48c3 ab3e
000000f0: fb52 6dbe ec0c cdbe c27e 493e efc2 8a3e
00000100: d61b 4a3e 85a2 84be c675 dabe 6093 f5bd
00000110: 3e5c babe ba2b 243e c153 043e d003 70bc

conv1.bias f4 [8]
-0.29036495 0.26254025 -0.30039835 0.3625808 -0.012604919 -0.24138607 -0.18685804 0.0559798
00000000: b7aa 94be ad6b 863e d0cd 99be 31a4 b93e
00000010: dd84 4ebc e92d 77be b757 3fbe 134b 653d

batchnorm1.weight f4 [8]
1.4053624 0.9153394 0.6915067 1.021707 0.8575554 0.9055325 1.0288976 0.90758073
00000000: eae2 b33f af53 6a3f 9506 313f 4cc7 823f
00000010: c088 5b3f fad0 673f ebb2 833f 3657 683f

batchnorm1.bias f4 [8]
0.053501315 -0.05461975 -0.29533446 -0.05487233 -0.11536774 -0.09238319 -0.19625026 -0.034290127
00000000: 3224 5b3d f5b8 5fbd 1436 97be cfc1 60bd
00000010: ec45 ecbd 6633 bdbd d4f5 48be ce73 0cbd

batchnorm1.running_mean f4 [8]
-0.26717344 0.21375862 -0.62624454 0.41907468 -0.11072864 -0.1604455 -0.08478939 -0.06406093
00000000: f5ca 88be 8ae3 5a3e 9051 20bf f590 d63e
00000010: b2c5 e2bd d34b 24be 0fa6 adbd 6032 83bd

batchnorm1.running_var f4 [8]
0.0024887526 0.006019447 0.1736592 0.0053329705 0.017657561 0.010950238 0.016465966 0.023563404
00000000: 571a 233b c83e c53b b8d3 313e 33c0 ae3b
00000010: 97a6 903c a168 333c a2e3 863c 0a08 c13c

res_blocks.0.conv1.weight f4 [16, 8, 3, 3]
0.13034822 0.16590118 0.26719105 0.106164314 -0.012246833 0.061222814 0.107691295 0.19766627
0.18004197 0.09209677 0.181932 0.18662053 0.06789401 0.014335908 -0.117100365 -0.05863889
-0.015873943 -0.026155336 -0.10119371 -0.11837009 -0.060664453 -0.11183057 -0.05395472 0.034548827
-0.112405695 0.07470081 0.030747868 -0.1263684 -0.2176517 0.026532138 0.027000133 -0.15324353
0.08744954 -0.020501852 -0.123092934 0.06601056 -0.052823193 -0.08010963 -0.12650438 0.18526365
0.10948287 0.28858835 -0.08549602 -0.009334787 0.0075583616 -0.072737336 0.004241241 0.001198307
-0.019310653 0.009716035 -0.18206634 0.08001576 -0.02281768 0.034344986 -0.22856499 -0.18445168
-0.08773747 -0.0069720857 0.1223574 -0.046688754 -0.17122838 -0.05988465 -0.0030120218 0.14554851
0.14005306 -0.031718854 0.0600722 0.011964408 -0.032499585 -0.0020337445 0.009791132 -0.06707543
-0.044898145 0.038446374 0.14993437 0.06962111 -0.053758334 -0.0034712937 0.24752037 0.13840267
0.3287214 -0.14126569 -0.21064441 -0.1899064 -0.001958484 0.011000438 -0.10855526 -0.07669922
-0.10169654 -0.12292256 -0.04769659 -0.06692717 -0.030298779 -0.092203125 -0.058474593 -0.092715874
0.06600266 0.012761233 -0.016718235 -0.05284144 0.043341514 0.21762352 0.030722914 -0.118005455
0.07992075 -0.028747 0.041334465 0.21559183 -0.063175485 -0.04187041 0.09923962 0.07182155
0.041899756 -0.038279757 -0.03509922 0.058555108 -0.022061443 -0.13232362 -0.06541004 -0.14598209
-0.13294096 0.05741965 0.080894254 0.108552285 0.0020209653 -0.049676973 -0.018901873 0.03852508
-0.010308942 -0.18110216 -0.12457916 -0.008411902 -0.06443537 -0.008794849 -0.13446765 -0.03076926
0.087538496 -0.087003134 0.06340495 -0.09094561 0.038474884 -0.10255219 -0.08563355 -0.011288466
0.033742785 0.45990828 0.5107548 0.14205378 -0.07403661 -0.038701836 -0.03484437 0.04324415
-0.076702684 -0.08895815 -0.022108428 -0.024480755 -0.106558874 -0.0121167535 0.036319617 0.13629395
0.15301572 -0.004386501 -0.07924077 -0.10838262 -0.09625007 -0.029726248 -0.018132482 -0.07734883
0.03659317 -0.049244035 -0.1587169 -0.06143819 0.05801349 0.063183285 0.059566204 0.1071076
0.115466304 -0.0557493 0.09491806 -0.0872428 -0.1432174 -0.045907866 0.0077928193 0.06871169
-0.11250526 -0.07549911 0.070032865 -0.07920001 0.040426057 -0.016816545 -0.0878868 0.040082943
-0.019479707 -0.093031906 -0.054077856 -0.17486298 0.0064750058 -0.08180496 0.08313076 -0.034257792
-0.2025998 0.09324316 0.14358865 0.005757902 0.10435767 -0.027825125 -0.08645617 0.064914994
0.06869137 0.1132964 0.09245376 0.09494999 -0.09954533 0.010383931 0.05478008 0.11001863
-0.006262293 -0.035577007 -0.16635194 -0.20902972 -0.0028423748 -0.044656977 -0.12796625 -0.16886552
-0.0965199 -0.15015766 -0.111026205 -0.11692071 -0.012095637 0.19819854 0.008270068 0.26588905
0.32879233 0.30643976 -0.038712017 0.014332175 -0.07900278 0.10325856 0.1159776 0.012760421
0.19003108 0.12657847 0.11813058 -0.06472088 0.044974197 0.042971373 -0.030644292 -0.009827162
-0.14942576 -0.031925686 0.019166369 -0.19173992 0.004689574 -0.031870455 -0.07802708 -0.057150472
00000000: 017a 053e 00e2 293e 44cd 883e ad6c d93d
00000010: f1a6 48bc c6c4 7a3d 418d dc3d 0769 4a3e
00000020: ec5c 383e 3b9d bc3d 624c 3a3e 7419 3f3e
00000030: 040c 8b3d 28e1 6a3c 51d2 efbd 552f 70bd
00000040: 120a 82bc b743 d6bc a63e cfbd 056c f2bd
00000050: 4a7b 78bd 6d07 e5bd a0ff 5cbd 1283 0d3d
00000060: f534 e6bd bdfc 983d f4e2 fb3c b866 01be
00000070: 16e0 5ebe ed59 d93c 622f dd3c dfeb 1cbe
00000080: bf18 b33d 80f3 a7bc 2618 fcbd 8b30 873d
00000090: 225d 58bd 8510 a4bd 5d8a 01be c1b5 3d3e
000000a0: 8e38 e03d dac1 933e 8a18 afbd eff0 18bc
000000b0: 22ac f73b 50f7 94bd 1cfa 8a3b 8310 9d3a
000000c0: 6031 9ebc 0130 1f3c 996f 3abe 4edf a33d
000000d0: 25ec babc 54ad 0c3d f10c 6abe e7e0 3cbe
000000e0: b4af b3bd 1876 e4bb 8496 fa3d b53c 3fbd
000000f0: 7e56 2fbe 9b49 75bd 5765 45bb ab0a 153e
00000100: 126a 0f3e a1eb 01bd 440e 763d 5d06 443c
00000110: 491e 05bd 9248 05bb fc6a 203c d85e 89bd
00000120: 1ee7 37bd f279 1d3d 6588 193e 8395 8e3d
00000130: b331 5cbd a57e 63bb fb75 7d3e 6eb9 0d3e
00000140: 2c4e a83e f4a7 10be 2bb3 57be d376 42be
00000150: e959 00bb 2e3b 343c 3852 debd 7b14 9dbd
00000160: 4746 d0bd d3be fbbd 805d 43bd 1d11 89bd
00000170: 2535 f8bc fed4 bcbd 0e83 6fbd d2e1 bdbd
00000180: 672c 873d 7e14 513c aef4 88bc 4470 58bd
00000190: df86 313d b3d8 5e3e 9fae fb3c d8ac f1bd
000001a0: 7dad a33d d47e ebbc 544e 293d 1bc4 5c3e
000001b0: 2662 81bd 4f80 2bbd 243e cb3d 2d17 933d
000001c0: 149f 2b3d 3ccb 1cbd 33c4 0fbd 7bd7 6f3d
000001d0: 33ba b4bc d87f 07be b3f5 85bd 547c 15be
000001e0: ad21 08be de30 6b3d e3ab a53d a950 de3d
000001f0: 2c72 043b 157a 4bbd 1ad8 9abc 79cc 1d3d
00000200: d6e6 28bc d872 39be 5c23 ffbd 13d2 09bc
00000210: b1f6 83bd 4518 10bc e3b1 09be d10f fcbc
00000220: 6247 b33d b32e b2bd 74da 813d b141 babd
00000230: d797 1d3d e206 d2bd a560 afbd 42f3 38bc
00000240: e035 0a3d 1979 eb3e d4c0 023f 8c76 113e
00000250: 82a0 97bd d185 1ebd f8b8 0ebd c720 313d
00000260: 4c16 9dbd b12f b6bd bc1c b5bc dd8b c8bc
00000270: 8a3b dabd 5985 46bc e1c3 143d a490 0b3e
00000280: 27b0 1c3e a3bc 8fbb fc48 a2bd b5f7 ddbd
00000290: c21e c5bd 7684 f3bc 928a 94bc 1069 9ebd
000002a0: b8e2 153d 1db4 49bd af86 22be 9da6 7bbd
000002b0: 8e9f 6d3d 3d66 813d b1fb 733d 3b5b db3d
000002c0: 9979 ec3d 6159 64bd 6664 c23d 5aac b2bd
000002d0: 95a7 12be e309 3cbd e85a ff3b b7b8 8c3d
000002e0: 2869 e6bd 479f 9abd 646d 8f3d 9d33 a2bd
000002f0: cb95 253d dac2 89bc fffd b3bd 032e 243d
00000300: e893 9fbc 8387 bebd be80 5dbd 480f 33be
00000310: 492c d43b 5c89 a7bd 7640 aa3d e651 0cbd
00000320: 5276 4fbe 45f6 be3d e708 133e c8ac bc3b
00000330: 79b9 d53d 84f1 e3bc ef0f b1bd 27f2 843d
00000340: 10ae 8c3d f107 e83d 6658 bd3d 2475 c23d
00000350: 6cde cbbd 5d21 2a3c 1461 603d 7351 e13d
00000360: ec33 cdbb 32b9 11bd 2a58 2abe e30b 56be
00000370: 2347 3abb 3cea 36bd 9609 03be 15eb 2cbe
00000380: 3aac c5bd eec2 19be b561 e3bd 2074 efbd
00000390: c72c 46bc 8ff4 4a3e 2e7f 073c 9c22 883e
000003a0: 7857 a83e ace5 9c3e 7e90 1ebd 80d1 6a3c
000003b0: 36cc a1bd 3979 d33d aa85 ed3d 1611 513c
000003c0: 8297 423e c99d 013e 72ee f13d 618c 84bd
000003d0: dd36 383d c002 303d bd09 fbbc 1b02 21bc
000003e0: 1103 19be 82c4 02bd ca02 9d3c 7857 44be
000003f0: ffaa 993b 988a 02bd a9cc 9fbd 9d16 6abd

res_blocks.0.conv1.bias f4 [16]
0.045559555 0.06947003 0.08038901 0.097931966 0.005755282 -0.013871272 -0.0907683 0.0042670644
-0.07328687 0.0013851656 0.07133749 0.119184494 0.05796385 -0.08980635 0.048055336 0.10089658
00000000: a89c 3a3d 4e46 8e3d fea2 a43d 8e90 c83d
00000010: ce96 bc3b 5544 63bc bbe4 b9bd bbd2 8b3b
00000020: 6d17 96bd 728e b53a 6419 923d 0017 f43d
00000030: 816b 6d3d 64ec b7bd acd5 443d dea2 ce3d

res_blocks.0.batchnorm1.weight f4 [16]
1.111338 0.73575187 0.9066134 0.800044 0.9566938 1.3478678 0.7481383 0.8843685
1.0493035 1.0025767 0.80315536 1.1174276 1.0631232 0.7362693 0.7910002 0.7121025
00000000: 5340 8e3f 3c5a 3c3f d117 683f afcf 4c3f
00000010: e3e9 743f ef86 ac3f fe85 3f3f f965 623f
00000020: 944f 863f 6f54 803f 979b 4d3f de07 8f3f
00000030: 6c14 883f 257c 3c3f fd7e 4a3f 594c 363f

res_blocks.0.batchnorm1.bias f4 [16]
-0.27088213 -0.20698558 -0.22578721 -0.23497187 -0.1186675 0.10618407 -0.27904734 -0.116116166
-0.1838558 -0.32954404 -0.25791445 0.0077373674 0.00862392 -0.40891984 -0.20073825 -0.24894997
00000000: 10b1 8abe 07f4 53be c334 67be 779c 70be
00000010: f207 f3bd 0977 d93d 4bdf 8ebe 50ce edbd
00000020: b244 3cbe ffb9 a8be 5d0d 84be be89 fd3b
00000030: 584b 0d3c f15d d1be 548e 4dbe beec 7ebe

res_blocks.0.batchnorm1.running_mean f4 [16]
0.36030796 -0.022282284 0.6240236 -0.20998776 -0.6289637 -0.10923646 -1.2740049 -0.70332485
-0.38385305 1.0797806 -0.411085 -1.9606922 0.18841629 -0.68887746 -0.47785428 0.5787461
00000000: 497a b83e 5689 b6bc 03c0 1f3f 0807 57be
00000010: c403 21bf 5db7 dfbd 9812 a3bf 190d 34bf
00000020: 6388 c4be 4036 8a3f bc79 d2be f6f7 fabf
00000030: 33f0 403e 465a 30bf 51a9 f4be b428 143f

res_blocks.0.batchnorm1.running_var f4 [16]
0.38433486 0.81004256 0.6498943 1.5882574 0.36778557 0.4747224 0.5399348 4.31628
0.80881196 0.39877373 0.43193766 1.5083581 0.6791193 2.65762 1.0827771 1.5887345
00000000: 8ac7 c43e f35e 4f3f 795f 263f 054c cb3f
00000010: 644e bc3e d00e f33e 2b39 0a3f f71e 8a40
00000020: 4d0e 4f3f 122c cc3e ef26 dd3e e111 c13f
00000030: c3da 2d3f 7216 2a40 7198 8a3f a75b cb3f

res_blocks.0.conv2.weight f4 [16, 16, 3, 3]
0.1123307 0.12422857 0.26117763 0.23566385 0.17761101 0.18904027 0.07540572 -0.03908701
0.04711611 -0.064963885 -0.05203606 0.07167634 0.0074386992 -0.0066664754 0.0940959 -0.034030955
0.05867468 -0.018018663 0.14472072 0.1825036 0.11921797 0.12681605 0.020200152 -0.009096248
0.03942298 0.07499431 0.045508903 -0.058724616 -0.07988431 -0.11999575 -0.028984686 0.027584646
-0.019184094 0.09608512 0.1809454 0.13737874 0.10385531 0.19053346 0.07103223 -0.0047531547
0.17027472 0.032656614 -0.015289168 0.048675638 -0.04906214 0.21719126 0.14871672 0.103259206
0.10398578 0.078715086 -0.014789791 -0.01626626 -0.03995719 0.0059426087 0.10012297 0.019942893
0.086606935 -0.026968477 -0.11424129 -0.1071501 0.024913626 -0.08489021 -0.003898963 -0.0852649
-0.023630563 0.039463185 -0.041269686 -0.072518766 -0.11065188 -0.06442195 -0.0153776035 -0.05068758
-0.14694588 -0.14485024 -0.04361258 -0.019450296 -0.007497384 -0.041614022 0.11462158 0.046528496
0.09703814 0.0471195 -0.018643385 -0.09640914 0.124223456 0.17025985 0.06577818 0.17391308
0.10415356 -0.03746547 -0.168166 -0.03342452 -0.04279136 -0.042650133 -0.05228237 -0.06603825
-0.042822577 -0.017405698 -0.15540549 -0.22893898 -0.143219 -0.11702348 -0.08673196 -0.16025096
-0.084821895 -0.015726568 -0.065295786 -0.13223125 -0.04639858 -0.018757269 0.05104456 -0.045448054
-0.10730423 -0.09656174 -0.08151371 -0.052325442 0.025722325 0.007827632 -0.075386584 -0.029925523
-0.07744583 -0.0012916684 -0.008840609 -0.097577 -0.04253203 -0.0543586 0.021744631 0.063548826
0.049100425 0.059547365 0.07889046 -0.06576543 -0.13509189 -0.025260447 -0.0069958605 0.057538178
0.20140271 0.16418551 0.17095882 0.034375202 0.11772815 0.09658262 0.13530448 0.15348186
-0.12176697 -0.26121694 -0.121694535 -0.07654589 -0.14632973 -0.12113427 -0.011032252 -0.10366703
-0.037536614 -0.07197381 0.02486072 -0.03971292 -0.07127965 -0.067837425 -0.10512513 -0.17495698
-0.19662985 -0.05013773 0.10957959 -0.025833748 -0.04967885 0.163057 0.13749596 0.12442196
0.028650004 -0.0027933721 -0.025883095 0.08645217 0.12029475 0.21096317 0.09115996 -0.01706713
0.111114934 0.05170393 0.19015716 0.13633287 0.07414794 0.008875839 0.09142708 -0.15170266
-0.044121478 -0.120762974 0.019791044 -0.11683264 -0.091663904 0.1415753 0.046426192 0.0065130396
0.05850246 -0.16749103 -0.13278234 -0.020394227 -0.088015 -0.17092343 -0.021822678 0.00427887
0.018362267 -0.036243 0.10073576 0.10169659 -0.07282489 0.04608806 0.016734647 -0.004829959
0.08644895 0.029202962 -0.114435606 0.008845478 0.0345338 0.11162236 0.14197047 0.1891503
-0.151167 -0.08401816 -0.12556821 0.06974323 0.060980782 0.080852404 0.1574249 0.04137585
0.108021855 0.014494355 0.013369649 0.09957079 0.010564354 0.07284655 0.059185416 -0.06577806
-0.06654233 -0.08833018 -0.15015411 -0.073894754 0.05180937 -0.11409202 -0.029296739 0.0773527
0.07077857 0.0995614 -0.06274203 -0.14132798 0.04580554 0.03642978 -0.098336235 -0.10978466
-0.16230361 -0.12775429 -0.115852 -0.077500865 -0.082852095 -0.11742018 -0.10659282 -0.0557369
00000000: a30d e63d 8c6b fe3d 13b9 853e dd51 713e
00000010: a9df 353e c693 413e 506e 9a3d b319 20bd
00000020: d2fc 403d c90b 85bd c323 55bd 0ccb 923d
00000030: 55c0 f33b 7372 dabb 5ab5 c03d 0b64 0bbd
00000040: dc54 703d e09b 93bc ab31 143e 39e2 3a3e
00000050: 8d28 f43d 11dc 013e ca7a a53c 6e08 15bc
00000060: fe79 213d 9e96 993d 8b67 3a3d 3989 70bd
00000070: 639a a3bd 55c0 f5bd 4b71 edbc 32f9 e13c
00000080: f627 9dbc 47c8 c43d c049 393e 03ad 0c3e
00000090: 18b2 d43d 341b 433e 5979 913d 5ac0 9bbb
000000a0: 7f5c 2e3e f1c2 053d 6b7f 7abc 1b60 473d
000000b0: 62f5 48bd 6367 5e3e 3249 183e 9079 d33d
000000c0: 7ff6 d43d 6035 a13d e150 72bc d240 85bc
000000d0: 27aa 23bd 37ba c23b 460d cd3d 475f a33c
000000e0: fa5e b13d ffec dcbc 56f7 e9bd 8371 dbbd
000000f0: a917 cc3c ebda adbd bf85 7fbb 5d9f aebd
00000100: e294 c1bc 26a4 213d 670a 29bd b884 94bd
00000110: 749d e2bd a8ef 83bd 58f2 7bbc c89d 4fbd
00000120: fb78 16be 9f53 14be 1ba3 32bd 3a56 9fbc
00000130: 9eac f5bb 7773 2abd b8be ea3d aa94 3e3d
00000140: efbb c63d 6000 413d 03ba 98bc 2872 c5bd
00000150: de68 fe3d 9958 2e3e b6b6 863d 4516 323e
00000160: 764e d53d 6575 19bd b533 2cbe 26e8 08bd
00000170: fe45 2fbd e8b1 2ebd 0a26 56bd 103f 87bd
00000180: ba66 2fbd 6596 8ebc 9e22 1fbe fb6e 6abe
00000190: 00a8 12be 02aa efbd 87a0 b1bd d418 24be
000001a0: 1ab7 adbd 01d5 80bc ccb9 85bd a167 07be
000001b0: 700c 3ebd d8a8 99bc 1a14 513d bd27 3abd
000001c0: 52c2 dbbd 29c2 c5bd a9f0 a6bd 3453 56bd
000001d0: a0b7 d23c 783f 003c 4864 9abd 5f26 f5bc
000001e0: eb9b 9ebd 334d a9ba 34d8 10bc 73d6 c7bd
000001f0: 1136 2ebd 20a7 5ebd cc21 b23c e325 823d
00000200: 871d 493d f0e7 733d 5291 a13d 07b0 86bd
00000210: 8755 0abe ffee cebc 883d e5bb 27ad 6b3d
00000220: 833c 4e3e 3f20 283e d40f 2f3e 03cd 0c3d
00000230: 751b f13d 1ccd c53d 428d 0a3e 592a 1d3e
00000240: f660 f9bd 3abe 85be fc3a f9bd 17c4 9cbd
00000250: 76d7 15be 3f15 f8bd 9ec0 34bc 614f d4bd
00000260: febf 19bd 0167 93bd b5a8 cb3c 04aa 22bd
00000270: 11fb 91bd 59ee 8abd d84b d7bd ec27 33be
00000280: 5659 49be 385d 4dbd 446b e03d 4ca1 d3bc
00000290: 0d7c 4bbd 6af8 263e becb 0c3e f1d0 fe3d
000002a0: 6ab3 ea3c 0211 37bb c908 d4bc d60d b13d
000002b0: 185d f63d bb06 583e 13b2 ba3d 5ed0 8bbc
000002c0: 3a90 e33d 80c7 533d 8fb8 423e d89a 0b3e
000002d0: e0da 973d f86b 113c 1f3e bb3d f157 1bbe
000002e0: b9b8 34bd 9452 f7bd d420 a23c f345 efbd
000002f0: 49ba bbbd 1ef9 103e 6429 3e3d 566b d53b
00000300: 47a0 6f3d c582 2bbe 18f8 07be cb11 a7bc
00000310: 3541 b4bd 8d06 2fbe 79c5 b2bc c335 8c3b
00000320: 776c 963c 8a73 14bd 8d4e ce3d 4d46 d03d
00000330: 3725 95bd d5c6 3c3d 1917 893c a244 9ebb
00000340: 260c b13d 0d3b ef3c 375d eabd a0ec 103c
00000350: 5073 0d3d 449a e43d b560 113e 9eb0 413e
00000360: 86cb 1abe b711 acbd f494 00be 8ad5 8e3d
00000370: fcc6 793d f295 a53d fe33 213e b979 293d
00000380: 903a dd3d bb79 6d3c 5f0c 5b3c c5eb cb3d
00000390: 1d16 2d3c 9230 953d 686c 723d a6b6 86bd
000003a0: 5847 88bd 74e6 b4bd 00c2 19be 2256 97bd
000003b0: 1036 543d 14a9 e9bd b7ff efbc 186b 9e3d
000003c0: 5bf4 903d d9e6 cb3d e57e 80bd 48b8 10be
000003d0: 979e 3b3d 6537 153d 8264 c9bd c8d6 e0bd
000003e0: eb32 26be 05d2 02be d043 edbd c6b8 9ebd
000003f0: 5cae a9bd fe79 f0bd 564d dabd 604c 64bd

res_blocks.0.conv2.bias f4 [16]
-0.065373085 0.002227041 -0.015193004 -0.033137668 0.039278094 -0.05546002 -0.033361632 -0.03778686
0.06974915 -0.027833765 -0.075457335 0.07812956 0.060983535 0.08530821 -0.060686816 0.05463462
00000000: 53e2 85bd 8cf3 113b 14ec 78bc 5dbb 07bd
00000010: 11e2 203d 0c2a 63bd 35a6 08bd 65c6 1abd
00000020: a4d8 8e3d a303 e4bc 6089 9abd 6402 a03d
00000030: dfc9 793d 12b6 ae3d bd92 78bd 8dc8 5f3d

res_blocks.0.batchnorm2.weight f4 [16]
0.9704087 0.9060344 1.0004923 0.91100794 0.9831673 1.0850195 0.8545737 0.9800563
0.97069067 0.95444983 1.0709263 1.1260185 0.9306698 1.069458 0.73712385 0.97960824
00000000: b46c 783f dff1 673f 2210 803f d137 693f
00000010: dab0 7b3f ebe1 8a3f 58c5 5a3f f8e4 7a3f
00000020: 2f7f 783f d356 743f 1d14 893f 6021 903f
00000030: 6040 6e3f 00e4 883f 26b4 3c3f 9bc7 7a3f

res_blocks.0.batchnorm2.bias f4 [16]
-0.17771108 -0.120666526 0.0047014244 -0.1952824 -0.1351673 -0.1953657 -0.13707371 -0.15937136
-0.12041599 -0.3622253 -0.04191638 -0.1602857 -0.16185634 -0.08107189 -0.18824485 -0.1267366
00000000: e5f9 35be 0320 f7bd 680e 9a3b 1cf8 47be
00000010: 4c69 0abe f20d 48be 0d5d 0cbe 3f32 23be
00000020: a99c f6bd 9875 b9be 83b0 2bbd ef21 24be
00000030: abbd 25be 0509 a6bd 42c3 40be 3dc7 01be

res_blocks.0.batchnorm2.running_mean f4 [16]
0.28135237 -0.31543395 -1.000005 0.21953067 -0.4455638 -0.24832112 -0.44779164 -0.78723496
1.1502526 0.38086852 0.341122 1.0188514 0.041914 -0.12491045 0.8516481 -0.58923095
00000000: 6b0d 903e 8f80 a1be 2a00 80bf a6cc 603e
00000010: f020 e4be e447 7ebe f244 e5be 3b88 49bf
00000020: 7a3b 933f 3301 c33e 8ba7 ae3e b969 823f
00000030: 04ae 2b3d 0dd1 ffbd 9c05 5a3f d7d7 16bf

res_blocks.0.batchnorm2.running_var f4 [16]
5.041186 3.0378187 4.6872463 3.3234465 1.5752637 1.9568721 4.044358 1.9130882
5.2675877 1.8241704 3.6679654 2.8339517 1.9832869 1.6728181 6.832475 2.3309546
00000000: 6551 a140 9f6b 4240 ecfd 9540 59b3 5440
00000010: 3ea2 c93f c97a fa3f 616b 8140 13e0 f43f
00000020: 1490 a840 6a7e e93f f2bf 6a40 775f 3540
00000030: 58dc fd3f e71e d63f a3a3 da40 5c2e 1540

res_blocks.0.residual_conv.weight f4 [16, 8, 1, 1]
0.087516084 0.36337966 -0.050523832 -0.4631393 -0.178034 -0.053406313 -0.24907349 0.21609712
-0.42056724 -0.23630798 0.14252809 -0.24640825 -0.20844184 0.13433272 0.10662614 -0.45862055
0.2748196 0.1991718 0.05938966 -0.07525964 0.17552988 -0.2864948 0.21879728 -0.40386316
0.1366451 0.22942837 -0.10260407 -0.22137968 -0.07020948 -0.33705562 -0.10548259 0.0008454899
0.2054501 0.25618157 -0.33600792 -0.3675099 -0.22573853 -0.35736382 0.23421372 -0.14975193
0.19337173 0.09718979 0.2177986 -0.38960764 -0.02421054 0.10545721 0.045573015 0.37134445
0.32579497 0.33846876 -0.028487563 -0.34736338 -0.06843713 -0.21285008 -0.14162312 -0.4616147
-0.51841086 -0.027707411 0.05344701 -0.06473725 -0.107967086 -0.26754814 -0.01522118 0.067170255
0.18204764 0.27798375 0.19187 -0.22903317 -0.34405947 -0.1341415 -0.2868761 -0.24679519
-0.10246885 -0.25011206 -0.07585907 0.2575404 -0.011202229 0.20037265 -0.17934464 0.14997417
-0.18017438 0.32587808 -0.12935968 0.03127633 0.35403165 -0.41964328 -0.4590856 -0.28974414
-0.27871704 -0.35268557 0.048575737 -0.42975387 -0.26944262 -0.24511683 -0.2735894 0.09531081
-0.55501735 0.05490102 -0.06442696 -0.3957534 0.08574527 -0.25910565 -0.1977539 0.11518422
0.2851609 -0.1025006 0.23585062 -0.33269998 0.009405376 -0.09728778 -0.35253564 0.18383265
-0.19979803 -0.048949223 -0.07879006 -0.037172202 0.033728626 -0.048476946 0.24325438 0.2681767
0.2919366 0.030183911 -0.13070697 -0.098391265 0.088062614 -0.17369185 -0.324779 -0.03882153
00000000: a23b b33d e60c ba3e 14f2 4ebd 9820 edbe
00000010: 8b4e 36be 94c0 5abd 1f0d 7fbe 9048 5d3e
00000020: 9754 d7be b8fa 71be e2f2 113e 7252 7cbe
00000030: c771 55be 848e 093e ce5e da3d 50d0 eabe
00000040: 28b5 8c3e b1f3 4b3e 9242 733d ba21 9abd
00000050: 1bbe 333e 72af 92be 650c 603e 27c7 cebe
00000060: b1ec 0b3e 45ef 6a3e 1522 d2bd 5bb1 62be
00000070: fdc9 8fbd 8e92 acbe 4207 d8bd dea3 5d3a
00000080: 8361 523e 3b2a 833e 3b09 acbe 422a bcbe
00000090: 0028 67be 64f8 b6be b9d5 6f3e 9258 19be
000000a0: 3d03 463e 710b c73d 9906 5f3e a77a c7be
000000b0: 2f55 c6bc f3f9 d73d c5aa 3a3d dc20 be3e
000000c0: 99ce a63e c74b ad3e c05e e9bc 9dd9 b1be
000000d0: c428 8cbd 5ff5 59be a705 11be c358 ecbe
000000e0: 93b6 04bf a7fa e2bc 41eb 5a3d f794 84bd
000000f0: d91d ddbd 12fc 88be 4262 79bc 8f90 893d
00000100: b26a 3a3e e353 8e3e 9279 443e ac87 6abe
00000110: 9028 b0be 645c 09be 6de1 92be e1b7 7cbe
00000120: 30db d1bd b00e 80be 005c 9bbd 56dc 833e
00000130: 8e89 37bc 7d2e 4d3e 1fa6 37be d492 193e
00000140: a27f 38be 7ed9 a63e dd76 04be 9c1b 003d
00000150: a343 b53e 7cdb d6be 450d ebbe 5859 94be
00000160: 00b4 8ebe 3493 b4be 5af7 463d b308 dcbe
00000170: 62f4 89be e8ff 7abe e913 8cbe 5032 c33d
00000180: 9e15 0ebf e4df 603d 48f2 83bd 31a0 cabe
00000190: 379b af3d 7fa9 84be 0080 4abe b4e5 eb3d
000001a0: 9c00 923e d6eb d1bd d382 713e a757 aabe
000001b0: 0219 1a3c d13e c7bd 8d7f b4be a03e 3c3e
000001c0: db97 4cbe fb7e 48bd af5c a1bd e141 18bd
000001d0: 0727 0a3d c38f 46bd ad17 793e 754e 893e
000001e0: b778 953e 4044 f73c 0cd8 05be 5c81 c9bd
000001f0: 2c5a b43d 47dc 31be 6f49 a6be 5303 1fbd

res_blocks.0.residual_conv.bias f4 [16]
-0.27247167 0.117668085 -0.35969046 0.075912915 -0.09736314 -0.2872637 -0.08448379 -0.29134926
0.3042526 -0.22210053 -0.19520073 0.2532213 0.09748924 0.16674528 0.122939214 0.23350923
00000000: 6881 8bbe f7fb f03d 5929 b8be 3b78 9b3d
00000010: 5366 c7bd 3a14 93be d605 adbd bb2b 95be
00000020: ffc6 9b3e 526e 63be b3e2 47be 39a6 813e
00000030: 70a8 c73d 46bf 2a3e 8ec7 fb3d 0b1d 6f3e

res_blocks.1.conv1.weight f4 [32, 16, 3, 3]
0.27217415 0.09100414 0.14954747 0.12595184 0.120349854 -0.005242157 0.09549903 0.023292651
0.026378484 -0.0055441814 -0.14554708 -0.0013359837 -0.09833235 -0.19850723 -0.07885019 0.0584257
0.0254317 0.050456177 -0.042624995 0.010820265 0.058816474 0.033737645 0.044962306 0.012078791
0.095904335 0.12877597 0.12331816 0.17727482 0.22432643 0.27721122 0.021571375 -0.012303794
0.027162112 0.05880261 0.03248298 0.14961675 0.08446583 0.10430245 -0.02616999 -0.014562215
-0.052747216 0.04667455 0.023851141 0.042249452 0.013805482 -0.06412527 -0.09676385 -0.067648396
0.017227815 0.009776349 -0.05030183 -0.10504451 -0.026369678 -0.08091324 0.18125637 0.19757143
0.1725307 0.1490664 0.30194843 0.17691945 0.28710985 0.19173926 0.24393873 -0.02021383
0.08115307 -0.026696844 0.020045515 -0.042798355 0.05592498 0.033105962 -0.028617872 0.069654875
0.06305703 -0.05928163 0.07566181 -0.069908656 -0.0726967 0.04569129 0.12713979 0.033870276
0.08880835 0.045801 0.118035324 0.048655085 -0.04772046 -0.0314456 0.00936492 -0.06598388
-0.074698 -0.042833176 0.18100055 0.22469918 0.3019984 0.20163459 0.11925926 0.23154278
0.22621268 0.201798 0.18314922 -0.037457086 -0.002919924 0.03297707 0.04740701 0.062380206
-0.025902655 -0.010480854 0.024160385 -0.03498452 0.07116488 0.13952765 0.09855577 0.016452132
-0.015816012 -0.040021263 0.14842854 0.18409017 0.18432918 -0.051817972 -0.011279956 -0.1309549
-0.046844535 -0.0643746 -0.10358796 -0.16104318 -0.19644505 -0.2417326 -0.13567159 -0.0488813
-0.08329557 -0.07573845 -0.15025683 -0.13341632 -0.13917427 -0.21003947 -0.08075413 0.037157718
0.032186907 -0.046816178 -0.13681863 -0.1709761 -0.21399866 -0.16686854 -0.1648506 -0.13963607
0.033422276 -0.0013597129 0.057079226 -0.17186734 -0.08132702 -0.09492086 -0.017088275 -0.019841697
-0.031679288 -0.120067835 -0.0603273 -0.058002595 -0.017695608 0.050665624 -0.0582001 -0.030892167
-0.083420664 -0.14296378 -0.3300901 -0.3121101 -0.28055805 -0.094973415 -0.022254448 -0.10726744
-0.020929258 -0.09821458 0.010848906 0.06533856 0.110314324 0.0671311 -0.08388082 -0.05521197
0.028959727 -0.064333595 -0.114452735 -0.10517948 0.007492745 -0.07623297 -0.101913646 -0.13218302
-0.016807446 -0.0113097 0.06494927 -0.02647235 0.07674393 0.053756945 0.18652496 0.1955675
0.043472122 0.050343286 0.039240927 -0.0696407 0.041578017 0.04193244 0.08775757 0.026627742
-0.06644584 0.14743215 0.2031147 0.07868812 0.17536573 0.12816882 0.18044908 0.018075017
-0.014658219 -0.05656717 -0.078034654 -0.0024501204 0.060281545 0.00036839437 0.04784834 -0.043925323
-0.019029275 -0.053018734 -0.05807365 -0.0012529982 -0.0591146 -0.030939274 0.09800191 0.11972404
0.09408598 0.09283151 0.18144855 0.06478204 0.12985756 0.034760285 0.06886629 0.024723371
-0.11558171 -0.09329208 0.1420571 0.14193124 0.10680077 -0.004284534 -0.05418493 -0.10997791
-0.1486135 -0.11385811 -0.06508303 -0.25338563 -0.27169678 -0.30562583 -0.04207263 0.015239704
0.05769208 0.117314406 0.13379654 0.10613328 0.00709957 -0.06903159 0.029108796 0.09000714
00000000: 695a 8b3e 6160 ba3d f922 193e 85f9 003e
00000010: fc79 f63d 66c6 abbb ff94 c33d 3bd0 be3c
00000020: b117 d83c f7ab b5bb 4b0a 15be 2d1c afba
00000030: 7962 c9bd 7b45 4bbe 357c a1bd c94f 6f3d
00000040: 2456 d03c 23ab 4e3d 8c97 2ebd 7b47 313c
00000050: 8be9 703d 7c30 0a3d 652a 383d 1fe6 453c
00000060: 7e69 c43d d9dd 033e 3b8e fc3d 8887 353e
00000070: d4b5 653e a1ee 8d3e 74b6 b03c da95 49bc
00000080: 1483 de3c 01db 703d e00c 053d 2235 193e
00000090: 6cfc ac3d 869c d53d 7262 d6bc 5b96 6ebc
000000a0: 770d 58bd d02d 3f3d 7863 c33c c30d 2d3d
000000b0: 6330 623c 1c54 83bd 202c c6bd 3e8b 8abd
000000c0: 5921 8d3c fb2c 203c 4b09 4ebd 9321 d7bd
000000d0: 3905 d8bc d7b5 a5bd 459b 393e 2a50 4a3e
000000e0: e3ab 303e dda4 183e fc98 9a3e 5f2a 353e
000000f0: 1000 933e 4c57 443e 13cb 793e 7997 a5bc
00000100: 9533 a63d 57b3 dabc 7e36 a43c 544d 2fbd
00000110: 9811 653d 1e9a 073d 0770 eabc 37a7 8e3d
00000120: 0b24 813d 4bd1 72bd 94f4 9a3d 452c 8fbd
00000130: 02e2 94bd ca26 3b3d ef30 023e 8fbb 0a3d
00000140: 27e1 b53d d499 3b3d 81bc f13d 8e4a 473d
00000150: 8776 43bd 1acd 00bd 526f 193c 8e22 87bd
00000160: 44fb 98bd d771 2fbd 3558 393e 8b17 663e
00000170: 899f 9a3e 4c79 4e3e 333e f43d 8d19 6d3e
00000180: 4ca4 673e 23a4 4e3e 788b 3b3e 9a6c 19bd
00000190: 325c 3fbb f712 073d da2d 423d 6382 7f3d
000001a0: ce31 d4bc e3b7 2bbc 00ec c53c ee4b 0fbd
000001b0: e5be 913d 56e0 0e3e 9cd7 c93d 9fc6 863c
000001c0: 9590 81bc 56ed 23bd a7fd 173e 2282 3c3e
000001d0: cac0 3c3e 153f 54bd 91cf 38bc 0b19 06be
000001e0: 0ee0 3fbd d5d6 83bd ed25 d4bd 81e8 24be
000001f0: e428 49be c088 77be 7eed 0abe c237 48bd
00000200: de96 aabd c31c 9bbd eddc 19be 4a9e 08be
00000210: b383 0ebe 9614 57be 6c62 a5bd b132 183d
00000220: 6bd6 033d 52c2 3fbd 2f1a 0cbe 5c14 2fbe
00000230: 7722 5bbe 96df 2abe 98ce 28be c2fc 0ebe
00000240: cce5 083d 6538 b2ba e8cb 693d fefd 2fbe
00000250: c88e a6bd de65 c2bd b6fc 8bbc 0e8b a2bc
00000260: 24c2 01bd 20e6 f5bd c219 77bd 2194 6dbd
00000270: 61f6 90bc c286 4f3d 3a63 6ebd 9211 fdbc
00000280: 74d8 aabd 1965 12be 9201 a9be e5cc 9fbe
00000290: 4ea5 8fbe 6c81 c2bd f64e b6bc 08af dbbd
000002a0: d673 abbc ba24 c9bd 9cbf 313c 39d0 853d
000002b0: 7aec e13d 087c 893d b5c9 abbd f225 62bd
000002c0: f33c ed3c 55c1 83bd 3266 eabd 5768 d7bd
000002d0: b385 f53b 0820 9cbd 1ab8 d0bd fc5a 07be
000002e0: c5af 89bc 524c 39bc 1f04 853d 8bdc d8bc
000002f0: ec2b 9d3d 3e30 5c3d 6600 3f3e d942 483e
00000300: d30f 323d c334 4e3d 18bb 203d c99f 8ebd
00000310: b64d 2a3d 5ac1 2b3d 3eba b33d 6c22 da3c
00000320: c214 88bd 74f8 163e 4dfd 4f3e 3d27 a13d
00000330: 1393 333e b03e 033e a5c7 383e 0f12 943c
00000340: 0729 70bc fab2 67bd a2d0 9fbd 3392 20bb
00000350: c8e9 763d 0e25 c139 9ffc 433d 0aeb 33bd
00000360: 48e3 9bbc 2c2a 59bd a3de 6dbd a53b a4ba
00000370: 2722 72bd 5c74 fdbc 3ab5 c83d e131 f53d
00000380: 26b0 c03d 721e be3d a6cd 393e 72ac 843d
00000390: 61f9 043e cd60 0e3d c509 8d3d ab88 ca3c
000003a0: 1bb6 ecbd eb0f bfbd 6b77 113e 6c56 113e
000003b0: 5dba da3d 4765 8cbb 04f1 5dbd 193c e1bd
000003c0: 232e 18be 712e e9bd 404a 85bd c3bb 81be
000003d0: d71b 8bbe fd7a 9cbe 5a54 2cbd f4af 793c
000003e0: 884e 6c3d 8942 f03d f601 093e 685c d93d
000003f0: 82a3 e83b 6f60 8dbd 9275 ee3c aa55 b83d

res_blocks.1.conv1.bias f4 [32]
0.07997326 -0.0051027797 0.076810166 0.03315863 -0.06682806 -0.05099013 -0.057652168 -0.030179225
-0.07178774 -5.9716273e-05 0.0013128323 0.0654572 -0.0400226 0.04405309 0.023590006 -0.004458818
0.034839325 -0.067727156 -0.039712533 -0.020686219 0.07458878 0.054131463 0.056199275 -0.019484116
0.031088144 0.045598134 -0.0075811306 0.07890002 0.048714925 -0.03720799 0.02739495 -0.08153133
00000000: 05c9 a33d 3835 a7bb a64e 9d3d 58d1 073d
00000010: 26dd 88bd 07db 50bd ae24 6cbd 6c3a f7bc
00000020: 7305 93bd dc77 7ab8 5813 ac3a 6d0e 863d
00000030: bdee 23bd 0371 343d d43f c13c 471b 92bb
00000040: aeb3 0e3d 89b4 8abd 9ca9 22bd 2576 a9bc
00000050: 01c2 983d f4b8 5d3d 3631 663d 279d 9fbc
00000060: 90ac fe3c 1cc5 3a3d 226b f8bb 5596 a13d
00000070: 4d89 473d 6867 18bd 606b e03c e6f9 a6bd

res_blocks.1.batchnorm1.weight f4 [32]
0.9145865 1.2069522 0.77798533 1.1658696 1.0024421 1.0477204 1.326887 0.9364405
0.98563147 1.0467354 0.9100405 1.0706693 1.054955 0.9019755 0.92765385 0.98107004
1.056976 1.0104685 0.6651692 0.9230884 0.955913 0.81203824 0.92329276 0.7687572
0.8089931 0.98056644 1.0374796 0.8973881 0.93487185 0.9602395 0.9737632 0.875272
00000000: 5722 6a3f 697d 9a3f 0c2a 473f 373b 953f
00000010: 0650 803f b41b 863f 6fd7 a93f 91ba 6f3f
00000020: 5852 7c3f 6dfb 853f 6af8 683f b10b 893f
00000030: c408 873f dee7 663f b97a 6d3f 6827 7b3f
00000040: fd4a 873f 0857 813f 8748 2a3f 854f 6c3f
00000050: b7b6 743f bde1 4f3f ea5c 6c3f 46cd 443f
00000060: 2c1a 4f3f 6706 7b3f 22cc 843f 3abb 653f
00000070: c353 6f3f 42d2 753f 8c48 793f d311 603f

res_blocks.1.batchnorm1.bias f4 [32]
-0.19396777 -0.17589591 -0.40656427 -0.13835406 -0.033018578 -0.3506069 0.026613047 -0.35272503
-0.22865441 -0.34670714 -0.16173588 -0.23865165 -0.27967206 -0.29382503 -0.35590678 -0.08027686
-0.2417654 -0.4271172 -0.24944215 -0.17132698 -0.36725238 -0.03829046 -0.0962404 -0.3243757
-0.3391185 -0.32321778 -0.22661187 -0.15550412 -0.20182063 -0.22818543 -0.28406206 -0.18821909
00000000: 7d9f 46be 0f1e 34be 3129 d0be b0ac 0dbe
00000010: 7d3e 07bd bf82 b3be 9b03 da3c 6098 b4be
00000020: 6224 6abe 9983 b1be 179e 25be 1961 74be
00000030: 2d31 8fbe 3c70 96be 6a39 b6be 3268 a4bd
00000040: 5991 77be 1baf dabe c36d 7fbe 5770 2fbe
00000050: 8108 bcbe 75d6 1cbd b019 c5bd 9214 a6be
00000060: f1a0 adbe cd7c a5be f10c 68be 793c 1fbe
00000070: 11aa 4ebe 71a9 69be 9570 91be 81bc 40be

res_blocks.1.batchnorm1.running_mean f4 [32]
-1.3314339 -2.4955444 -1.490641 -1.9709952 -1.1871518 0.48966542 -1.3055027 -0.65503055
0.026285945 -0.6093388 -2.3520987 -0.75778115 -0.87569684 -0.8005563 -0.639335 -1.1899374
0.1621448 -1.1479205 3.477215 -2.66136 -0.4518774 -1.020989 -1.6984779 -2.648409
-1.0108792 -0.18104273 -2.3281744 -1.846204 -1.4286233 0.24538426 -0.1051006 -0.8400973
00000000: 6d6c aabf 00b7 1fc0 53cd bebf 9249 fcbf
00000010: 97f4 97bf 6db5 fa3e b61a a7bf 15b0 27bf
00000020: 9f55 d73c a1fd 1bbf c988 16c0 f2fd 41bf
00000030: ab2d 60bf 42f1 4cbf 75ab 23bf de4f 98bf
00000040: 4909 263e 0fef 92bf b18a 5e40 b953 2ac0
00000050: 795c e7be c4af 82bf b967 d9bf 887f 29c0
00000060: 7d64 81bf 4463 39be cf00 15c0 6a50 ecbf
00000070: 21dd b6bf 0346 7b3e fc3e d7bd 9e10 57bf

res_blocks.1.batchnorm1.running_var f4 [32]
7.073855 8.168214 4.770872 7.522235 6.4978285 3.41753 11.604969 6.585939
4.2771235 5.187701 13.012296 4.33845 5.792979 13.915835 4.094383 10.046159
4.497032 7.200622 10.960191 17.761234 3.6768627 10.204211 9.484887 14.695393
3.2637136 3.1235003 8.663894 9.21192 7.758592 3.4373014 3.4394884 4.451479
00000000: 055d e240 01b1 0241 fcaa 9840 26b6 f040
00000010: 36ee cf40 d0b8 5a40 f4ad 3941 03c0 d240
00000020: 32de 8840 a601 a640 5d32 5041 95d4 8a40
00000030: 1560 b940 43a7 5e41 2f05 8340 11bd 2041
00000040: b0e7 8f40 7f6b e640 f15c 2f41 0217 8e41
00000050: b851 6b40 7344 2341 19c2 1741 5420 6b41
00000060: afe0 5040 6ee7 4740 4f9f 0a41 0664 1341
00000070: 6346 f840 bffc 5b40 9420 5c40 8472 8e40

res_blocks.1.conv2.weight f4 [32, 32, 3, 3]
-0.03605283 -0.033002224 -0.039595444 0.0054280176 0.025429744 -0.047988012 -0.013298077 0.063095555
0.047910113 0.11389092 0.08292317 0.07738317 0.15276757 0.16492376 0.16016844 0.13874447
0.19119538 0.201698 -0.1072751 -0.0031704882 -0.0759371 -0.047127426 -0.08251829 -0.017572263
-0.049555786 -0.050954476 -0.10321502 0.22013092 0.18423817 0.2443514 0.15726188 0.12311134
0.12333809 0.089283645 0.16612105 0.19136123 0.022295326 0.008372655 -0.0036717374 0.082802296
0.11768318 0.04430453 0.01319897 0.034734633 0.084313154 0.078536734 0.086028166 0.11168851
0.049053147 0.043816574 0.053035375 0.18559572 0.19144653 0.13107112 0.019794498 0.033556346
0.053791106 0.16928299 0.21461236 0.2119347 0.084396966 0.18087168 0.18645927 -0.11288162
-0.14907977 -0.09854782 -0.0791616 -0.14128047 -0.15897152 -0.07474092 -0.112095445 -0.12545723
0.18836194 0.2212483 0.12497472 0.010683068 0.10385627 0.07387078 0.14742208 0.15639424
0.18142524 -0.06793815 -0.037851017 -0.09641099 -0.13516872 -0.02319832 -0.1080119 -0.19452092
-0.17856352 -0.1539408 -0.27982238 -0.22533567 -0.24522749 -0.12934853 -0.207215 -0.10027333
-0.12670662 -0.103984356 -0.13609903 0.049719445 0.107822716 0.024523651 -0.019854497 0.0072671073
0.054467775 0.030800981 -0.030525388 -0.028256405 -0.08374704 -0.16185863 -0.15391904 0.015878098
-0.037351076 -0.022044603 0.052845977 0.043678656 0.08643781 0.16721743 0.18013903 0.22430432
0.14015229 0.091508165 0.17040896 0.12375149 0.13849719 0.13070153 0.23780505 0.1815637
0.22405553 0.19676015 0.13082334 0.19491172 0.19604075 0.31285316 0.2735796 0.041407626
-0.0064074867 0.06094155 0.11184473 0.05792772 0.064872384 0.044347826 0.009404856 0.032492775
0.04266694 0.112471856 0.023485439 0.06690604 0.031486385 0.08671644 -0.0215989 -0.003597642
0.0023747375 -0.10945127 -0.09745254 -0.08919331 -0.088377275 -0.1169223 -0.09257019 -0.003726126
-0.006282575 -0.08485799 -0.07207423 -0.027270015 -0.028514467 -0.050005082 -0.087666966 -0.08815208
-0.061492257 -0.08251994 -0.048110656 -0.12388306 -0.06372873 -0.15999721 -0.035545874 -0.06121758
-0.090497926 -0.0022611488 0.04160266 0.03621131 0.020238794 -0.046896998 0.0058422955 0.067813404
0.010588341 0.043659154 -0.06856124 -0.05290064 -0.062381804 -0.07166646 0.025794009 0.013782841
0.09831977 0.07676303 0.08178157 0.007795161 0.084831506 -0.0053674555 0.1490488 0.17444073
0.12090206 0.08495237 0.10462355 0.11840748 -0.055542577 -0.06962556 -0.004431853 -0.098014735
-0.06802257 -0.0022831552 -0.08272598 -0.006627378 -0.009477455 -0.08220059 -0.019851204 -0.046109054
0.011303781 0.01915113 0.094060116 0.016010208 0.058245804 0.041371644 0.094419934 0.06586584
0.00473218 -0.04058496 0.07626246 0.06830085 -0.10403697 -0.1409295 -0.17321086 -0.20570233
-0.108927995 -0.21961968 -0.18069907 -0.11890438 -0.13354425 -0.030834572 -0.084807664 -0.06831242
-0.096294254 -0.15429848 -0.16906029 -0.00041879574 0.05837653 -0.031416498 0.060072448 0.064612895
0.0090007875 0.068682455 -0.0005171449 0.09479567 0.13111606 0.09319283 0.13787226 0.065807894
00000000: 22ac 13bd 572d 07bd d52e 22bd 83dd b13b
00000010: 0a52 d03c 148f 44bd 2de0 59bc 3e38 813d
00000020: 653d 443d a53f e93d 9fd3 a93d 117b 9e3d
00000030: 1a6f 1c3e c6e1 283e 3203 243e 0813 0e3e
00000040: b9c8 433e ec89 4e3e 0cb3 dbbd f7c7 4fbb
00000050: e984 9bbd b008 41bd 59ff a8bd b5f3 8fbc
00000060: 02fb 4abd a4b5 50bd 6562 d3bd 006a 613e
00000070: eea8 3c3e 4137 7a3e 4209 213e cc21 fc3d
00000080: ae98 fc3d 58da b63d a31b 2a3e 33f4 433e
00000090: b0a4 b63c 762d 093c 88a1 70bb 4094 a93d
000000a0: e103 f13d ab78 353d 7e40 583c e745 0e3d
000000b0: 60ac ac3d ded7 a03d 892f b03d f2bc e43d
000000c0: f4eb 483d 0279 333d 9f3b 593d ce0c 3e3e
000000d0: 8f0a 443e 8237 063e 1228 a23c 6172 093d
000000e0: 1054 5c3d 8558 2d3e 58c3 5b3e 6905 593e
000000f0: 51d8 ac3d 6d36 393e 2eef 3e3e 7b2e e7bd
00000100: 5ea8 18be 70d3 c9bd 7a1f a2bd d4ab 10be
00000110: 6ec9 22be c411 99bd 4c92 e5bd dc77 00be
00000120: f4e1 403e ea8e 623e bff2 ff3d 0908 2f3c
00000130: 99b2 d43d 9049 973d d0f5 163e d025 203e
00000140: 8ac7 393e 2823 8bbd ab09 1bbd 2073 c5bd
00000150: ab69 0abe 670a bebc 5835 ddbd 7e30 47be
00000160: 5bd9 36be a8a2 1dbe e144 8fbe 65be 66be
00000170: ea1c 7bbe f173 04be 2b30 54be 1b5c cdbd
00000180: 61bf 01be c0f5 d4bd 8b5d 0bbe 9ea6 4b3d
00000190: 28d2 dc3d d3e5 c83c e6a5 a2bc ea20 ee3b
000001a0: 9a19 5f3d 5752 fc3c 6110 fabc fa79 e7bc
000001b0: 9183 abbd 45be 25be f49c 1dbe c912 823c
000001c0: 71fd 18bd e296 b4bc 0675 583d 64e8 323d
000001d0: 4e06 b13d 0c3b 2b3e 5e76 383e 08b0 653e
000001e0: 1584 0f3e a268 bb3d b07f 2e3e 6c71 fd3d
000001f0: 35d2 0d3e 9fd6 053e 2b83 733e d6eb 393e
00000200: d06e 653e 7e7b 493e 8ef6 053e f096 473e
00000210: e8be 483e 4a2e a03e a012 8c3e 0b9b 293d
00000220: e5f5 d1bb d99d 793d da0e e53d 9e45 6d3d
00000230: d0db 843d 11a6 353d d316 1a3c 2517 053d
00000240: 87c3 2e3d a557 e63d 8964 c03c 0906 893d
00000250: def7 003d 6498 b13d 2df0 b0bc 6bc6 6bbb
00000260: 7ca1 1b3b fd27 e0bd 3395 c7bd fbaa b6bd
00000270: 25ff b4bd f574 efbd 7195 bdbd 0532 74bb
00000280: 0fde cdbb 07ca adbd a79b 93bd 5e65 dfbc
00000290: 2c97 e9bc 21d2 4cbd bd8a b3bd 1489 b4bd
000002a0: 4edf 7bbd 3700 a9bd ae0f 45bd 67b6 fdbd
000002b0: 3584 82bd 4fd6 23be 8d98 11bd 49bf 7abd
000002c0: fa56 b9bd c82f 14bb 8d67 2a3d 5052 143d
000002d0: d4cb a53c 1117 40bd ba70 bf3b c1e1 8a3d
000002e0: b97a 2d3c f1d3 323d d669 8cbd 57ae 58bd
000002f0: 1084 7fbd ddc5 92bd f54d d33c 6dd1 613c
00000300: e05b c93d ef35 9d3d 197d a73d 8d6e ff3b
00000310: 24bc ad3d 7be1 afbb 40a0 183e 97a0 323e
00000320: 809b f73d 82fb ad3d df44 d63d 9f7f f23d
00000330: 9d80 63bd d897 8ebd 1439 91bb f3bb c8bd
00000340: 6b4f 8bbd fda0 15bb 3d6c a9bd 7a2a d9bb
00000350: 5447 1bbc c858 a8bd fe9e a2bc d9dc 3cbd
00000360: 7e33 393c d5e2 9c3c 97a2 c03d d727 833c
00000370: 2793 6e3d 5075 293d 3d5f c13d abe4 863d
00000380: 6710 9b3b 6a3c 26bd 7e2f 9c3d 51e1 8b3d
00000390: 5611 d5bd d34f 10be 305e 31be a2a3 52be
000003a0: a415 dfbd fbe3 60be 2d09 39be 2484 f3bd
000003b0: d3bf 08be c998 fcbc a4af adbd 62e7 8bbd
000003c0: ec35 c5bd 6c00 1ebe 241e 2dbe d091 dbb9
000003d0: 3a1c 6f3d 96ae 00bd 870e 763d c453 843d
000003e0: 0a78 133c 63a9 8c3d 0291 07ba 3b24 c23d
000003f0: 4a43 063e e2db be3d 632e 0d3e 4ac6 863d

res_blocks.1.conv2.bias f4 [32]
-0.04592974 0.044368286 0.04386675 -0.030015143 0.042093266 0.053861022 0.01572291 0.04877802
-0.031693377 -0.036141146 0.026994945 -0.038711883 -0.018560309 -0.024810558 -0.050730847 -0.021287363
0.057729065 -0.0009111847 0.036673613 0.017675564 0.00083330914 0.029639645 -0.034535006 -0.017788025
-0.054774843 -0.034895327 0.04421936 0.04110698 0.034451853 -0.051037267 0.018566001 -0.006741087
00000000: d320 3cbd 85bb 353d 9fad 333d 51e2 f5bc
00000010: fd69 2c3d 609d 5c3d 55cd 803c 76cb 473d
00000020: ead0 01bd bd08 14bd 8124 dd3c 5a90 1ebd
00000030: ca0b 98bc 833f cbbc 26cb 4fbd d662 aebc
00000040: 5075 6c3d 92dc 6eba 1237 163d 58cc 903c
00000050: 6e72 5a3a d7ce f23c 9474 0dbd 31b8 91bc
00000060: 965b 60bd 67ee 0ebd 5c1f 353d cb5f 283d
00000070: 631d 0d3d 740c 51bd ba17 983c 56e4 dcbb

res_blocks.1.batchnorm2.weight f4 [32]
1.5619434 1.5632592 1.6545297 1.4770002 1.3654416 1.6730218 1.6508573 1.5783757
1.5416247 1.5967667 1.5809382 1.5058503 1.5078017 1.4872259 1.4613814 1.5318928
1.6562945 1.6730335 1.5040056 1.4378153 1.7151282 1.565827 1.5294094 1.5928994
1.5923213 1.5520146 1.4345359 1.46446 1.4942032 1.4833295 1.2162236 1.5288886
00000000: c3ed c73f e118 c83f a1c7 d33f 580e bd3f
00000010: cac6 ae3f 9425 d63f 4b4f d33f 3708 ca3f
00000020: f553 c53f da62 cc3f 2f5c ca3f b4bf c03f
00000030: a5ff c03f 6b5d be3f 8c0e bb3f 1015 c43f
00000040: 7501 d43f f625 d63f 4183 c03f 550a b83f
00000050: 5289 db3f 056d c83f b0c3 c33f 21e4 cb3f
00000060: 2fd1 cb3f 6aa8 c63f df9e b73f 6d73 bb3f
00000070: 0d42 bf3f bedd bd3f 37ad 9b3f 9fb2 c33f

res_blocks.1.batchnorm2.bias f4 [32]
0.06114142 0.08978812 0.035309136 0.0067291935 -0.012858513 0.028570093 -0.07442417 0.082827404
0.060254138 0.1216252 0.029867558 0.032288678 0.07593067 0.0039318167 0.005266894 -0.008048092
0.12378545 0.010491782 0.029676583 -0.023122108 -0.02733192 0.08142939 0.01293908 -0.16144252
0.14196603 0.010329828 0.058518108 -0.13839373 0.057927124 0.07819636 -0.063239545 0.085664004
00000000: 6d6f 7a3d d5e2 b73d 50a0 103d 9180 dc3b
00000010: 83ac 52bc d40b ea3c b36b 98bd 6aa1 a93d
00000020: 0bcd 763d a216 f93d cfac f43c 2241 043d
00000030: 8a81 9b3d 78d6 803b e995 ac3b 25dc 03bc
00000040: 3a83 fd3d b9e5 2b3c 4e1c f33c 936a bdbc
00000050: 31e7 dfbc 74c4 a63d 6ffe 533c 3051 25be
00000060: 8b5f 113e 703e 293c afb0 6f3d 16b7 0dbe
00000070: fe44 6d3d 6a25 a03d bc83 81bd 9c70 af3d

res_blocks.1.batchnorm2.running_mean f4 [32]
1.5985947 1.4954717 0.41254267 -0.073276915 -0.030383661 0.6925369 -0.6988776 -0.16981715
0.76297206 -0.4872485 0.09327361 0.8830088 0.8169207 -0.90525806 0.025997363 0.9477222
0.45236522 0.73458934 0.33966866 -2.2789683 0.80468726 -0.39345607 0.32211939 -1.3651756
0.13569629 1.4760072 1.5227194 -0.13355017 -0.4650786 -0.08756187 -0.899048 -0.99334913
00000000: c09e cc3f 9e6b bf3f cb38 d33e 3512 96bd
00000010: 28e7 f8bc 194a 313f a4e9 32bf 8ce4 2dbe
00000020: 2352 433f a378 f9be 3c06 bf3d dd0c 623f
00000030: b721 513f febe 67bf 6cf8 d43c ec9d 723f
00000040: 6a9c e73e 0c0e 3c3f 0de9 ad3e 9eda 11c0
00000050: fcff 4d3f 1373 c9be d5ec a43e 13be aebf
00000060: f8f3 0a3e ceed bc3f 78e8 c23f 60c1 08be
00000070: c81e eebe a353 b3bd 0228 66bf 214c 7ebf

res_blocks.1.batchnorm2.running_var f4 [32]
2.0616715 2.1677136 1.924926 1.852892 1.9104158 1.6091794 1.9439994 2.3151505
2.7285635 1.946816 1.6248107 2.8416357 2.1207974 2.0426617 1.430658 1.4733186
2.115416 2.3761258 2.541545 2.062404 2.4500847 1.5746095 2.6816654 1.7783414
1.3005198 2.4423232 1.7672274 1.2908112 1.9651475 1.2724862 1.380158 3.0249553
00000000: 6df2 0340 d2bb 0a40 fa63 f63f 912b ed3f
00000010: 8188 f43f 97f9 cd3f f9d4 f83f 6d2b 1440
00000020: c9a0 2e40 4431 f93f ccf9 cf3f 5cdd 3540
00000030: 25bb 0740 f8ba 0240 cd1f b73f b495 bc3f
00000040: fa62 0740 7212 1840 aca8 2240 6dfe 0340
00000050: 30ce 1c40 ce8c c93f 68a0 2b40 b1a0 e33f
00000060: 6f77 a63f 064f 1c40 8234 e23f 4d39 a53f
00000070: f489 fb3f d4e0 a23f 04a9 b03f de98 4140

res_blocks.1.residual_conv.weight f4 [32, 16, 1, 1]
-0.092296995 0.1605226 0.15627852 -0.0013108747 -0.22518952 0.035491984 -0.10714068 0.10244533
-0.20121737 -0.35491282 -0.16790803 -0.08418515 0.04100393 -0.21271496 -0.007649155 0.024655337
0.20315719 -0.14214581 -0.1895051 0.31346452 0.09821452 -0.059775338 -0.02242587 -0.37384135
-0.20856145 0.097113594 0.28441945 0.09050356 0.016947616 -0.28871712 -0.11251754 0.08354623
0.12305471 0.17407145 -0.13640063 -0.15465024 0.15535383 -0.12998188 0.04486302 0.17268385
-0.18214554 -0.29256862 -0.04626922 -0.0061793746 0.09293339 -0.17052445 -0.043460798 -0.035895586
-0.21150762 0.32736793 0.24056317 0.15339054 0.16989365 -0.4140008 0.17261475 0.05031324
-0.24973348 0.09611093 0.10761576 -0.036582228 0.03973072 -0.011615281 0.14819789 0.13249461
-0.050892152 0.18508117 -0.26759228 0.07557054 0.19888386 -0.03472398 -0.27405754 0.1458332
-0.2554034 -0.12558304 0.3749429 -0.27762082 0.03883771 0.12176256 -0.013492365 0.05302637
-0.088293806 -0.10971388 -0.039699737 -0.04466586 0.09256113 -0.069296755 -0.10621602 0.11891
0.21057792 0.03237116 0.09002869 -0.025520768 0.24860059 -0.16261132 0.04314492 -0.31305695
-0.12083004 -0.14081131 -0.1528461 0.06514486 0.13169782 0.25571507 -0.10926758 -0.14271587
0.039282117 -0.3587904 -0.16864148 0.11822562 0.08081425 -0.12378514 0.14673488 -0.28042084
-0.27951044 0.1760103 -0.13028377 -0.06450661 -0.20841415 -0.3103967 0.09055501 0.3697275
-0.16066423 -0.19428219 0.19333102 0.20092033 0.1613167 0.1618417 -0.17723167 0.17185912
0.32773829 0.0896073 -0.22098288 0.09609101 0.19265495 0.20052963 0.2259537 -0.040794928
-0.139535 -0.23312506 0.46617132 -0.22410537 0.1261557 -0.11336563 -0.16551702 -0.25406104
-0.088272 0.11512682 0.047616176 -0.27937347 -0.1734455 -0.20776352 -0.09729903 -0.06595458
-0.124792345 -0.21914637 -0.22109778 -0.15379208 -0.037569974 0.031389937 -0.10998201 -0.119813904
0.21358912 0.119693324 0.16465548 0.034655333 0.10497053 0.0023748553 0.018635275 0.1341507
-0.048136555 -0.20575619 -0.21178843 0.2059234 0.13028498 0.1358407 -0.090521805 0.020387286
-0.031446047 -0.00041969572 -0.07905559 0.00277379 0.18209758 0.2577571 -0.096075244 -0.3829868
-0.2853807 -0.02256276 0.2624832 -0.2287269 0.028483635 -0.31002265 -0.24484234 -0.11585187
-0.26618448 -0.31236112 0.19479151 0.17978837 -0.17001669 -0.31464905 0.24106756 -0.3155268
-0.15939432 -0.27027696 0.0605451 -0.018844735 -0.28732246 -0.02596811 0.040119313 -0.12441777
0.3319527 -0.044398982 0.06491165 0.019947747 -0.09335152 0.27529493 0.03159653 -0.17498799
-0.2689173 -0.104808316 0.04137811 0.18318938 0.28258127 0.0006849784 0.066602886 -0.3049453
0.012043927 0.11571727 -0.14739035 -0.017342206 0.21012014 -0.21305408 0.20371029 0.08548433
-0.20661797 -0.049483825 -0.035019334 -0.114569314 -0.13256596 0.021422833 -0.035479963 -0.003053251
-0.29941007 -0.07926971 0.08507538 -0.10355337 0.19613488 -0.05550762 0.049629968 -0.007056551
-0.16126849 -0.17725614 -0.09727286 0.28470123 0.3250377 0.16219838 -0.28064314 -0.22463672
00000000: 3506 bdbd 0960 243e 7a07 203e a8d1 abba
00000010: 1598 66be 0b60 113d 936c dbbd dbce d13d
00000020: ed0b 4ebe 22b7 b5be 15f0 2bbe 4469 acbd
00000030: bdf3 273d f3d1 59be c3a5 fabb fdf9 c93c
00000040: 7008 503e ac8e 11be a00d 42be 6c7e a03e
00000050: b224 c93d fcd6 74bd 75b6 b7bc 2268 bfbe
00000060: 2291 55be 7ee3 c63d 6d9f 913e ee59 b93d
00000070: bad5 8a3c bbd2 93be 996f e6bd 491a ab3d
00000080: 1c04 fc3d c93f 323e 9bac 0bbe a25c 1ebe
00000090: 1315 1f3e f819 05be 49c2 373d 09d4 303e
000000a0: 5c84 3abe 8ecb 95be cb84 3dbd 5a7c cabb
000000b0: dc53 be3d f69d 2ebe f303 32bd 4007 13bd
000000c0: 7495 58be c59c a73e 3156 763e 6912 1d3e
000000d0: 9af8 2d3e eaf7 d3be ecc1 303e 4215 4e3d
000000e0: 22ba 7fbe cfd5 c43d a765 dc3d 3fd7 15bd
000000f0: aebc 223d 054e 3ebc 30c1 173e abac 073e
00000100: 4a74 50bd eb85 3d3e db01 89be bac4 9a3d
00000110: 36a8 4b3e bb3a 0ebd 4551 8cbe 4c55 153e
00000120: 3cc4 82be d798 00be 84f8 bf3e 5124 8ebe
00000130: 4a14 1f3d a65e f93d 150f 5dbc 2e32 593d
00000140: 62d3 b4bd acb1 e0bd 319c 22bd 8cf3 36bd
00000150: b190 bd3d 75eb 8dbd c987 d9bd 1687 f33d
00000160: bda1 573e 9f97 043d f660 b83d ee10 d1bc
00000170: 2791 7e3e 9583 26be bab8 303d 0049 a0be
00000180: bd75 f7bd d730 10be b083 1cbe ab6a 853d
00000190: cbdb 063e 16ed 823e aec7 dfbd 1c24 12be
000001a0: 49e6 203d 60b3 b7be 5ab0 2cbe 4620 f23d
000001b0: f181 a53d 1083 fdbd ab41 163e 5293 8fbe
000001c0: fe1b 8fbe 0b3c 343e 1c69 05be 0b1c 84bd
000001d0: 856a 55be 51ec 9ebe e874 b93d ec4c bd3e
000001e0: 2a85 24be e9f1 46be 91f8 453e 0fbe 4d3e
000001f0: 3430 253e d5b9 253e 387c 35be d6fb 2f3e
00000200: 50cd a73e 0884 b73d 5649 62be 5dcb c43d
00000210: 5747 453e a457 4d3e 6860 673e 9518 27bd
00000220: 43e2 0ebe 56b8 6ebe 02ae ee3e e17b 65be
00000230: f62e 013e 3d2c e8bd 4b7d 29be 4a14 82be
00000240: f3c7 b4bd 9cc7 eb3d 2e09 433d 0a0a 8fbe
00000250: b29b 31be f6bf 54be b744 c7bd 3213 87bd
00000260: 2193 ffbd e867 60be 7567 62be ac7b 1dbe
00000270: f9e2 19bd bc92 003d 403e e1bd fe60 f5bd
00000280: 1bb7 5a3e c621 f53d 729b 283e c0f2 0d3d
00000290: cafa d63d 76a3 1b3b 01a9 983c cd5e 093e
000002a0: d62a 45bd c0b1 52be 11df 58be 95dd 523e
000002b0: 6d69 053e d319 0b3e 7f63 b9bd 3d03 a73c
000002c0: 92cd 00bd 9b0a dcb9 e6e7 a1bd 79c8 353b
000002d0: ca77 3a3e bdf8 833e 19c3 c4bd d916 c4be
000002e0: 6b1d 92be 8ad5 b8bc 3364 863e 6237 6abe
000002f0: 8356 e93c 4abb 9ebe f3b7 7abe bf43 edbd
00000300: 5549 88be cced 9fbe 6d77 473e 711a 383e
00000310: db18 2ebe ae19 a1be 6ada 763e bb8c a1be
00000320: 4438 23be be61 8abe 24fe 773d 4660 9abc
00000330: ee1b 93be 13bb d4bc 2654 243d bece febd
00000340: b4f5 a93e b5db 35bd 66f0 843d 7569 a33c
00000350: 152f bfbd 75f3 8c3e 5d6b 013d 0d30 33be
00000360: 87af 89be bea5 d6bd 187c 293d ff95 3b3e
00000370: 7eae 903e 1f90 333a 1867 883d ca21 9cbe
00000380: e453 453c 2dfd ec3d 7fed 16be 3e11 8ebc
00000390: bc29 573e d92a 5abe 6e99 503e 6912 af3d
000003a0: a993 53be 8daf 4abd 6f70 0fbd 51a3 eabd
000003b0: 5fbf 07be f07e af3c 7053 11bd 0d19 48bb
000003c0: 474c 99be 2858 a2bd 003c ae3d ca13 d4bd
000003d0: 95d7 483e f55b 63bd cb48 4b3d a43a e7bb
000003e0: 9123 25be a282 35be fe36 c7bd 5cc4 913e
000003f0: 576b a63e 5517 263e 75b0 8fbe 2b07 66be

res_blocks.1.residual_conv.bias f4 [32]
-0.10431099 0.023917949 0.12457361 -0.29062662 -0.083128355 0.11747346 -0.030639132 -0.07820163
-0.17178696 0.22110683 -0.08040076 0.20123164 -0.077747405 -0.2672789 0.10762072 0.07927261
-0.1525051 -0.12067763 0.03335927 0.052996207 -0.09317846 0.18590905 -0.16351599 0.16332348
-0.28983116 0.104824334 0.09233942 0.12574898 -0.114279106 -0.12838534 0.04887448 -0.16375801
00000000: 00a1 d5bd 93ef c33c 7320 ff3d 03cd 94be
00000010: 333f aabd ed95 f03d ebfe fabc 2d28 a0bd
00000020: ece8 2fbe d469 623e 27a9 a4bd ab0f 4e3e
00000030: 083a 9fbd c8d8 88be 4168 dc3d ae59 a23d
00000040: 4c2a 1cbe d525 f7bd bba3 083d 8d12 593d
00000050: 59d4 bebd f15e 3e3e bc70 27be 453e 273e
00000060: c064 94be 24ae d63d 731c bd3d 57c4 003e
00000070: 2a0b eabd 7277 03be 9b30 483d 2eb0 27be
