logs/main_run/spec_nblock3_lr0.0001_ks3/checkpoints/best.ckpt (torch, 994210 bytes, 123 tensors)

conv1.weight f4 [8, 1, 3, 3]
00000000: c1c7 c3bd d6ac c43d c592 a1be e257 89bd
00000010: 1839 37be bc68 68bd eb41 2f3d 52bc 673e
00000020: 4a37 883e 047f a6bd 35de 9d3c 87ab 803e
00000030: 395d 9e3d 5070 903d 76cd 97be 1640 26ba
00000040: 3239 c53d b343 a5be 14d2 533e b02f 663d
00000050: 12ec 0a3c d770 91be 5d4f 96be 03fc 26be
00000060: 0bfa 9e3d cf71 8abd c200 7ebe 8b12 1cbe
00000070: 648a 513e 730f 52be d98f 4fbb ebc5 1d3e
00000080: b94d 993d c982 533c 7ce7 673e 431f 9abd
00000090: 70ec 4abe 1f28 4bbe 7b04 27be 94f5 55be
000000a0: 7fe8 833e 5cb8 ddbc dff6 2cbe defb 813e
000000b0: ee97 73be df82 d23b c3fa 203e 0339 acbd
000000c0: 9f5f 8f3e 6b6b 93be 11a3 14be f14e a53e
000000d0: 293a 723e 6433 0ebd df19 8b3d 2313 5b3e
000000e0: dd1c e43d a695 173e 4cc4 933d 9772 973e
000000f0: 58eb 72be 0824 b6be cf95 293e 3d6a 8b3e
00000100: dbc4 723e 3c17 8fbe 3674 9dbe 5607 973b
00000110: ddc8 6dbe 96c9 8b3b 9204 8abd 0ff1 22be
-0.095595844 0.09603278 -0.3155729 -0.067062154 -0.17892873 -0.056740507 0.042787474 0.22630432
0.26604682 -0.08129695 0.019270996 0.25130865 0.077326246 0.07052672 -0.29648942 -0.0006341947
0.0963005 -0.32278213 0.20685607 0.056197822 0.008479135 -0.28406402 -0.29357424 -0.16307072
0.07762536 -0.067599885 -0.24804977 -0.15241449 0.20462948 -0.20513706 -0.0031671433 0.15407531
0.074855275 0.0129096 0.22646898 -0.07525494 -0.19816756 -0.19839524 -0.16310303 -0.20894462
0.25763318 -0.027065448 -0.16891049 0.25387472 -0.23788425 0.0064242925 0.15720658 -0.084093116
0.2800264 -0.2879289 -0.1451533 0.3228679 0.23654999 -0.03471698 0.06792044 0.21394019
0.11138318 0.1480318 0.07215175 0.29579613 -0.23722589 -0.35574365 0.16561054 0.2722949
0.23707907 -0.27947414 -0.30752724 0.004609029 -0.23221155 0.0042659743 -0.06739153 -0.15912269

conv1.bias f4 [8]
00000000: 9eae fdbd debb 413e 8fa4 98be 1053 a83e
00000010: ee10 3bbd 8634 9cbe 9c27 94be b819 d73c
-0.12386821 0.18919322 -0.29813048 0.32875872 -0.045670442 -0.30508822 -0.2893647 0.02625738

batchnorm1.weight f4 [8]
00000000: 57b1 753f 9521 7d3f e293 783f 6b6a 833f
00000010: 03c2 793f 7da8 823f fe5d 7e3f cfd5 7b3f
0.95973724 0.9887937 0.9710065 1.0266851 0.97561663 1.0207669 0.9936217 0.9837312

batchnorm1.bias f4 [8]
00000000: 02f7 b43c 4671 f4bc bd61 b7bc c12a 0ebd
00000010: 1fa2 d7bc 4cb3 27bd 4ed9 20bd 721b c1bb
0.022090439 -0.02983917 -0.022385472 -0.034708742 -0.026322423 -0.040942475 -0.039269738 -0.0058931643

batchnorm1.running_mean f4 [8]
00000000: cedf 15be 2680 0e3e d7ff f8be 87a9 c83e
00000010: 3cf8 6abe e740 3ebe 742e 24be 91b6 eabd
-0.14636156 0.13916072 -0.4863269 0.3919184 -0.22946256 -0.18579446 -0.16033345 -0.11460603

batchnorm1.running_var f4 [8]
00000000: eb8f 883a 8594 563b 4a0c 283d b0ad a43b
00000010: 9e9e 203d cecb 8c3c c42a a13c df0d c03c
0.0010418867 0.0032742333 0.041027345 0.005025588 0.03921377 0.017187025 0.019673713 0.023444114

res_blocks.0.conv1.weight f4 [16, 8, 3, 3]
00000000: 7a81 afbb ab5b ac3d fa3b 903d 9e61 133d
00000010: b8d2 0e3c d1de 88bc 6d1f 05bc 082b 1a3e
00000020: b665 4b3c f115 0b3c 78ed c53d 8c12 9a3d
00000030: f926 983d f7a0 933c ffc2 01be e813 e7bd
00000040: 412f a5bd 6d62 d6bd 9c88 82bd a02e b1bd
00000050: b906 ddbc 005e 81bd 3d2c 4dbc b3af 9a3d
00000060: 5fe5 7cbd 2822 f13d d48f 963d 80f7 a7bd
00000070: 41d3 d3bd 873c d63d 6828 bd3c 0739 84bd
00000080: aebb 033e 4d4c d1ba 7922 39bc 2cf1 d43d
00000090: 91a2 0f3c a52b cbbc 107f 91bd b38a ea3c
000000a0: 6455 5cbd 3183 f13d ddc1 9dbd 9307 37bc
000000b0: 3296 cbbb a9a1 91bd d8c2 e63c 0184 773d
000000c0: 6d9e 183d bc4b c53d 2707 6ebd 5df8 243d
000000d0: 0bcf aebb 247a 573d da0b c6bd 1132 d9bd
000000e0: 3e4b 413b 38dc 18bc f4de d53d af12 68bd
000000f0: 76f7 9abd fa2a c83b 7200 bc3d 6ff6 d63d
00000100: be33 bc3d eb4c a9bd fd6b 883d e606 a73b
00000110: 00ab 3fbd e8b1 213b 9699 353b cc3f a4bd
00000120: eae7 34bd 46d5 5abc 3c16 5fbc 0798 2bbd
00000130: bc90 44bd d31f 64bd 3dbc cd3c d22c 9f3a
00000140: b5eb a83b 6fde 56bd 76a3 efbd 3748 c3bd
00000150: 952f af3d ddbd d83d f131 01bd 78f9 cf3c
00000160: 8752 9f3c e5bf c0bc 1879 c3bc 1400 f3bc
00000170: 46a5 163c 7eca 95bd 0f0c c3bc 08b8 67bd
00000180: 1b8e ca3d ca53 813d a82c 173d 2bf0 93bc
00000190: 766e 4d3d 56ba 053e a81d f23c 361d bcbd
000001a0: 25a3 8abb 2334 8dbd 5a65 bb3d dff0 033e
000001b0: ea01 a8bd a51f 52bd 0e78 bf3d a4bf 7d3d
000001c0: dbbf 313d 54f9 24bd 6410 fdbc 4b4c 9d3d
000001d0: 12ce bdbb de93 cbbd e0c5 b13b 21ad bebd
000001e0: 9fc9 debd e94c e13d ac70 ec3d 1cc8 ed3d
000001f0: a985 6c39 487d 71bc 9f45 2abc 62d0 ee3c
00000200: 396f a13c eeb2 d8bd 6bf7 c9bd 2467 9bba
00000210: 9b0e 903d 7f88 ea3c 49ad ddbd ff84 94bc
00000220: 1b86 ed3d 089e 82bd 30c2 cb3d a434 26bd
00000230: f839 b63d 6914 4abd c7f6 96bc 6838 643d
00000240: da48 43bc 9667 023e b820 c13d 8231 003d
00000250: 2c10 89bd 175a 543d 23f0 43bd 4164 d23d
00000260: f250 c63c 043a a9bd 93ac 93bc 9c8f a23c
00000270: 964b a7bd efae 5f3c fad6 cc3d f050 473d
00000280: 5067 303d 0ae0 f4bd cbf4 f4bc 6c2f 75bd
00000290: b725 0cbd 2786 ca3c e864 063d c557 13bc
000002a0: 8b37 6d3d e930 ddbc 9d46 f2bd 9e1d 98bd
000002b0: d018 1cbd 78a2 c93c cfac 353d 1c4a 80bc
000002c0: 5c65 c43c e609 04bd 9de3 5b3b 4732 0cbe
000002d0: 805e d1bd 711f 7b3a 0959 713d a700 723d
000002e0: 4c2d fdbd 7698 9fbd 66f9 8a3d 3916 b4bd
000002f0: fb4e 443d af13 8dbd aee1 03be b9d2 783c
00000300: 0a17 84ba ec96 60bd 57a6 b8bd 92e5 e0bd
00000310: cbd7 f63c c0fe 04be 0da6 4c3d 83db 2dbd
00000320: 399c 1fbe 4f05 3bbd 82b1 633d c42c 91bd
00000330: cbdd 083d b0fb c3bd 7974 f5bd 6326 bb3c
00000340: caf8 0d3d e408 af3d 501b 923d 7c8d 8e3d
00000350: 445f d4bd e73a 97bc ecff ea3c cd44 dc3d
00000360: 4fa1 ac3d 1c72 4e3d 89ab 10bd f993 d4bd
00000370: b282 b43d 0366 483d 1364 21bd a5d6 89bd
00000380: 2f96 00bc 9598 78bd 7d6e dbbc dbea 0a3c
00000390: 6c4a bdbd 6c94 d83d 7d3a 30bd 4c8b 283d
000003a0: 2f50 c03d 4a2f ad3d 7ad0 8bbd 533e 65bc
000003b0: 190c c3bd 958c 6f3d d3e1 8f3d e96d a0bc
000003c0: 9eed da3d 6748 373d ab79 5e3d 25bc 86bd
000003d0: 423e 8b3d f742 d03a 532c 95bc 7eea 8f3a
000003e0: bfe0 30be 4736 24bb 85e4 733d 3c42 33be
000003f0: a35f 1ebc fcd5 37bd cc43 9abd 5d98 ddbc
-0.005356011 0.08415922 0.070426896 0.035981767 0.008717231 -0.01670781 -0.008125168 0.15055478
0.0124143865 0.008489118 0.09664434 0.07523069 0.074293084 0.01802109 -0.12672041 -0.11283094
-0.080656536 -0.10467992 -0.063737124 -0.08651471 -0.026980745 -0.06316757 -0.012522754 0.07553043
-0.061742183 0.11774093 0.07351652 -0.08201504 -0.10343028 0.104607634 0.023090556 -0.064561896
0.12864563 -0.0015968174 -0.011299723 0.103975624 0.008766786 -0.024801085 -0.071043134 0.02863059
-0.053792372 0.11792601 -0.07702992 -0.011171239 -0.006212973 -0.07110912 0.02816908 0.060428623
0.03726046 0.09633586 -0.05811229 0.04027592 -0.00533474 0.052606717 -0.09670229 -0.106052525
0.002949431 -0.009329848 0.104429156 -0.056658443 -0.07566731 0.006108639 0.091797724 0.10496222
0.091895565 -0.08266624 0.06661222 0.005097258 -0.046793938 0.002467269 0.0027709953 -0.08019981
-0.044166483 -0.013356512 -0.013616141 -0.04189303 -0.047989592 -0.055694412 0.025114173 0.0012144095
0.0051550516 -0.052458223 -0.117010996 -0.09535258 0.085539974 0.105830885 -0.03154177 0.02538751
0.019448532 -0.023529002 -0.023861453 -0.029663123 0.009194678 -0.07314013 -0.02380946 -0.05657199
0.09890386 0.063148096 0.036907822 -0.018058857 0.050154172 0.13059363 0.029555157 -0.09185259
-0.004230874 -0.0689471 0.09150191 0.12884854 -0.0820349 -0.05129971 0.093490705 0.06195034
0.04339586 -0.04027684 -0.030891605 0.07680567 -0.0057923878 -0.09940313 0.0054252 -0.093103655
-0.108783 0.110009976 0.11544928 0.116104335 0.00022556506 -0.014739342 -0.0103925755 0.029152099
0.019706355 -0.10581003 -0.09861644 -0.00118563 0.07034036 0.02862954 -0.10824067 -0.018129824
0.11597844 -0.06377798 0.09949148 -0.040577546 0.088977754 -0.04933587 -0.01842822 0.055717856
-0.011919225 0.12734827 0.09430069 0.031297214 -0.06692538 0.05184373 -0.047836434 0.10273028
0.02420852 -0.08263019 -0.018026626 0.019843869 -0.08168714 0.013652547 0.10001941 0.048661172
0.043067276 -0.119567946 -0.029901883 -0.05985968 -0.034215655 0.024722172 0.032811075 -0.008993094
0.057914298 -0.027000861 -0.11829875 -0.07427524 -0.0381096 0.024613604 0.044354256 -0.015660338
0.023974113 -0.032236002 0.0033552416 -0.13691054 -0.102231026 0.0009579575 0.0589228 0.059082653
-0.12362155 -0.077927515 0.0678585 -0.08793301 0.047926884 -0.0688852 -0.12879059 0.015186959
-0.0010077667 -0.05483143 -0.09016102 -0.10981287 0.030132195 -0.12987804 0.049963046 -0.04244567
-0.15586938 -0.04565936 0.055589207 -0.070886165 0.033414643 -0.0956949 -0.11985106 0.022845453
0.034661092 0.085466176 0.07134116 0.0696058 -0.10369733 -0.018460704 0.028686486 0.1075531
0.08429205 0.050401792 -0.03531984 -0.10379786 0.08813991 0.04892541 -0.03940208 -0.06730393
-0.007848307 -0.06069239 -0.026786083 0.0084788455 -0.092427105 0.10575184 -0.04302453 0.04114847
0.09390294 0.08456285 -0.06826873 -0.01399191 -0.09523792 0.05848368 0.070254944 -0.01958366
0.10689853 0.044746783 0.05431525 -0.065788545 0.06798984 0.0015889098 -0.018209612 0.0010979918
-0.17273234 -0.0025056766 0.059544105 -0.17505735 -0.009666356 -0.044881806 -0.075324625 -0.027050192

res_blocks.0.conv1.bias f4 [16]
00000000: e2cf f33b 27b4 403d 5665 973d 3302 eb3d
00000010: 01bb 8c3b ba5b 86bd e130 b2bd 6d5a 1c38
00000020: ffe5 aebc 8536 05bd 2b18 4b3d 0d38 e23d
00000030: c74a b73d 9fcc bdbd f4ad 413d e998 e03d
0.007440553 0.047046807 0.07392375 0.11475029 0.0042947535 -0.06560464 -0.08700729 3.7277514e-05
-0.021349905 -0.032522697 0.049583595 0.11045847 0.089498095 -0.09267544 0.047285035 0.10966665

res_blocks.0.batchnorm1.weight f4 [16]
00000000: 532f 7d3f 64ff 843f 844b 753f 6e10 793f
00000010: 62d8 803f 5d60 763f 5a1b 773f b705 723f
00000020: de1e 873f 5b7f 7f3f ae8e 7a3f 8784 7d3f
00000030: 3a13 783f fdbf 893f b5f4 773f 97c6 803f
0.98900336 1.0390439 0.9581835 0.97290695 1.0066035 0.9624079 0.9652611 0.9453997
1.0556295 0.99803704 0.9787396 0.99030346 0.9690434 1.0761715 0.9685777 1.0060605

res_blocks.0.batchnorm1.bias f4 [16]
00000000: 65d5 c23c 94f2 e8bc 1103 b1bc f44f 39bc
00000010: ac6a 0cbb 5b0d b03b fe09 10bc 0c5e 05bd
00000020: 0498 b0bb f9c0 34bc 75bd 87bc 226a a9bc
00000030: 976e 29bd de46 fc3c 6290 4cbc 1557 b7bc
0.023783395 -0.028435983 -0.021607907 -0.011310566 -0.0021425886 0.005372686 -0.008791445 -0.032560393
-0.0053892154 -0.011032336 -0.016569832 -0.02068049 -0.041365232 0.03079551 -0.012485595 -0.022380391

res_blocks.0.batchnorm1.running_mean f4 [16]
00000000: 5120 d43d fa33 b23d a858 b0be 79ba 943d
00000010: 3c28 05bf e54c 843e cd80 26bf 0215 3ebe
00000020: 14e3 ac3c 9ad1 453b dc6f e2be f41f b13d
00000030: 32c8 923d e358 01be 3eb4 72be 650a 5a3e
0.10357726 0.0870132 -0.3444264 0.07262129 -0.5201452 0.25839916 -0.65040284 -0.18562701
0.021104373 0.0030184747 -0.44225967 0.08648673 0.071670905 -0.12631564 -0.2370157 0.21293028

res_blocks.0.batchnorm1.running_var f4 [16]
00000000: 85c1 bb3c 82fa 123c 317a ef3e 5d26 bd3c
00000010: 092e ec3d 64c6 f83c 5fb6 843d 0179 423d
00000020: 918e db3c 6f3e 503d f72a e33e c4a7 2d3d
00000030: 8d78 f33c 2bc3 ba3c 8d4e fb3d 38db 053d
0.022919426 0.0089708585 0.46772912 0.023089582 0.11532218 0.030368038 0.06480097 0.04747868
0.02680138 0.05084079 0.44368717 0.042396322 0.029720569 0.022798141 0.12270842 0.032679766

res_blocks.0.conv2.weight f4 [16, 16, 3, 3]
00000000: 8f9b ebbc 8af0 7bbd 4a35 4d3d 6641 d43a
00000010: 1819 79bd 4e7c 0dbd 0e1f d53c ac49 a4bd
00000020: e60c 7d3b 3b18 9bbd a430 3fbd a63c 463c
00000030: c584 ffbd b71f b3bd a59a 2dbc 0249 babd
00000040: f372 3ebd 4229 3dbd 987a 4f3d cf5c af3d
00000050: 0ca1 8b3c b56f b73c 22d0 a4bc 3e3f 73bd
00000060: fb56 bcbc 6e50 e53c 7e69 43bd b053 9f3c
00000070: 746c 2bbc 80a7 79bd dbe2 e2bb 60be 0e3d
00000080: c011 5cbc 09fa 2ebd 5993 233d 13e3 85ba
00000090: a168 18bd 0047 19bd c3c2 9dbd bca0 ccbd
000000a0: 1e6a 713b e077 abbc f2e4 54bc d655 2a3d
000000b0: ccc8 9bbd 23bb 0d3c fb27 57bd 2952 00bd
000000c0: 21c9 28bd b85d 023d 5ed5 65bd 6b34 88bb
000000d0: 2ed7 51bd 8202 8fbd c52d eb3c 4b8b 6bbd
000000e0: adf5 623c 35b2 673c 68f3 80bd 83ed 4abd
000000f0: 1d69 1d3c e553 d1bd 88f3 5abc e406 8dbd
00000100: 8d8b 3c3c 4545 2a3d 3a8f 79b9 f545 d0bb
00000110: 0007 b2bd 5eb1 a9bd 7e31 69ba aad0 88bd
00000120: 68bf 13bd bec3 45bc 8153 8b3d 571e 27bd
00000130: 85b6 14bd 1a8e abbc 7a92 043d 088c 3d3c
00000140: f849 463d 93f7 c73d 81a6 b43c 3fd4 00bd
00000150: 095f 343d 55cb 9e3d eb2a 793a b1e3 973d
00000160: 5dfb 843d 7254 2ebb db92 0abd f32d 9a3d
00000170: 0bf9 b73d c7c5 6c3c a4e5 a03b a1f1 8d3c
00000180: 1575 023d e6e0 7a3d ab2a 36bd 68e6 b9bc
00000190: dff5 cb3c 89a8 983d 454a 553d 639b 2abd
000001a0: cc0c 633d 0327 b13c dabc a33c c4bd f1bc
000001b0: fd4a 5bbd 65c0 09bd beee d63c 8f4c b13c
000001c0: 7232 6dbd f817 50bd e00e f9bc 1bcb 3bbd
000001d0: dbc9 bf3c 45cb b93d 04d9 afbb 6b55 723c
000001e0: e89f 933a 60c5 0c3d 91dd 553c 1547 8cbc
000001f0: 8023 1f3d 255d 523c 39ad 77bd 3df7 d9bc
00000200: 2bd8 f7bc af0e 5c3d 83a8 593d 40b2 8dbd
00000210: 4065 abbd 8224 773c dda1 223d 6231 003c
00000220: 8349 e53d c591 8d3d 726e 983d bd7d b8bc
00000230: b9b5 703d 5436 523d e48c 8f3d 7756 483d
00000240: c8d4 4dbc 23e8 1ebd 275d 86bc 0d85 573c
00000250: 5500 14bc fd54 86bb 4c8c ea3c fd7c fcbb
00000260: d58b 1e3d 0e78 66bd 3d81 6e3d 9be3 ae3c
00000270: 9c8e 8b3c 8f37 8e3d fcfd 243d c346 3ebd
00000280: 543a a8bd e9fd 9d3d 045c 223d bde7 a1bd
00000290: cb29 35bd 20f8 313d a0f8 aa3c cb2c 483d
000002a0: 1a2b 3c3c f4c2 21bd 916c 86bd 3cda 63bd
000002b0: 6408 d0bc c54a a93d 976f ba3c aba0 b2bd
000002c0: c343 b83c bbf6 acbd 4e2f 833d 18db 9bbc
000002d0: 5869 8c3d 941c fdbc ccd0 ee3c 8967 83bd
000002e0: 7ca2 fb3c c906 c2bc b17f a33c a9ac 9bbd
000002f0: 8310 91bd 7041 db3c 619e 75bc 99f5 623d
00000300: 2fee b9bc be98 bebd f30e 37bb 8065 843d
00000310: 7c74 a03d d8ec 54bc 9b18 dd3b 2243 793a
00000320: fafc a53c 6355 d3bd 0ff2 ae3c 9bb2 583c
00000330: 0c81 c9bd eee4 043d 2c0a 38bb 011c 64bd
00000340: 215f cd3c c6dc 07bd fce7 9bbd 0f32 693d
00000350: dfd5 793d 51a7 76bd 6156 42bc 25c0 7d3c
00000360: 2b7d a0bd c1ff 7f3c 3596 c3bb 666c 70ba
00000370: 0325 a23b e04b 663d 0532 a53b 6cac adbd
00000380: b020 e33b aa9b 153d 84ca ae3c 0d85 143d
00000390: a619 e03b 4e91 593d 1d2e 073d 1df6 93bd
000003a0: febc 5ebd 054c 35bd aa9e 35bd d923 ce3c
000003b0: e681 ba3d c335 5dbd 34aa 023b 7757 ae3d
000003c0: e2e6 f63c 035b 923d 7189 77bd e64d 38bd
000003d0: f356 803d 7b78 423d 116f 163c bbb9 24bd
000003e0: 37b9 bebc d051 54bd c989 cabc f2cc 713d
000003f0: cc2d e23c 8991 0bbd 0882 10bd e8a6 8ebc
-0.0287607 -0.061508693 0.05009965 0.0016193807 -0.060814947 -0.034542374 0.026015785 -0.08021864
0.0038612424 -0.07572981 -0.046677247 0.012099421 -0.12476496 -0.087462835 -0.010595952 -0.090959564
-0.046496343 -0.046181925 0.050654024 0.08562624 0.017044567 0.022392133 -0.020118777 -0.059386484
-0.022990694 0.027992453 -0.047708027 0.019449085 -0.010462869 -0.060950756 -0.006924016 0.034849524
-0.013431966 -0.04271892 0.039935444 -0.0010214768 -0.037209157 -0.037421227 -0.077031635 -0.09991595
0.0036836932 -0.020931184 -0.012994038 0.041585766 -0.07606658 0.008650574 -0.052528363 -0.031328354
-0.041207436 0.03182766 -0.056111686 -0.0041566393 -0.051230602 -0.069829 0.028708348 -0.057505887
0.013852519 0.014141609 -0.06296426 -0.049542915 0.0096075805 -0.1022108 -0.013363726 -0.0688608
0.011507881 0.041569967 -0.00023799847 -0.006355996 -0.086927414 -0.08285783 -0.00088956195 -0.066804245
-0.03607121 -0.012070594 0.068030365 -0.04080042 -0.036306877 -0.020941783 0.032366253 0.011569031
0.048410386 0.09764018 0.022052051 -0.031452414 0.044035945 0.07753626 0.00095049915 0.074164756
0.06493256 -0.0026600626 -0.03383146 0.07528295 0.08983048 0.014451451 0.004910188 0.017327132
0.03184994 0.061249636 -0.044474285 -0.022692874 0.024897514 0.074540205 0.052072782 -0.041652095
0.055432126 0.021625048 0.019987512 -0.029509433 -0.05353831 -0.033630747 0.026236888 0.021642951
-0.057909437 -0.05080411 -0.0304026 -0.045847993 0.023411682 0.09071974 -0.0053664465 0.014790873
0.0011262866 0.03436792 0.013053314 -0.017123738 0.038852215 0.01283959 -0.060467932 -0.02660715
-0.030254444 0.05372494 0.05313922 -0.06918764 -0.08368921 0.015084388 0.039705146 0.007824274
0.11195662 0.06912569 0.07442941 -0.022520894 0.058767054 0.051321343 0.07009295 0.048910584
-0.012562938 -0.0387956 -0.01640184 0.01315428 -0.009033282 -0.004099487 0.028631352 -0.0077053295
0.038707573 -0.056266837 0.05822872 0.021348765 0.017035775 0.06944191 0.04028128 -0.046454202
-0.0821425 0.07714445 0.039638534 -0.07905529 -0.04422931 0.04344952 0.020870507 0.048870843
0.011484886 -0.039492562 -0.06563676 -0.055628046 -0.025394626 0.08266214 0.022758288 -0.08722051
0.022493249 -0.084454976 0.06405507 -0.01902537 0.0685603 -0.030897416 0.029152296 -0.06416232
0.030717127 -0.023684876 0.019958349 -0.07601292 -0.070832275 0.026764601 -0.014991374 0.05541
-0.022696583 -0.09306477 -0.0027932494 0.06464672 0.07834718 -0.012995921 0.006747318 0.00095086
0.02026223 -0.103190206 0.021355657 0.013226177 -0.09839067 0.032444887 -0.0028082235 -0.05569077
0.025069775 -0.03316953 -0.07612607 0.056932505 0.06099498 -0.06021816 -0.011861415 0.015487705
-0.07836374 0.015624941 -0.005968834 -0.0009171426 0.00494826 0.056224704 0.005041363 -0.084801525
0.006931387 0.036525406 0.021336801 0.0362597 0.006838995 0.05311709 0.03300296 -0.07224677
-0.054379456 -0.04426195 -0.044340767 0.025163578 0.091068074 -0.05400635 0.0019937875 0.08512776
0.03013939 0.07146265 -0.06043381 -0.044996165 0.06266584 0.04747818 0.009181754 -0.04021619
-0.023281677 -0.051835835 -0.024723904 0.05903334 0.027609728 -0.03407434 -0.035280257 -0.017413571

res_blocks.0.conv2.bias f4 [16]
00000000: 6a5e b1bd 3bb4 a1bb 4bdc 6bbc cca4 bbbc
00000010: dc36 ca3c f78b 41bd 3cee f2bc 0fd1 e6bc
00000020: 3bec 9f3d b93b 1abd d5fb b0bd a06a a23d
00000030: 6027 513d cb4e 993d 3cf6 aebd 5a7c 863d
-0.08660586 -0.004934815 -0.014395784 -0.02290573 0.024684362 -0.04725262 -0.029654615 -0.028175859
0.07808729 -0.037654612 -0.08641783 0.07930493 0.05106294 0.07485732 -0.08543059 0.06566687

res_blocks.0.batchnorm2.weight f4 [16]
00000000: 8847 853f e385 833f d8e3 893f a38f 8a3f
00000010: 84db 823f 1313 863f 8e0c 813f 75b1 8c3f
00000020: 03b9 833f a9be 863f f86e 843f 355f 843f
00000030: 97ae 833f e386 873f 4da2 873f d575 843f
1.0412455 1.0275234 1.0772657 1.0825084 1.0223241 1.0474571 1.0081956 1.0991656
1.0290836 1.0526935 1.0346365 1.0341555 1.0287656 1.0588039 1.0596405 1.034846

res_blocks.0.batchnorm2.bias f4 [16]
00000000: fc74 cb3c 698e 403d 86ea 443d f8c8 503c
00000010: c946 e33c c85a 1c3a 7906 e03c bf01 2c3d
00000020: 2cd7 6d3c 77ad 0ebc 014a 6c3b 8a55 0fbc
00000030: 17ff 09bd 9280 fb3c 0c3b b03d 7397 033d
0.024836056 0.047010813 0.04807522 0.012743227 0.027743714 0.0005964455 0.027346836 0.041993853
0.014516633 -0.008708349 0.0036054852 -0.008748421 -0.03369054 0.030700956 0.08605012 0.032126855

res_blocks.0.batchnorm2.running_mean f4 [16]
00000000: 28c6 88be 3567 bdbe a1f9 c8be 32fb 9bbc
00000010: 7eec bcbd 7c06 a53e 58ca 8b3e ea2d 353d
00000020: 67c3 fb3e f190 b0bc 298a 653d fb77 0b3f
00000030: 6178 8f3e e0e3 063f 9873 e5be 3c3f b7bc
-0.2671368 -0.36992803 -0.39252952 -0.019040678 -0.09224795 0.3223151 0.27302814 0.04423324
0.49172518 -0.021553488 0.056039963 0.5447995 0.2802153 0.5269146 -0.44814754 -0.02236902

res_blocks.0.batchnorm2.running_var f4 [16]
00000000: 9239 883e 7346 193e fef8 e33e 64e3 5c3e
00000010: f70a ef3d 6ace 393e 7a59 053e ecdc 803d
00000020: f27b 5e3e c823 5d3e 3ffe d73e d65a 903e
00000030: b805 613d d1fc 043e 707b d23d 55f2 683e
0.26606423 0.1496828 0.44525903 0.21571118 0.11672013 0.18145147 0.13022414 0.062921375
0.21726969 0.2159568 0.42186162 0.28194302 0.054937094 0.12987067 0.1027745 0.22748692

res_blocks.0.residual_conv.weight f4 [16, 8, 1, 1]
00000000: 5dbf f83d 3968 a03e c328 aebd f78c a4be
00000010: bc35 77be 0eae a13d 703c dfbd 1229 3b3e
00000020: d172 4ebe 44e1 97bd f0e9 8a3e 03e7 35be
00000030: 3dad 73bd 5947 123e 0b95 d13d 4528 a7be
00000040: 83e9 553e f864 703e 734b f13d 1fc1 163d
00000050: bf73 2c3e c2a6 1fbe c2a5 a73e fed0 acbe
00000060: 32a7 b33e 06b9 8b3e 21d8 bcbd 2fee 74bd
00000070: 8169 e6bd 0731 28be ccc8 693d bb97 e73b
00000080: 7a31 453e 6b7e b23e 687c 17be 3789 6cbe
00000090: b4b2 273c 2eba 7cbe 9560 a33e 8f39 363d
000000a0: b60b 9a3e 7ee9 f33d 8f74 443e 8ffd 94be
000000b0: 04c3 a9bd 5b2e 483e 2814 223e 4200 af3e
000000c0: 9374 803e 6136 a33e feac 1f3e b6ba 93be
000000d0: b702 1f3e 62e4 93bd ca5f ec3c 5221 96be
000000e0: 78c5 98bd f46d 03be ecf5 a8bd 2bfb f33c
000000f0: d04f 82be 04a3 25be fad7 c23b 6946 94bd
00000100: 26be 803e 7bd1 6f3e 8c31 4d3e 2a92 c3bd
00000110: 5a80 adbe c139 3fbd 4916 5dbe caf7 7bbe
00000120: 2dd0 92bd 29a6 9abe ec69 d1bd 507d aa3e
00000130: 56fa 5c3c 93c3 a13e bcf0 ff3c bc3e 9f3d
00000140: 8c7a f0bd e8ca 773e 1420 3ebe a5bf 5a3e
00000150: b5dd 993e 2125 7bbe cae7 9dbe 6f2a afbe
00000160: e0bb 32be 559e 80be 31cc 113d dbc3 b1be
00000170: f521 98be 48ef 56be eac8 32be 5702 da3d
00000180: cf08 53be 2f09 c33d e3fc 503b 569c 67be
00000190: c11a 273e 7c3f 6bbd cc5a 21bd 47ac 4c3e
000001a0: 1009 983e 4027 46be 39db 683e de8f 52be
000001b0: 441b b2bc b12d 883d 9317 43be 47d6 253e
000001c0: d3e8 a53d 9b29 b63c a92d a4bd 5b97 e63d
000001d0: 840b a03d 45b1 c53d 29e0 a53e 2505 943e
000001e0: f4ef a83e c4fe cc3d e9d0 f2bd 4fca fe3c
000001f0: b940 a93d f168 4ebd 061d 36be 1403 e0bc
0.12145875 0.31329516 -0.085038684 -0.32138798 -0.24141592 0.078945264 -0.109001994 0.18277386
-0.20160986 -0.07416013 0.27131605 -0.17763905 -0.059491385 0.1428503 0.10233506 -0.3264791
0.20889859 0.23476017 0.11781969 0.03680527 0.16841029 -0.15590957 0.3274365 -0.33753198
0.35088497 0.272896 -0.09220911 -0.059797462 -0.11250592 -0.16424952 0.05707626 0.007067648
0.19257155 0.34862074 -0.14793551 -0.23099218 0.010235477 -0.24680397 0.31909624 0.044488486
0.3008706 0.119097695 0.19185089 -0.290997 -0.082891494 0.19548933 0.15828001 0.34179884
0.2508894 0.31877425 0.15593335 -0.28853387 0.1552838 -0.07221295 0.02885427 -0.29322296
-0.07459539 -0.12834913 -0.08250031 0.029782852 -0.25451517 -0.16175467 0.0059461566 -0.07239992
0.25145072 0.23419754 0.20038432 -0.09549363 -0.33886987 -0.046685938 -0.21590532 -0.24606243
-0.07168613 -0.30204895 -0.10225281 0.3329873 0.013487419 0.31594524 0.03124272 0.077756375
-0.11742124 0.24198496 -0.18566924 0.21362169 0.30051962 -0.24525882 -0.30840904 -0.34212062
-0.17454481 -0.25120798 0.035595123 -0.34719738 -0.29713407 -0.20989716 -0.17459455 0.106449775
-0.20608829 0.09523236 0.0031889013 -0.22618231 0.163188 -0.05743359 -0.03939323 0.19987594
0.29694414 -0.1935091 0.22739877 -0.20562693 -0.021741517 0.0664934 -0.19051962 0.16195022
0.08101048 0.022236636 -0.080165215 0.112593375 0.078146964 0.09652952 0.32397583 0.28910175
0.3299557 0.1000953 -0.11856253 0.031102328 0.08264298 -0.05039305 -0.17784509 -0.027345218

res_blocks.0.residual_conv.bias f4 [16]
00000000: d1f1 8fbe 07cb 653e 49c0 7abe 8bef 053e
00000010: 6b5a b93d c770 94be 85e7 8a3e 37fd 95be
00000020: 173b b03e 3c3c 67be 1c8d 51be 1818 9d3e
00000030: b58a 8d3e 42db 9b3e 5c81 b23e 1254 b63e
-0.2811418 0.2244073 -0.24487413 0.1307966 0.09050449 -0.28992292 0.2712976 -0.2929475
0.34420082 -0.22581571 -0.20463985 0.30682445 0.27644888 0.30440718 0.34864318 0.35611016

res_blocks.1.conv1.weight f4 [32, 16, 3, 3]
00000000: ed84 833d b2f8 a2bd 0762 d7bc f114 693d
00000010: 6736 a53d 72c9 4cbd b472 15bc f106 5fbd
00000020: 3b8a 4ebd e34c 553c 8b44 b5bd 2cc0 813d
00000030: bf35 3bbd 6673 cebd 1656 873c 31d4 14bd
00000040: d00a 31bd 7080 90bc 4ed3 fabc 6925 fb3c
00000050: 3a29 5c3d 312b e1bb a672 163c e2c2 0fbd
00000060: 5b9e 61bd 82ab 10bd e394 11bd 8421 6bbd
00000070: dc9c 2c3c 06ed 203d 4ae6 b9bc f29c 18bd
00000080: 1bc9 97bc 9520 dfbc 190a 24bd f3b4 723d
00000090: 67e7 f43b 8df9 293d 76ce bbbd c600 143c
000000a0: cd10 f6bc 9ad6 843d fc33 f5bb 009e 873a
000000b0: cc32 b8bc e852 26bd 6e5a 56bd 9add 4dbd
000000c0: 95f5 bd3c 10a0 443d 9d89 41bd 3cd5 40bd
000000d0: 4855 7d3d 7687 73bc 728d 09bd fa1f 12bc
000000e0: 1740 d9bc c41c ccbd b489 663d 62cc 71bd
000000f0: d589 f33b fc16 adbd c4e3 80bc 64aa 96bd
00000100: 47f1 1c3d b214 85bd 4380 90bc c66b 73bd
00000110: 565a 0b3d 326a 5bbb 52f9 4dbd ec43 0e3d
00000120: f44c 943d 6259 4dbd b4c6 983d a0ba 86bd
00000130: f6b1 67bd 7565 393d 8a41 a93d cea4 dfb9
00000140: ecc0 083d aae3 2bbd faf5 fe3c d786 38bd
00000150: 71cb 57bd a173 1abd bb56 c1bb e736 73bd
00000160: 3899 8fbd 62aa 21bd 8900 83bd 9c8c a0ba
00000170: db49 6d3d 162c 323d 7927 c7bc 0deb 833d
00000180: df15 253d 8852 c53c e2d9 ecbb 1fd4 82bd
00000190: 3138 f9bc 7745 e13a cba8 4a3d ae48 a13d
000001a0: ec61 eabb 0dbb cbbc 3500 503c b2c1 4cbd
000001b0: 4571 763c b748 af3d 3d5e 193d efd9 a93d
000001c0: 660c 7b3d 9e57 f33c 82c7 8b3d 10f1 da3d
000001d0: 4e26 c63d 6558 02bd 2c71 2d3c 0c31 c7bd
000001e0: 09b3 133d e225 17bc 0869 a5bc 6ba0 88bc
000001f0: cb3b 9bbd a29f c0bd 29e8 33bd 6440 763d
00000200: b2f5 e23c b477 233d 21c0 16bc a83c 103c
00000210: f5f5 033c 2a59 58bd 4578 8a3d 700b 463d
00000220: c8d8 153d 4a1b 00bd 13f5 ad3c 7442 98bc
00000230: d123 3dbd 92a0 8abd 4325 b0bd 7f70 46bd
00000240: b027 4dbc c8a6 0cbd ed27 fb3c 0f87 b1bd
00000250: e110 643c e3c3 293c 8013 8cbd 29c0 3cbd
00000260: 290a 2abd d549 d6bd 7364 56bd 109a 26bd
00000270: 7e22 91bd 50c6 70bc 07d8 edbd 5d38 a0bc
00000280: 7c56 99bd 80e1 02be 3f19 acbd 85d2 afbd
00000290: 9ba3 61bd b2f1 46bd c19c ebbb b1a1 dabd
000002a0: 8f53 ecbc 7198 f4bd 0705 51bc de40 84bd
000002b0: 2c10 fabc cae1 96bd 5b12 41bd 6d76 20bd
000002c0: 90a9 b03c 8e1a ab3c c79b 34bd d5fa 2dbd
000002d0: e40e 663d e705 bfbc fe77 57bd dcd4 8cbd
000002e0: bb96 783c ac9d 883a c161 5c3d ff0f c9bc
000002f0: e273 813d 7778 87bd 4db4 a13d 92de 873d
00000300: 0640 95ba d5dc f43c 95e5 893b bf27 4dbd
00000310: fbf4 9e3d 3d0e 933d 4244 a83d 235a a93c
00000320: fcc9 a5bd 9c1c b53c 0955 8a3d 2b03 7abd
00000330: 76e5 583d 9955 57bb 8bc2 293d 50bf 50bc
00000340: 6587 e1bc 3895 72bd 8ce2 a9bd 5b16 8c3a
00000350: d7fd 6c3d 6a4f 0d3c 0049 8e3d 81cc c7bc
00000360: 2bad c93b fead 3d3c 8c62 59bc ba5a f3bc
00000370: 5c2a 51bd c928 48bd 34b4 91bc 61cc f93c
00000380: f160 85bc f12d 553c 565d cb3d 8069 00bc
00000390: 966d 953d f4ef 34bc 6143 cd3c ac60 a33d
000003a0: 7d68 38bd 7815 68bc 6c3e 773d b01c 973d
000003b0: 6eb4 f13c 989e 353d f04d 4a3c 45c5 36bd
000003c0: 9a8a b2bc 50aa f93c 0cdf c53d b947 0dbd
000003d0: a534 38bd a86d 91bd 96eb 4dbc e8dc 333d
000003e0: e2ee 883d 67e7 4c3c 6c02 e23c 7ce6 e0bc
000003f0: a9cf 69bc 3985 94bd a9d6 f23b e5d5 d73c
0.06421838 -0.07957591 -0.02629186 0.056904737 0.08067017 -0.0499968 -0.009121586 -0.05444998
-0.050424796 0.0130188195 -0.08850964 0.06335482 -0.045705553 -0.10080604 0.016520541 -0.036335174
-0.043223202 -0.017639369 -0.030618336 0.030657487 0.053750254 -0.006871604 0.009182608 -0.035097964
-0.05508266 -0.035319813 -0.03554238 -0.05740501 0.010535445 0.039288543 -0.022692818 -0.03725905
-0.018528512 -0.027237216 -0.040048692 0.059254598 0.0074738744 0.041497756 -0.09170239 0.0090333875
-0.030037308 0.064862445 -0.0074830037 0.001034677 -0.02248516 -0.04060641 -0.052332334 -0.050260164
0.023188392 0.04800421 -0.04725038 -0.047078356 0.06184891 -0.014863839 -0.03358216 -0.008918757
-0.026519818 -0.09966424 0.056283668 -0.059032805 0.0074322023 -0.084516495 -0.015733607 -0.07356718
0.038316038 -0.06498088 -0.017639285 -0.059428953 0.034021698 -0.0033480045 -0.0502866 0.034732744
0.0724124 -0.05013407 0.074597746 -0.06578565 -0.0565662 0.045262773 0.08264454 -0.00042656664
0.03338711 -0.041965164 0.03112315 -0.04505047 -0.05268425 -0.03770793 -0.0059002317 -0.05937853
-0.07011646 -0.03946913 -0.063965864 -0.0012248936 0.057931762 0.043499075 -0.024310814 0.06441317
0.04030406 0.024087206 -0.007228122 -0.06388115 -0.030422302 0.001718684 0.04947738 0.07875191
-0.0071527865 -0.024869466 0.012695362 -0.04998941 0.015041654 0.08558791 0.03744339 0.08293521
0.06129112 0.029704865 0.068251625 0.1069051 0.09675275 -0.03182258 0.010586064 -0.09726152
0.036059413 -0.009225341 -0.020191684 -0.016678056 -0.07579764 -0.094054475 -0.043922577 0.06012
0.027705047 0.03990908 -0.009201081 0.008803524 0.008054246 -0.05281941 0.06761221 0.04835075
0.03658369 -0.031276025 0.021235025 -0.018586375 -0.046176735 -0.067689076 -0.08600857 -0.04844713
-0.012521669 -0.034338742 0.030658687 -0.086683385 0.01392004 0.010361644 -0.06839657 -0.046081696
-0.041513596 -0.10463301 -0.05234189 -0.04067427 -0.07086657 -0.014695719 -0.116134696 -0.019558126
-0.07487199 -0.12781334 -0.08403253 -0.08585075 -0.055087667 -0.048570342 -0.0071903174 -0.106753714
-0.028848438 -0.119431384 -0.012757546 -0.06457685 -0.03052529 -0.073672846 -0.047136646 -0.03917544
0.021565229 0.020886686 -0.044093873 -0.04247554 0.056166545 -0.023318244 -0.052604668 -0.06876537
0.015172656 0.0010422966 0.053804163 -0.02454376 0.06320931 -0.06614774 0.07895718 0.06634249
-0.0011386878 0.029890457 0.0042082765 -0.050086733 0.0776157 0.0718045 0.08216144 0.020672863
-0.08095166 0.022108369 0.067545004 -0.061038177 0.052953206 -0.0032857417 0.041445296 -0.012740925
-0.027530381 -0.059224337 -0.082951635 0.0010687815 0.057859268 0.008624891 0.069475174 -0.024389507
0.0061546764 0.0115771275 -0.013268124 -0.029706348 -0.051065788 -0.04886702 -0.017786123 0.030492963
-0.016281577 0.013011442 0.09929912 -0.007837653 0.072962925 -0.011043537 0.025056543 0.07977423
-0.045021523 -0.014165275 0.060362265 0.073785186 0.02950498 0.0443407 0.012347683 -0.044621725
-0.021794606 0.03047672 0.096616834 -0.03449223 -0.04497208 -0.071009934 -0.012568375 0.043911844
0.06686188 0.0125063425 0.027589045 -0.027453654 -0.014270701 -0.07251973 0.0074108434 0.02634711

res_blocks.1.conv1.bias f4 [32]
00000000: 753a ac3d 53b6 c5bb 874a 9d3d e874 123d
00000010: 3c82 8ebd 7288 5bbd ddfa 4dbd 6a28 cfbc
00000020: a41c 8ebd fb8c f1ba 942a 4e3a 22b8 863d
00000030: f895 42bd 5fb0 443d a225 bf3c c321 36bc
00000040: df94 1c3d e3e4 9abd 2ed8 56bd dd13 82bc
00000050: 5343 903d 85ef 5e3d 7795 783d c9b1 adbc
00000060: c09e ef3c 2bba 453d 5273 f6bb 9d71 843d
00000070: 6a6e 3e3d c345 18bd 4a79 063d c226 a7bd
0.08409587 -0.0060336976 0.076802306 0.03575602 -0.06958434 -0.05359692 -0.05028807 -0.025287826
-0.069390565 -0.0018428856 0.0007864621 0.06578089 -0.047506303 0.048019763 0.023333374 -0.011116448
0.038227912 -0.07563188 -0.05245226 -0.015878612 0.07044091 0.054427642 0.060689416 -0.021202939
0.029250503 0.048273247 -0.0075210715 0.064669825 0.046492018 -0.037175905 0.032830514 -0.08161689

res_blocks.1.batchnorm1.weight f4 [32]
00000000: 42f2 823f 6f12 7b3f 2ac6 7b3f 0eac 853f
00000010: 839a 823f 86bc 783f 0d6f 763f 24cf 803f
00000020: be02 7b3f 75c5 7c3f 3294 823f 5d61 7c3f
00000030: 9039 7c3f 2ffc 7c3f 6ff4 7d3f 0e19 833f
00000040: 09c4 823f 6081 7e3f f490 823f 73e0 823f
00000050: b7ae 7a3f 591e 803f 9c83 7d3f efb2 813f
00000060: 807b 793f 95b2 7a3f d656 783f 15b7 813f
00000070: c274 813f 0302 823f d475 823f 36bb 7a3f
1.0230181 0.98075 0.9834925 1.0443132 1.0203403 0.97162664 0.962632 1.0063214
0.9805106 0.98738796 1.0201476 0.98586065 0.98525333 0.988223 0.992011 1.0242021
1.0216075 0.9941616 1.0200486 1.0224746 0.97922844 1.0009261 0.99028945 1.0132731
0.9745407 0.97928745 0.970075 1.0133997 1.0113757 1.0156864 1.0192208 0.9794191

res_blocks.1.batchnorm1.bias f4 [32]
00000000: 1e3d 99bc bacd d9b8 bf64 37bd 5bea 03bb
00000010: 4af8 a2ba b1a8 80bd 345b 79bd f4df 9cbb
00000020: 3859 e3bc 8afc 89bd 0753 903c d510 2f3c
00000030: f82b c8bb ae3d 863b ba19 56bd a44a d4ba
00000040: b93e adbc 3115 91bc 84f1 06bd 210b 9d3c
00000050: 99b0 28bd c279 94bc 74c4 753c a17d 3c3c
00000060: 7445 9cbc b3fe 2c3c 0a43 85bd d43d 19bd
00000070: c302 d438 8c77 0bbd 1494 253d 30ee 40bd
-0.0187059 -0.00010385686 -0.044773813 -0.00201287 -0.0012433615 -0.06282175 -0.060877994 -0.0047874395
-0.027752504 -0.06737621 0.017617716 0.010685165 -0.006108757 0.0040967083 -0.05227063 -0.0016196561
-0.021148073 -0.0177103 -0.03294517 0.019170346 -0.04118404 -0.018124465 0.015000451 0.011504562
-0.019076087 0.010558772 -0.06506927 -0.03741248 0.00010109462 -0.034049556 0.04042442 -0.047102153

res_blocks.1.batchnorm1.running_mean f4 [32]
00000000: d99b 12bf 1826 a4bf 8663 153f 24b0 a23f
00000010: a4a3 c9bf c2aa 0e3f 36c2 183e f30a 1cc0
00000020: 67bf 4b3f 103c e6bd 7c12 0bc0 96fb 0c40
00000030: 4c35 bfbf eae1 a3bc 024b 02bf 3123 2cbf
00000040: 2803 d2bf 7723 a0bf 5194 88be 3ac4 61bf
00000050: c7c5 fc3f 1c4f e23e ee01 e1bf 20da 99bf
00000060: 5d23 84bf 7825 063f 265e 663f 6512 653f
00000070: 361c a6bd 356d 52bf 0e4b e33c 8c08 79bf
-0.57269055 -1.2824125 0.58354986 1.2710004 -1.5753064 0.55729306 0.14917836 -2.4381683
0.7958893 -0.11241925 -2.1730032 2.2028556 -1.493814 -0.020005185 -0.508957 -0.672412
-1.6407213 -1.2510823 -0.26675656 -0.8819004 1.9747857 0.4420098 -1.7578714 -1.2019691
-1.0323292 0.5240092 0.8998741 0.8948119 -0.081108496 -0.82197887 0.02774575 -0.97278666

res_blocks.1.batchnorm1.running_var f4 [32]
00000000: edeb 143f 04fb 953e 6494 db3f 2443 a53e
00000010: 6ae7 393f 9cd2 693e bb00 bc3e 4567 173f
00000020: f1df 2c3f 1acd 9a3e 313a e53e e900 363f
00000030: f746 fd3e 4a0b 5f3e f231 123f ab9f 873e
00000040: 7a2b ab3e 77c6 c03e 0a11 b23e d533 7e3f
00000050: aa6b af3e 742a d53e bfae 953f 7b47 3440
00000060: 7354 303e 89b7 403e 49df 2d3f 43d5 443e
00000070: 8546 ac3e 1c4a 713e a7c4 843e ea04 ef3e
0.58172494 0.29293072 1.715466 0.32277787 0.72618735 0.22834247 0.36719307 0.5914195
0.6752921 0.30234605 0.4477096 0.7109514 0.49468204 0.2178165 0.5710746 0.26489004
0.33431607 0.37651417 0.34778625 0.9929784 0.3426183 0.41633952 1.1693953 2.8168628
0.17219715 0.18820013 0.6791883 0.19221978 0.33647552 0.23563427 0.25931284 0.46683437

res_blocks.1.conv2.weight f4 [32, 32, 3, 3]
00000000: e23d 553c 0f49 d93b d0bb 573a 4235 f43c
00000010: 87ab 1c3d 8c06 0cbd 44cb 13bc caa0 5d3d
00000020: 1ef7 363d 8a9a 953c 0eb7 dcbc 9577 ebbc
00000030: 2378 f23c ac17 d83c d915 cc3c b43c c8bc
00000040: f646 533c 0b3e 0d3d 99d5 48bd aef6 613d
00000050: e579 5fbc c42b ab3b 6f28 d9bc 0092 2a3d
00000060: 93d2 323d aa61 2f3d c5cb c4bb 2bea 453d
00000070: 6643 863c ec17 623d 321c e23c 30ff 9cbb
00000080: e8e8 a9bc 5961 31bc dcc2 5c3d 3125 833d
00000090: 27a2 803d 5b17 d23c fa06 9a3c a923 ba3c
000000a0: 5fca 223d 55e9 ebbc 81ec 22bd 5c6a 12bd
000000b0: d81a 853c 2e5a 243d 67a9 3c3b 953a 013d
000000c0: b682 163d 3d3b 13bc 2add e93b 6986 0c3d
000000d0: 5d7f bf3b 456c 34bd d584 8ebc 1119 e5bc
000000e0: 63ae 5abb d557 7f3c 39d7 183d ca48 1e3d
000000f0: 6bae 0fbd 2f00 043d 3a07 3b3d 2e88 3f3d
00000100: fb4e 0abc 2def 5a3d 4a5c 5a3d e8e4 02bd
00000110: af9b 26bd eee2 403d 6635 77bc 1f4c 75bc
00000120: 280c 5f3d ce5c 913d d31f 8abc a842 7fbc
00000130: a839 5b3d 303c f53c 1700 053d 9c0e 893c
00000140: b842 3a3d f154 52bc 1926 8dbb 47b3 97bd
00000150: 3700 2dbd 5f98 463d 0a7f 16bd d4c0 35bd
00000160: 483c 19bd e5c5 2bbc 55dd f7bc 615d 2dbb
00000170: f9af f2bc 001d 8c3c 45b0 96bd 17b6 943c
00000180: 9cb6 483c b59a 963c 30e7 99bc d8e1 1bbc
00000190: 35b7 103d 239b 36bd 77e0 17bd 7d33 57bc
000001a0: d38e 363d b708 c43b d133 5ebd 716a 5ebd
000001b0: e7e6 2b3d 5942 03bd 3d96 d0bc d6a0 913c
000001c0: 3d60 0cbd 763a 46bc 1d14 42bd 9715 4dbd
000001d0: 6114 f53b 7589 343c 16ea 623c d4b9 883d
000001e0: ecc7 c23c 3707 03bd 401a 3a3d d083 a2bc
000001f0: 2e66 36bc 6b7f 53bc 9847 803d 32df b33c
00000200: d673 213d 3ff0 503d 2802 b3bb 9bd5 183d
00000210: 03fd febc a6a1 9a3d de57 7a3c ec2b 353d
00000220: 875c d63c 70f7 893d 1ac5 733d 7b86 1a3d
00000230: 8c15 073d 8aba 2e3d 593c d83c 97b1 2c3d
00000240: 8799 fe3c 80e9 a63d d68d 56bc d9c3 8a3d
00000250: e22a 4d3c 398a 663d 346a 563d e476 553d
00000260: 74d4 443d 31cb 313d 24bb 213d 5080 353d
00000270: 2eb4 bf3d 6518 463d f01b 913d 3717 c33d
00000280: 6fea 983d 41ef f0bb 4a0e 53bd 55f3 d6bb
00000290: 5822 f6bc e5be 1dbc f03d d4bc de40 20bd
000002a0: 9948 c0bb bc7e 5ebc 8493 b43b 5710 12bc
000002b0: 725d 543d 0f3d 6dbd 9550 bbba 834d 9dbc
000002c0: 2ebe 68bd a006 95bc c772 123d 8ffe ef3c
000002d0: 4b0f c13c 0dc3 f5bb 6180 b33c 7476 b63c
000002e0: aa1c 4abb 1475 563c e985 39bd 67f3 49bc
000002f0: e2ff 07bd e48e 01bd b6b0 573d 3c73 313d
00000300: a579 7abb 77ad fcbc a68f 99bc 1727 88bc
00000310: 95f7 663d 5501 bdbc cd4f 1a3c 7de0 0d3d
00000320: 2a4d 57bc 16cf afbc 3e77 6d3a 70d7 923c
00000330: a7ec 1abd 05c9 49bd d2a0 c13c 4a29 7cbd
00000340: 2fff e6bc 6a87 093d c9de 79bd d101 a13c
00000350: f10b 433c ff63 4cbd e836 983c 638d 1bbc
00000360: e561 34bd 21b7 24bd 61ba 0e3d ace6 49bd
00000370: 85fd 53bc 5a50 ecbc dd83 b83c a53f 38b9
00000380: b58e 81bd b809 c8bc b4fb 753d 5413 473d
00000390: 9c52 753d 2843 823b b68e c4bc 8240 02bc
000003a0: f4c7 823d d598 0abd 8af5 2cbd d3a5 dc3c
000003b0: 5481 e03c 2a53 933c 72fa 96bc 7226 2a3c
000003c0: 97f8 e53c d12d 39bc 4cc8 bebb f0ff 533d
000003d0: bfe5 b43d c3a8 f73c 726e 9e3d 814d 8b3d
000003e0: f0b0 ea3c 75c0 ab3d 905a 603c 0ed2 b83d
000003f0: 8f75 253d f86d 423c bb53 493d 7171 e4bc
0.013015242 0.0066310237 0.00082295854 0.029810552 0.03824952 -0.03418593 -0.00902063 0.05410842
0.044669263 0.018262167 -0.026942756 -0.028743545 0.029598301 0.026378475 0.024912762 -0.024443008
0.012895336 0.034482997 -0.049031828 0.055166893 -0.013639902 0.005223723 -0.026508538 0.041643143
0.04365785 0.04281775 -0.0060057365 0.048319023 0.01638956 0.055198595 0.027601335 -0.004791163
-0.020740941 -0.010826432 0.05389677 0.06403578 0.06280928 0.025645902 0.018802155 0.022722082
0.039743777 -0.028797785 -0.03977633 -0.035745963 0.016248152 0.040125065 0.0028787495 0.03155001
0.03674575 -0.0089862915 0.0071369605 0.03430787 0.0058440403 -0.044048566 -0.017397324 -0.027966054
-0.0033368103 0.015584906 0.037314627 0.038643636 -0.035078447 0.032226738 0.04566119 0.04676073
-0.008441682 0.053450752 0.05331067 -0.031956583 -0.040675815 0.047091417 -0.015088415 -0.014971762
0.054454952 0.07097779 -0.016860878 -0.015579857 0.053521782 0.029935926 0.03247079 0.0167306
0.045473784 -0.012837634 -0.00430752 -0.07407241 -0.042236533 0.048485156 -0.036742248 -0.04437335
-0.037411004 -0.010484193 -0.030256907 -0.0026453363 -0.029624926 0.017103672 -0.073578395 0.018153233
0.012250569 0.018384317 -0.018786997 -0.009514295 0.03533097 -0.044581544 -0.0370793 -0.013134834
0.0445698 0.005982484 -0.054248635 -0.05430073 0.041968253 -0.032045696 -0.025462264 0.017776888
-0.034271467 -0.012098899 -0.047382463 -0.050069418 0.007479236 0.0110191 0.013849756 0.06676069
0.02377697 -0.031989302 0.04543519 -0.019838244 -0.01113276 -0.012908797 0.062636554 0.021957014
0.03941711 0.051010367 -0.0054629035 0.037313085 -0.031126505 0.07550363 0.015279738 0.04423134
0.026167167 0.06736648 0.059514143 0.037725907 0.032979533 0.042658366 0.026395964 0.04216155
0.031079067 0.08150005 -0.01309534 0.06775636 0.012522431 0.056284163 0.052347377 0.052115336
0.048054174 0.04340667 0.03948511 0.04431182 0.093605384 0.04836311 0.07085407 0.09525912
0.0746659 -0.00735274 -0.0515273 -0.006559769 -0.030045673 -0.009628032 -0.02590844 -0.039124362
-0.0058680293 -0.0135800205 0.0055107493 -0.008915029 0.05184693 -0.05791956 -0.0014290983 -0.019202
-0.056821994 -0.018191636 0.03575399 0.029296188 0.023566863 -0.0075000585 0.021911802 0.02227328
-0.003083984 0.013089437 -0.045293722 -0.012326098 -0.033203013 -0.03163041 0.05265876 0.043322787
-0.0038219478 -0.030844433 -0.018745255 -0.016620202 0.056388456 -0.023071924 0.00941844 0.034637917
-0.013140956 -0.021461051 0.0009058601 0.017924994 -0.037823346 -0.049263973 0.023636255 -0.061562814
-0.028197853 0.033576407 -0.06100348 0.019654186 0.0119047025 -0.04990005 0.018580869 -0.009494158
-0.044038672 -0.040213708 0.034845714 -0.04929225 -0.012938862 -0.028846908 0.022523815 -0.00017571317
-0.06326047 -0.024418697 0.060054496 0.048602417 0.059893236 0.003975291 -0.023993831 -0.00794995
0.06385794 -0.03383716 -0.04222635 0.02693454 0.027405418 0.017983992 -0.018429969 0.010385143
0.028072638 -0.011302427 -0.005822217 0.051757753 0.08832883 0.030231839 0.077359095 0.06801892
0.028648823 0.08386318 0.013693467 0.0902444 0.040395316 0.011867039 0.049152117 -0.027886124

res_blocks.1.conv2.bias f4 [32]
00000000: 8e1e 3cbd 6d58 273d 95a3 1d3d e7c2 08bd
00000010: 03d9 2f3d 90f2 503d 81da 573c 54f1 453d
00000020: 8a30 fbbc cf40 10bd a778 db3c 9584 16bd
00000030: 52a9 93bc ebd0 a0bc 821e 4fbd 20e6 b4bc
00000040: 9d24 563d be7f a9ba 72d5 423d fa5a 423c
00000050: a8bd e9bb 7586 0a3d cd75 02bd dbb3 9fbc
00000060: e53a 72bd f758 11bd a4ec 2e3d 5815 233d
00000070: fdf3 383d 411f 5fbd cdd4 923c 5f84 f4bb
-0.045927577 0.040855814 0.038486082 -0.033389 0.042931568 0.051012576 0.013174654 0.04832585
-0.030662794 -0.035218056 0.02679093 -0.036747534 -0.018025074 -0.01963087 -0.050566204 -0.022082388
0.05228101 -0.0012931747 0.04756684 0.011862511 -0.0071332045 0.033819634 -0.031850625 -0.019494941
-0.059138197 -0.035485234 0.042706147 0.039815277 0.04515456 -0.054473165 0.017923737 -0.007462069

res_blocks.1.batchnorm2.weight f4 [32]
00000000: 02e1 973f e98d 963f 11e4 9d3f b276 8d3f
00000010: 4109 933f 2b04 9d3f 73b7 9d3f 6311 9d3f
00000020: 7461 a83f 07ac 8e3f 1368 953f a7c8 973f
00000030: f0be 9a3f 9538 a23f 7891 993f 4ac8 aa3f
00000040: d59e a43f ddbe 9d3f 1f19 a03f c7ff 873f
00000050: e606 a53f d2c6 aa3f a324 a63f 841f 933f
00000060: 906c a43f 3b0c 9a3f 8682 9f3f c9b4 993f
00000070: ec96 ae3f 87be 923f 40c7 953f 96bc a23f
1.1865542 1.1762058 1.2335225 1.1051848 1.1487199 1.2266897 1.2321609 1.2270931
1.315474 1.1146249 1.1672386 1.1858109 1.208952 1.2673517 1.1997519 1.3342373
1.2860972 1.2323872 1.2507666 1.0624932 1.289273 1.3341925 1.2979931 1.1493993
1.2845631 1.2034982 1.2461708 1.2008296 1.3639808 1.1464394 1.1701431 1.2713802

res_blocks.1.batchnorm2.bias f4 [32]
00000000: 4800 953d 10aa 6b3d b013 f53d 5e25 cd3c
00000010: 4916 083d 0fdb 893d c395 9a3d 0c3c 353e
00000020: 0b6a 073e d8ce f8bc d956 723d 68f0 4d3d
00000030: 4f2a 073e 85bc cb3d c031 6d3d da9f 0c3e
00000040: 6670 263e 597f 553d 6dbc 1b3e 6414 9d3a
00000050: fbea 9c3d 67c2 4e3e 33b9 333e f96a bbbc
00000060: 9057 a33c 06e3 693d f916 013e 05ed 163e
00000070: ca5d 043e 4714 9c3d 22ae be3d ec83 e33d
0.07275444 0.05753523 0.11966646 0.025042232 0.033224378 0.06731235 0.07548096 0.17698687
0.13224046 -0.030372068 0.059164856 0.050278097 0.13199733 0.099480666 0.057908773 0.13732854
0.16253814 0.0521234 0.15208597 0.0011984226 0.076620065 0.20191346 0.17551117 -0.022878157
0.019939214 0.057101272 0.1260642 0.14738853 0.12926403 0.07621055 0.09310557 0.111091465

res_blocks.1.batchnorm2.running_mean f4 [32]
00000000: 1b83 253f 7ffe 1fbe bc86 10bf 9366 c1be
00000010: 0238 24bd 1b13 403f 324f 0ebf 8f6d ce3d
00000020: cacd cabe d159 423e e00e ecbc 08fd c03e
00000030: d1a6 243e a3b7 a83e 5288 5dbf 8bab 09bf
00000040: 2b5a 80bd b0c8 e5bd 07ae 273f c0da aabc
00000050: 4b07 76be b9f5 db3e e4c5 b9bc f65c 2bbf
00000060: 6f5c 303e 783e 623e e287 963e 4267 e8be
00000070: 3d35 733e 194d 7a3e 621c 683f f93c 3a3e
0.64653176 -0.15624426 -0.5645559 -0.3777357 -0.040092476 0.7502915 -0.5558959 0.100794904
-0.3961013 0.18979575 -0.028815687 0.37693048 0.1607926 0.32952604 -0.86536133 -0.5377738
-0.06267198 -0.11219919 0.6549992 -0.020856261 -0.2402622 0.4296091 -0.02267737 -0.6693872
0.1722276 0.22094142 0.29400545 -0.4539128 0.23750778 0.24443473 0.9066831 0.18187322

res_blocks.1.batchnorm2.running_var f4 [32]
00000000: 403a 8a3e a907 513e 592b 183e a9a8 043e
00000010: 5711 263e 415f 523e 23e8 133e 5feb d33e
00000020: a271 b63e 7ff5 113e 579f 003e dea3 2a3e
00000030: b189 9f3e 9b8c 053e f3d6 4f3e 4c65 6e3e
00000040: b06c 8e3e 33a4 c83d c62a 3c3e 72c9 e03d
00000050: 10b3 5a3e 019b 613e b7f8 163e d9fc 1f3e
00000060: 3683 6f3e 1f31 7d3e 8a7c 473e b8cc 7b3e
00000070: 83e8 633e 4407 3d3e abfb b13e 71e9 083e
0.26997566 0.20413078 0.14860286 0.12954964 0.16217552 0.20544149 0.14444022 0.4139051
0.3563357 0.14253806 0.12560783 0.16664073 0.31159738 0.13041918 0.2029684 0.23280829
0.27817297 0.097969435 0.18375692 0.10975923 0.2135737 0.22031786 0.14743315 0.15623797
0.23389897 0.2472577 0.19481102 0.24589813 0.22256665 0.18459803 0.3476232 0.13370301

res_blocks.1.residual_conv.weight f4 [32, 16, 1, 1]
00000000: aee7 c93c 32d3 373e 8015 853d e727 9f3c
00000010: 6752 adbd bd54 e83d da41 05be 0db5 913d
00000020: abc0 76be 37aa 57be 88c8 f53d 85e0 2fbe
00000030: 664a a83d ae09 69be bcf1 723d 3883 963c
00000040: c85b 2e3e 384c 51be caac 1ebe f3b1 843e
00000050: a9dc c53d 2970 53bc 45d5 03bd 7753 96be
00000060: 4cc1 edbd a397 463e 02ef 203e 329d 973e
00000070: 8bdc 023e 89b5 8cbe 2880 b1bd 98e2 953d
00000080: 4908 10bc de2a 903e 8519 49be 68b8 aabd
00000090: 3103 0c3e b5b5 10be e08c 693d b1a4 223e
000000a0: bfe5 3ebe 1aaa 6bbe 06c5 e6bd e830 2cbe
000000b0: 5805 80bd a402 9abd 16e9 113d 172d 943d
000000c0: e048 60be c0c7 073e 04d2 433e 38fc 6b3e
000000d0: d70f 123e 9cd7 96be b9a2 773e 37ef 26bd
000000e0: d229 8abe bd37 323d a03c a4bd 9a2c 82be
000000f0: d589 c4bd 59cd 4ebc a384 383e 4388 143e
00000100: ab16 9ebd 38a9 0e3e 8280 33be ad6e 183e
00000110: 4257 8e3e 3eb9 f73c f4f5 2ebe 40c2 243e
00000120: 9ab7 81bd f6d0 25bd 8691 813e e361 87bd
00000130: af51 913d 0ec0 1f3e e07f 893d 03d7 083e
00000140: 8bab dfbd 8061 07be 4d6b 333d b2fb 773d
00000150: c531 6a3e 00b6 acbc 2776 f0bd f3a4 fbbc
00000160: 8a9b 6e3e f4fb 1b3e d086 803e 27b1 7fbd
00000170: 56cf 293e 4668 f4bd e492 103e 1a32 5bbe
00000180: f779 9cbe 5f40 d1bd 6177 51be 8a6f 9a3c
00000190: ab9f 2a3d 559e 5b3e 81b8 0abe 7bcc af3d
000001a0: 9253 efbc 5bdd 9abe fd7e 2ebe 8150 1d3e
000001b0: 5187 c73d f217 95bd 875e a63d 3230 7cbe
000001c0: ba43 3dbe 27ed 893d ec37 7abe fb20 94bc
000001d0: 718a 74be f74e 8cbe dabb f73d bdbe b73e
000001e0: 38bc 64be 11c0 41be d029 eb3d 81af 0fbe
000001f0: 2763 33bd fd87 513e c02c e9bd f907 893e
00000200: b797 7c3e 7bd2 2c3e 4e5d 8abe c29f 4abc
00000210: 17af 673e e35e 6e3e cf7a 343e fbcf 48bc
00000220: 2b89 9abd 7c22 f6bd 8b9a b83e 1ada 85bd
00000230: a6f5 763e 36e7 eabd 6373 0cbe 9f99 83be
00000240: 94e5 c43d 1f65 bf3b 2a7e 2cbc 02d4 80be
00000250: f5e7 40be 1bae aabd c8fd 92bd 4b84 f4bc
00000260: eca7 bdbd 7a1a 2dbe 5f6e 37be 669d 6fbe
00000270: c53c 43bc 8093 d138 71b4 aabd 39bf 14be
00000280: 6a00 4c3e 10e2 0c3d 66dc 5a3e 923f 1b3e
00000290: 9e24 243e c7dd 4d3d 0418 6f3c 43c2 b03c
000002a0: b641 17bc 150b 19be 9f32 fabd 3a6a e73d
000002b0: 7357 ca3d d770 603e f9da 423c 26f9 133e
000002c0: 73cd 6fbe e7f5 3b3d 7a0b 02be 580c 9cbd
000002d0: d76a 023e 53a4 3f3e f9e4 0bbe e410 a8be
000002e0: 43ec a3be 1b2f 3dbd bd48 b13d 12a7 ecbd
000002f0: 150e 333d 891a 99be c3a1 9cbe 5e71 0dbe
00000300: 58ef b5be acbe 49be f108 643e e20c 583e
00000310: 3b19 2ebe 4bae a2be fbf7 913e fbaf cabd
00000320: 00c2 05be b9c3 a6be e23f ccbd 2fd8 e23d
00000330: de75 44be 6cd1 013d c282 613d ff1f b1bd
00000340: be43 8e3e cc24 8f3d 57ee 223e 3ac1 633d
00000350: b2ce b8bd bba6 843e 22fe 413d d2f6 29be
00000360: 1405 58be 74a8 1d39 bd03 773d 3814 923e
00000370: a4a5 533e 1fea 8f3d 93bd 723d 277c 74be
00000380: e604 febc 37e6 033d 20f6 26be 41aa 913d
00000390: f13a 163e 38f0 19be 082b 7a3e 3f6a c03d
000003a0: a2fe 4dbe 8e14 25bd f5d7 f8bd af94 48be
000003b0: 0745 9abe fba0 983d a8e8 053d 2518 d03d
000003c0: eb32 62be 9e73 31be e1c9 fa3d 1ee3 0d3c
000003d0: af83 233e 97d6 b53c 8ad2 743d c886 233c
000003e0: 6a4a d1bd 0c19 58bd fb7b eebd 794a 6a3e
000003f0: 9d3c 883e 877d 953e 9094 5cbe aa49 29be
0.024646606 0.17951658 0.064982414 0.019428207 -0.084629826 0.113442875 -0.13013402 0.07114611
-0.24096934 -0.21061026 0.12001139 -0.17175491 0.082173154 -0.22757599 0.059312567 0.018373117
0.170272 -0.20439231 -0.15495601 0.25917014 0.09661228 -0.012905159 -0.03218581 -0.29360554
-0.11609134 0.19393782 0.15716174 0.29612118 0.12779443 -0.2748225 -0.08667022 0.0731861
-0.008791038 0.28157705 -0.19638641 -0.08335954 0.13673092 -0.14131816 0.057019114 0.15883137
-0.18642329 -0.23014107 -0.11268048 -0.16815531 -0.06251019 -0.07520035 0.03562268 0.07235163
-0.219028 0.13259792 0.19123083 0.23045433 0.14263855 -0.29461372 0.24183168 -0.040755477
-0.2698503 0.043510187 -0.08019376 -0.25424653 -0.09596602 -0.012622201 0.18019347 0.14505105
-0.07719167 0.1393174 -0.1752949 0.1488597 0.27800947 0.030239698 -0.17086011 0.16089725
-0.06333847 -0.040482484 0.25306338 -0.06610467 0.07095658 0.15600607 0.06713843 0.1336327
-0.10921391 -0.13220787 0.043803502 0.06054277 0.22870548 -0.021082878 -0.11741286 -0.030718302
0.23301521 0.15232831 0.25102854 -0.062424805 0.16582999 -0.11933951 0.14118534 -0.21405831
-0.30561802 -0.10217356 -0.20455696 0.018852014 0.041656177 0.21447118 -0.13546945 0.085839234
-0.029214654 -0.30247006 -0.1704063 0.15362741 0.097426064 -0.07279958 0.081234984 -0.2462776
-0.18482867 0.06734686 -0.24435395 -0.018082133 -0.23880936 -0.27403995 0.12096377 0.3588771
-0.22337425 -0.18920924 0.114825845 -0.14031793 -0.04379573 0.20462032 -0.113854885 0.26763895
0.2466725 0.16877167 -0.2702431 -0.012367191 0.22625385 0.23278384 0.17624973 -0.012256618
-0.07545694 -0.12018296 0.36055407 -0.0653574 0.24117145 -0.11469881 -0.13715892 -0.2570314
0.09614101 0.005840912 -0.010528127 -0.2516175 -0.18838485 -0.08333989 -0.07177311 -0.029848238
-0.09260544 -0.16904631 -0.17913197 -0.23399886 -0.011916344 9.9933706e-05 -0.08335198 -0.1452607
0.19922033 0.034395278 0.21373138 0.15160969 0.16029593 0.05026033 0.014593128 0.021577006
-0.009231975 -0.14945634 -0.122166865 0.11299558 0.09879961 0.21918045 0.011893027 0.14450511
-0.23418216 0.045888808 -0.1269969 -0.07619542 0.12736069 0.18715028 -0.13661565 -0.32825387
-0.3201619 -0.0461875 0.08656452 -0.11555304 0.0437146 -0.29903057 -0.30592164 -0.13812777
-0.35534167 -0.19701642 0.22269036 0.21098664 -0.17001812 -0.317736 0.28509507 -0.09896847
-0.13062286 -0.325712 -0.09973122 0.1107639 -0.19185588 0.03169386 0.05505634 -0.08648681
0.27786058 0.0698944 0.15911232 0.055604197 -0.09023799 0.25908455 0.0473615 -0.1659806
-0.21095687 0.0001503544 0.0603063 0.2853105 0.20668656 0.07027077 0.059262823 -0.23875485
-0.031008195 0.03220197 -0.16304827 0.071125515 0.14670922 -0.15033042 0.24430478 0.09395265
-0.20116666 -0.040302806 -0.121505655 -0.19587968 -0.3013079 0.074525796 0.03269258 0.10160855
-0.22089736 -0.1732926 0.122455366 0.008660106 0.15968202 0.022197051 0.0597711 0.009980865
-0.102192715 -0.05275826 -0.11644741 0.22879972 0.26608744 0.29197332 -0.21541047 -0.16532007

res_blocks.1.residual_conv.bias f4 [32]
00000000: ea4e 9ebd f8ea 543c 2ec1 4d3e 4e6b 7abe
00000010: cac9 853c b832 4c3e 6799 04be 0ca1 2fbd
00000020: 6371 38be 2605 6a3e d004 2f3d a983 0c3e
00000030: 2621 a3bd 86f2 8abe 3909 233e f09f 1a3e
00000040: 683e 26be 4605 3fbd 1b9b d03d 1a2d 653d
00000050: a025 17be 7556 523e 5bc0 35be 61ae 683e
00000060: 9dcb 8dbe cd66 003e a45b 0d3e 91f0 3e3e
00000070: b30f fabd de9c a3bd 80df 963d 6f18 41be
-0.077298954 0.012995474 0.20093223 -0.24454996 0.016331572 0.19941223 -0.12949143 -0.042878196
-0.18012004 0.22853526 0.0427292 0.137221 -0.07965307 -0.27138156 0.15921487 0.15100074
-0.16234744 -0.04663589 0.10185834 0.055951215 -0.14760447 0.20540793 -0.17749159 0.2272277
-0.27694407 0.12539215 0.1380449 0.18646456 -0.12210026 -0.079889044 0.07366848 -0.18856977
